results/shooter3/Shooter/Shooter-499666.onnx (onnx, 201499 bytes, 9 tensors)

network_body._body_endoder.seq_layers.0.weight f4 [128, 120]
0	0x3d28908a	0.04115347
1	0xbd99da5b	-0.07512351
2	0x3d8c8a45	0.0686231
3	0xbdbfdb9e	-0.093680605
4	0x3d8a4c74	0.067528635
5	0xbce703e0	-0.02820009
6	0x3e0c32f7	0.13691317
7	0x3beed32f	0.0072883586
8	0xbb033538	-0.0020020735
9	0x3dbb1564	0.09134939
10	0x3d18948d	0.037251044
11	0x3d595c20	0.053066373
12	0x3df129b5	0.11775533
13	0x3de01e43	0.10943272
14	0xbe118e49	-0.14214434
15	0xbe1c476d	-0.15261622
16	0x3e737552	0.23775223
17	0x3c6bb31e	0.014385967
18	0x3dbb6fe8	0.09152204
19	0x3d810613	0.06299987
20	0x3dcb7428	0.099342644
21	0x3dc20388	0.0947333
22	0x3db88966	0.09010582
23	0x3c43101c	0.011905696
24	0x3e2cac11	0.16862513
25	0xbe0335e5	-0.12813528
26	0xbdc7d653	-0.09757676
27	0xbc8a8fd3	-0.016914284
28	0x3d786f0e	0.060652785
29	0xbd42ce9a	-0.04756031
30	0x3d929744	0.07157758
31	0xbb99134f	-0.004671491
32	0xbdd8d3a7	-0.105872445
33	0xbd23fc27	-0.040035393
34	0xbcacd36c	-0.021096908
35	0xbbd31625	-0.006441849
36	0x3bf681f6	0.007522817
37	0xbcf6acc5	-0.03011168
38	0x3e0fa7a0	0.14028788
39	0xbe415706	-0.18880853
40	0xbdc93e2d	-0.09826312
41	0xbd019c26	-0.031643055
42	0xbd0d4c63	-0.034496676
43	0x3dc28b51	0.09499229
44	0xbc5db755	-0.013532479
45	0xbdffa702	-0.12483026
46	0x3d4bede7	0.04978743
47	0x3cf51520	0.0299173
48	0x3e040634	0.12892991
49	0xbcc2f853	-0.02380005
50	0xbda7fc31	-0.082023986
51	0xbe6eff70	-0.23339629
52	0x3d8979e9	0.06712706
53	0x3e2d6fb4	0.16937143
54	0x3e279bcc	0.16368026
55	0xbce3e7bb	-0.027820459
56	0x3d2039c0	0.039117575
57	0x3d95be6c	0.07311711
58	0x3d5e9655	0.054342587
59	0x3e0499c4	0.12949282
60	0x3d9f4632	0.077770606
61	0x3c2e701d	0.010646847
62	0xbc49ae4f	-0.012309625
63	0x3e11ad6e	0.14226314
64	0x3d97227a	0.07379623
65	0xbd682f7f	-0.05668592
66	0xbc8003b0	-0.015626758
67	0x3d0ded38	0.034650058
68	0x3df98c53	0.12184968
69	0xbd03b79c	-0.032157525
70	0x3ce93feb	0.028472861
71	0xbbaec4dc	-0.005333526
72	0x3cb7a21e	0.02241617
73	0x3c5535ed	0.013013345
74	0x3d05198a	0.03249506
75	0x3e33ba2b	0.17551486
76	0x3e018231	0.1264732
77	0x3d303b05	0.043025035
78	0xbc865399	-0.016397284
79	0xbe22bc3c	-0.15892118
80	0xbe253561	-0.16133644
81	0xbd2f9b93	-0.042872977
82	0xbd1c809f	-0.0382086
83	0xbc183501	-0.009289981
84	0xbd27f0f3	-0.04100127
85	0xbbcca7e0	-0.006245598
86	0x3e0effd9	0.13964786
87	0x3d485de9	0.048917685
88	0xbd185201	-0.03718758
89	0xbd6144cd	-0.054997254
90	0xbdd56b70	-0.10420883
91	0x3db62844	0.08894399
92	0xbd8ec2fe	-0.069707856
93	0xbd732c36	-0.059368335
94	0x3ca6f3d9	0.020379947
95	0x3c800fa6	0.015632462
96	0xbde81627	-0.1133235
97	0xbe029d78	-0.12755382
98	0x3dbafa6c	0.091297954
99	0xbde4f814	-0.1118013
100	0x3d1b2a66	0.03788223
101	0xbba2f86b	-0.0049734614
102	0xbcb5c8fb	-0.022190562
103	0x3df5136a	0.119665936
104	0xbdb9b6ce	-0.0906807
105	0x3da3013d	0.079592206
106	0xbdad7729	-0.084699936
107	0xbc1bd893	-0.009512085
108	0x3e208308	0.15674984
109	0x3e13dbda	0.14439335
110	0x3d2e3c15	0.042537767
111	0xbe5e4324	-0.217053
112	0xbe39f1f1	-0.181587
113	0xbd3ecb9b	-0.046580892
114	0x3ddd430f	0.10803806
115	0xbe09a869	-0.1344315
116	0xbc1da74a	-0.009622404
117	0x3de92525	0.11384038
118	0xbdeb6780	-0.114943504
119	0x3c19c908	0.0093863085
120	0x3cc813ac	0.024423443
121	0xbc8f1720	-0.017467082
122	0x3d3a112d	0.045426536
123	0xbc3a6502	-0.011376621
124	0xbcbeee45	-0.023306975
125	0x3d994559	0.0748393
126	0x3d975242	0.07388736
127	0xbe4b0e07	-0.1982957
128	0x3d93a59d	0.072093226
129	0xbe2dee43	-0.16985421
130	0xbdc1ee03	-0.09469225
131	0xbd9358d7	-0.07194679
132	0x3d0ce0bf	0.034394022
133	0x3a7dcb2e	0.000968146
134	0x3d03a522	0.032139905
135	0x3df801e8	0.121097386
136	0x3cb20a00	0.021733284
137	0x3d0a9a77	0.033838715
138	0x3e1cef71	0.15325715
139	0x3dca8159	0.09887952
140	0xbe4616a4	-0.19344574
141	0x3dcc6abc	0.099812955
142	0x3cc1e229	0.023667412
143	0x3c0161e7	0.007896877
144	0x3e44cdb1	0.1921909
145	0xbd8a92bd	-0.06766269
146	0x3d433a62	0.0476631
147	0x3bc1b2a7	0.0059111896
148	0xbd5a6041	-0.05331445
149	0x3dc44ba2	0.09584738
150	0x3ccf18fd	0.02528047
151	0xbd3bad03	-0.045819294
152	0xbdb9e291	-0.09076417
153	0x3b9a55d1	0.004709937
154	0xbdef3a69	-0.11681063
155	0x3cc4aff6	0.024009686
156	0xbce761b0	-0.028244823
157	0xbc8d00e8	-0.017212346
158	0x3d8e020a	0.06933983
159	0xbd94b458	-0.0726096
160	0x3ddbd3ec	0.1073378
161	0x3e10f693	0.1415656
162	0x3c83c96d	0.016087258
163	0x3d902cb3	0.07039776
164	0x3e3f5477	0.18684565
165	0x3d690ef0	0.05689901
166	0xbc911646	-0.017710816
167	0xbd339b9f	-0.043849584
168	0xbd93977f	-0.0720663
169	0xbdb1f606	-0.08689503
170	0xbdbec594	-0.09315029
171	0xbc905d21	-0.017622532
172	0xbda53659	-0.080670066
173	0x3b639331	0.0034725184
174	0x3dbb60ea	0.09149344
175	0xbce04473	-0.02737639
176	0x3d59c29f	0.05316412
177	0x3dd0e56b	0.10200008
178	0xbd6e7e75	-0.058226068
179	0xbd33612c	-0.043793842
180	0x3d2c6ead	0.042097736
181	0xbd33bfa6	-0.043883942
182	0x3e3f2053	0.18664674
183	0x3e0b2209	0.13587202
184	0x3c84666e	0.016162124
185	0x3e480954	0.19534808
186	0xbe37d0b4	-0.17950708
187	0xbe2ce36c	-0.1688363
188	0xbceb37f8	-0.028713211
189	0x3d8b3156	0.067965195
190	0xbdadf8c7	-0.08494716
191	0xbdf6d897	-0.1205303
192	0xbd96b59c	-0.07358858
193	0x3e0d4465	0.13795622
194	0x3dac8cfb	0.084253274
195	0xbb8fc181	-0.004387081
196	0x3de758c3	0.11296227
197	0x3da328b2	0.079667464
198	0xbd8eb392	-0.06967844
199	0x3dd2c68f	0.10291778
200	0xbd9fc1e5	-0.07800654
201	0xbd24dac4	-0.040247694
202	0xbcdf1ecd	-0.027236367
203	0xbd3f83c9	-0.04675654
204	0xbc59e974	-0.0133002885
205	0x3d90c9fc	0.070697755
206	0x3ccb53b0	0.024820179
207	0x3d144355	0.036197025
208	0xbdca6353	-0.09882226
209	0xbdbe9dda	-0.093074515
210	0x3cad712f	0.021172134
211	0x3d02716c	0.03184645
212	0x3cd174b6	0.025568347
213	0x3c5a0849	0.013307639
214	0x3d9f3623	0.07773998
215	0xbc01b7c5	-0.007917349
216	0x3cce39ec	0.025174104
217	0x3b6bc735	0.003597689
218	0x3b4dfbae	0.003143053
219	0xbe6af469	-0.22944798
220	0x3d391628	0.045187145
221	0x3ca460ec	0.020065747
222	0xbd6b8d03	-0.057507526
223	0x3e2e8de8	0.1704632
224	0xbbff299a	-0.0077869417
225	0x3c29f149	0.010372468
226	0x3d061ae2	0.03274048
227	0x3c928d69	0.017889695
228	0x3e0b643b	0.13612454
229	0xbe3cb385	-0.18427856
230	0x3ce223a5	0.027604887
231	0xbccbe545	-0.024889598
232	0xbe8b521a	-0.27211076
233	0x3ddb104d	0.106964685
234	0xbe0b66c3	-0.13613419
235	0xbd45bbb3	-0.048274707
236	0xbc5ccf1d	-0.013477114
237	0x3c89edbb	0.016836992
238	0xbe4b7a30	-0.1987083
239	0x3dd56fa7	0.104216866
240	0x3e28c2ca	0.16480556
241	0xbdd89a40	-0.10576296
242	0x3d3852b6	0.045000754
243	0x3d75b602	0.05998803
244	0xbe0ac3d1	-0.1355126
245	0x3dc2e7b7	0.09516852
246	0x3d498957	0.049203243
247	0x3dac3241	0.08408023
248	0xbdd2818c	-0.10278615
249	0xbe40bfab	-0.18823116
250	0xbd8fc783	-0.07020476
251	0x3d4cdb4e	0.050013833
252	0xbd8a0562	-0.06739308
253	0x3d570516	0.052495085
254	0xbc0a9130	-0.008457467
255	0x3decbe1c	0.11559698

network_body._body_endoder.seq_layers.0.bias f4 [128]
0	0x3aa18205	0.0012322074
1	0x3bfbf62d	0.0076892585
2	0x3ab15b8b	0.001353131
3	0x3c47c1bf	0.012192189
4	0x3bf90ee9	0.0076006544
5	0xbb873c60	-0.0041270703
6	0x3a4b618e	0.0007758372
7	0x3b5906ac	0.003311555
8	0x3bec83bc	0.0072178524
9	0x3a978d7e	0.0011562554
10	0xbb7cd567	-0.0038579346
11	0xb94d1b90	-0.00019560591
12	0x3c1faadf	0.009745329
13	0x3b867277	0.0041030007
14	0x3b4b0d24	0.0030983174
15	0x3ca3a46c	0.019975863
16	0x3b1126e7	0.0022148432
17	0xbb55f095	-0.0032644619
18	0x3b1f2334	0.0024282457
19	0x3bab316b	0.005224397
20	0xbc1a1c99	-0.009406232
21	0x3afd46ce	0.001932347
22	0x3bbf0abe	0.005830138
23	0x3b2adec5	0.0026072722
24	0x3ae74f94	0.0017647617
25	0xbbcc784c	-0.0062399264
26	0x3ab4f3fc	0.0013805623
27	0x3b1b3099	0.002368009
28	0xbc543777	-0.012952677
29	0x3c0ff8fa	0.008787388
30	0xbbf003b3	-0.0073246597
31	0x3bddb337	0.006765749
32	0xbaa1e5ca	-0.0012351808
33	0x3c2fe064	0.010734651
34	0x3c39da6c	0.01134358
35	0xbba198ec	-0.00493156
36	0xbb505379	-0.0031788035
37	0xbb84a617	-0.0040481198
38	0x3b081a48	0.0020767618
39	0x3bc665ae	0.0060546016
40	0x3baccef2	0.0052736932
41	0xba9f9a4a	-0.0012176719
42	0xbb941979	-0.004519638
43	0x3bcd5bfc	0.006267069
44	0xbb95b4ed	-0.004568687
45	0x39e7af27	0.00044190252
46	0x3b59ab3d	0.0033213638
47	0xba3f95b1	-0.00073083775
48	0xbc6ade4a	-0.014335224
49	0x3b31a065	0.002710366
50	0xba90e14e	-0.0011053474
51	0xbc03f4a7	-0.008053935
52	0x3ad5ea6e	0.0016320476
53	0x3c077db3	0.008269715
54	0x3a637f0c	0.0008678294
55	0x3b91d9b6	0.004451002
56	0x3b0dfa61	0.002166413
57	0x3ba06d27	0.0048958245
58	0x3b983672	0.0046451623
59	0x3bd3e7d6	0.006466846
60	0xbb8df994	-0.0043327305
61	0x3c97fa14	0.018551864
62	0x3a2a760b	0.0006502575
63	0x3a4dbceb	0.00078482804
64	0x3bb06b66	0.0053838966
65	0x3a22ad74	0.0006205656
66	0x38a543b3	7.880423e-05
67	0x39afcaae	0.0003352961
68	0xbc2f2189	-0.010689148
69	0xb9ac921a	-0.0003291525
70	0x3b8eac36	0.0043540252
71	0x3b12d63e	0.002240553
72	0x3b30cef4	0.0026978822
73	0x3bc1f7e0	0.0059194416
74	0x3c0ae4ea	0.008477429
75	0x3be735e0	0.007055983
76	0xba145d93	-0.00056596956
77	0x3c190eb7	0.009341887
78	0x3c282aa0	0.010264069
79	0x3c167400	0.00918293
80	0x3ba68743	0.0050820424
81	0x3c68a498	0.014199398
82	0xbbd2e73b	-0.006436256
83	0x3a837c8e	0.0010031627
84	0x3c663273	0.014050114
85	0x3b0030ce	0.001956034
86	0xbc1198f5	-0.008886565
87	0xbc2d8ea7	-0.010593093
88	0x3b37bd5f	0.0028036458
89	0xba94958c	-0.0011336072
90	0x3bfc3fff	0.0076980586
91	0x3bcf1e9c	0.0063207876
92	0xbbf88f36	-0.0075854314
93	0x3bbd6a64	0.005780505
94	0xbb17268e	-0.0023063752
95	0x3bd9bea5	0.006645041
96	0x3c344d9c	0.011004832
97	0x3acace93	0.0015472941
98	0x3b8c0ca4	0.004273968
99	0xbb09334f	-0.0020935123
100	0x3aae2cf2	0.0013288541
101	0x3a5163d0	0.00079875905
102	0x3c0fdcd3	0.008780676
103	0x3c14cc50	0.009081915
104	0xbb06582d	-0.0020499334
105	0x3c4609fb	0.0120873405
106	0x3be6e22f	0.007046006
107	0x3b9fba0a	0.0048744725
108	0xba7acc6f	-0.0009567206
109	0x3af62689	0.0018779795
110	0x3a42c453	0.0007429767
111	0x3b130479	0.0022433086
112	0x3c9b7ccc	0.018980406
113	0x3c392ca0	0.011302143
114	0x3bff603d	0.007793455
115	0x3bfd679b	0.007733298
116	0x3b1c9472	0.0023892191
117	0x3bd4e348	0.0064968206
118	0xbb0207f4	-0.0019841166
119	0x3bee1eca	0.007266854
120	0x3adaf3f9	0.001670479
121	0xb9d62de3	-0.0004085145
122	0x3c140d5e	0.00903639
123	0x3b4c3a64	0.0031162733
124	0xbc0c2adf	-0.008555143
125	0x3c173ba5	0.009230529
126	0xbb8a8a88	-0.00422794
127	0x3be7828c	0.007065123

network_body._body_endoder.seq_layers.2.weight f4 [128, 128]
0	0xbda59582	-0.08085157
1	0xbc6f9f70	-0.014625415
2	0x3e0b8c7b	0.13627808
3	0x3daa1ce9	0.083062954
4	0x3d9b1751	0.075728066
5	0x3cfc9a93	0.030835425
6	0xbdb040b8	-0.08606094
7	0xbc420d9f	-0.011844068
8	0x3e1e25cb	0.15444104
9	0x3c4574ed	0.012051803
10	0xbcbda988	-0.023152128
11	0xbd44dbed	-0.0480613
12	0x3d1d18a0	0.038353562
13	0xbe25bd3e	-0.16185471
14	0xbabbfa27	-0.0014341519
15	0xbcbbed75	-0.022940377
16	0x3bd3a915	0.006459365
17	0xbd879ca0	-0.06621671
18	0x3dbe074c	0.092787355
19	0xbdb77753	-0.08958306
20	0x3d990162	0.07470967
21	0xbd9c9e86	-0.076474234
22	0x3c92a2f3	0.017899966
23	0x3d8a1ff6	0.06744377
24	0xbdee7c28	-0.11644775
25	0xbe343759	-0.17599238
26	0xbda6369e	-0.08115886
27	0x3df9d997	0.12199705
28	0xbbb651c5	-0.005563947
29	0xbe083c03	-0.13304143
30	0x3d01aea2	0.031660683
31	0xbdfd1440	-0.12357378
32	0xbd9c2c93	-0.07625689
33	0xbcf9c39d	-0.030488783
34	0x3c968488	0.018373743
35	0x3b9229b5	0.0044605383
36	0xbd56b609	-0.052419696
37	0x3dfa8ee4	0.122342855
38	0xbcff57eb	-0.031169852
39	0xbe0b64ab	-0.1361262
40	0x3d9e7ab1	0.07738245
41	0x3b93bdba	0.004508701
42	0xbd9ffce1	-0.07811905
43	0xbc8f2807	-0.017475141
44	0x3e0ee1d6	0.13953337
45	0xbd47c4d7	-0.048771705
46	0x3dda6610	0.10663998
47	0x3dce18a1	0.10063291
48	0xbb0728a1	-0.0020623582
49	0x3e2e8dc0	0.17046261
50	0x3db7611a	0.089540675
51	0xbe4b8478	-0.19874752
52	0xbd7c2bd8	-0.06156525
53	0xbe0b11d5	-0.13581021
54	0x3ddeb250	0.10873854
55	0xbdb8a214	-0.09015289
56	0x3d4af281	0.049547676
57	0xbd43a299	-0.047762487
58	0x3dee1e37	0.11626857
59	0x3ca96a79	0.020680653
60	0xbd37d85b	-0.044884067
61	0xbe06132f	-0.13093255
62	0x3d82aad3	0.063802384
63	0xbccab309	-0.024743574
64	0xbc6888d8	-0.014192782
65	0x3d0e8138	0.0347912
66	0x3cadfc00	0.021238327
67	0xbce132fb	-0.02749013
68	0x3d0c01e3	0.034181487
69	0x3e284210	0.16431451
70	0xbe06bfe6	-0.13159141
71	0x3c9cdae0	0.019147336
72	0xbdaa1a6c	-0.08305821
73	0xbcc2c8f4	-0.023777463
74	0x3c95ec0a	0.018301029
75	0xbd76dc6e	-0.060268812
76	0x3db5f28c	0.08884153
77	0x3dd3fae2	0.103505865
78	0xbd4ea6bf	-0.05045199
79	0x3de3e24a	0.111271456
80	0x3d84792e	0.06468426
81	0xbcb2ca8c	-0.021825098
82	0x3c784e12	0.015155332
83	0x3dfa0014	0.12207046
84	0xbd944840	-0.07240343
85	0x3d794e95	0.060865957
86	0x3c8c0e9b	0.017096808
87	0x3ddabdb3	0.106807135
88	0x3d83c6d1	0.064344056
89	0x3c459d83	0.0120614795
90	0xbd8f8ad2	-0.070089
91	0xbd81c89f	-0.063370936
92	0xbda3d83d	-0.080002286
93	0x3dd32873	0.103104495
94	0x3d56168a	0.05226759
95	0x3cae2717	0.021258874
96	0xbd655cd1	-0.05599672
97	0x3d86cd3b	0.06582113
98	0xbd5fa5ab	-0.054601353
99	0xbd422f7a	-0.04740856
100	0xbd9ce22e	-0.07660328
101	0xbcef34bd	-0.029199952
102	0xbd085b8f	-0.033290442
103	0x3dc4833f	0.09595346
104	0xbd280bd9	-0.041026924
105	0x3dafaf6d	0.08578382
106	0xbc9ab814	-0.018886603
107	0xbd181b44	-0.037135378
108	0xbb859c46	-0.004077467
109	0x3d8d0cd4	0.068872124
110	0x3a6d3443	0.000904862
111	0x3d80fd04	0.06298259
112	0xbdb7ca37	-0.08974116
113	0x3db5ca96	0.08876531
114	0x3d9a9841	0.075485714
115	0x3d4926af	0.049109157
116	0xbc8e91ca	-0.017403502
117	0x3d361149	0.04445008
118	0xbd5698f3	-0.052391957
119	0xbcab158d	-0.0208843
120	0x3d2f73ba	0.042834975
121	0xbc8dfe66	-0.01733322
122	0xbe3da846	-0.18521222
123	0xbda6573b	-0.08122107
124	0x3dce56d5	0.10075156
125	0x3e0e9923	0.13925605
126	0x3c48ed56	0.012263617
127	0xbdb5bbd0	-0.08873713
128	0x3daa158a	0.083048895
129	0xbc7b82c9	-0.015351006
130	0x3db40ca3	0.08791473
131	0xbd774428	-0.060367733
132	0xbda1f36a	-0.07907756
133	0xbe371ca7	-0.17882024
134	0xbd1e791d	-0.03868972
135	0x3d4f427c	0.050600514
136	0x3dca9bdc	0.09893009
137	0xbe040b7d	-0.12895007
138	0xbe60d6ce	-0.21956941
139	0xbbd4c851	-0.006493606
140	0x3d08a790	0.033362925
141	0x3da74ccf	0.08168947
142	0x3c48c650	0.012254313
143	0xbcf82e09	-0.030295389
144	0x3d1f82c3	0.038943063
145	0x3d8645e8	0.06556302
146	0xbe42671e	-0.18984649
147	0x3c84cc3e	0.016210672
148	0xbd6cb622	-0.057790883
149	0xbd79e652	-0.061010666
150	0xbd84b4cf	-0.06479799
151	0x3e00f241	0.12592413
152	0x3d813599	0.06309051
153	0xbda7275f	-0.08161806
154	0x3cd8802b	0.026428303
155	0x3d9edb29	0.07756645
156	0xbdb32387	-0.08747011
157	0xbdae8ed1	-0.08523334
158	0xbbdaaa0c	-0.006673103
159	0xbe026f92	-0.12737873
160	0xbd737b6d	-0.05944388
161	0x3cd4b032	0.025962923
162	0xbd8fb7e8	-0.07017499
163	0xbb380307	-0.0028077976
164	0xbdaa31f5	-0.0831031
165	0x3e450c89	0.19243063
166	0xbdf1cd9e	-0.118067965
167	0x3cdfbb26	0.027310919
168	0xbdb3ba1c	-0.08775732
169	0xbcb7c118	-0.022430941
170	0xbda9d7c6	-0.08293109
171	0xbe295f55	-0.16540273
172	0xbc9bd8d7	-0.019024296
173	0x3dd77467	0.10520249
174	0x3df2b70e	0.11851321
175	0x3e04572a	0.12923875
176	0x3cfbdd97	0.03074531
177	0x3d20300b	0.039108317
178	0x3cc44094	0.023956574
179	0xbe339e1e	-0.17540786
180	0xbda97003	-0.08273318
181	0x3da9b1f4	0.08285895
182	0xbe76b770	-0.24093413
183	0x3bae3813	0.005316743
184	0xbd6856b8	-0.056723326
185	0x3d2a5f23	0.041594636
186	0xbc423414	-0.011853237
187	0xbd7379db	-0.059442382
188	0x3d0ad920	0.033898473
189	0x3ccff591	0.02538565
190	0xbd74186b	-0.0595936
191	0xbda797b9	-0.08183236
192	0xbdd7f85f	-0.1054542
193	0x3d180ba0	0.03712046
194	0xbdc20f76	-0.09475605
195	0x3c3ad676	0.011403671
196	0x3d9cb134	0.07650986
197	0x3d11b79f	0.035575505
198	0x3e09296b	0.13394706
199	0xbc31aa9c	-0.010843899
200	0x3ce6468f	0.028109817
201	0x3e50b39f	0.2038102
202	0x3c4b6cb7	0.012416056
203	0xbce6148c	-0.02808597
204	0xbc5ccd6b	-0.01347671
205	0x3cf4c431	0.029878708
206	0x3d8a730d	0.067602254
207	0xbd0b4fdf	-0.034011718
208	0xbe36de75	-0.17858298
209	0x3c93f481	0.018060924
210	0x3c3995fb	0.011327262
211	0xbd9c810c	-0.07641801
212	0x3d2b7935	0.04186364
213	0xbd41bd5c	-0.047299728
214	0x3e041788	0.12899601
215	0x3db30131	0.087404616
216	0xbd770384	-0.060306087
217	0x3d3b2b6c	0.045695707
218	0x3ccdd33d	0.02512514
219	0x3da858e6	0.08220081
220	0xbc999313	-0.018746888
221	0x3e09850c	0.1342966
222	0xbd4426d1	-0.04788858
223	0x3d29a5a3	0.04141773
224	0x3d4d5d08	0.05013755
225	0x3d98090f	0.07423603
226	0x3d36ef6f	0.044661935
227	0xbd7367b4	-0.05942507
228	0xbcfbb7b7	-0.03072725
229	0x3dd926e2	0.106031194
230	0x3cd05639	0.02543174
231	0xbd8b7ced	-0.06810937
232	0x3cffa452	0.031206284
233	0xbd8225b2	-0.06354846
234	0xbde59d5e	-0.11211656
235	0x3cc58cf9	0.024115073
236	0x3dc06de2	0.093959585
237	0xbd91f3a9	-0.071265526
238	0x3dbffc4c	0.09374294
239	0xbe2d1ccd	-0.16905518
240	0x3e3faf3e	0.18719193
241	0x3d7bda46	0.06148746
242	0xbc1df4a0	-0.009640843
243	0xbd59cd0e	-0.05317407
244	0xbc0e9d04	-0.008704428
245	0x3e10aa79	0.1412753
246	0xbd4ab9eb	-0.04949371
247	0xbd16a20e	-0.03677564
248	0xbd562f00	-0.052290916
249	0x3d6a572b	0.057212036
250	0x3dd20e81	0.10256673
251	0xbddd0528	-0.10791999
252	0xbd820d74	-0.06350222
253	0x3d91971f	0.07108902
254	0xbe2851a0	-0.16437387
255	0x3d3dd32d	0.04634397

network_body._body_endoder.seq_layers.2.bias f4 [128]
0	0x3960c419	0.00021435357
1	0xbc02335b	-0.007946814
2	0xbb885799	-0.004160833
3	0x3b848eb4	0.004045332
4	0x3b09f55a	0.0021050782
5	0x3c1610e3	0.0091593
6	0x3b611f0a	0.0034350776
7	0x3be6ef84	0.0070475955
8	0xba5f1486	-0.0008509833
9	0x3be2d680	0.006922543
10	0x3b604e02	0.0034226184
11	0x3b05c2b0	0.0020410232
12	0x3b81028b	0.0039370707
13	0x3bfc29e5	0.007695424
14	0x3bb7eac8	0.005612705
15	0x3b79623e	0.0038052942
16	0x3c2c346b	0.010510544
17	0xbb42a39b	-0.0029699567
18	0x3b02d04b	0.0019960578
19	0xb9d88ff7	-0.00041305993
20	0x3a84e16c	0.0010137982
21	0xbb011cb8	-0.0019700956
22	0xbb379663	-0.0028013221
23	0x3b2dad94	0.0026501166
24	0xba8958db	-0.0010478752
25	0x3bf5442a	0.0074849324
26	0x3b13792b	0.0022502642
27	0xbb77fa59	-0.0037838428
28	0x3b057dd8	0.0020369198
29	0xbb324eba	-0.002720757
30	0xbaf66265	-0.0018797634
31	0x3ad382de	0.0016137024
32	0xba32d95d	-0.0006822551
33	0x3c0e063f	0.008668481
34	0xbb8c575a	-0.004282874
35	0xbbc1cb1a	-0.005914104
36	0x3a4b6ec0	0.00077603385
37	0x3b47353f	0.0030396727
38	0xb99e8d0d	-0.000302412
39	0x3c13f544	0.009030644
40	0x3aa07e79	0.0012244723
41	0xb856ae14	-5.11837e-05
42	0x3b80fbc4	0.003936263
43	0x3c03d7fc	0.0080471
44	0x3b5bb3bf	0.0033523885
45	0x39d3fc67	0.0004043311
46	0xbb7deca3	-0.0038745783
47	0xbb445c7f	-0.0029962359
48	0x3a1928a6	0.0005842544
49	0x3b186c32	0.0023257849
50	0xba1ad69c	-0.0005906613
51	0x3c010072	0.007873641
52	0xbb412d10	-0.0029476322
53	0x3afb9974	0.0019195513
54	0xba751b4d	-0.00093500764
55	0xbc64904b	-0.013950418
56	0x3c037110	0.008022562
57	0x3c549a18	0.012976192
58	0x3b1b9b1f	0.0023743582
59	0xbbe3c103	-0.006950499
60	0x3b91fc3c	0.0044551175
61	0x3b22bca4	0.0024831677
62	0x3b8eac75	0.0043540546
63	0x3b90e88f	0.0044222544
64	0xbb47908d	-0.003045115
65	0xbaa5a279	-0.0012636922
66	0xbb840745	-0.004029187
67	0x3b7d0efc	0.0038613668
68	0x3a999710	0.0011717994
69	0x3a941921	0.0011298993
70	0x3ae00ac0	0.0017093047
71	0x3b9b2df8	0.0047357045
72	0x3c18e7ab	0.009332578
73	0x3b83cd9c	0.0040223133
74	0x3c17a627	0.009255922
75	0x3bd4bd24	0.006492274
76	0x3c224718	0.009904645
77	0x3bc1d28c	0.0059149917
78	0x39114bb1	0.00013856475
79	0xbb9965f7	-0.0046813446
80	0x3c08dd8c	0.008353602
81	0x3b328ef7	0.0027245858
82	0xbb655612	-0.003499393
83	0x3bd484f8	0.0064855777
84	0x3b5308e4	0.0032201344
85	0xbb246e21	-0.0025090056
86	0x3b75f60f	0.0037530696
87	0x39968e4c	0.0002871625
88	0x3a5e2964	0.00084747956
89	0xbb93e30a	-0.004513149
90	0xbb8ce774	-0.0043000523
91	0xbaadd8c5	-0.0013263455
92	0x3c087f43	0.008331123
93	0x3b313e81	0.0027045312
94	0xbab581c5	-0.0013847878
95	0x3ba12af2	0.0049184496
96	0x3a181b86	0.0005802441
97	0xbab13304	-0.0013519232
98	0xbbdb968d	-0.0067012967
99	0x3ba28caf	0.0049606184
100	0xbadb09a0	-0.0016711242
101	0x3b82e04f	0.003994025
102	0xbb7f20d1	-0.0038929472
103	0xbafc45d8	-0.0019246889
104	0x3c12d30a	0.008961448
105	0x3c0bce0d	0.008533013
106	0x3a845f7e	0.001009926
107	0xbc0855af	-0.00832121
108	0x3bbf49d5	0.005837659
109	0x3b46225c	0.0030232882
110	0x3b8e7f30	0.004348658
111	0x3a826390	0.0009947885
112	0x3b891004	0.0041828174
113	0x3b6caf12	0.0036115092
114	0xba9da648	-0.0012027705
115	0xb9b3cc38	-0.00034293695
116	0x3bef6977	0.0073062736
117	0xbbbddd84	-0.005794229
118	0xbbb34ed8	-0.0054720454
119	0x3b8901cd	0.004181123
120	0xbacdaef5	-0.00156924
121	0x3bd79ebb	0.0065802014
122	0xba48ee03	-0.0007664861
123	0x3bba4c0e	0.005685336
124	0xbbf1ff97	-0.007385205
125	0x3a5f5863	0.00085199455
126	0x3be5458c	0.006996816
127	0x3bc59009	0.006029133

network_body._body_endoder.seq_layers.4.weight f4 [128, 128]
0	0x3de40fc5	0.1113582
1	0xbc61b4b8	-0.013775997
2	0x3dc7814c	0.09741458
3	0x3beda016	0.0072517497
4	0x3bcfa6a3	0.0063370033
5	0xbcdfe5b8	-0.027331218
6	0xbe0b649f	-0.13612603
7	0x3c1123d5	0.008858641
8	0xbc8e48a2	-0.017368618
9	0xbc9710fe	-0.01844072
10	0xbd10365f	-0.035208102
11	0x3e60f6e1	0.21969177
12	0x3cd97c1a	0.026548434
13	0xbd16549c	-0.036701784
14	0x3dfb3400	0.122657776
15	0x3e58ecab	0.21184032
16	0xbc52ea7e	-0.01287329
17	0x3d76e8e1	0.060280684
18	0x3d8b1c85	0.06792549
19	0x3cbbe77f	0.022937534
20	0xbda6583f	-0.081223
21	0xbd459570	-0.048238218
22	0x3dde1ba8	0.10845119
23	0xbd474a97	-0.04865512
24	0xbce65c33	-0.028120136
25	0x3d585164	0.052811995
26	0x3bad8353	0.005295196
27	0xbd1f2b00	-0.038859367
28	0x3dd74580	0.10511303
29	0xbca9fbf2	-0.02075002
30	0xbd89fe83	-0.067379974
31	0xbb1ed4bb	-0.0024235684
32	0x3d83d54b	0.06437167
33	0xbd9dd55f	-0.07706713
34	0x3c957360	0.018243492
35	0x3dd2a80f	0.10285961
36	0xbd1ee13d	-0.038789023
37	0x3c8c235b	0.017106703
38	0x3e77a44b	0.24183767
39	0x3b12bf77	0.0022391954
40	0x3d3f28d9	0.046669815
41	0x3de69882	0.11259557
42	0x3e0a97cd	0.1353447
43	0xbdc8e6a4	-0.09809616
44	0xbbf6baa8	-0.0075295754
45	0x3dbbe459	0.09174413
46	0x3d13e0a7	0.036102917
47	0xbe41ac45	-0.18913372
48	0x3db039f2	0.08604802
49	0x3b75e691	0.0037521461
50	0xbd6edb38	-0.058314532
51	0x3dc06a93	0.093953274
52	0x3d8bfc76	0.068352625
53	0xbc92d3b7	-0.01792322
54	0xbd84236e	-0.0645207
55	0x3d0433b2	0.032275863
56	0xbcf2682e	-0.029590692
57	0x3d03cf0b	0.032179873
58	0xbe16b283	-0.14716534
59	0x3da33ff2	0.07971181
60	0x3d25aafa	0.04044626
61	0xbd48d623	-0.04903234
62	0xbe28c6d7	-0.16482101
63	0x3d12f781	0.03588057
64	0xbde20d20	-0.1103766
65	0xbd21f64a	-0.03954152
66	0x3dc4b685	0.09605125
67	0xbd25c74c	-0.040473267
68	0xbe267c27	-0.16258298
69	0xbcae296c	-0.021259986
70	0xbe1445e6	-0.14479789
71	0xbdf9bfc3	-0.12194779
72	0x3e235b0d	0.15952702
73	0xbd5b6f76	-0.053573094
74	0xbe0fb280	-0.14032936
75	0x3d5cace1	0.053875808
76	0xbe04c359	-0.12965144
77	0xbdf94365	-0.121710576
78	0x3c141eef	0.009040578
79	0x3bb2ccd0	0.0054565445
80	0x3d85719b	0.06515809
81	0x3e2b8dce	0.16753313
82	0xbdc8ac10	-0.09798443
83	0x3e7814fe	0.24226758
84	0xbd5cb314	-0.05388172
85	0xbdc8325c	-0.0977523
86	0xbe257cbb	-0.16160862
87	0xbb86d2ce	-0.0041144853
88	0x3de4cfdd	0.11172459
89	0x3ccb8263	0.024842447
90	0xbe0e999b	-0.13925783
91	0x3db8b05c	0.09018013
92	0xbdbc2e24	-0.09188488
93	0x3cb5cffe	0.022193905
94	0xbd4f8dcd	-0.05067234
95	0xbe333afb	-0.17502968
96	0xbc70d6d0	-0.014699653
97	0xbc250859	-0.010072791
98	0x3db04992	0.086077824
99	0xbd4a66ec	-0.04941456
100	0xbc5c41ac	-0.013443392
101	0x3df4a593	0.11945643
102	0x3da7417b	0.08166786
103	0x3c588333	0.013214874
104	0x3d92e200	0.07172012
105	0x3de240f8	0.11047548
106	0x3de96faf	0.11398255
107	0xbcd51582	-0.026011232
108	0x3ce32f4d	0.027732516
109	0xbd56b02f	-0.052414116
110	0xbcf520f5	-0.029922942
111	0x3dd6880f	0.1047517
112	0xbe5141ee	-0.20435306
113	0xbda1613b	-0.07879873
114	0x3df92ebe	0.121671185
115	0xbd847b09	-0.064687796
116	0xbc2c5e4e	-0.010520531
117	0x3c0747fd	0.008256909
118	0xbc9cc4f6	-0.019136887
119	0x3cf67e2a	0.030089457
120	0x3e3f2d66	0.18669662
121	0x3c4ef274	0.0126310475
122	0xbd77824e	-0.060427003
123	0xbddd7a7d	-0.108143784
124	0xbcfc64a1	-0.030809702
125	0xbe09b05e	-0.13446185
126	0x3d4cbfde	0.049987666
127	0xbc8ec19c	-0.017426305
128	0x3da25b0f	0.07927524
129	0xbd1711c5	-0.03688218
130	0xbbd67a6c	-0.0065453555
131	0xbd07f4aa	-0.033192314
132	0xbddff679	-0.10935683
133	0x3dfd110d	0.12356768
134	0x37d7c32c	2.5720881e-05
135	0x3d30b9f5	0.043146092
136	0x3c658647	0.014009065
137	0xbe328e8d	-0.17437191
138	0xbd5c3829	-0.053764496
139	0xbdf5360f	-0.119732015
140	0x3d21c62c	0.039495632
141	0xbdd1f8ad	-0.10252509
142	0xbd75624d	-0.0599082
143	0x3dcaf1cd	0.09909401
144	0x3da59bc3	0.0808635
145	0xbd869378	-0.06571096
146	0x3dffa06a	0.124817684
147	0xbaa11938	-0.0012290841
148	0xbd0552cf	-0.032549676
149	0x3af667f0	0.0018799286
150	0x3d2294b6	0.039692603
151	0x3c537809	0.012907037
152	0xbcfb04a0	-0.030641854
153	0xbd03fde5	-0.032224555
154	0x3e063be7	0.13108788
155	0xbd97424a	-0.073856905
156	0xbcba18b1	-0.022716852
157	0xbd2f49a8	-0.042794853
158	0x3dfe1b8b	0.12407597
159	0xbd8affc7	-0.06787067
160	0x3c32d490	0.010914937
161	0x3cf1a322	0.029496733
162	0xbc542259	-0.012947642
163	0x3d155eac	0.03646724
164	0xbd682dad	-0.056684185
165	0xbc173e68	-0.009231187
166	0x3c11bed1	0.008895592
167	0xbe0933c3	-0.13398652
168	0x3c8a7003	0.016899114
169	0x3c04db53	0.008108932
170	0xbd4609bd	-0.04834913
171	0x3dadbcae	0.084832534
172	0xbd0c746b	-0.034290712
173	0xbd8f4471	-0.06995476
174	0x3dfcde74	0.12347117
175	0x3dca0cfd	0.098657586
176	0xbdb7d8c2	-0.0897689
177	0xbd767346	-0.060168527
178	0xbd802666	-0.06257324
179	0xbdd78227	-0.105228715
180	0xbcd7da47	-0.0263492
181	0xbbd73a3b	-0.006568221
182	0xbd480fe1	-0.04884327
183	0xbe0fedab	-0.14055507
184	0xbdea221b	-0.11432286
185	0xbd26fb84	-0.040767208
186	0x3d3622bc	0.04446672
187	0x3d717b54	0.058955505
188	0x3c5e4dfd	0.013568399
189	0x3e19c261	0.15015556
190	0xbe0d8c8c	-0.13823146
191	0x3d92088f	0.07130539
192	0xbd0c0675	-0.034185845
193	0x3d664571	0.05621857
194	0x3ac38db2	0.0014919548
195	0xbcc53f8d	-0.024078155
196	0x3d84fcb8	0.06493515
197	0x3da16651	0.078808434
198	0x3d0f0e78	0.034925908
199	0xbddc14ef	-0.1074618
200	0x3a8b28a9	0.0010616976
201	0xbd8c19f8	-0.06840891
202	0xbce2a8df	-0.027668415
203	0x3b1483f8	0.0022661667
204	0xbd899a74	-0.06718913
205	0xbc1b2fed	-0.009471876
206	0x3d5711ac	0.052507088
207	0x3d138ee9	0.03602496
208	0x3d8e15f8	0.06937784
209	0xbc4cb979	-0.012495392
210	0x3de86b37	0.113485746
211	0xbde7904b	-0.113068186
212	0xbd2fec20	-0.042949796
213	0xbd26c20f	-0.040712412
214	0x3d858853	0.065201424
215	0x3ccddbcb	0.02512922
216	0xbda2e55d	-0.07953904
217	0x3c8e0ed1	0.01734105
218	0x3d36e268	0.04464951
219	0x3d11e667	0.03562012
220	0xbd9c3bb2	-0.076285735
221	0x3ca5f9bb	0.020260682
222	0xbd9ff48a	-0.07810314
223	0x3d2bdb5a	0.041957237
224	0x3cb5ea1a	0.022206355
225	0xbcc9c99d	-0.02463227
226	0x3cdac5d1	0.026705654
227	0x3ce59ef8	0.028029904
228	0x3e31e9e5	0.1737438
229	0xbdacc519	-0.08436031
230	0xbe304149	-0.17212404
231	0xbbbeff0a	-0.005828743
232	0xbc8ecfa5	-0.017432997
233	0xbd1b0478	-0.03784606
234	0xbdce500c	-0.100738615
235	0x3e5ff04f	0.21869014
236	0x3e337ac3	0.17527299
237	0x3cf3d7be	0.02976596
238	0x3ceba863	0.028766816
239	0x3bb92248	0.0056498386
240	0xbd24c704	-0.04022886
241	0xbda1dc57	-0.079033546
242	0xbc68ba8a	-0.014204631
243	0xbbb5249b	-0.0055280454
244	0xbba76c4c	-0.0051093455
245	0x3e1770bc	0.14789099
246	0x3c0e3b4f	0.008681132
247	0xbd6ffc1f	-0.05859005
248	0x3cc48406	0.023988735
249	0xbd4fda7d	-0.050745476
250	0xbd25ca33	-0.040476035
251	0x3e1f3d80	0.15550804
252	0xbd55f3e5	-0.05223455
253	0x3e026f8d	0.12737866
254	0xbd6494cb	-0.055805963
255	0xbd5f4199	-0.05450592

network_body._body_endoder.seq_layers.4.bias f4 [128]
0	0xbb2f0d41	-0.002671078
1	0xbbece131	-0.0072289933
2	0xbb2ee07a	-0.0026684091
3	0x3b7d9bb2	0.0038697538
4	0x3b1d6b88	0.0024020392
5	0x3b5dba3b	0.0033832926
6	0x3b77b328	0.0037795994
7	0xbb5d5a89	-0.0033775887
8	0x3b07aef8	0.0020703655
9	0xbaadbddc	-0.0013255435
10	0xbb2fca77	-0.002682356
11	0xbad2f89b	-0.0016095819
12	0xbb84713e	-0.00404182
13	0x3bf40768	0.007447172
14	0x3b93b7ff	0.004508018
15	0x399c9644	0.00029866595
16	0x3b46bf2f	0.0030326357
17	0x3bdb6914	0.006695876
18	0x3901b0c5	0.0001236825
19	0x3abbf2aa	0.0014339287
20	0x3bdc4318	0.0067218654
21	0xbb2d001a	-0.0026397766
22	0xbb8baf48	-0.0042628385
23	0x37b3d520	2.1437707e-05
24	0x3af06556	0.0018340747
25	0x3a44adae	0.0007502687
26	0x3b59b07b	0.0033216763
27	0xbb72f69b	-0.0037073258
28	0x3b039a92	0.0020081145
29	0x3b9b92d4	0.004747728
30	0x3a3c818a	0.00071909337
31	0x3afd87b1	0.0019342807
32	0x3a531630	0.00080523174
33	0x3c080208	0.008301266
34	0xbb5db557	-0.003383001
35	0x3b32159f	0.0027173532
36	0xbaacd4b1	-0.0013185946
37	0xb9e422ca	-0.0004351347
38	0x3a8c5fec	0.0010709739
39	0xbabad08c	-0.0014252826
40	0x3a7f5464	0.0009740053
41	0xbb36eb79	-0.0027911349
42	0x3af081a7	0.0018349186
43	0x3a6aff58	0.0008964441
44	0xb9e2cd4d	-0.0004325904
45	0x3ba1e67c	0.004940806
46	0x3ab69b27	0.0013931737
47	0xbbdeaf04	-0.006795766
48	0xbb4eaeca	-0.0031537288
49	0xba94a5f6	-0.0011340964
50	0x3be36a58	0.0069401674
51	0x3bbea5c2	0.0058180997
52	0x3a69acdd	0.0008914003
53	0x3bf6b7a3	0.0075292154
54	0x3baaa1f4	0.0052072946
55	0x39c91556	0.00038353604
56	0x3bddcdaa	0.006768902
57	0xba547546	-0.00081046333
58	0xbb8ae107	-0.004238251
59	0xbb967c84	-0.00459248
60	0x3b6d2337	0.003618432
61	0xba08a5e3	-0.00052127073
62	0x3bb1e066	0.0054283617
63	0xbb9af267	-0.0047286036
64	0x3b914ed5	0.0044344463
65	0x3b70ecc9	0.0036762229
66	0x3a450194	0.0007515189
67	0xbb88a368	-0.00416987
68	0x3ba9ba21	0.005179659
69	0x3b5ac787	0.0033383088
70	0xb9abc9d8	-0.00032766047
71	0x39788d1a	0.00023703687
72	0xb8b7f944	-8.772549e-05
73	0xba75d167	-0.00093772117
74	0xbabd18b8	-0.0014426922
75	0x3b732ddd	0.0037106194
76	0xbb852880	-0.004063666
77	0x3b62b686	0.0034593656
78	0x3b64dd5e	0.0034921984
79	0x3b16d43a	0.002301468
80	0x3af5c0a6	0.001874943
81	0xbb0f4d6b	-0.0021866213
82	0x39fe7bf7	0.00048539016
83	0x3ab7a05f	0.0014009586
84	0xbb073cab	-0.0020635526
85	0xbb5a4a59	-0.0033308475
86	0x3be90cc2	0.0071121166
87	0x39f60d25	0.0004693057
88	0x3a02a2b9	0.0004983354
89	0x3b44640c	0.002996686
90	0x3a274be9	0.0006381856
91	0x3be56691	0.0070007523
92	0xbab22dea	-0.0013594006
93	0x3b8353fc	0.0040078145
94	0xb9af53b6	-0.0003344097
95	0x3988218a	0.0002596493
96	0xbb8850ff	-0.004160046
97	0x39947680	0.0002831705
98	0xb90ae671	-0.00013246552
99	0x3b1f6f4c	0.0024327813
100	0xbb911e43	-0.0044286563
101	0xba9f5b7e	-0.0012158004
102	0x3ba11439	0.004915741
103	0xbb07e5d5	-0.0020736356
104	0x3bd98c09	0.006639008
105	0x3b488087	0.0030594186
106	0xbabdd4de	-0.0014482995
107	0xba97be2f	-0.0011577065
108	0x3bfcc400	0.0077137947
109	0x3bb31383	0.0054649725
110	0x3a07d53f	0.00051816175
111	0x3bb27d74	0.005447084
112	0xbbca8f8d	-0.0061816634
113	0x3ba59d4f	0.005054153
114	0x3aa0af33	0.0012259245
115	0x3b9d99d9	0.0048096
116	0xba3c30dc	-0.00071789115
117	0x3bcb5036	0.0062046302
118	0x3ba14ccc	0.004922485
119	0x3a4ff9b2	0.0007933631
120	0xbaea53c9	-0.0017877753
121	0xb99c0b4b	-0.00029763053
122	0xb8daf90a	-0.00010441437
123	0x3adda2d7	0.0016909492
124	0xbb97876c	-0.004624298
125	0x390ff2a2	0.0001372793
126	0x3b8b44fe	0.004250168
127	0x3b1dfb1d	0.0024105974

action_model._continuous_distribution.log_sigma f4 [1, 4]
0	0xbb92a61d	-0.0044753687
1	0x3cfe3bc5	0.03103436
2	0x3cfd7c2e	0.030943003
3	0x3ce16c0b	0.02751734

action_model._continuous_distribution.mu.weight f4 [4, 128]
0	0xbbd02dee	-0.0063531315
1	0x3b4b924c	0.0031062542
2	0x3cd9b4bc	0.026575439
3	0xbd3710c8	-0.04469374
4	0x3c7d44f9	0.015458339
5	0xbb24ca1b	-0.0025144878
6	0x3d1b8518	0.037968725
7	0x3cb086fb	0.021548739
8	0x3c83d8d9	0.016094612
9	0xbc734248	-0.014847346
10	0xb95fbe1c	-0.00021337759
11	0x3c89d4b3	0.016825056
12	0xbd16ed7a	-0.03684757
13	0x3d122487	0.035679366
14	0x3d2655b6	0.040609084
15	0xbcf2e3b5	-0.029649595
16	0xbcb3e8c1	-0.021961572
17	0x3d152975	0.03641649
18	0x3c842f7e	0.016135927
19	0x3d0a8f41	0.033828024
20	0x3d91e373	0.071234606
21	0xb9be356c	-0.00036279426
22	0xbd56ac19	-0.05241022
23	0xbd0abddd	-0.033872474
24	0xbd6dc0a6	-0.058045052
25	0x3c196df9	0.009364598
26	0xbd10e687	-0.035376098
27	0xbc939555	-0.018015543
28	0xbd5b54f3	-0.05354781
29	0x3d0351f2	0.03206057
30	0xbd0b979a	-0.034080125
31	0x3cfcfe0b	0.030882856
32	0x3c595f12	0.013267295
33	0x3d82f419	0.06394214
34	0xbd183d2c	-0.037167713
35	0x3d20f28d	0.039293814
36	0x3bc361dc	0.0059625935
37	0xbb59d703	-0.003323973
38	0xbcf2a101	-0.029617788
39	0xbd231e55	-0.03982385
40	0x3cb74b7f	0.022374867
41	0xbcbb3b5d	-0.022855455
42	0xbcfd0ba2	-0.030889336
43	0xbcf15c1c	-0.029462866
44	0xbcf5f0d9	-0.030022072
45	0xbd01f55a	-0.031728126
46	0x3bacdb7d	0.0052751885
47	0xbb1f3773	-0.0024294525
48	0xbb80f3ab	-0.0039352975
49	0xbd040c1e	-0.03223812
50	0x3d417627	0.04723182
51	0x3d81d2bf	0.06339025
52	0xbceafd8d	-0.028685356
53	0xbc985b24	-0.018598147
54	0xbcce897a	-0.025212038
55	0x3c18bb8e	0.00932206
56	0x3ca30aad	0.019902552
57	0xbd461584	-0.048360363
58	0xbd0bcc5f	-0.03413045
59	0xbce2b5a9	-0.027674513
60	0x3b794196	0.0038033477
61	0xbd165ef5	-0.03671165
62	0x3d7c7627	0.061636116
63	0x3b1e1579	0.0024121685
64	0x3d01c312	0.031680174
65	0x3c218e3b	0.009860571
66	0x3c922e59	0.017844366
67	0xbcd09176	-0.025459986
68	0x3c092fc2	0.008373203
69	0xbd16fa78	-0.03685996
70	0x3c9cea19	0.019154595
71	0xbcf60b6d	-0.030034745
72	0x3c58f83b	0.0132427765
73	0x3bc3eb09	0.005978946
74	0xbce6e115	-0.0281835
75	0xbd1e64d7	-0.038670387
76	0xbcf1d9d4	-0.029522814
77	0x3d02506a	0.03181497
78	0xbc5cf150	-0.013485268
79	0x3c380d52	0.011233645
80	0x3ca57ad2	0.020200167
81	0x3cbfa10f	0.023392228
82	0x3cee971f	0.029124795
83	0x3c3e8d42	0.011630358
84	0xbb542683	-0.0032371588
85	0x3b827dd9	0.0039822874
86	0x3cc56193	0.024094379
87	0x3ca5af12	0.020225082
88	0xbc9468a9	-0.018116312
89	0x3cefd76f	0.029277531
90	0x3d03963b	0.032125693
91	0x3c38e42b	0.011284868
92	0xbd0c06fc	-0.03418635
93	0xbd0f2eca	-0.03495673
94	0x3c9dbc6c	0.019254886
95	0x3d12e4b5	0.035862643
96	0xbb03d34e	-0.002011496
97	0xbc3d7c96	-0.011565348
98	0xbcf8386c	-0.030300342
99	0x3d1ad631	0.037801925
100	0xbc86ce10	-0.01645568
101	0xbcd890fc	-0.026436321
102	0xbb9d560a	-0.0048015164
103	0xbd4165ac	-0.047216102
104	0x3d506063	0.05087317
105	0x3cf43fc6	0.029815566
106	0xbd6e3642	-0.058157213
107	0xbd1e5fe1	-0.038665656
108	0xbc9c71fd	-0.019097323
109	0x3d4ddf13	0.05026157
110	0x3ccf88d9	0.025333809
111	0x3c94b934	0.018154718
112	0x3c9013c1	0.017587544
113	0x3d261a78	0.040552586
114	0xbcf43fec	-0.029815637
115	0x3d4245d4	0.047429875
116	0x3ca42cc9	0.020040886
117	0x3d8b639f	0.068061106
118	0x3d1f05ab	0.038823765
119	0xbcc5647b	-0.024095764
120	0xbcdbb298	-0.026818559
121	0x3d019198	0.03163299
122	0x3ca1bc2c	0.019743048
123	0xbc590851	-0.013246612
124	0xbc09ddbe	-0.008414684
125	0x3d1274fa	0.03575609
126	0xbcbae5cb	-0.022814652
127	0xbc74ebcc	-0.0149487965
128	0x3c0b7631	0.008512066
129	0x3c0095a4	0.007848177
130	0x3cd87684	0.0264237
131	0xbc021ccd	-0.007941437
132	0xbc839876	-0.01606391
133	0x3c890e03	0.016730314
134	0x3aaa27a7	0.0012981788
135	0x3c261620	0.010137111
136	0x3b87056a	0.0041205185
137	0x3c0a459b	0.008439447
138	0xbc3eaedb	-0.0116383685
139	0xbbfdf1d2	-0.0077497745
140	0x3c2d6339	0.010582739
141	0xbc2e7240	-0.0106473565
142	0xbcc18b05	-0.02362586
143	0x3ca5a40d	0.020219827
144	0xbc9fb910	-0.019497424
145	0xbc7bd27f	-0.01537001
146	0x3cfed63d	0.031108016
147	0x3c519450	0.012791708
148	0x3b9c2b91	0.0047659357
149	0x3cc90e63	0.024542993
150	0x3c8f925b	0.017525842
151	0x3c037a0b	0.008024703
152	0xbcd3c03f	-0.025848506
153	0x3bcd2b82	0.00626129
154	0xbb84702f	-0.0040416936
155	0x3c538ffc	0.0129127465
156	0x3bf54521	0.0074850474
157	0x3c2b5f1f	0.01045969
158	0x3bd587cd	0.006516433
159	0x3c3a5e3d	0.011375007
160	0xbcae8d0e	-0.021307494
161	0x3c9c268d	0.019061351
162	0x3c93dbca	0.01804914
163	0xbbdbb80e	-0.0067052906
164	0xbc9ab4c7	-0.01888503
165	0x3d13f1a6	0.036119126
166	0x3b675284	0.0035296986
167	0xb9ba7366	-0.00035562663
168	0xbc4c568d	-0.012471807
169	0x3c0e48f7	0.008684388
170	0x3c84ec74	0.01622603
171	0xbc87e923	-0.01659066
172	0xbc9b15a1	-0.018931212
173	0x3c80ac93	0.01570729
174	0xbc1adf6b	-0.009452681
175	0x39f846e0	0.00047355052
176	0x3d38a5c3	0.045079958
177	0x3cdcfdbd	0.02697646
178	0x3c3a9832	0.011388825
179	0x3c688d64	0.014193866
180	0xbc4c041e	-0.0124521535
181	0xbb3101be	-0.0027009095
182	0xbcf2be0e	-0.02963164
183	0x3bb22d5d	0.0054375366
184	0x3c3a6943	0.011377635
185	0x3d359741	0.0443337
186	0x3abaf268	0.0014262917
187	0xbc676ba9	-0.014124789
188	0x3b62de6c	0.0034617437
189	0x3a8e41b1	0.0010853318
190	0x3c39f312	0.011349456
191	0x3c3cb27e	0.011517165
192	0x3b3bb43c	0.0028641364
193	0xbb27477c	-0.0025524786
194	0x3ca05ea6	0.019576382
195	0xb934dcf7	-0.00017248454
196	0xbb5f8ec7	-0.0034112202
197	0xbc514ba3	-0.012774381
198	0x3cdd543d	0.027017707
199	0x3a5de45e	0.00084645103
200	0x3b49b971	0.0030780698
201	0x3c831d0a	0.016005058
202	0x3c249a39	0.010046535
203	0x3be0de65	0.006862449
204	0xbb3fd4ab	-0.0029271047
205	0xbc858822	-0.016300265
206	0xbbd61800	-0.0065336227
207	0xbca8ecd5	-0.020620743
208	0xbc439857	-0.011938176
209	0x3c98debb	0.018660894
210	0x3c079239	0.008274608
211	0x3c6beb7f	0.014399408
212	0x3c531e25	0.012885605
213	0xbc350953	-0.011049586
214	0xbc616ffa	-0.013759607
215	0xba71544a	-0.00092059805
216	0xbced192d	-0.028942669
217	0x3c18dbbd	0.009329733
218	0x3ce8e0c7	0.028427495
219	0xbbbea5b5	-0.0058180937
220	0xbc611519	-0.01373794
221	0xbca715a7	-0.020396067
222	0x3b04bdf5	0.0020254825
223	0xbce8cf2e	-0.028419103
224	0xbcd619ff	-0.026135443
225	0xbcf387d2	-0.02972785
226	0x3c1d6a91	0.009607927
227	0x3bf78366	0.0075535057
228	0x3b913083	0.004430832
229	0x39b0217a	0.00033594278
230	0xbd08416c	-0.033265516
231	0xbc17099d	-0.009218601
232	0x3bab0a81	0.005219758
233	0x3b3940c4	0.0028267363
234	0x3b87df53	0.0041464954
235	0xbc45e964	-0.01207957
236	0xbc0637de	-0.008192031
237	0xbb9084e1	-0.0044103717
238	0xbbd809e3	-0.0065929755
239	0xbc24823a	-0.010040814
240	0x3b13a1a8	0.0022526775
241	0x3c0bc1f0	0.008530125
242	0x3c296fd7	0.010341606
243	0x3c1374dd	0.00900003
244	0xbbe32a13	-0.006932506
245	0xbc863704	-0.016383655
246	0xbb68e4f2	-0.0035536853
247	0xbc8fe480	-0.017565012
248	0xbc67ae3a	-0.01414066
249	0x3c53ed6d	0.012935025
250	0x3cf1e7d3	0.029529488
251	0xbcfb201a	-0.030654956
252	0xbc0bb814	-0.008527774
253	0x3cf7be5f	0.030242143
254	0xba38089b	-0.0007020325
255	0x3c336199	0.010948562

action_model._continuous_distribution.mu.bias f4 [4]
0	0x3b50f4e7	0.0031884254
1	0xbb2bfb38	-0.0026242267
2	0x3b9ebe31	0.00484445
3	0xbabbbef1	-0.0014323873
