results/sac1/Shooter/Shooter-101000.onnx (onnx, 666224 bytes, 14 tensors)

network_body.observation_encoder.processors.0.normalizer.running_mean f4 [68]
00000000: d658 663c f665 7c3f 0000 0000 0c28 4a3e
00000010: 8ab8 583c 789c 7c3f 0000 0000 e885 4a3e
00000020: 36b2 5f3c 9080 7c3f 0000 0000 a033 4a3e
00000030: 067b 613c 6b79 7c3f 0000 0000 7a65 4b3e
00000040: 97ce 673c 2060 7c3f 0000 0000 bff4 4a3e
00000050: a7f9 793c 7217 7c3f 0000 0000 22a3 4c3e
00000060: de96 633c fd70 7c3f 0000 0000 7a53 4c3e
00000070: 8ba4 613c c978 7c3f 0000 0000 ffb1 4e3e
00000080: f827 613c bd7a 7c3f 0000 0000 5e86 4e3e
00000090: 8129 733c b732 7c3f 0000 0000 4c2c 513e
000000a0: b04b 6e3c 2d46 7c3f 0000 0000 17d1 503e
000000b0: a0e4 763c c623 7c3f 0000 0000 734b 543e
000000c0: 2722 6e3c d246 7c3f 0000 0000 4ee8 533e
000000d0: eead 7e3c a204 7c3f 0000 0000 18b8 573e
000000e0: 8395 823c aaea 7b3f 0000 0000 0d83 573e
000000f0: ec79 833c 8ae3 7b3f 0000 0000 c0cf 5b3e
00000100: fb42 883c 41bd 7b3f 0000 0000 8c9a 5b3e
0.014059266 0.9859308 0.0 0.19741839 0.013227591 0.9867625 0.0 0.19777644
0.013653329 0.9863367 0.0 0.19746256 0.013762241 0.9862277 0.0 0.19862929
0.014148376 0.98584175 0.0 0.19819926 0.015257276 0.98473275 0.0 0.19984105
0.01389095 0.98609906 0.0 0.19953719 0.01377214 0.98621804 0.0 0.20185088
0.013742439 0.98624784 0.0 0.20168445 0.014841438 0.98514885 0.0 0.20427054
0.0145444125 0.9854458 0.0 0.20392261 0.015069157 0.98492086 0.0 0.20731907
0.01453451 0.98545563 0.0 0.20694086 0.015544398 0.9844457 0.0 0.2106632
0.015940433 0.98404944 0.0 0.21046086 0.016049348 0.9839407 0.0 0.21465969
0.016633501 0.98335654 0.0 0.21445674

network_body.observation_encoder.processors.1.normalizer.running_mean f4 [52]
00000000: d658 663c f665 7c3f 0000 0000 0c28 4a3e
00000010: ba75 743c 822d 7c3f 0000 0000 f32c 513e
00000020: 2922 6e3c d146 7c3f 0000 0000 9cd5 503e
00000030: cd96 913c a372 7b3f 0000 0000 0244 653e
00000040: cfd3 823c bbe8 7b3f 0000 0000 b867 653e
00000050: 2f9f a23c 63ea 7a3f 0000 0000 1243 833e
00000060: 6ac7 933c 2161 7b3f 0000 0000 b89b 833e
00000070: 7e7d ad3c 6d93 7a3f 0000 0000 7c43 983e
00000080: f201 b93c 4d37 7a3f 0000 0000 bb7c 983e
00000090: 49cc cc3c f698 793f 0000 0000 9ecc ad3e
000000a0: b1d9 c73c 8bc0 793f 0000 0000 6120 ae3e
000000b0: 9233 c73c bfc5 793f 0000 0000 f348 ba3e
000000c0: 2ac4 be3c 3909 7a3f 0000 0000 5a8c ba3e
0.014059266 0.9859308 0.0 0.19741839 0.014920646 0.9850694 0.0 0.20427303
0.014534512 0.9854556 0.0 0.20393986 0.017772103 0.98221797 0.0 0.22389224
0.015970139 0.98401994 0.0 0.22402847 0.019851295 0.98013896 0.0 0.25637108
0.018039424 0.9819508 0.0 0.2570474 0.021178003 0.97881204 0.0 0.29738986
0.022583935 0.9774063 0.0 0.29782662 0.024999755 0.97499025 0.0 0.33945173
0.024395796 0.9755942 0.0 0.34009078 0.024316583 0.9756736 0.0 0.3638378
0.023286898 0.9767032 0.0 0.36435205

network_body._body_endoder.seq_layers.0.weight f4 [256, 120]
00000000: 33d2 24bd 5cc9 1ebe ac1e 70bd b83b 033e
00000010: 8959 103c 6f26 6dbe 4465 983d aa90 5b3a
00000020: 7a9b 033d f9ea 553d 4f64 333d 4b99 e73d
00000030: 0f4d a0bc 1ea9 a03d 4f0a 6c3d 6f53 a43c
00000040: c266 3c3c 2643 0d3e 5547 22bd b2b2 11be
00000050: 2666 383c 3643 3f3d 4baa cabc e015 db3c
00000060: ba3a 3b3e cebe b93c ac28 cf3c 61e7 71bd
00000070: 00bc 143c 570f 133d 7313 d73d 288a a8bd
00000080: 8222 c63c 5f4f 91bd 1098 1e3e d175 623d
00000090: bd10 f3bc 4185 203e 1b4c e03d 4742 6cbe
000000a0: d7ab d2bc 15fd cabb d0b2 cfbb ea1c 803d
000000b0: 780a 3cbd 8a44 a9bd 99f0 873d 8d14 69bd
000000c0: 983f ca3d 55cd 9b3d 8815 a6bd 862b 9bbc
000000d0: 0a13 453d 7aa5 3ebd 70ae f63d bd37 b33b
000000e0: d7cc 723d af8d 0b3d ea02 663c 83e5 e73c
000000f0: 0921 f3bd 02f0 8ebd 06c5 41bc b874 16bd
00000100: ae4b 813b 0872 2bbe 31e1 d4bd 2f64 d4bc
00000110: c7c4 403d 9e54 a23d 69e3 823a 1131 723c
00000120: a9df 43bd e4d8 433d d257 79bb 485e d9bb
00000130: 6ba9 323d 4dc3 603d c6d5 c3bd 2fd2 a0bd
00000140: 67c9 97bd db59 3dbe 9248 4cbd b467 debd
00000150: 1505 173d 84ba d03c c557 62bd 03fd cf3c
00000160: fb7a c9bd 029e 793c 81f3 b93d 8d61 8f3c
00000170: 3f36 c2bd b03b 6ebd d08c d33d 2d20 a1bd
00000180: 7101 fe3c 763f 8dba 5353 fe3c 93e4 a23d
00000190: 86c2 4bbd 2e78 653d d024 5e3d ad98 1d3d
000001a0: edcb ccbd 8bb5 00bc 3db0 8cbd b878 f6bd
000001b0: 0f9b eabc 54c3 89bc 3ce2 d43d 0e46 54bd
000001c0: 5bcf 32bb 0861 e2bd b6b6 3d3d 1437 553d
000001d0: 6cb3 8d3d f892 22bc 1f7c c53d 0413 96bd
000001e0: a643 d0bd 222b ab3c 2485 13bd aebf 66bd
000001f0: 68a0 803d 3ec9 14be a1c0 29bd fa0b 073e
00000200: e21d 993c 2d51 5a3d d255 333e 7e7c 603d
00000210: 7541 9a3c 3ac4 5cbe 0583 dbbd c5f6 b23d
00000220: c159 b03d 6aa3 cc3c 897e eabd aeda 75bd
00000230: b422 67bc d453 1f3e 6ae8 0e3a 7c78 6bbd
00000240: c8f1 dabc bcc6 d1bd a4b5 d93c fef9 6abd
00000250: 0250 64bd 96f9 a23c b694 afbc 359b 5dbc
00000260: f4d2 0ebd c93f dc3d 674e 13be c4ef c73d
00000270: 00e5 503d 7f3f f2bd 10a6 aa3d 28a6 8abd
00000280: b368 5b3d c563 44be 36f9 3cbd 23cb bdbd
00000290: 16c1 cd3c ea20 d6bd b8dc 3e3c 9511 e4bd
000002a0: b7e1 503e 1a60 4cbd b443 0cbe efe0 38be
000002b0: f820 b9bd 07b2 bcbc 0def 053e 10d8 5dbd
000002c0: 2f97 f53c 46ea 55bd 4265 3a3e 3914 eabc
000002d0: 8043 833d bbea 53bd 4e01 6cbe 7b6b 7fbd
000002e0: f40c 19bd f16c eb3d 7fc5 443d 6525 933d
000002f0: 2bc0 2b3d 8ef1 a9bd 8f6b abbd e4ba 4d3d
00000300: b0b1 813d 837c 793c f0be 0dbc 1906 c03c
00000310: 7a0d 94bd 14f5 933d c5e0 533d 11d7 c63b
00000320: edba 97bd 12f7 a03d 9374 c4bd cbf4 9abd
00000330: c014 c7bd e898 f1bd a3d5 5b3d 1b05 f63d
00000340: 4a94 0f3e bbdb ea3d 143c 04be 0992 5bbe
00000350: e155 c03d acc5 9f3d 1333 3abc c106 c4bc
00000360: 47a7 babd 7d4c d6bd 17ed a23d 501b f33d
00000370: 16e9 74bd 5b98 9fbc 3cef 9bbd fe73 59be
00000380: 1da7 fe3d 1c71 083e a9ac 8ebc 04aa e43b
00000390: 793b 053e 31d3 29be 9f7d 4cbe 5484 043d
000003a0: 1c5b 833d 680b b5bd aac6 eabc 2746 f93c
000003b0: 1429 033e f1fe 33be 0aea 0dbd 503e 703d
000003c0: c7f8 283c 0825 0f3e 6dae b5b9 1380 053e
000003d0: fbc5 75be 5c65 153e d014 6ebd 075c b03d
000003e0: 96b3 3c39 97a0 fcbd d594 a43d cc3a 263d
000003f0: e221 983c 11f4 7f3d 785f 40be 974e b3bd
-0.040239524 -0.155065 -0.058623 0.1281575 0.008810409 -0.23159193 0.0744119 0.00083757436
0.032130696 0.05222604 0.043796834 0.11308535 -0.019567994 0.078447565 0.05762702 0.020059315
0.011499109 0.13795146 -0.03961881 -0.14228323 0.011254823 0.046694957 -0.024739405 0.02674383
0.18284121 0.02267399 0.025287949 -0.05905855 0.009078026 0.0359033 0.105017565 -0.08229476
0.024186376 -0.07095217 0.15487695 0.05528814 -0.029671067 0.15675832 0.10952016 -0.23072158
-0.025716705 -0.0061947205 -0.006338455 0.06255515 -0.04590842 -0.08265026 0.06637687 -0.056904364
0.09875411 0.07607523 -0.081095755 -0.018941652 0.04811386 -0.04654453 0.1204499 0.005469291
0.05927738 0.034070667 0.014038781 0.028307682 -0.11871535 -0.069793716 -0.011826759 -0.036732405
0.0039457893 -0.16742718 -0.10394514 -0.025926678 0.04706266 0.07926296 0.0009985986 0.014782206
-0.04782072 0.047814265 -0.003804673 -0.0066335537 0.0436186 0.054873753 -0.095622584 -0.07852589
-0.07411461 -0.18491308 -0.049873896 -0.108596236 0.03687008 0.025479563 -0.055259485 0.0253892
-0.0983791 0.015235426 0.09079648 0.01750257 -0.09483003 -0.05816239 0.10329592 -0.07867465
0.031006547 -0.0010776359 0.031045591 0.07953753 -0.04974606 0.056022815 0.054234326 0.03847568
-0.09999833 -0.007855783 -0.06869552 -0.12034744 -0.02863839 -0.016816773 0.10394713 -0.05182462
-0.0027284238 -0.110536635 0.046316825 0.05205448 0.06918988 -0.009922735 0.09642815 -0.07327846
-0.10169153 0.02089459 -0.036015645 -0.056335144 0.06280595 -0.14529893 -0.04144347 0.13188162
0.018691007 0.05330007 0.17513207 0.054806225 0.01883004 -0.2155923 -0.10718349 0.08738474
0.08610869 0.024980266 -0.11449916 -0.060023002 -0.014107395 0.15559322 0.00054515025 -0.05748795
-0.026726618 -0.10242984 0.02657587 -0.057367317 -0.055740364 0.019894402 -0.021433216 -0.013525774
-0.03486915 0.107543536 -0.14385377 0.097625285 0.05099964 -0.11828517 0.08332455 -0.06769973
0.053566646 -0.19178684 -0.046136104 -0.09267261 0.025116485 -0.104554966 0.011649303 -0.11136166
0.20398603 -0.049896337 -0.13697702 -0.18054555 -0.090394914 -0.023034109 0.13079472 -0.05416113
0.029979317 -0.052225374 0.1820269 -0.028574096 0.06409359 -0.05173753 -0.23047373 -0.06235836
-0.03736587 0.11495388 0.04803991 0.07184867 0.041931313 -0.08298026 -0.083701245 0.05022706
0.06332719 0.01522744 -0.00865148 0.023440408 -0.07229133 0.07224479 0.05172803 0.0060681184
-0.074087 0.07859625 -0.09592547 -0.07566222 -0.097207546 -0.11796743 0.053670537 0.120126925
0.14021412 0.114676915 -0.12913543 -0.21442427 0.0939138 0.07801375 -0.011364716 -0.023929002
-0.09113937 -0.10463808 0.079553775 0.11870444 -0.0597926 -0.019481828 -0.0761399 -0.21235654
0.12434218 0.13324398 -0.017416315 0.0069782753 0.13010968 -0.1658447 -0.19969796 0.03235276
0.06413862 -0.08840066 -0.028659184 0.030428959 0.12808639 -0.17577721 -0.034647025 0.058653176
0.010313219 0.1397897 -0.00034652968 0.13037138 -0.24001305 0.14589447 -0.058125317 0.08611303
0.00017995978 -0.123353176 0.080362 0.040583417 0.018570844 0.06248862 -0.18786418 -0.08755224

network_body._body_endoder.seq_layers.0.bias f4 [256]
00000000: c5d0 1d3c da86 9fbb 95e6 a33c 48a8 00bc
00000010: 11fd ea3a 16a7 243b 44ea 583b 9902 a33c
00000020: 7195 c73a 8ddf 8cbc 2126 983b 625b 2cbc
00000030: d4ba 44bc 4e91 1cbc cb1e 5b3c a83a cf3b
00000040: de1e 40bc b9eb b03b 4822 81bb 4adc 84bc
00000050: b9a0 8e3b 59ae 793b 868d 76bc 691b 563b
00000060: ba75 4a3c 05f9 21bc 9c4a cc3a 2adc fd3b
00000070: 4260 b93b 2ffe 7c3c 83c2 c73b 138e 523c
00000080: 6f3c b43c 28d5 99bb 6de4 83bc 5196 2e3c
00000090: 2af3 3ab9 b126 3fbc 1f89 6e3c 1824 6c3c
000000a0: 8ea4 febb 38cc 213b b1b4 01bb 9d57 38bb
000000b0: 5255 29bc 6e88 013c 7529 8b3c 0da1 74bc
000000c0: c9e0 ec3b 45cd 053b a330 533c 5ccd 0cbc
000000d0: 1223 d937 d2ba a13b b96f 43bb 8e17 b43c
000000e0: a3b5 ec3b a3fb 013c 4293 c43b c685 babb
000000f0: 5448 ee3b c69a b33b 5cd1 5c3c 09a5 5b3c
00000100: 8533 483a 9265 eb3b 065e 99bc 2215 643c
00000110: 801f 463c aa38 aebc ebb9 2fbc 5ab0 1b3c
00000120: 34d6 0a3c 6313 cc3b 5411 013c b096 a3bb
00000130: 9f9d bdbc 3837 923c 80bb 8a3c 25fa b938
00000140: 8fc5 b1bb abae 653c 5d4c a03c 0c93 bdbb
00000150: 947f b03a 9c00 c039 5294 0e3c 85f9 a03b
00000160: 0011 9f3a 216b 123b 6579 843c 0c32 80bc
00000170: 5dc9 883c b992 47bb 6b87 fd3b e51c 2f3c
00000180: df0c 04b9 efff 933b 345e b6bc b03c 04bc
00000190: 5ed4 99bc 381c 9c3c cac5 0f3c 0a8b 08bb
000001a0: 5c9a 763c 3fb0 d73b 5799 563c d6f9 7fbc
000001b0: 83fc 07bb 79cd 003c 918f a0b8 683c 6a3c
000001c0: 60e7 1c3c af72 f1ba 1fe5 a6bc 41b5 263c
000001d0: 6aa6 623c 5c82 893c 811f 803c e6d3 ae3c
000001e0: b559 0738 4e5d 703c 979d 303b dd50 383c
000001f0: c676 603c 2b4f a7bc d191 853c ebda 183c
00000200: 4f2d 843c 70d9 d63b a962 cebb 6853 e9bb
00000210: 06ff 0ebb f221 a73c 5269 cfbb 833d f93a
00000220: 9cf8 703a 0c43 a9bc f7fc 453c 7d75 28bc
00000230: 516c 56bc 6870 11bc 0a1e 4a3c 5175 193b
00000240: 9cd9 8b3b 155a 6dbc 12c6 d23b 2ae7 97bb
00000250: 1356 f9ba aae9 fc3b 7b26 2d3a d838 2a3c
00000260: 1ca6 6ebc 5ed1 8dbb 3302 b43c ff11 2d3c
00000270: 9d39 653c b59e b7bc fc71 bfbb 483a 333c
00000280: d445 db3b 193c 8a3c 9992 a13c 592c 203c
00000290: 2163 52bb 9a05 4bbb 6eb9 e8b8 8e64 8dbc
000002a0: ea73 44bc 33ab 413c 48b9 953b c717 b13b
000002b0: 126e 4c3c 6dbf 213c 125d 1fbc e6c7 763c
000002c0: 421b a9bc f2a0 7fba 3fff f43a 8032 163a
000002d0: fbbb d5bc ae66 d83c a41a b63b 4c18 a43b
000002e0: 291c 923c aa0a 55bc 6102 bb3c 309c 653c
000002f0: 5c9f 51bb 2b17 8a3c 4872 db3a 0b64 df3b
00000300: a5d0 64bc 3a26 74bc f292 caba 4109 b1bc
00000310: 14d9 953c f890 28b8 6e0e d2bb 61be 513c
00000320: f33e 233c 865d 283c d38c 9cbc eb5e dc3b
00000330: e085 b5b9 d5bd d73c 94db 943c 9dbf 873b
00000340: 0645 053c b9a9 30bc af18 91bb a3fc 083c
00000350: 4932 913c d644 733b e7b7 853c 9b96 a2bc
00000360: 2b17 b5bb a551 703c e7c5 413b 1fe6 633c
00000370: 7b45 1d3c 6686 d5bb 3789 76bc 3a73 f03a
00000380: c836 34bc a6b7 51bc 7826 9ebc 0e09 803c
00000390: ef39 1bbb f9ab 0b3b 348c 88bb fab7 59ba
000003a0: 7a9c 563c 8153 d1b9 76eb 4e3a d32f 683c
000003b0: e617 323c 50ca 323c 900c febb 7cb2 63bc
000003c0: 9415 b7bc 9f69 02bc 710b 1e3c f602 25bc
000003d0: e796 b1bb e45f 11bc 6300 28bc a72c b6bc
000003e0: e011 103c bfd9 09bb 0b8e 93bc 2f4d 7e3b
000003f0: a671 913c f15f 4fb9 655c 4dbc c22b ac3c
0.009632294 -0.0048683705 0.020007411 -0.007852621 0.0017928203 0.0025124005 0.0033098618 0.0198987
0.0015227032 -0.017196441 0.004643217 -0.010519834 -0.012007434 -0.009556128 0.013374041 0.006324131
-0.011726109 0.005399194 -0.003940854 -0.016218323 0.0043526557 0.0038098304 -0.01504839 0.0032670146
0.01235717 -0.009886031 0.00155862 0.007747193 0.005657227 0.0154414615 0.0060961857 0.012851256
0.022001473 -0.0046945997 -0.016100133 0.010655955 -0.00017828928 -0.01166694 0.014559059 0.014412902
-0.0077710813 0.0024688374 -0.0019791538 -0.0028128393 -0.010335283 0.0079060625 0.016987542 -0.014930976
0.007228945 0.002041654 0.012890014 -0.008593883 2.5884747e-05 0.004935601 -0.002982123 0.021983888
0.007223801 0.00793353 0.005999 -0.0056922166 0.007271806 0.005481097 0.01347765 0.013406047
0.00076370715 0.007183739 -0.018721592 0.013921054 0.012092471 -0.021267254 -0.010725479 0.009502495
0.008473922 0.006227897 0.0078776665 -0.0049923286 -0.023146449 0.017848596 0.01693511 8.8680805e-05
-0.005425162 0.014018695 0.019567663 -0.0057853516 0.0013465756 0.00036621548 0.0087023545 0.0049125575
0.0012135804 0.0022341686 0.016171167 -0.015648864 0.01669758 -0.0030452444 0.0077370903 0.010688041
-0.00012593296 0.0045165936 -0.022261716 -0.00807111 -0.018778022 0.019056424 0.008775184 -0.0020834827
0.015051451 0.0065822895 0.0130980825 -0.01562353 -0.0020749874 0.0078614885 -7.656136e-05 0.014296629
0.0095766485 -0.0018421019 -0.020372925 0.01017505 0.0138336215 0.016785793 0.015640022 0.021341275
3.2270054e-05 0.014670683 0.00269494 0.011249748 0.013700193 -0.020423492 0.016304882 0.009329538
0.016134886 0.0065566823 -0.0062983823 -0.0071205385 -0.0021819486 0.020401929 -0.006329694 0.0019015524
0.0009192319 -0.020661853 0.012084237 -0.010281918 -0.013087348 -0.008876897 0.012336263 0.0023415873
0.0042678844 -0.014486809 0.006432303 -0.004635711 -0.0019022844 0.0077182846 0.00066051603 0.010389529
-0.014565971 -0.004327937 0.021973705 0.010563373 0.013990787 -0.022414545 -0.0058424454 0.010939188
0.006691674 0.01687436 0.019723224 0.009776198 -0.0032102542 -0.003097868 -0.00011097161 -0.017259862
-0.011990527 0.011820602 0.0045692064 0.005404446 0.012477415 0.0098723 -0.00972678 0.015062308
-0.02064288 -0.0009751461 0.0018691792 0.0005729571 -0.026090613 0.026416149 0.005557375 0.005007779
0.017835693 -0.013003031 0.022828283 0.014014289 -0.0031985855 0.01685675 0.0016742432 0.006817346
-0.01396576 -0.014901692 -0.001545517 -0.021610858 0.018291987 -4.0189334e-05 -0.0064104116 0.0128017375
0.009963739 0.010276204 -0.019110119 0.0067251823 -0.00034622755 0.026335636 0.01817111 0.004142715
0.008134132 -0.010782653 -0.0044279913 0.008361015 0.017724173 0.0037119887 0.016323043 -0.019847205
-0.0055264435 0.014667903 0.0029567422 0.013909846 0.009599085 -0.0065162657 -0.015047363 0.0018344887
-0.010999389 -0.012800133 -0.019305453 0.015629318 -0.0023685654 0.002131222 -0.004167104 -0.0008305308
0.01309883 -0.00039925802 0.0007893363 0.014171558 0.010869956 0.010912493 -0.0077529624 -0.013897534
-0.022349156 -0.007959752 0.0096462825 -0.010071507 -0.0054196003 -0.00887296 -0.010253998 -0.022238089
0.008793324 -0.0021034328 -0.018012067 0.003880333 0.017754387 -0.000197768 -0.012534236 0.02101696

network_body._body_endoder.seq_layers.2.weight f4 [256, 256]
00000000: e444 dd3d 59a8 b0bd 3fc9 a13c ebdc 823c
00000010: edab 66bd 7bb5 163d dcb1 5fbc 42c4 b2bc
00000020: 8cec 92bd d87c 923c 8d8c 02bd 9c58 e2bc
00000030: 99da 6cbc bd6f d33d c585 433b 4512 a1bd
00000040: 928a 9c3c 9f6e 53bd daff 7dbd b2cc a23c
00000050: 9201 943d 49e8 d43c 09b8 ff3d d88e d7bc
00000060: e110 383d 1486 8b3d 3c78 e8bb 38ea d63c
00000070: 3672 d33d 2bcc 4fbd 6810 0cbc f628 aebc
00000080: e6dd d73c ecd8 683c c746 633d 9e63 a33d
00000090: 294c 043d 639c edbd 912d ae3c 20a3 073d
000000a0: c5c5 fdbd 053a d6ba c90a d9bb 3905 193d
000000b0: c57e 5a3c 9105 233d 2333 08bd 32ff acbc
000000c0: baa1 613d d815 57bd 1cb6 943c 95c1 9b3d
000000d0: f61b 1dbc f1df acbd 8f07 b33d 1e31 bd3d
000000e0: c960 293c c5ec 3f3c 8820 483d d963 4d3b
000000f0: 1aa6 193d 86a1 82bd 5799 b03d aad6 373d
00000100: f047 433c 5635 edbc 4023 2fbd 1286 a9bc
00000110: 3b9c 0b3d f50f 12be 7670 c7ba 0e11 dbbc
00000120: 5324 c0bc f38b 233d 611b 983d f486 ddba
00000130: 8cef ebba ab09 1d3c 7470 8bbd 297d f93b
00000140: cd7c 86bd 8a63 92bc 234a e73c 8dc3 2e3c
00000150: c77c 803c 5bc9 ef3d 54f9 f33c d08d 183c
00000160: b253 10bc b028 0d3e 89ef e0bc 7e82 0f3e
00000170: 6dcc bcbb 439c 81bc a559 f1b9 6332 cc3d
00000180: 5a6a bebb 87d7 14bd 497e d53d 37b6 9c3c
00000190: 66ac 52bd 2eda 913d 38f5 3d3c ac59 4cbc
000001a0: 880e 703d 21a8 57bb bc18 1b3d fbec 133c
000001b0: aafd 883d 4308 c43d a35d 48bd c2c4 323c
000001c0: afe7 a4bc 9f09 5dbd 9356 c33c a7ee e93d
000001d0: eee3 f73d f9f6 083d 61ba b2bd 6571 0d3c
000001e0: 1d03 cabd 5375 983c 1175 b43c 9570 523d
000001f0: 74f2 8abd f60a e1bc 1733 e23d dfa7 8abd
00000200: 4795 99bd 10bd ff3c d3e8 8039 231f 1fbd
00000210: a642 3c3c 06fb 45bd 843f 38bc 346d de3c
00000220: edc9 233d 5d8a ad3d af08 183c 527d 31bc
00000230: 7ecd 9fbc 6c77 33bd 5d75 8e3d 2bed a8bd
00000240: 2f5a 123d d0b7 f9bd 00fb 2bbd b0ee 9a3d
00000250: 2f7d 88bc a536 3fbd b7f2 193c 1efb 2fbc
00000260: bad7 aabc 217f 06be c2ba 71bd cae6 dabc
00000270: 8ed0 943d e014 6c3c 59c8 cc3c c9da 73bd
00000280: 6ac0 34bd d67a 5cbd 6b68 4abd d681 0b3c
00000290: 1284 39bd bbf2 0e3b 6298 c3bd 14cd 0e3b
000002a0: 6187 5cbd 8ba4 933d a682 52bd aec3 503d
000002b0: 9d92 79bd 74c1 d33b 35f1 5fbc 64f5 963c
000002c0: 5c99 f73c 61e0 1cbd 32ca 143d 166a 463c
000002d0: a3fb e73d b4ef e2bc d157 123d 9da9 8cbd
000002e0: 9941 703d 4f11 553c 3b20 923c 5df9 0f3b
000002f0: beeb 7c3c a25b 653d 1e1e f3bc 5708 863c
00000300: 8d68 a1bd 8671 ee3c 1765 a1bb 4954 f1bc
00000310: e0bb 983d 6576 983d 21ed 933d a102 04bd
00000320: 7549 983d aebe db3d f8fe 303a 49fc 143c
00000330: c075 28bd 9a28 a4bc e88b a03d 235c b63c
00000340: f066 7c3c f7f7 093d 8abe 76bc 0e5f bebc
00000350: e636 81bd cb39 abbc 5b30 733d c780 0ebd
00000360: 9aca ebbd 88fb fb3d 8926 d73c b88b b03d
00000370: 689d 603d 3f6c 083b 4e68 6fbd 0165 d83c
00000380: e04a e63d 405d 963a d84a 81bd 48fe e0bc
00000390: 8f54 0c3d 903f 903d 2288 05bd b96c 31bd
000003a0: a531 7c3c b849 143c 4cf5 4bbd 11a3 1ebd
000003b0: 67ce a73d d1a0 c23c bab9 63bd 1246 9ebd
000003c0: e762 df3c 53d0 e4bd 403e cb3d 32a2 0bbd
000003d0: dec9 dd3c c45b 5fbc 780b f63d b5c3 15bd
000003e0: ecbc 843c 6be1 27be 919d 7b3d 7372 2bbc
000003f0: 1a08 963d cb51 5d3b f6d7 4bbb c5f4 12bc
0.108041555 -0.0862586 0.019749282 0.015974483 -0.056316305 0.036794167 -0.013653245 -0.021822099
-0.07174024 0.017881796 -0.03187232 -0.027630143 -0.014456415 0.10324047 0.0029834372 -0.07864813
0.019109044 -0.05161917 -0.062011577 0.019872997 0.07226862 0.025989668 0.12486274 -0.02631323
0.044937972 0.06812683 -0.007094411 0.026234731 0.103245184 -0.05073182 -0.008548833 -0.021259766
0.026350927 0.014211874 0.05548742 0.07977985 0.032299194 -0.11602094 0.021261962 0.033114552
-0.12391237 -0.0016344195 -0.0066236 0.037358496 0.013335888 0.03980023 -0.033251893 -0.02111778
0.055085875 -0.052511066 0.018153243 0.07605282 -0.009589186 -0.08441151 0.08741676 0.09237884
0.010338017 0.011714165 0.04885915 0.0031340031 0.037511922 -0.063784644 0.08622997 0.044882454
0.011919007 -0.028956097 -0.042758226 -0.020693813 0.03408454 -0.142639 -0.0015216011 -0.02674153
-0.02345482 0.039928388 0.07427097 -0.0016901181 -0.0018000468 0.009584825 -0.06808558 0.007613797
-0.065667726 -0.01786973 0.028233593 0.01066674 0.015684498 0.117083274 0.029781975 0.0093111545
-0.008809017 0.13785052 -0.02745797 0.14014623 -0.005761674 -0.015821582 -0.00046033892 0.09970548
-0.005811018 -0.036338355 0.104244776 0.019129856 -0.051433943 0.071216926 0.011594109 -0.012472551
0.058607608 -0.003290661 0.037865385 0.0090286685 0.066890076 0.09571888 -0.048917424 0.0109111685
-0.020130007 -0.053964254 0.023844993 0.114224724 0.12104021 0.033438656 -0.08726955 0.008632992
-0.09863875 0.018610632 0.022028478 0.051376898 -0.067845255 -0.027471047 0.11044901 -0.067703
-0.074991755 0.031218082 0.0002458753 -0.038848054 0.0114905 -0.048335098 -0.011245612 0.027151681
0.039987493 0.08473656 0.009279414 -0.010833101 -0.019507166 -0.04381506 0.06955979 -0.08248361
0.035730537 -0.121932626 -0.04198742 0.07565057 -0.016661255 -0.046682972 0.009396247 -0.010741023
-0.02085482 -0.13134433 -0.059015997 -0.026721377 0.07266341 0.014409274 0.024997877 -0.05953482
-0.044128813 -0.053828083 -0.049415987 0.008514842 -0.045291968 0.002181216 -0.09550549 0.0021789717
-0.053840045 0.072091185 -0.051394127 0.050967865 -0.060930837 0.0064622704 -0.013668348 0.018427558
0.030224495 -0.038299922 0.03632564 0.012110254 0.11327293 -0.02770219 0.03572828 -0.06868289
0.05865631 0.013004615 0.017837634 0.00219687 0.015437065 0.05599559 -0.029677447 0.016361399
-0.078812696 0.029106867 -0.004925381 -0.029459136 0.07457709 0.07444457 0.07222963 -0.03222907
0.07435886 0.10729729 0.00067518605 0.009093353 -0.04112792 -0.020038892 0.07839185 0.022260731
0.015405402 0.033683743 -0.0150600765 -0.023238685 -0.06309299 -0.020901581 0.059372287 -0.03479078
-0.115132526 0.12303835 0.026263492 0.08620399 0.054837614 0.0020816473 -0.058449082 0.02641535
0.1124475 0.0011471882 -0.063131034 -0.027465 0.03426033 0.070433736 -0.03260053 -0.043316577
0.015392696 0.009050779 -0.04979448 -0.03872973 0.08193665 0.023758324 -0.055597045 -0.077282086
0.02726884 -0.11172547 0.099239826 -0.03409023 0.027073797 -0.0136327185 0.12013906 -0.036563594
0.016203366 -0.16394584 0.061429564 -0.010464299 0.07325764 0.0033770676 -0.0031104065 -0.00896949

network_body._body_endoder.seq_layers.2.bias f4 [256]
00000000: 1234 8a3c a57f 593c 0614 2dbc fc66 81bc
00000010: b477 f9bb d57b 773c 33ca b0bc f124 9bbc
00000020: 8701 84bc 09d7 61bc 0f0c afbc cfc2 cd3b
00000030: 0c60 27bb eb8d 493c 71df 59bb 7af8 52bc
00000040: 9be8 c6bc 6374 ccbc ad39 173c 9a77 eb3b
00000050: c063 873c d314 0cbc 9749 aabb 2761 94bb
00000060: 4368 c2bc f028 653c fb32 8c3c e8d4 8ebc
00000070: 7813 95bc b537 afbc 5841 b7bb 9bef 093c
00000080: 858a 333b 8d1e b7bb 1f7f 65bc 6269 2a3c
00000090: 547d 2c3c d93e 9dbc 9963 ff3b c369 b2bc
000000a0: 9f67 183c d2a0 b43b c069 a63c b17a cdbb
000000b0: d21b 133c 71c1 7c3c 6f11 5d3c aa5f 393c
000000c0: ae4e 6dbc 3232 a4bc 391f 9c3c 6b19 563c
000000d0: ffb5 9fbb 3f62 75bb 36d6 8cbc 6240 9dbc
000000e0: 9581 d6bc d8e0 223b 13fd a13b e051 8b3c
000000f0: 817a 5a3c 4e00 82bc a7c6 94bc 4b52 493c
00000100: 3184 6abb b6bb 43bc ed42 32bc 4c33 6abc
00000110: 024d 193c 4aa0 723c a09d 94bc 1b72 813b
00000120: 47f9 2d3c b7a0 91bc daba 08bc 3199 dd39
00000130: 648b e63b 1549 9c3c c285 26bc 99bc 823c
00000140: b69e 22bb 4b8a 953c e6cd 93bb 4f38 45bc
00000150: 3b49 8e3c 6847 42bc bb5c 573c 0e23 d3bb
00000160: 065c b63b f668 663c ad9a 1dbc 989b 223c
00000170: 7d97 debc 1afe 133c acbb cd3b c946 1ebc
00000180: 4376 8cbc d64a f83b 7c8d b0bc 7cbf 3b3b
00000190: f507 dabc 349f 29bb a44d 89bb 36e9 cb3b
000001a0: 8528 64bc b506 e7bc 357e 323c 1cfa 943c
000001b0: ae92 6038 fc63 8e3c c483 b33b 9a9f 373c
000001c0: 6250 3abc 4610 883b a692 b6bc 8611 8d3c
000001d0: 2576 9b3b 1b72 97bc 9ed3 853c 3bd8 89bc
000001e0: f30c 203c fcba 253c ea4f 3c3c cabd 74bb
000001f0: fa0a 403c f11a 99bc 6f5b 833c c31e d1bc
00000200: 47d8 46bc e414 f53b c6db 893c 1817 433c
00000210: 2c13 9c3c 3211 c6bc 22cc 5039 41aa db3b
00000220: de16 2dbc e891 fbbb 7b42 ab3b 4681 613c
00000230: cdf6 513c dc5f 07bc 154d 973c 36f1 723c
00000240: c386 9a3b 5890 ca3a ca41 583c 617f c2bc
00000250: d421 3d3c 308d 87bc bb00 913c b18f debb
00000260: f40a 913c a386 a3bb ddc4 473c 28d6 23bc
00000270: 0668 b7ba 19f9 003c 24a7 9cbc e037 38bc
00000280: e231 2cbc dd08 65bc 0442 2abc 4859 f9bb
00000290: 87ac b83c 874c 87bb 0525 26bc c0ce 473c
000002a0: 2b31 61bc 76be 833c 1818 6f3c 7237 09bb
000002b0: 756e 8b3c e1a0 a23c 5bb2 323c 5ef7 5e3a
000002c0: 19c7 c5ba bfcc e6ba 77ea a5bb 5dce acbb
000002d0: 4c91 53bc d047 1dbc 59dd 08bc cc7b 6a3c
000002e0: 286b 713b 8466 a5b8 e1a4 bd3b 8945 f5bc
000002f0: 93eb 8db6 e0e1 a43c 4afa 873c 4ba8 cfbc
00000300: 6ec7 903b e3ff b6bc 638a 92bc 5f83 303c
00000310: 7abe 263c 00cb e3bb 3020 d6bc 43c2 2a3a
00000320: a812 063c b767 63bc 3cad 0d3c 31f5 0fbc
00000330: cd38 a23c 3c5e 86bb d0d9 3e3c 7b8e 43bb
00000340: 8511 773c cf73 fdbb 9692 973c b1a7 68bc
00000350: 6a24 2f3c 6b6e 083c 5169 75bc 6f13 493c
00000360: c22e d539 d8f5 253c 4128 fe3b a516 743c
00000370: aecb 783c 685c 303c 98e7 4dbc 4b30 383b
00000380: cd99 983c 7c46 19bb afb7 e9ba 66cb 74bc
00000390: 4472 853b 9baf 74bc db25 a73c cf0b 8abc
000003a0: efed 8f3c 0c99 4dbc aa92 c7bb a22f 3d3b
000003b0: 61c6 023c 4f1a 89bc 2679 053c 3ee4 10bc
000003c0: e01c 843c 9793 90bc a375 f03a 87de d23b
000003d0: a9b4 96bc a36b 083c f40f a3bc 2f00 0d3c
000003e0: 5c23 9e3b 490c a9bc 245d 393c 5843 0fbb
000003f0: 5ea4 70bc 9128 3fbc f434 853c c783 743b
0.016870532 0.013275062 -0.010563856 -0.015796177 -0.0076131467 0.015105207 -0.021580791 -0.018938513
-0.01611401 -0.0137841785 -0.021368055 0.0062793265 -0.0025539426 0.012301902 -0.0033244754 -0.012876624
-0.024280837 -0.024957841 0.00923006 0.0071858885 0.016527057 -0.008549887 -0.005196761 -0.004528183
-0.023731356 0.013986811 0.017114153 -0.017435506 -0.01819776 -0.021388868 -0.0055925064 0.008418943
0.0027395796 -0.0055883587 -0.014007359 0.010401102 0.010527927 -0.019195007 0.0077938554 -0.021778947
0.009302049 0.0055123353 0.020314097 -0.0062707295 0.008978801 0.015426979 0.013492926 0.011314312
-0.014484091 -0.020043466 0.019057857 0.013067584 -0.0048739905 -0.0037442592 -0.017191987 -0.01919574
-0.026184836 0.0024853256 0.004943499 0.017006814 0.013334871 -0.015869286 -0.018161131 0.012287687
-0.0035784359 -0.011946609 -0.010880214 -0.014294457 0.009356739 0.014808724 -0.018141568 0.00395037
0.010618514 -0.01777683 -0.00834533 0.0004226654 0.0070356596 0.019077817 -0.010163726 0.015959071
-0.0024813837 0.01825442 -0.004510629 -0.012037351 0.017368903 -0.011857845 0.013144667 -0.006443388
0.0055651693 0.014063111 -0.009619397 0.009924792 -0.027171845 0.0090327505 0.0062784757 -0.009660431
-0.017146235 0.0075772805 -0.02155184 0.002864807 -0.026615122 -0.0025882246 -0.0041901637 0.0062228693
-0.013925676 -0.02820144 0.010894348 0.018185668 5.3542368e-05 0.01738166 0.005478354 0.011207486
-0.011371704 0.0041523306 -0.022286724 0.01722027 0.0047443085 -0.018487027 0.016336259 -0.01682674
0.009768712 0.010115381 0.011493662 -0.0037344568 0.011721367 -0.018689604 0.01603481 -0.025527364
-0.0121365255 0.007479297 0.016828429 0.011907361 0.01905211 -0.024178121 0.00019912471 0.0067036455
-0.010564534 -0.0076773055 0.005226431 0.013763731 0.01281519 -0.008262601 0.018469373 0.014828017
0.004715772 0.0015454395 0.013199279 -0.02374238 0.01154371 -0.016546816 0.017700544 -0.0067920317
0.017705418 -0.004990415 0.012192932 -0.009999789 -0.0013992793 0.0078718895 -0.019122668 -0.01124379
-0.01050994 -0.013979164 -0.010391716 -0.00760952 0.022543205 -0.004128996 -0.010140662 0.012195289
-0.013744633 0.01608203 0.014593147 -0.002093759 0.017020443 0.019852104 0.010906781 0.00085054885
-0.0015089243 -0.0017608627 -0.005063351 -0.005273624 -0.012913059 -0.009599641 -0.008353555 0.014311742
0.0036837552 -7.886908e-05 0.0057874774 -0.029940384 -4.229552e-06 0.020127237 0.01659884 -0.025348803
0.004418305 -0.022338813 -0.017888254 0.010773509 0.010177249 -0.0069516897 -0.026138395 0.00065139326
0.008183159 -0.013879708 0.008647259 -0.0087864855 0.019802475 -0.004100589 0.01164861 -0.0029839564
0.015079861 -0.0077347527 0.018502515 -0.014200137 0.010689834 0.008327107 -0.014978723 0.0122727
0.00040661363 0.0101294145 0.0077562635 0.014897977 0.01518528 0.010764219 -0.012567423 0.0028104957
0.018628025 -0.002338796 -0.0017831231 -0.014941072 0.0040724594 -0.014934446 0.020403793 -0.016851334
0.01756951 -0.012548696 -0.0060904818 0.0028867503 0.0079818675 -0.016736178 0.00814656 -0.00884348
0.01612705 -0.017648501 0.0018345605 0.0064352187 -0.018396692 0.008326444 -0.019905068 0.008606001
0.0048259925 -0.02063574 0.01131371 -0.0021860208 -0.014687626 -0.011667387 0.016260602 0.003730999

network_body._body_endoder.seq_layers.4.weight f4 [256, 256]
00000000: eaf4 523d 5346 f0bb a13b 523d ce5d a0bc
00000010: dae4 8abd 4683 053d 0465 fbbc 62e0 0bbd
00000020: 17ee 6dbd ecac 25bc 5e3c 6bbc 5073 003e
00000030: 454d bc3d 79a4 923d 5e9b de3d e775 64bd
00000040: 2ab6 2cbd 47c6 61ba bbe8 9d3c 3f64 d23d
00000050: f0c2 8d3d b3ee 35bc aa4e 6abd 4207 97bc
00000060: 9029 27bd 56de 84bd cefc 8fb9 a535 b73d
00000070: 5b11 893d 04d7 debc a7a9 3cbd ae35 bb3d
00000080: 6658 2d3d e552 71ba 6c61 a4bd 5fbe 6d3c
00000090: f50a 443b 6d51 933d c3ae b33d 532e ecbc
000000a0: ba1d 243e c28a a53d 5677 a23d 50d8 6bbd
000000b0: 374c ed3c 0c4a b3bc 146a 983c fad6 72bd
000000c0: 7462 183d f1a8 203c c3c0 003d f60b cc3d
000000d0: 4d47 da3c 58eb 273d 8590 f83b a108 a63d
000000e0: f87d 00bd b434 823c de4f e23d 8a8b 6f3d
000000f0: 8253 153d 91c2 8bbd 0e03 b93c a536 9d3d
00000100: ac61 c2bd 1cb8 25bd edf7 f3bd 3ba7 003d
00000110: bbad 933d 3198 153d 9ef4 afbd d702 f2bc
00000120: 7f49 883b f02d c13d e29e 003d 39ad 083e
00000130: 5758 fcbd e705 9f3d 4e3f 4bbc 1c61 45be
00000140: 616e 043e 3495 b83b 3b88 2a3d 35c6 f83c
00000150: 956c 91bd 3fd2 2c3d 211c 103c 3597 0a3c
00000160: 0d49 f4bb 430d 293c f3f9 cebd d6b8 4c3d
00000170: d35d bebc abc2 933d 4911 843d 75c6 80bd
00000180: 5796 173c 8126 99bd 5e9c aabc 1e5b 78bd
00000190: abcb 593c 0a79 6b3d f1eb f4bc a5f4 9fbb
000001a0: de97 263e e219 24bd a392 e13d 23a4 38bd
000001b0: cbcc 2f3b c0d5 10bd b268 cabb 1d65 273c
000001c0: 317c 673c 77df 2d3d 59f8 a33d c63c c6bd
000001d0: 81d6 233d ecf0 a7bc a9cc 703d e279 353d
000001e0: dbda 17bc f377 303d 9dc4 d6bc c8ed ed3c
000001f0: e5d8 c53d 3af0 e63d 2b6a 51bd 5671 d5bd
00000200: 88b1 ab3c 04fc f2bc 9900 84bd d0c0 bf3d
00000210: 9986 2ebd 6446 aa3d dfc2 6dbd 67c9 8abd
00000220: 6fbb 83bd 5502 ab3d 1d83 313c 604d b93d
00000230: ca58 743b 3b39 63bd 6a12 3e3d 9ae0 923d
00000240: a5bb 313d ea32 b4bd 9173 6a3d da50 dc3d
00000250: cb16 1fbc 3100 f9ba b906 fbbc 83da 403c
00000260: 424d 57bd 9e51 973c bbac 373d d6eb 3bbc
00000270: 2aa0 0e3d 6317 843d c2a2 323d 750d f1bd
00000280: 313a 17bd 6dca b63c 9d15 9c3d f70d af3d
00000290: 714f 08bd efd9 d5bd b717 76bd 1aa1 8c3d
000002a0: 3190 34bd 10c8 213d b85f 6fbd 8238 023d
000002b0: e55d 7fbd ffd7 373e 7319 8dbd 0f3e 71bc
000002c0: 35e2 3b3d b0fb 9b3d 2fba 4ebd af05 0e3b
000002d0: fb43 4abd 8311 133e adbc cebc 8864 70bc
000002e0: f7d6 fbbc 3c75 c73b d0eb eabc 8ee0 abbd
000002f0: 2e8f 26bc 39bd 4ebd 4922 9c3d b4f9 11be
00000300: 6b50 c5bd 8391 8ebd 6c47 203d e5d8 49bd
00000310: c0e1 da3c 7067 62bb 6ebc a5bd 5318 02bd
00000320: 86f4 f5bc c6d0 bcbd 6939 8a3c 5921 cabc
00000330: 20ae 4abd 5c85 b9bd 66d6 223d 8ca0 093d
00000340: 7091 383d 46f1 923d 51fa 713d d8d3 653d
00000350: 04ca 313b 82f7 be3d 0ef5 353d 4e08 0f3e
00000360: 0123 d9bc 2e7c 9cbd 72ea a3bc 6865 8f3d
00000370: aa74 2d3d 2b83 dc3b 86b7 febc 7263 ad3d
00000380: e055 b03c 7202 043d 62ed 9d3d 2d48 c13d
00000390: 96f8 633c a77a 1b3d d606 873d 0d0a 8c3d
000003a0: ff39 50bd f761 893b 91e9 b8bc a056 08bd
000003b0: b163 a1bd 3aff 0b3e 56c7 08be ae22 4cbd
000003c0: cb7f 8fbc 28cc 27bd b55c 9abb d1bd 8b3d
000003d0: 12d6 b83d c5aa 053e 9e79 153c 4d79 cfbd
000003e0: 7fd6 203d 88aa 67bc bd4b ffbc d487 bb3c
000003f0: 0c64 81bd 9308 0c3d 8cc7 c7bc 9f45 afbd
0.0515031 -0.007332602 0.051326398 -0.01957598 -0.06781931 0.032595895 -0.030687816 -0.034149535
-0.05808839 -0.010112029 -0.014357654 0.12543988 0.091944255 0.07160277 0.10869478 -0.055776503
-0.042165913 -0.00086126145 0.019276014 0.10273027 0.06921947 -0.011104274 -0.057203926 -0.018436078
-0.04081112 -0.0648772 -0.0002746344 0.08945779 0.066927634 -0.027202137 -0.04606023 0.09141098
0.04232063 -0.00092057727 -0.08026394 0.01451072 0.0029913757 0.07193265 0.087735675 -0.028830683
0.16026965 0.080831066 0.07932918 -0.05757934 0.028967006 -0.021885894 0.01860527 -0.05928705
0.037203267 0.009805904 0.031433832 0.09963219 0.026645327 0.040995926 0.0075855874 0.081071146
-0.031370133 0.015894271 0.1105039 0.058482684 0.036456592 -0.0682422 0.022584464 0.07676438
-0.09491286 -0.040458784 -0.119125225 0.031409483 0.07210871 0.036522094 -0.08591579 -0.02954237
0.004159152 0.0943259 0.031401522 0.13347329 -0.12321537 0.07764798 -0.01240523 -0.19275326
0.12932731 0.005633021 0.041633826 0.03036795 -0.071007885 0.042192694 0.008795769 0.008458902
-0.0074549974 0.010318103 -0.10106268 0.04998096 -0.023238098 0.07214864 0.064486094 -0.06287853
0.009252152 -0.07478047 -0.020826515 -0.06063377 0.013293187 0.05748848 -0.029897662 -0.004881459
0.1626887 -0.040063746 0.11014297 -0.045078408 0.0026824947 -0.035360098 -0.0061770314 0.010216978
0.014128731 0.04244944 0.08006353 -0.0967956 0.03999949 -0.020500623 0.05878893 0.04430569
-0.009268488 0.043083142 -0.0262168 0.029044047 0.0966051 0.11276288 -0.05112664 -0.10422008
0.020958677 -0.029661186 -0.064454265 0.09362948 -0.04260883 0.08314207 -0.05804717 -0.06776696
-0.064322345 0.08350054 0.0108344825 0.09047961 0.0037284368 -0.0554745 0.04640428 0.071717456
0.043391842 -0.087987736 0.05723912 0.10757609 -0.009710024 -0.001899725 -0.030642854 0.011770847
-0.052563913 0.018471535 0.044842463 -0.011469802 0.034820713 0.06449773 0.04361225 -0.11770145
-0.03692073 0.022313321 0.0762131 0.085475855 -0.033278886 -0.10441958 -0.06008121 0.06866665
-0.044082824 0.039497435 -0.058440894 0.03179217 -0.062345404 0.1795349 -0.0688962 -0.014724269
0.045870025 0.07616365 -0.050470527 0.0021670868 -0.049381237 0.14362149 -0.025236452 -0.014672406
-0.030742152 0.0060869735 -0.028676897 -0.0839244 -0.010165973 -0.050473426 0.07623727 -0.1425541
-0.09634479 -0.06961348 0.039130613 -0.049279112 0.026718974 -0.0034546517 -0.08092581 -0.03176148
-0.030023824 -0.09219508 0.016873078 -0.024674105 -0.049482465 -0.090586394 0.039755248 0.033600375
0.045060575 0.071749255 0.05907661 0.056110233 0.0027128467 0.09324552 0.044423155 0.13968012
-0.026505949 -0.07640873 -0.020009253 0.070017636 0.042347588 0.0067295036 -0.03109337 0.08466233
0.021525323 0.032228895 0.07711293 0.094375946 0.013914248 0.037958767 0.06593101 0.068378545
-0.05083656 0.0041925865 -0.02257231 -0.033285737 -0.07880343 0.1367158 -0.1335729 -0.04983776
-0.017516991 -0.040966183 -0.0047107586 0.06823314 0.09025206 0.13053425 0.009123234 -0.10130558
0.03926706 -0.014139779 -0.031164045 0.022891916 -0.063179106 0.034187865 -0.024387144 -0.08558201

network_body._body_endoder.seq_layers.4.bias f4 [256]
00000000: 022b b33b e02b fd3b 4b12 c6bb ee01 823a
00000010: 8054 abb9 5375 50bb a828 d23b 098e d0b9
00000020: 5b99 d8bc 6681 9ebc ef77 63bb d6bf bcbc
00000030: 2107 783a c23b 3e3c f701 c8bb 574f 013b
00000040: 4c83 853c eefc 7a3c 639b d73b d686 73bc
00000050: b0ca bbbb dc12 2bbc c52a 5d3c f98a 4abc
00000060: ac40 17bc acd6 f3bb db56 463c 1d55 5fbc
00000070: 77e2 a6bc 4c51 5c3c b75c c4bb c6d1 b0bb
00000080: 001e 623c 4243 93bc 5432 633c 3f11 18bc
00000090: 1a01 97bc 08c6 b3bc 0cab cfb9 6695 173c
000000a0: 1200 b33a a0bf 313c d8f2 97bc 2cbc 583c
000000b0: d837 593c b940 9f3c 5ce5 bdbc 00cd 593b
000000c0: 75f1 1b3c d2f4 dbbb 1799 0bbc f5fe 8c3b
000000d0: 3e44 03bb b033 173c 8f72 943c e6d6 0bbb
000000e0: 7173 83bb 9ae8 24bc 77e5 4ebb 9abd 02bc
000000f0: 3fca adbc b0e1 41bc 4f00 0ebb 626c 903c
00000100: ddd4 743b 9a89 8abc 6436 ddbc 4f22 983c
00000110: dbe5 503c a63c 86bb 6839 c3bc 125b 843c
00000120: df5f 873c c922 7b3c ee18 a0bb 3b84 8dbb
00000130: 9fac 883c 5d45 a6bc 2ea5 783c bf6e 4d3c
00000140: 8706 80b9 664a 583c 19b0 2a3c d1ad 04bc
00000150: bbbd 75bb 8bbf 1d3c 2434 283c 3b80 9c3c
00000160: c6dd 4c3c 7e14 7dbc 5e84 ea3b 4477 abbc
00000170: 92fc fabb bbf6 94bc c34c 843c 6ccc ab3b
00000180: 889f 25bc 270e d3bb 85c0 0dbc 3524 5d3c
00000190: e28b 7a3a a9e3 dabb 7baf 263c cb30 eabb
000001a0: f937 823c b07e c93b b347 933c ed4c a4bb
000001b0: 92e2 753c 983b 9f3b 7ec3 213c 1e6e d1bc
000001c0: 593d 573a da1e 2fbc ad49 31bc dd99 383a
000001d0: ffa2 073c 3a30 b9bc 84d4 833c b52c 91bb
000001e0: 9629 4b3c 7fcd 5e3b cafe 0e3c 59c8 43bc
000001f0: 26ab 61bc 8e5f 943c 72ba 0a3c e77b 3ebb
00000200: 3d93 8d3b 2145 113c 52ba 1abc 5552 ac3c
00000210: 8400 45bc 003f 163c 5927 4f3c 20de 543c
00000220: 05bc 8d3c dd45 0bbc bcf6 c03b 5b80 19bc
00000230: 72b4 013c 8382 90bc 5d4a 9f3b cdea 4abb
00000240: 0b0d ee3b 3a56 5e3c a693 563c 1067 603c
00000250: ddb6 963c ee56 cbbc 503d 673c 8a7a a9bc
00000260: 53d1 8c3c 7606 f5bb 474c a03b 3709 db3b
00000270: 667b 583b 6892 86bc cfc5 053c 9e57 9dbc
00000280: 5f2c 58bc b37f a73b cff0 c3bb c1b1 9e3c
00000290: 45cd 2e3c 0757 caba 2592 59bb 29bc b43b
000002a0: 7763 54bc dbd5 eb3b f06c c3bc 4d1a 803c
000002b0: 4aa3 3e3c 487e 3f3c bf3a ea3b b16c 6c3c
000002c0: 4dfe cbbb 8bc4 8dbc 0f24 74bc 3234 173c
000002d0: 78a6 98bb bf11 a83b 8752 123c 909e fb3b
000002e0: 2d0e 603c aeda 82bb 801c a9bc cbe6 cbbc
000002f0: 0875 72bb 6512 7a3c 0da0 ac3b 3578 283c
00000300: 6583 91bc 75ba 6fbc 313e dfbc 53fe a63b
00000310: 8982 95bc ffd4 963c 70c0 8a3c e651 8c3c
00000320: b9f6 553c 4f6c 2bbc 8126 5fb9 cf04 bfba
00000330: de32 503c cab1 94bc bdcb 34bb 8d25 e4bb
00000340: 4950 4bbc 4efe 6fbb 33b7 5b3c 28fe 8d3c
00000350: 8f37 343c 2db0 453c 9ae1 c6bb c56b 31bc
00000360: 2567 77bb 5902 fa3b 7098 8c3c 136c 37bc
00000370: 72dd 4e3c 2903 b73b 295f 7f3b 916b b9bc
00000380: 84a5 13bc bba4 673c 74e1 9c3b 79b1 663b
00000390: cbca a4bc a5c1 94bc a04d f9ba 0b1f 8ebc
000003a0: c09b 963b 0392 7c3a 34fe b7bb 65b5 7e3b
000003b0: 99c6 ccbc 9d85 9a3c 58ce 9cbc 1915 48bb
000003c0: c5ee 7bbb 8143 81bc df04 a8bc d4d6 79bc
000003d0: bdfe 60ba b5f1 9a3c e746 9c3c 3527 81bc
000003e0: a27b 8bbc c5fa d73b ef42 8eba d7da ee3b
000003f0: b9ca b8bb fbd8 86bc a893 9a3c 1f45 9cbc
0.0054677734 0.0077261776 -0.006044661 0.0009918788 -0.0003267862 -0.0031808212 0.006413538 -0.00039778676
-0.026440313 -0.019348811 -0.0034708937 -0.023040693 0.00094615115 0.011610927 -0.00610375 0.0019731128
0.016297959 0.015319092 0.006579803 -0.01486369 -0.0057309493 -0.010441508 0.013498967 -0.012362235
-0.009231728 -0.0074413624 0.012105669 -0.013631132 -0.020371659 0.013447117 -0.005992498 -0.0053961007
0.013801098 -0.017976407 0.01386698 -0.009281456 -0.018433142 -0.021945015 -0.00039609557 0.009251928
0.0013656637 0.01084891 -0.018548414 0.013228457 0.013257943 0.019440042 -0.023180656 0.0033233762
0.009518017 -0.0067125345 -0.008520386 0.004302854 -0.002002969 0.009228632 0.018121032 -0.0021337806
-0.0040115644 -0.010065222 -0.0031569877 -0.007979775 -0.021214603 -0.011833593 -0.0021667664 0.017629806
0.0037358322 -0.016911317 -0.027003475 0.018571047 0.012750114 -0.0040965853 -0.023831084 0.016156707
0.016525207 0.015328118 -0.0048857844 -0.0043187416 0.016683875 -0.020296747 0.015176101 0.012538611
-0.00024418926 0.013201332 0.0104179615 -0.008098082 -0.0037497121 0.009628187 0.010266338 0.019104114
0.012504047 -0.01544678 0.0071568927 -0.020930894 -0.0076595033 -0.018184057 0.016149884 0.005242875
-0.010108836 -0.006440896 -0.008651857 0.013497402 0.00095575873 -0.0066799712 0.010173674 -0.00714693
0.01589583 0.0061491355 0.017978525 -0.005014053 0.015007632 0.004859399 0.009873269 -0.025565203
0.00082107406 -0.010688508 -0.010820788 0.00070419704 0.008278607 -0.022606004 0.016092546 -0.0044303783
0.012400052 0.0033996997 0.008727739 -0.011949622 -0.013773715 0.01811197 0.008467304 -0.002906555
0.0043205307 0.008866579 -0.009443836 0.021035353 -0.012024049 0.009170294 0.012643659 0.012992412
0.017301569 -0.008500543 0.005888788 -0.009368981 0.007916557 -0.017640358 0.0048611597 -0.0030962706
0.0072647384 0.013570363 0.013096726 0.013696447 0.018397743 -0.024821725 0.014113739 -0.020688314
0.017189657 -0.007477577 0.0048919055 0.006684448 0.0033032536 -0.016427234 0.008164837 -0.019206818
-0.013194173 0.0051116585 -0.0059796344 0.019371869 0.010669057 -0.0015437313 -0.0033198681 0.0055155945
-0.012963167 0.0071971244 -0.023855656 0.015637541 0.011635611 0.011687823 0.0071481164 0.014430211
-0.0062253834 -0.017305633 -0.014901175 0.009228753 -0.0046585165 0.0051290686 0.008930809 0.007678814
0.013675255 -0.003993354 -0.020643473 -0.024890324 -0.0036996026 0.015263175 0.005268103 0.010282566
-0.01776285 -0.014631857 -0.027251335 0.005096236 -0.01825072 0.018412111 0.016937464 0.017128896
0.013059312 -0.0104628345 -0.00021281281 -0.0014573577 0.01270744 -0.018151183 -0.0027587258 -0.006962484
-0.012409278 -0.0036620083 0.013410377 0.017333105 0.010999574 0.012065929 -0.0060693743 -0.010828917
-0.0037750688 0.0076296744 0.017162532 -0.0111952005 0.012626039 0.0055850935 0.0038966632 -0.0226343
-0.00901163 0.014138396 0.0047876183 0.0035200997 -0.02011623 -0.018158743 -0.0019020326 -0.017348787
0.0045962036 0.00096347946 -0.00561502 0.0038865444 -0.024997042 0.01886254 -0.019141361 -0.0030530153
-0.0038441878 -0.015779259 -0.020510135 -0.015248973 -0.0008582881 0.018914083 0.019076778 -0.015765766
-0.017026726 0.0065911734 -0.0010853688 0.0072892713 -0.005639401 -0.016460886 0.018869236 -0.019075928

action_model._continuous_distribution.mu.weight f4 [4, 256]
00000000: 0c03 f23b ca42 50bc 4d42 c83b 85b0 ee3c
00000010: e4c4 bebc 81ef 303b 3d82 55bc 9ddc 1b3b
00000020: 2bc8 143c 3330 b03b 1f77 94bc 8045 33bc
00000030: 1fb5 14bc 8ede 54bc ce7e 53b9 a78a 04bc
00000040: 5f94 13bc 2ca2 c5bc e497 c3bb dd96 d7bb
00000050: 0c60 83bb ae77 883c 27f0 2fbb aa69 9bb9
00000060: 16b5 35bc 0f48 753b cd8f 8abc 1590 95bc
00000070: 26af 30bc 6a2d 58bc ade8 e63c 7708 1f3c
00000080: 5701 1b3c 0519 313c 960f 1a3c 8657 5d3c
00000090: a331 bc3b f76e e1bb 1b79 c5bb 6f73 9bbb
000000a0: d75f b8bb 5782 f2bb 0513 853b 2320 033c
000000b0: fc5c 383c abe2 b03b 8c5f e13b fc08 83bc
000000c0: 35bb 5f3b c1c1 dbbb 0be7 44bb 06e3 2e3d
000000d0: 4627 b0bb b859 8a3c bd27 59bc 5d66 063c
000000e0: 2793 9abb 04d6 6d3c ea4a b6ba 9786 9fbc
000000f0: 567d 2bbc 183b 72bc 5c71 67bc c081 eebb
00000100: d177 32bc 1586 083c f571 12ba 08c2 a8bb
00000110: fd2e ebbb 08a3 fb3b 4132 d0ba 6b9a ea3a
00000120: 11ce c03b e260 a7bb 1b6f 84bc 4cd9 8dbb
00000130: 463e 16bb 9dd9 263b f79d 433b 9bf3 c8bb
00000140: a376 82bc 324b d63b fe8d e1ba 1158 6fbc
00000150: 4710 d33a 6971 6bbb 0186 99ba 4094 08bb
00000160: c905 8fbc 5c59 e239 1af6 cabb 5d91 063c
00000170: 546b 4e3c e56e 4dba ddad b7bc be92 05bd
00000180: da2b b03a c982 69bc d7ca a93b def0 663c
00000190: c419 d0ba 075f aebb ce87 893b 43ed e6ba
000001a0: 3f83 0f3c 4e3e ecbb ff9d 3dbc 7248 81bb
000001b0: 427d 063b 9bc7 833c a47a 973b 968a 213b
000001c0: 28ac 1c3c a024 813c 4df0 a9bb 0c9d b5bb
000001d0: 292d 26bc c769 e13b 0081 80bb 5eb8 41bc
000001e0: 1a09 89bb ea62 f7bb 74bd f53c 8387 66bc
000001f0: b68a 5cbc 0b5c 00bc 5501 873b 798a 2bbc
00000200: 8028 7c3a 7aca a63a 98d2 46bb 5b25 72bb
00000210: 896b d2bb edb0 ac3b dd44 113b 2607 45bb
00000220: e639 ff3a 80c5 973a 6d60 f7ba d9f6 b7bc
00000230: 7c41 bfbc e89b 013c b1f3 adbb 1bb5 6abc
00000240: 6005 383c dbeb 86bb ee7a 153c 2815 6b3c
00000250: 7479 10bb ce25 a53c c864 bd3b e20a 9abc
00000260: 1987 81bb dc83 15bc 0b63 cebb 0732 f63a
00000270: bc2a bebc c284 253c cbd6 84bc a2c1 833b
00000280: d2f2 bc3c 3930 17bc 3d23 623a 8f1d 41bb
00000290: 27fa 813c 3646 1339 7ae2 7b3c 3147 433c
000002a0: e6dd 513c c529 313c 4bc1 c53b 6e33 edbb
000002b0: b58e bf3a 944a 19b9 707a 30bb 5000 f53b
000002c0: 93d8 8a3b 3613 543c 8a0d 36bc 18c4 14b7
000002d0: 740c 8c3b 4d11 063c b363 8ebc bede 2fbc
000002e0: 5030 a73c 460a fe3a c20b 6b3c 6f4d 18bc
000002f0: fc2b 0cba c5f6 8c3c 6dbd 973c 1f99 bfb9
00000300: 97a1 82bb 6e58 58bc 475e 493c b071 29bb
00000310: 1a95 fb3b cab1 db3b d0a4 b5ba 5ad0 703c
00000320: 75fe fe3b 655e 6bbc e961 043d 7be9 da3b
00000330: 10d1 38bc 9dea 4c3b 65da 6abb 410b 8ebb
00000340: 73cb 78bb 2f40 67bc e64e ddbb 9533 273c
00000350: b307 653c 4b8a 96bb 9509 98bc 5367 ba3c
00000360: 3c6d 11bc d364 fc3b da78 01bb e31b 0abc
00000370: 9ad3 e9bb 9264 fd3b 5a9f 603c 694f c2bb
00000380: f4ad df3b 1349 403c 5724 323c 2a1e d5ba
00000390: cda7 dfbb f833 683c df49 bcbb eca3 823b
000003a0: ac36 26bc 0c64 853a 5684 6bbb 9dbe d1bc
000003b0: 6e55 173b 6658 283b 9de5 b4bc 165c 753c
000003c0: 2cbc a6bc 1c60 3ebc a02f 183c 3827 67bc
000003d0: 8501 943c 8f50 2abc 32ca 2cbc ec11 41bc
000003e0: a0a5 3d3a 6f9a 58bb ec75 37bc 1108 4a3c
000003f0: 987f 7c3c 2383 92bb 3a8e 5abb 2f8b f7ba
0.007385617 -0.012711236 0.0061114193 0.029136905 -0.023287244 0.0026998224 -0.0130315395 0.0023782619
0.009080927 0.0053768395 -0.018123208 -0.010941863 -0.009076386 -0.012992514 -0.00020169767 -0.008089698
-0.009007542 -0.024125181 -0.0059690345 -0.0065792636 -0.0040092524 0.01665863 -0.0026846023 -0.0002964263
-0.0110905375 0.0037426983 -0.016914273 -0.01825718 -0.010783946 -0.013194421 0.02818712 0.009706608
0.009460769 0.010809188 0.00940313 0.013509637 0.005743222 -0.006879683 -0.0060264 -0.0047439854
-0.0056266594 -0.0074007916 0.004061105 0.008003267 0.011252638 0.0053981147 0.006877845 -0.015995495
0.0034138684 -0.006706447 -0.003004494 0.042696975 -0.0053757755 0.016888484 -0.013254103 0.008203116
-0.004717249 0.014516357 -0.0013907824 -0.019473357 -0.010466894 -0.014784597 -0.014126148 -0.007278651
-0.010892824 0.008332749 -0.0005586439 -0.0051500835 -0.0071772323 0.007679347 -0.0015884117 0.0017898803
0.00588394 -0.005107985 -0.01616626 -0.0043288823 -0.0022925301 0.0025459297 0.0029848793 -0.0061325557
-0.015925711 0.0065397257 -0.0017208455 -0.014608399 0.0016102873 -0.0035925752 -0.001171291 -0.0020840317
-0.017458813 0.00043172657 -0.0061938884 0.008213368 0.012598831 -0.0007836654 -0.022421772 -0.032610647
0.0013440803 -0.014252373 0.005181651 0.014095513 -0.0015876819 -0.0053213867 0.0041970974 -0.0017618317
0.008759319 -0.0072095757 -0.011573314 -0.0039454037 0.0020521437 0.01608639 0.004622774 0.0024649254
0.00956253 0.015764534 -0.005186117 -0.005542403 -0.010142603 0.0068790647 -0.003921628 -0.011823742
-0.004181993 -0.0075496333 0.029997565 -0.014070394 -0.013460806 -0.007834445 0.004120032 -0.010470026
0.0009619072 0.0012725138 -0.0030337926 -0.0036948535 -0.0064215106 0.0052701146 0.002216629 -0.0030064075
0.0019472211 0.0011579245 -0.0018873342 -0.022456573 -0.023346655 0.007910706 -0.0053085913 -0.0143254055
0.01123175 -0.0041174716 0.009123547 0.014348306 -0.0022045048 0.020159628 0.0057798363 -0.018804017
-0.0039528725 -0.009125676 -0.006298428 0.001878322 -0.023213737 0.010102453 -0.016215703 0.0040208856
0.023065004 -0.009227806 0.0008626467 -0.0029467081 0.015866352 0.00014045168 0.01537382 0.011918829
0.012809252 0.010813181 0.006035005 -0.007238797 0.0014614674 -0.00014619 -0.0026928447 0.007476844
0.0042372434 0.012944033 -0.011111626 -8.867144e-06 0.0042739455 0.008182836 -0.017381525 -0.010734258
0.02040878 0.0019381724 0.014346065 -0.009295805 -0.00053471304 0.017207513 0.018522942 -0.00036544443
-0.003986548 -0.013204677 0.012290544 -0.0025855117 0.0076776864 0.0067045437 -0.0013858322 0.014698112
0.0077817985 -0.014365767 0.032319937 0.006680665 -0.011280313 0.003126777 -0.003583574 -0.0043348377
-0.0037963062 -0.014114424 -0.00675379 0.010205169 0.013978886 -0.0045941225 -0.018559257 0.022754347
-0.008876141 0.007702449 -0.001975587 -0.0084295 -0.0071358206 0.007732936 0.013709867 -0.0059298766
0.0068261568 0.011736172 0.010872922 -0.00162596 -0.0068254233 0.014172547 -0.005746111 0.003986826
-0.010144871 0.0010176911 -0.0035937033 -0.025603587 0.0023091692 0.0025687455 -0.022082144 0.014975568
-0.0203534 -0.011619594 0.009288698 -0.014108472 0.01806713 -0.010395183 -0.010546254 -0.011784058
0.0007234458 -0.0033051034 -0.011197548 0.012331025 0.01541128 -0.004471199 -0.0033348934 -0.0018886084

action_model._continuous_distribution.mu.bias f4 [4]
00000000: 8f17 8d39 eb9e 1e3a 0493 87ba 4e48 7c3a
0.00026911168 0.00060509023 -0.0010343497 0.00096238113
