results/shooter2/Shooter.onnx (onnx, 201499 bytes, 9 tensors)

network_body._body_endoder.seq_layers.0.weight f4 [128, 120]
00000000: 4bea 1d3d aef4 fbbd b255 883c b148 f23b
00000010: 0bf2 58bd 4122 adbd 881d 133d 2a32 c93d
00000020: 4a29 a3bd 05ad 32bd f5e9 75bd 3ff2 193c
00000030: 8aef 68bd 4ab1 943c 416d f0bd 124c db3a
00000040: 57c1 55bc 9846 443e 26df 7b3d e1ca 3e3e
00000050: a6a5 dabc c681 bdbb 2c2a 1fbd f469 ea3d
00000060: a9a9 2d3d 3484 403d 61d0 86bd cbe4 cd3d
00000070: d3b8 9dbd 0cb4 4a3c afd7 aebd bed2 0c3e
00000080: a3a2 7abb 5447 18bd 576e 9d3c d3a9 93bd
00000090: 3cb5 a43d 15ea a13d cceb aa3c 8014 463d
000000a0: a6b0 d9bc 65c8 cbbc 54aa 143d 0ec7 ec3d
000000b0: 0ea0 3d3e 9b9a c63b b7be 25be e51c 4cbc
000000c0: 6098 673d 8576 623d 4009 34be 9fb3 ca3d
000000d0: 091c 043e 00e6 003c 9660 aa3c 7651 bd3c
000000e0: 86eb 003e a13f e33d 68c4 1b3d 5d9b 003e
000000f0: b4b3 293b 70b6 2b3c 1abd 3e3d 620a 7e3d
00000100: 23dc 51bd 3967 f3bb aee6 a83e 54f7 7d3c
00000110: f7ab bfbd 31c2 9dbc a79e 743d ece7 933d
00000120: 6d9e d03c c5f6 1ebc c8a6 95bd 4b16 79bd
00000130: b53c 6bbd b897 263b cef8 9b3d 0988 97bc
00000140: 996a b0b9 b8c9 0bbe bcc4 1e3c 0e22 f53d
00000150: 13b3 07be 4f0d a1bd 45fa f93d 1518 243e
00000160: d7ac 04bd 095e d8bc ab8c 21be 4f17 f7bd
00000170: 8ed0 dc3c 6b24 9a3b dc28 0e3e c44e 83bd
00000180: 44e5 7e3c d9cc 133d 85dc 203e 30ea 133e
00000190: aa49 c2bd 797c 933d b65f 94bd b604 9b3c
000001a0: 70e8 053d 0f56 093d 9e50 5ebc 9499 fc3d
000001b0: e247 2bbd 8c48 64bd c7a8 a53c cce7 ad3c
000001c0: 81e6 67bd d981 1c3d 91e3 d03d 1658 00bd
000001d0: 6124 4dbe eb40 363e 94d7 73bd dc99 25bc
000001e0: baaf 863c 8bab 68bd 7705 093d 496f 0abd
000001f0: 9335 05bd 1809 5c3d edf9 ca3d 5a83 0fbe
00000200: e29f bfbc 3218 95bd fd2d edbc 7001 413c
00000210: 3d00 0a3b 5c27 593d 669a 1f3e 9db0 0abe
00000220: 6f9a 963d d2cc 6b3d bc5f 85bd ffba eb3d
00000230: b14e d43d d06e 583d 904d ba3d 1664 f63d
00000240: d6bb 93bd 02e7 643d 19ca 113e 86ea 0ebe
00000250: 6249 823d 2f56 1fbe a158 f2bd 2b9b 8ebd
00000260: eb7a 72bd 1d0e 103e a5c9 74bd 928f b23d
00000270: a09e 643d 8ae9 f13b 71d2 61bc ecc5 273d
00000280: c481 8dbb d97c 29bd d0df 253e 3846 b73d
00000290: c3b7 a3bd e257 7dbd 86d3 11be 1927 fd3d
000002a0: caef 32bc d8e5 42bd b5a8 833c d5a2 adbd
000002b0: b111 f13d 19eb cb3c 0f3d 97bd f186 133d
000002c0: 926d 3a3d 0ba4 513d d705 16bd 2aa6 bbbd
000002d0: 528a eabc 825f b8bd 047d 19bd 9bae c0bd
000002e0: 90e0 55bd 5dab 1dbe 5881 1a3e 28f6 fbbc
000002f0: fdfa 0ebd 7d9f 1fbd 4c15 5abd cde7 69bd
00000300: 4147 20be c76f c93c 8b09 b3bd d47d cdbb
00000310: a175 933d 8096 f53c 0a18 b9bc b120 67bc
00000320: 497b 083d 6dac 153e e075 993d e228 f1bd
00000330: 503f ad3d 2a14 13bd 5cb5 bd3d 756e cebc
00000340: 1953 083e ed22 a8bd 53e2 40bb 3d09 123e
00000350: 8d1b 14be 3aab a7bd 0d93 f8bc c50b 7cbd
00000360: df9e 833d b207 e73c 6445 c13d 9549 36be
00000370: 422f f13c bf9b bdbd 9f7a 6c3d 6e11 743e
00000380: 7c24 25bd 4acc cb3c a954 cd3d 9ab6 b13c
00000390: aa47 3c3c c6ee acbd f3f6 bfbd 6d7e ef3b
000003a0: 85a8 d63d 2637 24be bc01 34bd ad5c 093e
000003b0: fbf6 27bd 6d9e 41be e0cb ea3d c423 213c
000003c0: 609a c03d 151d c6bd e7ff b33d f27e c83d
000003d0: 3754 8abc 29b8 c6bd fa25 23bd fbc6 b63c
000003e0: 8a84 333d c0a4 8239 5075 ebbd f307 6c3e
000003f0: d9d9 233e 7534 2a3e 8b2f 1b3d cfcc b8bc
0.038553517 -0.12302528 0.016642425 0.0073939194 -0.052965205 -0.08453799 0.035916835 0.09824021
-0.0796686 -0.043622036 -0.060037572 0.009396135 -0.056869067 0.018150944 -0.117395885 0.0016731045
-0.013046584 0.19167554 0.061492108 0.1863208 -0.026690315 -0.0057832925 -0.038858578 0.1144599
0.04239813 0.04700108 -0.06582714 0.100534044 -0.07701268 0.012372028 -0.08537232 0.13752267
-0.0038243912 -0.0371774 0.019217653 -0.07210126 0.0804238 0.07905976 0.02086439 0.048359394
-0.02657349 -0.024875829 0.03629525 0.11561404 0.18518087 0.006060911 -0.16186033 -0.012458061
0.0565418 0.05528881 -0.17581654 0.09897541 0.1290132 0.007867336 0.020798009 0.023110133
0.12589845 0.110961206 0.038029104 0.12559266 0.0025894465 0.010480508 0.04656706 0.06202162
-0.05123533 -0.0074280766 0.32988495 0.015500862 -0.093589716 -0.019257637 0.059721615 0.0722197
0.025466168 -0.009702389 -0.073072016 -0.060812276 -0.05743094 0.0025420021 0.07615815 -0.018497484
-0.00033648757 -0.13651168 0.00969046 0.11969386 -0.13251905 -0.078638665 0.12205938 0.16024812
-0.032391395 -0.026412027 -0.15776317 -0.12064993 0.026954915 0.0047040484 0.13882774 -0.06411508
0.015557591 0.03608403 0.15709122 0.14444804 -0.094867066 0.07201476 -0.07244818 0.018923145
0.032692373 0.033529337 -0.013569025 0.1233398 -0.0418166 -0.05573325 0.02022208 0.021228693
-0.05661631 0.03820977 0.10199655 -0.031334005 -0.20033409 0.17798202 -0.059531763 -0.010107484
0.016441215 -0.05680422 0.033452477 -0.033797536 -0.032521795 0.05371961 0.09910951 -0.1401495
-0.023391668 -0.072800055 -0.028952593 0.011780128 0.002105727 0.05301605 0.15586242 -0.13543935
0.073536746 0.05756838 -0.065124005 0.11510276 0.10366572 0.052840054 0.09096825 0.12030809
-0.07213561 0.05588437 0.1423725 -0.13956651 0.06361653 -0.1556022 -0.11833311 -0.0696319
-0.059199255 0.14067884 -0.059762616 0.0871879 0.05581534 0.0073825764 -0.013783083 0.040960237
-0.004318448 -0.04137883 0.16198659 0.0894894 -0.07994034 -0.06185139 -0.14240846 0.12360973
-0.010921428 -0.047582477 0.016071657 -0.08478323 0.117709525 0.024892377 -0.07384693 0.036017362
0.04551465 0.051181834 -0.036626663 -0.09162553 -0.02863041 -0.09002592 -0.03747274 -0.09408303
-0.052216113 -0.15397401 0.15088403 -0.030757025 -0.03490733 -0.03897046 -0.053242967 -0.057105828
-0.15652181 0.024589432 -0.087420546 -0.0062711034 0.0720017 0.02997899 -0.02259447 -0.014106915
0.0333207 0.14616556 0.07493186 -0.11775376 0.084593415 -0.0359079 0.09263107 -0.025199154
0.13312949 -0.082097866 -0.0029431775 0.14261337 -0.14463635 -0.08186956 -0.030343557 -0.06153466
0.06426787 0.028201912 0.09437063 -0.17801507 0.02944148 -0.09258222 0.057734128 0.23834774
-0.040317997 0.024877686 0.10025913 0.021693517 0.011491695 -0.0844398 -0.09373274 0.0073087723
0.10481361 -0.16036662 -0.043946967 0.13414259 -0.041007023 -0.18908091 0.11464667 0.009835187
0.09404445 -0.09673516 0.08789044 0.09789838 -0.01688586 -0.097030945 -0.03983114 0.022311678
0.04382757 0.0002491828 -0.11496985 0.23049907 0.16001071 0.16621573 0.037887137 -0.022558598

network_body._body_endoder.seq_layers.0.bias f4 [128]
00000000: 0620 7b3c fc7e 053b 93da 243b 448a 66ba
00000010: 6e09 833b 4542 6e3b 5141 223a 293f 883b
00000020: f99d c63c 02d5 23bc e591 053b a443 6cba
00000030: 6c53 313b 3ae3 013c a6b7 a63b 72ba 803b
00000040: 5c91 063c f20d a83c 92cf dabb 78d4 7f3c
00000050: 55bb c13b d122 9f3b 41d2 1f3c cddd 00bc
00000060: 1e28 b03b 1fff 653b e58d 11bb a0e1 3abc
00000070: 76a8 6ebb 2d3b 113c 0eb9 68bc 8eec 4e3a
00000080: 5917 a83c 6fb7 8a3c 7201 633b 1c3c 3f3c
00000090: 5571 1e3b 6f48 fa3b c108 ffbb 73bc 62ba
000000a0: f9bc 713b 083d 4db8 2693 793b 3b77 e0bb
000000b0: 4bae 14bc 529e 5d3c 1e7d d13b e152 193b
000000c0: 00c6 883c e27d 2abb 143b bdbb d0d5 e53b
000000d0: 8905 e23a f54d 99bb ee30 093c 584e 023a
000000e0: d074 ceb8 9963 4bbc 8aeb 09bc 0aab 9c3c
000000f0: 59c4 733c 0634 843c b687 0c3c f0bb f73c
00000100: 2ed2 233b 5f73 4e3b fa79 c13a 3703 93bc
00000110: 2f0b 4d3c c5ba 003c a5f6 3bbb e8f0 703c
00000120: ea01 193c 19fe c9bb 2960 2ebc 4a97 293c
00000130: 13ce d63b d703 95bc 0eb2 4ebb 50dd bcbb
00000140: ce26 6b3c a5a9 a73b 6d4d 6fbc e960 a23b
00000150: 5ef0 4bbb b76f 233c 91fe 2dbc cb7c a73c
00000160: 36f4 2c3a c7f6 9c3a 1032 72bb fc72 57bb
00000170: b2f4 1abc 31b6 223c 1615 893c de7e 2f3c
00000180: 1f04 89bc c1ce a03c 87d1 583c c558 51bb
00000190: 4001 833c d7a6 17bc 2da4 9f3b 0791 c4bb
000001a0: 573c 08bc 3f80 1d3c 0f52 12bc 093e 7abb
000001b0: 511f 31bc a120 fb3c b283 17bb 29f1 2fbc
000001c0: 0751 5abb 7de1 07bc 83e8 e739 85f6 333c
000001d0: 2d7a ed3b dc6f 29bc f4e5 17ba 4076 d9bb
000001e0: 18c5 75bc 7099 d33b fad9 5e3c 94bd 25bc
000001f0: 279a 9d3a 5059 363c e1c3 823a 81bf 9a3b
0.015327459 0.0020369878 0.0025154694 -0.0008794407 0.003998927 0.0036355418 0.00061895425 0.00415792
0.02424525 -0.0099995155 0.002038115 -0.0009012765 0.002705778 0.00792771 0.0050878106 0.003928476
0.008213367 0.020514462 -0.0066775763 0.015614621 0.0059122243 0.0048564454 0.009754718 -0.007865381
0.005375876 0.003509469 -0.002220982 -0.011406332 -0.0036416329 0.008864206 -0.014204277 0.0007893526
0.020518946 0.016933171 0.0034638313 0.011672046 0.0024176438 0.0076380293 -0.007783026 -0.0008649297
0.0036886318 -4.893265e-05 0.0038082092 -0.006850151 -0.009074758 0.013526516 0.006393089 0.0023395347
0.016695976 -0.0026014973 -0.005774865 0.007014014 0.0017244081 -0.0046784827 0.008373482 0.00049707806
-9.8446035e-05 -0.012413883 -0.008417973 0.019124527 0.014878356 0.016138088 0.008577278 0.030240983
0.0024997103 0.0031501872 0.0014761083 -0.017945869 0.012514873 0.007857029 -0.0028680947 0.014705874
0.009338835 -0.006164324 -0.010643044 0.0103510115 0.0065553277 -0.018190308 -0.0031539234 -0.005763687
0.0143525135 0.0051166588 -0.014605862 0.0049554002 -0.0031118612 0.009975365 -0.010619775 0.020445248
0.00065976696 0.0011975401 -0.003695611 -0.0032874933 -0.009457754 0.009931133 0.016733687 0.0107114
-0.016725598 0.019629838 0.013233549 -0.003194378 0.015991807 -0.009256086 0.004871866 -0.005998734
-0.008315167 0.009613096 -0.008930697 -0.0038183948 -0.010810689 0.030655207 -0.0023119268 -0.010738649
-0.0033312456 -0.008293507 0.00044232988 0.010984068 0.0072472305 -0.010341611 -0.00057944586 -0.006636411
-0.015000604 0.0064575 0.013601774 -0.010116 0.001202409 0.011129692 0.0009976589 0.004722536

network_body._body_endoder.seq_layers.2.weight f4 [128, 128]
00000000: 51c9 4cba 94be 453d c766 11be 3047 58bd
00000010: 1001 843d 893c 3c3d de09 babc a882 c3bd
00000020: 7afd 173e ad9a c0bd 205e 923c 3e0b 54bd
00000030: 7ece 50bd 8363 62bd ad15 a5bd 587e 343e
00000040: 7d73 043e f03c 293b 7334 d5bd 5b62 bdbc
00000050: 33bb 0d3d 289f 8e3d 4a8d 5b3d 9ad5 4b3d
00000060: 0586 593d 5871 1f3e fc13 2e3c 5249 ea3d
00000070: 2524 43bd 2d12 12be ae8b f93b 21b8 fb3c
00000080: b359 f2bc e5ec 1b3e da4e 5d3d 5602 08bd
00000090: d5de f33d d45c 17bd f2d0 15bd f742 e33d
000000a0: 583f a03c b222 013e 0f2b 5a3d ce7e 393c
000000b0: c1ec 1e3d 08e4 67bd 5706 093e 029d a9bd
000000c0: 8ed0 2f3d f2d4 2bbd 46f9 b3bd 8a76 943d
000000d0: d545 89bd dc86 8fbd db32 863d 1267 6b3c
000000e0: 2b60 2dbc 69a0 713e 09a7 3d3e 5b88 003e
000000f0: 2bc3 c83b aa12 d83c a6e0 02be 6118 35bd
00000100: 005d 20ba 1f4d 6abc 7eb7 093e 05f4 44bc
00000110: a021 c63d 41fd 19be cb74 3abe 74bd dcbd
00000120: 0280 1bbe 278c 8dbb 1cf3 84bb 3561 343d
00000130: 541c 85bb 64e7 cc3d 417a 883d f56a b33d
00000140: 5ac8 cf3d e5ad 6abd 99d0 af3d 1310 78be
00000150: 15e7 c23d 965b a83d e08f 0e3d 1c77 8cbd
00000160: ff9b 163e d718 d6bc d3d8 10bd 6901 adbd
00000170: 5cf2 353d 22e8 64be 7957 123e 4003 a1bc
00000180: 1f58 e63d 6901 5e3c 3fdb 3ebd 8e1b 19be
00000190: 975c 9d3d 28a6 85bd 7819 363d 91fb ae3d
000001a0: d9f7 493d c11a 043c 4c3d a6bd 3bdb 703c
000001b0: ea9d 573d 0d3f 3f3e 5b19 793d 6637 a53d
000001c0: a80a 9abd 8a91 193d da60 33bd d83a f4bc
000001d0: 02ec b9bd 622f 50bd 0084 56bd cdcf 90bd
000001e0: 2d33 b53b 8c4e d63d fb08 22bb 9a0b d3bc
000001f0: 0047 84bc 8c40 043e c8e3 2abd cb17 18bd
00000200: f491 5fbc 01bf 4ebd cc60 39bd 7d15 f93c
00000210: fef2 763d 7be5 13be dd04 26be 671d cebc
00000220: ecba 02bd 5014 84bd bb49 923d a1aa f6bc
00000230: b046 14bd e58c 3bbc 9c2e c4bd 17c9 f3bd
00000240: b8c6 13be c025 463d 7797 31bc 4ea5 07bd
00000250: a751 b73c 1fad 33be 04c1 823d 5db1 de3d
00000260: 287f 51be ab7e 3cbc e97c 8a3d 0748 703d
00000270: 71af ff3c 3f65 e23d 3605 513d 2828 d63c
00000280: dac7 04be 232e 11bd ea8c 84bd eaca 0f3e
00000290: f3d2 f93c 2ef4 c53d 9a39 c8bd d553 c23d
000002a0: 423a 223e 07fb 043e 69d5 76bd 750b 0e3c
000002b0: 8e69 b73d 8db9 a83d d9ba c93d 586e 89bc
000002c0: 85f6 9bbc a0a6 213e 2ac6 45bd 91ea bebd
000002d0: b1ff acbc ac3c f8bc a29e 1c3d 672e 0d3d
000002e0: a0fe 82be 4737 aebc a057 34bd ae2d 273d
000002f0: 3eac 94bd 70bd 413e 45a0 e63d 83b4 d6bd
00000300: 2097 ecbd fb36 153e 0bdd 18be 9b30 663c
00000310: e47a dcbd 7ac7 a43c 74b9 dbbc 3774 ebbc
00000320: 76d4 3dba 5b17 e8bc ed58 ad3d b743 21bd
00000330: 0990 a7bd 7353 f03d c8d7 a0bd be25 72bd
00000340: 76c4 7c3d 8dcd a33d bfe8 0a3d 387f aa3d
00000350: 9e92 d7bd ffcd 20bd 8d51 16be e9b8 02be
00000360: 5f62 78bd 51dd f83d 08e9 11bd 8031 71bd
00000370: 9613 0fbd d01e 173e e313 f6bc c112 1e3d
00000380: eef4 8d3d 9d4d 913d 12fb 52bc e070 f23d
00000390: ccb5 93bd 10f6 863e 69db f03d b174 84bd
000003a0: 5d96 cd3d 8144 94bc 6cb8 9cbb b3f4 d43c
000003b0: ab94 8ebc ff1f 5dbd ac28 3f3d fe59 0ebd
000003c0: 037c f23b 5b3f d1bd 760b 49be 63b3 a8bd
000003d0: 8f32 c63c 5b4b 3abc e657 d4bd a1c8 87bc
000003e0: dad3 c43d d95e 613d 2991 a83d 0ace 653d
000003f0: d111 b73d 6c0f 0d3d 62e7 49bc cbd1 463c
-0.0007811981 0.048277453 -0.14199363 -0.052802265 0.06445515 0.04595617 -0.022709783 -0.09546405
0.14842787 -0.09404502 0.017867148 -0.051768534 -0.050978176 -0.055270683 -0.08060775 0.17626321
0.1293468 0.0025823675 -0.104103945 -0.023118189 0.034602355 0.069639504 0.05360154 0.049764253
0.053106327 0.15570581 0.010624882 0.11439766 -0.047641892 -0.14264746 0.007615528 0.030727448
-0.029583788 0.15227087 0.054030277 -0.033205353 0.11907736 -0.036953762 -0.03657622 0.11096757
0.019561455 0.12610891 0.05326372 0.0113217365 0.038800005 -0.056613952 0.13381325 -0.082819
0.042923503 -0.041951127 -0.087877795 0.07249172 -0.067027725 -0.07008144 0.06552669 0.014367836
-0.01058201 0.23596348 0.1852075 0.12552015 0.0061267815 0.026376087 -0.12781009 -0.044212703
-0.00061173737 -0.014300614 0.13448903 -0.012021069 0.09674382 -0.15038015 -0.18208615 -0.10778323
-0.1518555 -0.004319686 -0.004057301 0.044038016 -0.004062215 0.10005072 0.06663943 0.08760635
0.10145636 -0.057294745 0.08584709 -0.24224882 0.09516732 0.08220594 0.03480518 -0.06858656
0.14707945 -0.026134891 -0.03536303 -0.084475346 0.044420585 -0.22354177 0.1429118 -0.01965487
0.112472765 0.013550141 -0.046595808 -0.14951918 0.07683676 -0.065258324 0.044457883 0.08544076
0.04930863 0.008063019 -0.0811716 0.014700706 0.052640833 0.18676396 0.060815196 0.08067207
-0.07521564 0.037492312 -0.043793537 -0.029813215 -0.09078218 -0.050826438 -0.05237198 -0.07070885
0.0055297823 0.104642004 -0.002472459 -0.025762368 -0.016147137 0.12915248 -0.041721135 -0.037132066
-0.013645638 -0.050475124 -0.04525833 0.030405754 0.06029033 -0.14443009 -0.16212793 -0.025160505
-0.031916544 -0.06449187 0.07142969 -0.03011066 -0.036200225 -0.011447166 -0.095792025 -0.11903589
-0.14431274 0.048375845 -0.010839335 -0.03311663 0.022377802 -0.17546509 0.06384471 0.10873673
-0.20458663 -0.011504809 0.06762106 0.05866244 0.031211587 0.110544674 0.05103036 0.026142195
-0.12966862 -0.03544439 -0.0647219 0.1404225 0.030496096 0.09665714 -0.097766116 0.09488646
0.15842536 0.12986384 -0.060262118 0.008669724 0.0895568 0.08238516 0.098500915 -0.016776249
-0.019038448 0.15786219 -0.048284687 -0.09322084 -0.021118017 -0.030302368 0.03823722 0.03446808
-0.25584888 -0.021266593 -0.04402888 0.040815048 -0.07259415 0.18919921 0.11261038 -0.10483649
-0.11552262 0.14571755 -0.14928071 0.014049674 -0.10765627 0.02011465 -0.02682183 -0.028741939
-0.0007241437 -0.02833145 0.08464227 -0.03937122 -0.081817694 0.11734667 -0.07853657 -0.059118025
0.061710797 0.0799819 0.03391337 0.08325046 -0.10526012 -0.039258953 -0.14679547 -0.1276585
-0.06064069 0.12151588 -0.035622627 -0.058885098 -0.034930788 0.14757848 -0.03003878 0.038592104
0.06931482 0.07094882 -0.012877243 0.118379354 -0.072124094 0.26359606 0.11760599 -0.064675696
0.10038445 -0.018099071 -0.004782727 0.025995588 -0.017404875 -0.053985592 0.046669647 -0.034753792
0.0074000373 -0.10217162 -0.19633278 -0.0823734 0.02419403 -0.011370505 -0.10368328 -0.01657516
0.0961072 0.055022094 0.08230812 0.056104697 0.08938945 0.034438536 -0.012323232 0.0121349795

network_body._body_endoder.seq_layers.2.bias f4 [128]
00000000: 5949 8a3b 5d47 303b a38b ef3b 832b 2f3b
00000010: e323 053b 4d46 573b ac0f cdba 00fe 0c3c
00000020: 8989 5a3c d238 853b e717 22bc af2c e1bb
00000030: 62fe 123c b515 b33a 436d e9bb a98a 95bb
00000040: 335d d139 18be bebb 3c2e 473c 4bbb 983c
00000050: c40f 403c 53c9 d5bb 7ebb fa3b 2c17 1c3c
00000060: 194f 103c 839e 323a 5785 2eb9 594f 1f3c
00000070: 7e06 2d3b edb6 e7ba fd7d da3b 5a5a 4a3c
00000080: aacf 5f3b 480b c1bb 3de4 a4bb 0ce8 93bb
00000090: 981d bb3b 9fe2 46bb 62d6 333c d374 973a
000000a0: 1d21 c9bb 6959 51bb 901f 0ebb 911b b43b
000000b0: 3b4b 1e3c 563f 96bb 5429 8cbb f2fd 1ebb
000000c0: f5e6 5e3c aafa 183c 82f9 903c b2a2 2ebc
000000d0: 47c7 243c 3765 4e3c 141c c33b 0360 e239
000000e0: 0ac3 3fbc a7c0 ab3b f180 ca3b 19b9 633c
000000f0: ae91 b53b 97bc 223c 7c1d d53b 59f7 433c
00000100: b1e2 653b fb58 30bc 78c3 ea3c b834 32bb
00000110: 9b82 e93a 70e8 aa3b 6a6a 63bc 3c8a 063c
00000120: 95cf 93bc f33a 0bbc 2f2c b2b8 60bc 6d3c
00000130: bad3 04bc 9943 ceba 6b89 053c 8ef5 023a
00000140: ebd5 efbb b5b5 67bc 56dd b1bb e545 c0bb
00000150: f92b 243c 1648 523c 8b1f e43b e7e5 ee3b
00000160: 6405 023c 5a58 f33b c7fd 523c 5086 0a3c
00000170: 58c6 07bc 2842 23bb ca38 723b d0fa 3e3b
00000180: dcd4 07bb 6379 903b 13af a1bb 4769 04bc
00000190: 7aac 033c dc21 3e3c cbdb d83b dcda 54bb
000001a0: 1ffa ab3b 760f 8fb9 e2ab b43b 5d49 293c
000001b0: b336 943c 9fee 2a3c fe13 1d3b effa 343b
000001c0: b5ad 383c fca0 ee3a a01d 1dbc 7558 043c
000001d0: 177b 84bb 099a bbbb b440 863c cc5f 18ba
000001e0: 33ef 8c3b 6915 173c 98e0 ab3a 3a30 debb
000001f0: 8631 b0bb 27ed 133c 61c9 183c c9be 59ba
0.0042201695 0.0026898005 0.007310347 0.0026728816 0.002031558 0.00328483 -0.0015644929 0.00860548
0.013338455 0.0040656114 -0.009893394 -0.006871782 0.008971782 0.0013663085 -0.0071236207 -0.0045636487
0.00039933025 -0.005821001 0.012157019 0.018643996 0.011722509 -0.006524244 0.0076517453 0.009527009
0.008807921 0.0006813781 -0.00016643606 0.009723508 0.0026401575 -0.0017678417 0.006667851 0.012350643
0.0034150877 -0.0058912374 -0.005032091 -0.004513746 0.005710315 -0.003034748 0.010976406 0.0011555202
-0.0061379806 -0.0031944162 -0.0021686293 0.0054964502 0.009661491 -0.004585187 -0.0042773876 -0.002426025
0.013604869 0.009337107 0.0176971 -0.010658907 0.010057277 0.012597374 0.005954275 0.00043177613
-0.011704216 0.005241472 0.006179922 0.013899111 0.005541048 0.009932659 0.006503759 0.011960828
0.0035077746 -0.010763402 0.02865766 -0.0027192067 0.0017815413 0.005215697 -0.013880352 0.008211669
-0.018043319 -0.008497941 -8.495931e-05 0.014510244 -0.00810712 -0.0015736698 0.008150439 0.0004995697
-0.007319202 -0.014142443 -0.0054279966 -0.005867707 0.0100202495 0.012834569 0.006961768 0.00729059
0.007935856 0.007426304 0.012877888 0.008454874 -0.008287035 -0.0024911258 0.0036960118 0.0029141195
-0.002072624 0.0044090017 -0.0049342006 -0.008081741 0.008036727 0.011604752 0.0066179982 -0.0032479083
0.0052483226 -0.00027286605 0.005513654 0.010332433 0.018092489 0.010432868 0.0023968215 0.0027615388
0.011271884 0.0018205936 -0.009589583 0.00807773 -0.0040429938 -0.0057251495 0.016388275 -0.00058126147
0.0043009757 0.009221413 0.0013113199 -0.0067806514 -0.0053769974 0.0090287095 0.009325356 -0.0008306322

network_body._body_endoder.seq_layers.4.weight f4 [128, 128]
00000000: c015 09bd 0bc0 52be 13d8 fd3d ebab f23d
00000010: 9a85 acbd 42ca 33bd 901c 753c ab58 c23d
00000020: adc4 c1bc 71c6 97bd 10b6 09be e3de 18bd
00000030: c73d 87bd 5753 d2bb 78b3 19be bb28 e23b
00000040: 3e04 013e 7995 ce3c ceee 3d3e 68e3 efbd
00000050: 1948 e9bc bcf6 c73d f746 993d e9fe 64bc
00000060: 8e10 333e 6dc3 20bd bb8c 94bd 6c7a 11bd
00000070: 11b0 433d 8499 b33c 06f2 ad3d 3c29 923b
00000080: c4d5 d9bd e117 813d 1870 01be e186 cf3d
00000090: 0632 94bc fbbb d93d a85e 06bd 2221 e33c
000000a0: e383 c03c 3514 293c 26d3 24bd 17f3 ea3c
000000b0: 83fb 72bd a0ca fd3d a54e de3d 3a0e 493d
000000c0: bbe1 ecbd 39f7 853b 828a 43bd 56cd ad3d
000000d0: b46d 503d e06d 30ba 766f d9bd 8786 acbd
000000e0: 7270 54bd 21e6 ccbd 8737 d3bd 03e4 c13c
000000f0: 1d35 96bd 8394 913d 21c6 82bd d6fa 8a3d
00000100: 56b7 e03c 6809 673d b0b1 18bd 5c33 993d
00000110: b715 303e 419a 4ebc 7255 e43b b9cc 7ebe
00000120: eac7 40bc 9f95 d8bd 2acc 783d 1aa8 c6bd
00000130: 9142 1d3d f73c 4abd 5637 97bd edb2 15be
00000140: 1597 ab3c d204 c1bb 0ef8 5abd ffdb 80bd
00000150: 3337 3a3d e0fb babd 0243 1dbe a916 07bb
00000160: f15d 79bd 8944 b5bd 9a9b 5ebc 121e 5a3c
00000170: fa60 413e 0fd8 0b3d 851c 173e 388e ea3b
00000180: 657d 36be 98fc aebc 8127 133d dd58 323c
00000190: c8c2 47bd 733f dbbd 5c60 d9bd 1df1 65bc
000001a0: e16e ef3d c601 b53c 9d38 dabc 91be e03b
000001b0: f899 75bb e17e 17bc 860d d03d 6cb5 dd3d
000001c0: 68a0 bcbd 41e8 13be 5c48 8b3d 8e28 31be
000001d0: a34e 8cbb 4d60 a2bd 3ef1 95bd 7a94 283d
000001e0: 39e3 72bd c0e6 843b 40f0 823d 1e3c fb3c
000001f0: d76e d53c bee4 a63d 7105 00bd b5d9 f23c
00000200: 13fa 3ebd 2f78 33bd a272 473c a643 4abe
00000210: d5d6 72bd ca53 8ebd be23 003e a614 0e3e
00000220: 389a c23d 9cb9 00be 5910 adbc 784c 13be
00000230: e6e9 0d3e 83e3 c53d 36c2 a73d da17 24be
00000240: d50e 34be b0c2 08bc 0bf3 f2bc 3846 18bc
00000250: ec75 24bd cb19 09bd 7a29 dc3d 6686 4c3c
00000260: 7e8d 67bd 8473 74bd 67e8 7f3d 7233 a43d
00000270: 4ede 983c ce99 62bd 77c8 633e fe50 033c
00000280: 1d28 33bd 6ccd 823a 3b4b 3ebd 00d5 0a3d
00000290: 72be 85bd 1e8a e23d 5361 c7bd 96be 16be
000002a0: ec3f 30bc b004 10be 5afc 10bc 7d6f 82bd
000002b0: 5349 13be ae92 783d 8830 a3bd 8d00 113b
000002c0: c535 a03d c2a0 30bd 2911 ebbd fd21 213e
000002d0: 2e55 963b 7034 513d ee92 01bd 1fe5 30bd
000002e0: 5f4c 093e 194d f33c 1f0f 2c3c d31a 773d
000002f0: 4e7a 8abd b12e 963d 039b cbbd cdf0 87bc
00000300: e88c 71bc f582 22bc 9829 32be 43fc e3bd
00000310: a7b6 3cbd 529b ecbc 2760 55bc 72ec 90bb
00000320: 69c6 e7bc 789a a8bd acbd 113e f8a9 9fbd
00000330: a338 053e 642e cebd 769f 9cbd 2dce 4fbd
00000340: c1ee cabd 7805 a0bd 9aef b8bd 7438 8fbd
00000350: 9bd6 14be 6677 d2bd cabd 8a3c 8050 dc3d
00000360: 0051 bbbd 1e6f 453e 856d 3dbe 66f5 9cbd
00000370: 3cd3 493d 367f 333d 80e0 033e 2d98 5bbe
00000380: 26c1 e13d b698 cf3d 6ffe 903d d7f3 043d
00000390: 9072 a5bc cda5 aa3d 05a1 32bd 80c7 dcbc
000003a0: 2f31 b4bd 4326 923c 0171 14bc c668 1d3e
000003b0: 5446 593d 3b62 0fbb f3e1 973d 4097 813d
000003c0: 08c1 efbd 58ef 5c3d 476c acbd 5245 063d
000003d0: 75d7 08bd 5450 993c 52a4 8f3d 98c8 9cbd
000003e0: 0869 ebbd fdd8 c73d a5fc 9ebd 331d e6bc
000003f0: f346 7a3d 4d0d 39bd 218e a73d d23b ffba
-0.033468008 -0.20581071 0.123947285 0.11849197 -0.0842392 -0.04389406 0.014960423 0.09489568
-0.023653353 -0.074108966 -0.13448358 -0.037321936 -0.0660358 -0.0064186263 -0.15009868 0.006901828
0.12599275 0.025217758 0.18548128 -0.11713296 -0.028476762 0.09763858 0.074842386 -0.013976791
0.17486784 -0.039248873 -0.07253405 -0.03551714 0.047775332 0.021923788 0.08493428 0.004460482
-0.10636476 0.06303383 -0.12640417 0.10133148 -0.01809026 0.106315576 -0.032805115 0.02772576
0.023500388 0.010319759 -0.04024043 0.028680367 -0.05932189 0.12392163 0.10854844 0.049085833
-0.11566492 0.004088309 -0.047739513 0.0848643 0.05088587 -0.000673024 -0.106169626 -0.084240966
-0.05186505 -0.10004831 -0.103133254 0.023668295 -0.07334349 0.071084045 -0.06385446 0.067861244
0.027431171 0.056405455 -0.03727883 0.07480499 0.17195784 -0.012610019 0.0069681937 -0.24882783
-0.011766413 -0.10575413 0.06074158 -0.097000316 0.03839356 -0.049374547 -0.07383601 -0.14619036
0.020946065 -0.005890467 -0.05345922 -0.06291961 0.0454628 -0.091300726 -0.15357593 -0.0020612872
-0.060880605 -0.08850963 -0.013586903 0.013312833 0.1888465 0.034141596 0.14756973 0.007158067
-0.17821272 -0.02136068 0.035926346 0.0108854445 -0.048769742 -0.10705461 -0.10614082 -0.014034537
0.1169107 0.022095572 -0.026638323 0.006858655 -0.0037475806 -0.009246559 0.101588294 0.10825619
-0.092102826 -0.14444067 0.06800911 -0.17300627 -0.004281835 -0.07928524 -0.07321404 0.041157223
-0.059298728 0.004055828 0.0639348 0.030668315 0.02605383 0.08149098 -0.03125519 0.029644826
-0.046625208 -0.043815788 0.012173327 -0.19752368 -0.05928691 -0.06949575 0.12513635 0.13875064
0.09502071 -0.12570804 -0.02112596 -0.1438464 0.13858756 0.09662535 0.0819134 -0.16024724
-0.17583783 -0.008347198 -0.029656908 -0.009294085 -0.04015152 -0.033471864 0.107500985 0.012483215
-0.05653142 -0.059680477 0.062477496 0.08017625 0.01866069 -0.05532246 0.2224444 0.0080149155
-0.043739427 0.0009979433 -0.046458464 0.03389454 -0.06530465 0.110615 -0.0973536 -0.1472114
-0.010757428 -0.14064288 -0.008849228 -0.06368921 -0.1438344 0.06068676 -0.07968241 0.0022125572
0.07822756 -0.04312206 -0.114778824 0.15735622 0.004587791 0.0510754 -0.031634264 -0.043187257
0.1340804 0.029699849 0.010501652 0.060328316 -0.06761609 0.073331244 -0.099416755 -0.016594315
-0.014743067 -0.009918918 -0.1739868 -0.111320995 -0.04607263 -0.028882656 -0.013023413 -0.0044227177
-0.028292852 -0.082325876 0.1423251 -0.07796091 0.13009886 -0.10067442 -0.07647602 -0.050733734
-0.0990882 -0.07813543 -0.09030075 -0.069931895 -0.1453499 -0.1027668 0.016936202 0.10757542
-0.09146309 0.19280669 -0.1849881 -0.076639935 0.049273714 0.04382249 0.12878609 -0.21444769
0.11023168 0.10136549 0.07079779 0.032459106 -0.02019623 0.08332405 -0.04361059 -0.026950598
-0.087984435 0.01784051 -0.009060145 0.15371999 0.053045586 -0.0021878618 0.07416143 0.06327677
-0.1170674 0.053939193 -0.0841909 0.032780953 -0.0334086 0.018715061 0.070137635 -0.07655448
-0.114946425 0.09758184 -0.07763032 -0.028090095 0.06110282 -0.0451787 0.08181406 -0.0019472784

network_body._body_endoder.seq_layers.4.bias f4 [128]
00000000: ed8f 43bc 84cd ed3b 6b39 27ba e593 65bb
00000010: af9a 033b 6c1a 0f3c cb55 1cbc 87f5 393c
00000020: 2f27 0a3b 9414 223c 6880 34bc 12c2 0d3a
00000030: a89b d53b 6cbd c6b9 9c54 643c 0f3a 433c
00000040: 032d 48bb c044 27bb 8793 43bc 0b7f a93c
00000050: 3a7e 993b c93f 563b 1aea eeba 4125 913b
00000060: 3ca5 52bb b279 af39 ffb3 02bc 6af4 9b3c
00000070: 88ca a43a de7e 63ba 5d61 d33b ee12 843b
00000080: 6b6e 4cbb c45e 12bc 5c02 d63b d7f8 553c
00000090: bac1 00bc c3ac 4a3c 3e9c d1bb a553 053c
000000a0: cac1 2d3c 91dc 533c 45bb 063c e83d f83a
000000b0: 84ea 35bc 4651 213b c4d2 25b8 a02c c6bb
000000c0: eb15 03bc 06f1 143a 814b 573c a706 debb
000000d0: 3351 bf3a 9f35 c23b 05e8 58bb 513a 24bb
000000e0: b2e1 733b ead2 80bb 9dd8 e43b c1c1 2c3c
000000f0: cd5c 07bb 7117 183b 18f8 e2bb 4e48 fa3b
00000100: d9f5 92ba ad0c 0ebc 4493 73ba 39f7 c63b
00000110: 1a6c 96bb a212 cd3a 0bb0 15bc d727 b5bb
00000120: ef74 833b 6545 acbb 278f 523c 2ce7 533a
00000130: 8c88 03bc 5381 c63b edf4 d0ba 9477 99bb
00000140: 1fc0 193c 4794 633c 943d 963b 7e91 603c
00000150: 0bb8 6b3b 04c4 4c3a fecf c7bb 04db 3f3c
00000160: e706 8f3b 68cc 6fbb 60c0 8b3b 69dd 1a3c
00000170: 5f05 e13b efec 563c e578 0e3c e165 bb3b
00000180: 9473 c1b9 0fca 59bb 20eb 49bb 507c 893b
00000190: d70c 1ebc 183d 193c 5de4 69bb 7969 97b9
000001a0: 5c8c 053c 333f 603b 1476 4e3b ad73 da3b
000001b0: ead4 1b3c ed1f 55bb 329c 43bc 25b2 303c
000001c0: 45bb f0bb c477 113c ec60 c93b 87a0 54bb
000001d0: 9ae4 0bbc e966 ae3b 56c8 413c d0e9 13bb
000001e0: f2d6 1c3c 4c56 3b3b 0808 353c ca1f 3b3b
000001f0: cfc3 d9bb 930f 03ba 86b9 383c fd0b 9c3b
-0.01193617 0.0072571654 -0.00063791004 -0.003503078 0.0020081212 0.008734327 -0.009541939 0.011350042
0.0021080484 0.0098926015 -0.011016943 0.0005407642 0.0065188 -0.00037906633 0.013936188 0.011915698
-0.0030544407 -0.0025523156 -0.011937029 0.020690462 0.004684237 0.0032691828 -0.0018227727 0.00442949
-0.0032141944 0.0003346927 -0.007977485 0.019037444 0.0012572566 -0.00086782675 0.0064508156 0.004030577
-0.0031193744 -0.008933727 0.006531043 0.013059816 -0.007858688 0.012370291 -0.0063967993 0.008137618
0.010605285 0.012931005 0.0082233595 0.0018939348 -0.011103276 0.0024615093 -3.9535356e-05 -0.0060478
-0.008000831 0.0005681667 0.01314056 -0.0067756954 0.0014596343 0.0059268023 -0.0033097279 -0.0025059173
0.0037213382 -0.003931393 0.00698383 0.010544241 -0.0020654679 0.0023207332 -0.0069265477 0.007638014
-0.0011212184 -0.008670014 -0.00092916586 0.0060719517 -0.0045905234 0.0015645812 -0.00913621 -0.005528431
0.0040117423 -0.005257296 0.012851513 0.00080834585 -0.008028161 0.006057897 -0.0015942134 -0.0046834443
0.009384184 0.013890333 0.0045849774 0.013706563 0.0035967852 0.0007811191 -0.0060977926 0.011709932
0.0043648365 -0.0036590341 0.0042648762 0.009452202 0.0068670954 0.013118013 0.008695816 0.005718932
-0.0003689794 -0.0033232009 -0.0030810311 0.0041957274 -0.009646616 0.009352945 -0.0035689094 -0.00028879548
0.00815114 0.0034217357 0.0031503486 0.0066666217 0.009511212 -0.003252025 -0.011939095 0.0107846605
-0.007346543 0.008878652 0.006145587 -0.0032444315 -0.00853839 0.0053223264 0.011827549 -0.0022569783
0.009572731 0.0028585372 0.011049278 0.0028552883 -0.0066456567 -0.0004999574 0.011274701 0.0047621713

action_model._continuous_distribution.log_sigma f4 [1, 4]
00000000: 45ca 75bc 03ad 823d 70eb 133e d0f2 243e
-0.015001838 0.063806556 0.14445281 0.1610825

action_model._continuous_distribution.mu.weight f4 [4, 128]
00000000: 731e 233d 9f30 02bc d3e9 ff3b 00a3 ac3c
00000010: 8fad b9bb 126a 09bd c515 143d 688f 1dbd
00000020: 0eba e83a 1d0e 51bc ade0 223d 11a0 5e3c
00000030: ed3e e5bc c8da ec3c f2f1 11bd 8b3a cabc
00000040: 24f4 2e3c c994 1abc cfcb 653d 2750 1fbc
00000050: 4425 2d3d 174c f63b cbc1 c43c 5b95 2ebc
00000060: c686 2c3d fdcb 44bc c145 423d 63c6 18bc
00000070: ac99 ad3c 5a6c 7c3c eb05 2ebd cb7f 15ba
00000080: ca6b a73c 79fe d43c 0002 8ebc e11b 013c
00000090: 87e4 1c3d 7d1c 26bd 0dcb 343c 145e fbbc
000000a0: 2690 1cbd dd15 44bd 2dbf a9bc 9c0f 853c
000000b0: 76d2 3d3d 51df b73b d8af 65bc e953 2c3d
000000c0: a20f 0c3d db10 333b 89ba 11bd 1dab 983c
000000d0: 7c26 ba39 14ac f9ba 49d4 d13c c97f 6cbb
000000e0: 762c 973c efc2 ad3c e047 88bc 5f34 cbbc
000000f0: 9469 d73c 2d9d 28bc 8ae5 cc3c a72b 0dbd
00000100: d1c9 44ba b26e 1f3d 4427 4bbc fd6a e9bc
00000110: 947d 5a3c 6c6b 153d d4b6 723d 054a 4c3b
00000120: 7a96 cbbc 6321 b83c 7a10 a4bc 76b6 f3bb
00000130: f8e7 823c 33d0 0bbd 7cc6 a9bb ee8e 1a3d
00000140: 3565 6abc 2151 3ebd f8b4 e4bc eeaf aebc
00000150: 442a 77bb d3d3 c03c ad7d f93c d93f 5abd
00000160: 43a8 edbc 9288 423b a811 e2bc 12d8 dcba
00000170: 9adc 37bc 9ffb 39bd b815 86bc f432 9c3c
00000180: d501 3ebb 014e 093d da8f 9b3c ca82 cc3b
00000190: 0e34 fe3c 5dfb fbbc 24f1 e43c 02a1 833c
000001a0: aec9 81bd cd45 2cba a6a2 ebbb d644 9abb
000001b0: 1838 41bd d1ab 5d3d 09ec 3c3d 1097 4ebd
000001c0: 9a35 063d fa72 2fbd 1640 ebbc 0eaa 49bb
000001d0: 2d9f 023d 2926 e0bc 23a0 23bd 2e83 8f3c
000001e0: b67d 28bd 6ed5 323c d3b1 d23b 1ed1 32bc
000001f0: d973 ac3c dbc4 51bc 7a29 a4bc d9c4 033c
00000200: f1b0 23bc f85a 87bb 08aa 19bd 6d9b 0b3c
00000210: e442 f63c b4f6 e93c cb9c 2ebc 7b0e b839
00000220: 3136 dbbc 2f40 f4bb 72d4 d83b bcf8 12bc
00000230: b604 13bd 5f2c a6bc 3381 753b 4e81 43bc
00000240: 30f5 9fbc e952 553c 7fc4 93bb 072c bb3b
00000250: cd0e 683c c2f1 383c 3efa efbc a27d 0e3d
00000260: 6c9d 8ebc f2a1 b5bc 3370 933a b7cd 913b
00000270: 5ee6 e33c 547d 0bbc ca9b c53c 175b dd3c
00000280: b80d fb3c 5108 29bd 4b02 bc3b 56dd cd3c
00000290: 1aac 0abc 1b35 33bc 5463 373c 209a afbc
000002a0: 9a25 f9bb c63c b23c 4795 013d a495 e43b
000002b0: baa0 013b 2a5f 763c 3077 8ebc 8340 4bba
000002c0: 770e 95bc 4039 e9bc 7471 343c a671 56bb
000002d0: 7bd3 3c3c ac58 cc3c 8c8e f73c 717d b33b
000002e0: d3f6 9b3c c08e 82bb 2499 8bbc 8224 ed3b
000002f0: c8e5 953c 3785 3f3b 8c92 afbc 3d99 53bb
00000300: 7907 83bc 73d7 04bc d11b abbc e157 353b
00000310: c751 9e3c c8b6 8a3b 6bfd 99bc fcfb 01bc
00000320: d04c a6bb 9760 0d3c e8f8 07bc 7428 663c
00000330: 968d 6cba 9709 75bc ff52 033d b435 323c
00000340: a8a0 8bbb e85a 9bbb 1087 87bc a37a 25bc
00000350: d08b d7bc 4de3 973c 5c46 1a3c c7d0 03bc
00000360: 1f71 09bd ec1c 133c eeb3 17bc 176a 2aba
00000370: a325 9f3a d86b 0c3c ba56 c9bb 8645 383c
00000380: f328 99bc b23b 2abc 72f0 eebb 6ded febc
00000390: 440d 88bc 955e adbb 68e3 5f3c b441 b73b
000003a0: 32b3 753b 76a0 0c3c 46ed 983c bed7 3a3c
000003b0: 9c8d 5c3b dfea 16bc 7ea6 b9bb 747e 023d
000003c0: 25bc 4d3c 47c2 273d 1d43 7a3b 9c1f a7bc
000003d0: 3c22 4bbb bebb 0fbd 8909 633c f2bc dd3c
000003e0: 795f 5cbb 0161 82bc 6bb2 553c 100f f9bb
000003f0: 1996 033d 2025 85bc 8f73 3f3c 52c0 923a
0.03982396 -0.0079461625 0.0078098564 0.021073818 -0.0056664417 -0.033548422 0.036153574 -0.03846684
0.0017755644 -0.0127597125 0.03976505 0.0135879675 -0.027984107 0.028912917 -0.035631128 -0.024686119
0.010678325 -0.009434887 0.05610257 -0.0097237 0.042271867 0.007516395 0.024018189 -0.010655726
0.042120717 -0.012011525 0.047429804 -0.009324643 0.02119144 0.015406692 -0.042486113 -0.00057029416
0.02043714 0.026000248 -0.017334938 0.007880182 0.03830388 -0.040554512 0.011034739 -0.030684508
-0.03822341 -0.047872413 -0.020721043 0.016242795 0.04634329 0.005611338 -0.014018975 0.04207221
0.034194596 0.002732328 -0.035578284 0.01863628 0.00035505358 -0.0019048476 0.02561392 -0.0036086908
0.018453818 0.021211116 -0.016635835 -0.024805246 0.02629546 -0.01029138 0.025011797 -0.03446546
-0.00075068796 0.038923927 -0.012399498 -0.028493399 0.013335604 0.0364794 0.05925639 0.0031172049
-0.024852026 0.022476858 -0.020027388 -0.0074375225 0.015979752 -0.0341341 -0.005181132 0.037733965
-0.014306356 -0.04646409 -0.027918324 -0.021324124 -0.0037714401 0.023538506 0.030455435 -0.053283546
-0.029010898 0.0029683453 -0.02759631 -0.0016849062 -0.011222029 -0.04540598 -0.016367778 0.019067265
-0.0028992791 0.033521656 0.018989492 0.006241177 0.031030681 -0.030759508 0.027947016 0.016067985
-0.063372955 -0.00065716804 -0.00719102 -0.004707913 -0.047172636 0.054118935 0.04612354 -0.050437033
0.032765962 -0.04283426 -0.028717082 -0.0030771527 0.031890083 -0.027361946 -0.03994764 0.017518606
-0.041135512 0.010915143 0.0064298897 -0.010914115 0.021051334 -0.012803282 -0.020039309 0.008042538
-0.009990917 -0.0041307174 -0.03751567 0.008520943 0.030061193 0.02856002 -0.0106575 0.00035106004
-0.026759239 -0.0074539403 0.0066171223 -0.008970436 -0.035893165 -0.02028483 0.0037461042 -0.011932684
-0.019526094 0.013020256 -0.004509508 0.0057120356 0.014163685 0.011288108 -0.02929413 0.03478778
-0.017409049 -0.022171948 0.0011248648 0.004449572 0.027819809 -0.008513767 0.024122138 0.027020974
0.03064619 -0.041267697 0.005737578 0.025129955 -0.008463884 -0.010937954 0.011193115 -0.021435797
-0.0076033594 0.021757495 0.031636503 0.0069758464 0.0019779638 0.015037337 -0.017390817 -0.00077534484
-0.018195374 -0.028469682 0.011013377 -0.0032721548 0.01152503 0.024944626 0.030219339 0.0054776003
0.019038593 -0.0039843023 -0.017040797 0.007237018 0.018298045 0.002922369 -0.021432184 -0.0032287382
-0.015994774 -0.008108008 -0.020887287 0.0027670788 0.019326104 0.004233215 -0.018797597 -0.007933613
-0.0050750747 0.008628986 -0.00829909 0.014047731 -0.00090237835 -0.0149559 0.032061573 0.010877062
-0.004261095 -0.0047410615 -0.016543895 -0.01010004 -0.026311785 0.018541003 0.009416189 -0.008045382
-0.033555146 0.0089790635 -0.009259207 -0.0006500794 0.0012141954 0.008570634 -0.006144372 0.011247044
-0.018696284 -0.010390209 -0.007291847 -0.031119073 -0.016607888 -0.005290816 0.013665058 0.005592549
0.0037490842 0.008583179 0.018667828 0.011403976 0.0033653742 -0.009211271 -0.0056655994 0.031858876
0.012557064 0.04095676 0.0038186975 -0.020400815 -0.0030995747 -0.035091154 0.013857254 0.027067635
-0.0033626242 -0.015915396 0.013043026 -0.0076006725 0.032125566 -0.016253054 0.011685266 0.0011196232

action_model._continuous_distribution.mu.bias f4 [4]
00000000: f924 73bc cd34 df3a 2467 a039 1ed4 17bb
-0.014840358 0.0017029286 0.00030594424 -0.0023167203
