results/shooter2/Shooter.onnx (onnx, 201499 bytes, 9 tensors)

network_body._body_endoder.seq_layers.0.weight f4 [128, 120]
0	0x3d052599	0.03250656
1	0xbe22ac9e	-0.1588616
2	0xbd86cdff	-0.065822594
3	0xbd1a335d	-0.03764664
4	0xbc3f32bb	-0.01166981
5	0xbd193f09	-0.03741363
6	0x3b914b0f	0.0044339965
7	0x3d8d678e	0.06904517
8	0xbd134027	-0.035949852
9	0x3dcafd89	0.09911639
10	0x3df9049f	0.121590845
11	0xbc8d58d7	-0.017254276
12	0xbdbb249e	-0.091378435
13	0xbd0b4ccf	-0.034008797
14	0x3de240db	0.110475264
15	0x3dfc44b3	0.12317791
16	0xbd8b8ab0	-0.06813562
17	0x3e23f99a	0.16013184
18	0xbccf9800	-0.025341034
19	0x3e4066a7	0.18789159
20	0xbdd76d25	-0.105188645
21	0xbdaef08c	-0.085419744
22	0xbd018b0f	-0.031626757
23	0x3b897203	0.0041944995
24	0xbd80019c	-0.06250307
25	0x3daa4ed1	0.08315814
26	0x3ca31626	0.019908022
27	0xbe0755bc	-0.13216299
28	0x3da8b054	0.08236757
29	0x3cfdcb10	0.030980617
30	0xbe304bf9	-0.17216481
31	0x3d869ace	0.065724954
32	0xbd1f4de8	-0.038892657
33	0xb948ef02	-0.00019162524
34	0x3d0540fd	0.03253268
35	0xbbea0108	-0.007141236
36	0x3cef57af	0.029216615
37	0x3df2e9d2	0.11861004
38	0xbd664739	-0.056220267
39	0xbdccc935	-0.09999315
40	0xbcdd49b9	-0.027012693
41	0x3cdcb730	0.02694282
42	0xbe450729	-0.19241013
43	0xbe9dad37	-0.30796215
44	0x3baf5030	0.0053501353
45	0xbe2dc89f	-0.16971062
46	0xbd3e03be	-0.046390288
47	0xbd503bf8	-0.05083844
48	0xbe02e32e	-0.12781975
49	0x3d17ae7a	0.03703163
50	0xbdb395c4	-0.087688
51	0xbd316337	-0.04330751
52	0x3db3b94e	0.087755784
53	0x3db3432f	0.08753049
54	0xbd811762	-0.06303288
55	0xbdb9c31b	-0.090704165
56	0x3e2697af	0.162688
57	0x3c2b785f	0.01046571
58	0xbde7f791	-0.113265164
59	0x3e00c61c	0.12575573
60	0xbd81e99b	-0.06343385
61	0x3da2e85b	0.079544745
62	0x3c609b20	0.01370886
63	0xbd00d6af	-0.03145474
64	0xbd98c946	-0.07460265
65	0x39d128ef	0.00039894084
66	0xbe2fd8b3	-0.17172508
67	0x3da5e7c1	0.08100844
68	0x3d650226	0.055910252
69	0xbabc4c3a	-0.0014365979
70	0x3de67b29	0.1125396
71	0xbe16d1e1	-0.147285
72	0xbd52fb1a	-0.051509
73	0x3df1178d	0.1177207
74	0xbdf386e2	-0.11890961
75	0x3d645aa5	0.055750508
76	0x3d57fc34	0.052730754
77	0xbd9226c7	-0.071363024
78	0x3d2b47fc	0.041816697
79	0x3df7d944	0.12101987
80	0x3e1d771b	0.15377466
81	0x3dab8816	0.08375566
82	0x3b98a99c	0.004658891
83	0xbd12de89	-0.035856757
84	0xbdcbab7a	-0.09944816
85	0xbda09590	-0.07841027
86	0xbd704988	-0.058663875
87	0xbd7c1fcf	-0.061553773
88	0xbda112ba	-0.078649
89	0xbdd30e2d	-0.10305438
90	0xbde03c21	-0.10948969
91	0xbe1985e0	-0.14992476
92	0xbc8909da	-0.01672833
93	0xbe2bc0ee	-0.16772816
94	0xbd3cb3fb	-0.04607008
95	0x3de341a7	0.110965066
96	0x3d4b3cf7	0.049618687
97	0xbd91f051	-0.07125915
98	0x3d849839	0.06474347
99	0xbd9c85a8	-0.076426804
100	0x3dcbf3c2	0.099586025
101	0xbd6ef6e1	-0.05834091
102	0xbd3c80ae	-0.046021156
103	0xbd55c6ee	-0.052191667
104	0xbd836a39	-0.06416745
105	0x3e26f457	0.16304146
106	0x3d53040b	0.051517528
107	0xbdb1dfc5	-0.08685259
108	0xba5d99c5	-0.00084533944
109	0xbdc7a845	-0.09748892
110	0x3d2285a8	0.039678246
111	0xbdc3677c	-0.095412225
112	0xbdc845d9	-0.097789474
113	0xbd529159	-0.051408146
114	0x3d16df71	0.036834184
115	0x3cc4813d	0.023987407
116	0xbcd718f7	-0.026257021
117	0x3ca816b7	0.020518644
118	0x3c2318b9	0.009954625
119	0xbda76162	-0.08172871
120	0xbd389ec3	-0.045073282
121	0x3d5f2b9f	0.05448496
122	0x3c647d58	0.0139459
123	0x3cf1139e	0.0294283
124	0x3d4ac844	0.049507394
125	0x3df9559a	0.1217453
126	0xbd3a1d6f	-0.045438226
127	0x3dad6b47	0.08467727
128	0x3d4e8a87	0.05042508
129	0xbcff90ef	-0.03119704
130	0x3c8cd656	0.017192047
131	0x3d87657f	0.06611156
132	0xbd214860	-0.039375663
133	0xbd35f000	-0.044418335
134	0x3db2b5b8	0.08726066
135	0x3dd0acb4	0.101891905
136	0x3cd5a1ef	0.026078193
137	0x3cb4f139	0.02208768
138	0x3d25969c	0.040426835
139	0xbdedbb0f	-0.11607944
140	0xbd4e4a88	-0.050364047
141	0xbda2fc28	-0.07958251
142	0xbd8a752e	-0.067606315
143	0x3c545890	0.012960568
144	0xbcb7fef7	-0.022460444
145	0xbdccf34c	-0.10007343
146	0x3db08155	0.08618418
147	0x3b4b1303	0.0030986674
148	0x3da83dc3	0.08214905
149	0x3daccc4d	0.08437405
150	0x3da73c14	0.08165756
151	0x3dc2ab87	0.095053725
152	0x3d895911	0.06706441
153	0x3d1333a3	0.035937916
154	0xbd4153cc	-0.047199056
155	0x3dee1e61	0.11626888
156	0xbd388ddc	-0.045057163
157	0xbd2a1db5	-0.041532237
158	0x3e4be411	0.19911219
159	0xbd9faf6e	-0.077971324
160	0xbccf4caa	-0.025305111
161	0x3d129bca	0.035793103
162	0x3d41c38f	0.04730564
163	0xbd42cc22	-0.047557957
164	0x3c12a0af	0.008949443
165	0x3dd87a76	0.105702326
166	0x3dd78af0	0.10524547
167	0xbd6ae60e	-0.057348303
168	0x3d0bfcc1	0.03417659
169	0xbe090f90	-0.13384843
170	0x3e00f5fb	0.12593834
171	0xbdca8239	-0.09888119
172	0x3dd012d2	0.1015984
173	0x3df7b6e5	0.12095431
174	0x3d3f7a0f	0.046747264
175	0x3d26a32e	0.040682964
176	0xbdb4778d	-0.08811865
177	0x3c755347	0.014973468
178	0x3a03c3b1	0.0005026414
179	0x3dbf2b3d	0.09334419
180	0xbda51290	-0.08060181
181	0xbdd15c87	-0.10222726
182	0x3c69538d	0.014241111
183	0xbd53be35	-0.051695067
184	0x3e00d61a	0.12581673
185	0xbd4f8769	-0.050666247
186	0x3da11bc6	0.078666255
187	0x3d4b94ca	0.049702443
188	0xbb15f827	-0.0022883506
189	0x3d121595	0.035665113
190	0x3db66c37	0.08907359
191	0x3d9ad941	0.07560969
192	0xbe0a278f	-0.13491653
193	0xbd011f1e	-0.031523816
194	0x3d83b585	0.064311065
195	0x3d2c0388	0.041995555
196	0x3cd3127f	0.025765656
197	0x3c791d3e	0.015204726
198	0x3d3f68fe	0.046730988
199	0xbd8389cf	-0.06422769
200	0xbd648903	-0.055794727
201	0x3dd6f482	0.10495855
202	0xbd91c287	-0.07117181
203	0x3d0c75e6	0.034292124
204	0x3de5e86a	0.1122597
205	0xbc9555ab	-0.018229326
206	0xbe1229bd	-0.14273734
207	0x3c3507f9	0.011049264
208	0x3dbd5da5	0.09246377
209	0xbcbc1770	-0.022960395
210	0x3d8f8fd9	0.07009859
211	0x3da1807b	0.07885834
212	0xbc59ed52	-0.0133012105
213	0x3e27d245	0.16388805
214	0xbc21e45f	-0.009881108
215	0xbd325d19	-0.043545816
216	0x3e211cc2	0.15733626
217	0xbd855243	-0.06509831
218	0xbde402c5	-0.11133341
219	0x3e0adfdd	0.1356196
220	0x3d878383	0.06616881
221	0x3d34021c	0.043947324
222	0x3d2f8aee	0.042857103
223	0x3e0ec67e	0.13942906
224	0x3bfbb269	0.0076811803
225	0xbda2af98	-0.07943648
226	0xbdcc6174	-0.09979525
227	0x3e22d07e	0.15899846
228	0xbe0353ef	-0.12824987
229	0xbdc58350	-0.096441865
230	0x3e3d92f6	0.18513092
231	0xbe33cec0	-0.17559338
232	0xbdbceb93	-0.0922462
233	0x3e30587b	0.17221253
234	0xbca10750	-0.019656807
235	0xbd14cb11	-0.03632647
236	0x3a6997fa	0.0008910891
237	0xbe3c474a	-0.1838657
238	0x3d282129	0.04104725
239	0x3c1097f8	0.008825295
240	0x3dd356e9	0.10319311
241	0x3c896e44	0.016776212
242	0xbd6e011b	-0.058106523
243	0x3d81abbd	0.063315846
244	0x3e38c71e	0.18044707
245	0xbe0c5ea1	-0.13707973
246	0x3d91d68a	0.07120998
247	0xbc715336	-0.014729312
248	0x3c1f7f6c	0.00973497
249	0x3e18c012	0.14917019
250	0x3d6ff044	0.058578745
251	0x3d4c61d1	0.049897972
252	0x3d73906e	0.05946391
253	0x3db78d17	0.089624576
254	0xbe58d4af	-0.21174882
255	0xbcbf3ec1	-0.023345353

network_body._body_endoder.seq_layers.0.bias f4 [128]
0	0xbacf5915	-0.0015819395
1	0x3b81d020	0.003961578
2	0x3ba9046e	0.0051579988
3	0x3acfa522	0.001584206
4	0x3acfa463	0.0015841838
5	0x3a47bc9f	0.00076193543
6	0x3b5cee45	0.0033711356
7	0xbb25109b	-0.00251869
8	0x38f8fa47	0.00011872179
9	0x3b17125f	0.0023051722
10	0x3ab470f2	0.001376657
11	0x3b1baed7	0.0023755336
12	0xbaad2d6c	-0.0013212389
13	0x3b9d837e	0.004806935
14	0xbb3135d6	-0.0027040145
15	0xbbc7c8f3	-0.006096953
16	0xbad40b97	-0.001617777
17	0xba142a2e	-0.0005652037
18	0xbb7161ec	-0.0036832048
19	0x3ab8f16f	0.0014110039
20	0x3b258fae	0.0025262642
21	0xbb7c618e	-0.0038510296
22	0x3bda6b6f	0.006665639
23	0xbc0dd329	-0.008656302
24	0xbaab0069	-0.0013046387
25	0x3b92c73f	0.0044793184
26	0xbb08c677	-0.0020870247
27	0xbbdad94e	-0.006678737
28	0x3b1c3298	0.0023833867
29	0xbaa042d0	-0.0012226943
30	0xbaf445e1	-0.0018636548
31	0xbbb93791	-0.005652376
32	0x3b2bc114	0.0026207613
33	0x3a199acf	0.0005859555
34	0x3c309916	0.010778686
35	0xbba75ca3	-0.0051074787
36	0x3bc54079	0.0060196486
37	0xbab69663	-0.0013930317
38	0xba63542b	-0.0008671905
39	0xba5d6f03	-0.0008447023
40	0x3ae5da61	0.0017536395
41	0x3b02e709	0.0019974133
42	0x3a3a98ee	0.0007118125
43	0xbaadfc2c	-0.0013274006
44	0x3b435bc2	0.002980933
45	0x3b6d6d73	0.0036228567
46	0xbab14ce1	-0.001352694
47	0x3bc38e42	0.005967886
48	0x39aac6c8	0.0003257303
49	0x3a7bbda3	0.0009603148
50	0x3bb6ab70	0.005574636
51	0xbb358755	-0.0027699072
52	0x3b019db3	0.0019777834
53	0x3b6fae93	0.003657256
54	0x398663a9	0.00025632724
55	0x39679001	0.00022083522
56	0x3c01438c	0.00788964
57	0xbbca8f7a	-0.0061816545
58	0x3c7ac787	0.01530636
59	0x3be8d56c	0.00710552
60	0x38e1236e	0.00010735435
61	0x3aa68a74	0.0012706057
62	0x3a5339d4	0.00080576283
63	0x3b562bbe	0.003267988
64	0xbb687d43	-0.0035475052
65	0xbaa29527	-0.001240407
66	0xbb0f3b48	-0.0021855403
67	0x3b0a5b05	0.002111138
68	0x3ad618b0	0.0016334262
69	0x3a8c4faf	0.00107049
70	0x3b331502	0.0027325754
71	0xbb735399	-0.0037128686
72	0x3b4cf60a	0.003127458
73	0xba25fa2e	-0.000633153
74	0xbbb6f4de	-0.0055833897
75	0xbabd7077	-0.0014453073
76	0xbb322c8c	-0.0027187197
77	0xba2bd5af	-0.00065549737
78	0xbb7ae612	-0.0038284105
79	0xbc10d1b1	-0.008839057
80	0x3b24efb4	0.0025167288
81	0x3a46ac1f	0.00075787486
82	0x3bdb5cbe	0.0066944053
83	0xbba6501f	-0.005075469
84	0x3b9db418	0.0048127286
85	0xbac720f0	-0.0015192311
86	0xba929d3f	-0.0011185779
87	0xbae8ead1	-0.0017770176
88	0xbb8e315b	-0.0043393797
89	0x3bbb251a	0.00571121
90	0xb9f69a5a	-0.00047035777
91	0x3b223b56	0.0024754605
92	0x3b841e09	0.004031901
93	0x3b575f4b	0.0032863196
94	0xbb45978c	-0.0030150143
95	0xbae92a1d	-0.001778904
96	0x3a7ba306	0.00095991825
97	0xb9a7ca1e	-0.0003200331
98	0x3be2b405	0.0069184327
99	0x3b7734cd	0.003772068
100	0xbb050df2	-0.0020302502
101	0x3b061dfc	0.002046465
102	0xbb3c3153	-0.0028715923
103	0x3bcb5370	0.006205015
104	0xbb34d2ec	-0.002759154
105	0xbb95f3e0	-0.0045761913
106	0x3bbfa678	0.005848702
107	0x3bce8895	0.006302903
108	0xbb8141a4	-0.0039445926
109	0x3a8b8746	0.0010645173
110	0x3c06d25f	0.008228867
111	0xba97cd93	-0.0011581652
112	0x3b84e4fc	0.0040556174
113	0xbaf76d1b	-0.001887712
114	0xbb9debcc	-0.004819369
115	0x39d9ebd1	0.00041565162
116	0x3ba1ada7	0.004934031
117	0xba75dab5	-0.0009378598
118	0x3ab2329b	0.0013595404
119	0x3be43485	0.0069642686
120	0xba707661	-0.0009172913
121	0xbb42161f	-0.0029615236
122	0x3b274f69	0.002552951
123	0xbafc7385	-0.0019260502
124	0xbb947ec0	-0.0045317113
125	0xbbc9e768	-0.006161619
126	0x3b205a02	0.0024467711
127	0xbb649ed9	-0.003488472

network_body._body_endoder.seq_layers.2.weight f4 [128, 128]
0	0x3d99d5d1	0.07511485
1	0x3d2ae067	0.041717913
2	0xbd8eb4ea	-0.069681
3	0xbd259e7d	-0.04043435
4	0xbde666b1	-0.112500556
5	0x3e6d188d	0.23153897
6	0x3daebd26	0.08532171
7	0x3d96080f	0.07325756
8	0xbd20fba2	-0.039302476
9	0xbc4cb67e	-0.012494681
10	0xbcafef8f	-0.021476535
11	0xbd04831f	-0.03235161
12	0x3d661015	0.05616768
13	0xbc699edc	-0.014259066
14	0xbdcb180d	-0.09916697
15	0x3dd0add1	0.10189403
16	0xbd89cb2a	-0.067282036
17	0xbcaad76e	-0.020854678
18	0x3ca99eb0	0.02070555
19	0x3dc44029	0.0958255
20	0x3dbe4147	0.092897944
21	0xbd974260	-0.07385707
22	0x3d5d1a8b	0.05398039
23	0x3e220208	0.15821087
24	0x3dac4bb6	0.08412878
25	0xbdb1ae95	-0.08675877
26	0x3b824a23	0.003976123
27	0xbca67980	-0.020321608
28	0xbe4ce5fa	-0.20009604
29	0x3cc288f8	0.023746952
30	0xbdeba3b8	-0.11505836
31	0xbdb8a52b	-0.09015878
32	0x3bf86f0f	0.0075815986
33	0xbce21e1e	-0.027602252
34	0x3dcbe7e6	0.099563405
35	0xbd444679	-0.04791877
36	0x3daaa2a1	0.083318
37	0x3bbd767e	0.0057819476
38	0xbd47f089	-0.048813377
39	0xbd889002	-0.06668092
40	0x3ce54a49	0.027989523
41	0xbe0bfb94	-0.13670188
42	0x3dacf545	0.08445219
43	0x3d39aad7	0.04532894
44	0x3da3342c	0.07968935
45	0x3c8596ce	0.01630726
46	0x3d89e4f2	0.06733121
47	0xbd5fbc41	-0.054622892
48	0xbe22d81a	-0.15902749
49	0xbd8adc87	-0.067803435
50	0xbdc04326	-0.093878075
51	0xbd293414	-0.04130943
52	0x3d405286	0.0469537
53	0x3ca3bb14	0.019986667
54	0xbc57b698	-0.013166092
55	0x3c65337e	0.0139893275
56	0x3d648682	0.05579234
57	0xbe43bbcb	-0.19114606
58	0xbd121c7d	-0.0356717
59	0x3da7576d	0.08170972
60	0xbb25f4c1	-0.0025322887
61	0x3e1231ac	0.14276761
62	0x3e092ea2	0.13396695
63	0x3ce2698e	0.027638223
64	0x3dd7dfba	0.10540719
65	0x3dcca1d5	0.099918045
66	0x3da0b776	0.078474924
67	0xbd9d5010	-0.07681286
68	0xbd8cd976	-0.06877415
69	0x3d4a1047	0.04933193
70	0x3d9fa702	0.07795526
71	0x3d5f18df	0.05446708
72	0x3e35d5e6	0.17757377
73	0x3c1de3d6	0.00963684
74	0xbcb0510d	-0.021523023
75	0x3dd12a88	0.1021319
76	0x3cff1f0d	0.031142736
77	0xbd52f060	-0.05149877
78	0xbd3116b7	-0.043234553
79	0x3d8f67ae	0.07002197
80	0xbd13759e	-0.03600084
81	0xbd9856f2	-0.074384585
82	0xbde9d06a	-0.11416705
83	0xbe1727bd	-0.14761253
84	0xbdaaa020	-0.08331323
85	0xbcf2fa00	-0.029660225
86	0xbd374358	-0.04474196
87	0xbdc4fd71	-0.096186526
88	0x3c723981	0.014784218
89	0x3cb5ecd5	0.022207657
90	0xbe008dca	-0.12554088
91	0xbbeda7a5	-0.007252651
92	0x3d13ace1	0.036053542
93	0x3dd0d77b	0.1019735
94	0x3d58e987	0.052957084
95	0x3d056d7e	0.032575123
96	0x3a9b8c14	0.0011867308
97	0xbcd691c9	-0.026192563
98	0x3ca1ebd0	0.019765764
99	0x3dfec486	0.124398276
100	0x3e0f7925	0.14011057
101	0x3c6d6a40	0.014490664
102	0x3d20fc4c	0.03930311
103	0xbbbbf40d	-0.00573588
104	0x3e50996c	0.20371026
105	0xbe09eda7	-0.13469563
106	0xbc67f184	-0.014156703
107	0x3d41237a	0.047152974
108	0xbda7dc81	-0.08196355
109	0xbd2d3e40	-0.042295694
110	0x3ded951f	0.11600708
111	0xbc98998b	-0.018627902
112	0xbdba9e9c	-0.091122836
113	0x3e3ec2d2	0.18629006
114	0x3e278b41	0.16361715
115	0xbd04edd8	-0.032453388
116	0xba9b5fc5	-0.0011854103
117	0x3d39e05f	0.045379993
118	0xbdd51298	-0.10403937
119	0xbe283677	-0.16427027
120	0xbd5f0b49	-0.05445412
121	0xbdbbc67e	-0.09168719
122	0xbdd5719f	-0.10422062
123	0x3d2b5b98	0.041835397
124	0x3c2e69c7	0.0106453365
125	0xbe092e14	-0.13396484
126	0xbdb7c41c	-0.08972952
127	0xbd59a822	-0.05313886
128	0xbc717625	-0.0147376405
129	0x3d7a9e35	0.061186034
130	0x3d889f5a	0.06671019
131	0xbcf63940	-0.030056596
132	0xbd25eea2	-0.04051078
133	0xbdc2924f	-0.095005624
134	0x3c6c9280	0.014439225
135	0xbb07349b	-0.002063072
136	0xbd81c587	-0.063365035
137	0x3c64d422	0.013966592
138	0x3e3031c5	0.17206486
139	0xbdb5845a	-0.08863135
140	0xbd83c7f7	-0.06434625
141	0x3e30e0b2	0.17273214
142	0xbd7f1776	-0.062278233
143	0x3e433e73	0.19066791
144	0x3df6fa3c	0.12059447
145	0x3db1e4ed	0.08686242
146	0x3cc19828	0.023632124
147	0xbdb48a68	-0.088154614
148	0x3d74c95b	0.05976234
149	0x3e3eb37a	0.18623152
150	0x3d97f8b8	0.07420486
151	0xbe23b8c7	-0.15988456
152	0xbda95a42	-0.082691684
153	0x3d8f05d2	0.06983532
154	0xbd75239f	-0.059848424
155	0x3bf6147a	0.007509765
156	0xbd55a7a8	-0.052161843
157	0xbc2291ac	-0.009922426
158	0x3e442924	0.19156319
159	0x3db118c4	0.08647302
160	0xbe3aa3ee	-0.18226597
161	0x3e0200d9	0.12695636
162	0x3e473b6b	0.1945626
163	0xbdbdaa68	-0.09261018
164	0xbe009f9c	-0.12560886
165	0x3d1c31be	0.038133375
166	0x3c3a41b3	0.011368203
167	0x3c9a1f23	0.018813675
168	0x3db72499	0.08942527
169	0x3de93540	0.1138711
170	0xbdfea3c6	-0.12433581
171	0x3dd2152f	0.10257947
172	0x3d9cca21	0.076557405
173	0x3d3d7df3	0.046262693
174	0xbdf113ad	-0.11771331
175	0x3dab9a37	0.083790235
176	0x3d1b5a37	0.037927832
177	0x3c0f6f24	0.008754525
178	0x3dca4596	0.09876554
179	0x3d070ef1	0.032973234
180	0xbdf1b441	-0.11801959
181	0x3ded3150	0.11581671
182	0xbcb00e32	-0.021491144
183	0x3e7fb6dd	0.249721
184	0xbb1ab05e	-0.0023603658
185	0x3ca12d5b	0.019674947
186	0x3da8647f	0.08222293
187	0xbdd1bee0	-0.10241485
188	0x3c908fc0	0.01764667
189	0x3e008d95	0.1255401
190	0x3c63d31f	0.013905316
191	0x3e789d75	0.24278815
192	0x3bee31c8	0.007269118
193	0xbd59886f	-0.05310863
194	0xbda8dc00	-0.08245087
195	0x3d58737d	0.052844513
196	0x3db3ab5e	0.0877292
197	0xbd9115c5	-0.0708423
198	0xbd9b12c2	-0.07571937
199	0x3d3a404e	0.045471482
200	0x3e0d815c	0.13818878
201	0xbdca71cc	-0.09884986
202	0xbd668fc6	-0.056289457
203	0x3d491c26	0.04909911
204	0xbdf0b489	-0.11753184
205	0x3e1bdd64	0.15221173
206	0xbd9fbca7	-0.077996545
207	0x3d92be26	0.07165174
208	0x3e03860d	0.12844105
209	0x3db6a3c7	0.08917957
210	0xbca6429a	-0.02029543
211	0xbce0b6e2	-0.027430955
212	0x3d2ca524	0.042149678
213	0xbce36881	-0.027759792
214	0x39d7d9bb	0.00041170217
215	0xbd08b5e6	-0.033376597
216	0x3c31acf3	0.010844457
217	0xbc24e64b	-0.010064672
218	0x3db6f7ef	0.08934008
219	0xbd3b4fcf	-0.04573041
220	0xbc30ccaf	-0.010790988
221	0xbbb6aefe	-0.00557506
222	0xbdb157ca	-0.086593226
223	0x3e18668b	0.14882867
224	0x3d529ad4	0.051417187
225	0xbd96dbe9	-0.07366163
226	0xbdf30f0f	-0.118681066
227	0x3db26c6f	0.08712088
228	0x3d21efbd	0.039535273
229	0xbe11fde1	-0.14257003
230	0xbd3bcf85	-0.045852203
231	0x3e177df9	0.14794149
232	0xbde59c1a	-0.11211415
233	0xbdf75a66	-0.12077789
234	0x3d402026	0.04690566
235	0xbb601f9a	-0.0034198523
236	0xbe029194	-0.12750846
237	0x3d13fdcc	0.03613071
238	0x3dcef997	0.10106199
239	0x3cfc6a4d	0.030812407
240	0x3da59ae4	0.08086184
241	0x3d846dd3	0.0646626
242	0xbda1ca9e	-0.07899974
243	0xbe0fa4e0	-0.14027739
244	0xbc8dc091	-0.017303737
245	0x3da6fc3b	0.08153578
246	0xbc23a43a	-0.009987885
247	0xbcd8f7f9	-0.02648543
248	0xbd7a3e0c	-0.06109433
249	0x3e1f41e5	0.1555248
250	0xbc26ffa1	-0.010192783
251	0xbc0a973e	-0.0084589105
252	0xbc9c210f	-0.019058732
253	0xbdb64395	-0.08899609
254	0xbdbfc28c	-0.09363279
255	0xbcdd22b7	-0.026994092

network_body._body_endoder.seq_layers.2.bias f4 [128]
0	0x39b5a414	0.00034645258
1	0x3acf0ed6	0.0015797268
2	0xbad79d8d	-0.0016450152
3	0xbaf2c66a	-0.0018522267
4	0x3b726539	0.0036986603
5	0x3b5c3fe6	0.0033607422
6	0xb951993c	-0.00019988877
7	0x3a7b102b	0.00095772994
8	0xbb7b2061	-0.003831886
9	0x3c2994fe	0.010350464
10	0xba9b6140	-0.0011854544
11	0xba4b3029	-0.0007751012
12	0x3b0941a3	0.0020943664
13	0x3b024ef4	0.0019883486
14	0x3a8daf39	0.0010809667
15	0x3b944760	0.00452511
16	0x3b674849	0.0035290888
17	0xbaaab86a	-0.001302493
18	0xbb72a015	-0.0037021686
19	0x39466db1	0.00018923615
20	0x389d0f58	7.4892014e-05
21	0xbaa0ee2f	-0.0012278015
22	0xbb8cbd6e	-0.0042950427
23	0x3aea913a	0.0017896064
24	0xbba58634	-0.0050513986
25	0x3a2decfa	0.00066347385
26	0xbb243f18	-0.002506202
27	0x3a8b5112	0.0010629019
28	0x3b0a0734	0.0021061422
29	0x3b5497e4	0.0032439167
30	0x3c0b7ece	0.008514119
31	0x3b3d4ef4	0.002888617
32	0x3bc0986a	0.005877544
33	0x3b134a98	0.0022474881
34	0x3b68f61a	0.0035547079
35	0xbb735daf	-0.0037134697
36	0x3b5c3af8	0.0033604484
37	0xbbc200c1	-0.0059205
38	0xbad755cf	-0.0016428771
39	0x3b859677	0.0040767747
40	0x3a627c64	0.00086397515
41	0x3b433832	0.0029788134
42	0x39f795c7	0.00047223104
43	0x3b330508	0.0027316231
44	0x3ab4b740	0.0013787523
45	0xb9c36550	-0.00037268782
46	0x3b4559fb	0.0030113447
47	0xb9e93324	-0.00044479326
48	0x3b9680db	0.0045929975
49	0x3bbb5292	0.0057166303
50	0x3b5b86de	0.0033497135
51	0xbade2c72	-0.0016950502
52	0xbb8030eb	-0.0039120815
53	0xba2a1d40	-0.0006489344
54	0x3a20a498	0.0006128042
55	0x3b67053d	0.0035250925
56	0xbb6a836e	-0.0035783905
57	0x3c10aede	0.008830754
58	0xb9e8a0d9	-0.0004437033
59	0x3a81717b	0.0009875739
60	0xbb018529	-0.0019763208
61	0xba110869	-0.0005532564
62	0xbaa9be6b	-0.0012950426
63	0x3b19d990	0.0023475625
64	0xbb935480	-0.004496157
65	0xbb1cba1b	-0.0023914638
66	0xbad7e060	-0.0016470067
67	0xbb4fc467	-0.0031702758
68	0xba0da455	-0.00054032105
69	0xba175e21	-0.0005774219
70	0x3b11256f	0.0022147556
71	0xbb13ce7f	-0.0022553501
72	0xbb3cf558	-0.002883276
73	0x3b7642a5	0.0037576344
74	0xbb06c3b0	-0.0020563416
75	0x390dcb5e	0.00013522568
76	0x3bc2d650	0.005945958
77	0x3a79b5c5	0.0009525682
78	0xbb10a82d	-0.0022072897
79	0xb99402cc	-0.00028230844
80	0xbafd6170	-0.0019331407
81	0x3a52f7cc	0.0008047789
82	0xbabbf01f	-0.001433853
83	0xbab3569c	-0.0013682428
84	0xbae7f1a5	-0.0017695917
85	0x3b5b68ee	0.003347929
86	0x3aaa5215	0.0012994433
87	0xbb276b27	-0.0025546046
88	0x3b000cb4	0.0019538822
89	0xbb20f41c	-0.0024559563
90	0x3a21fbed	0.00061792025
91	0x3acf2a8c	0.0015805527
92	0xba178a2d	-0.00057807827
93	0xbb14cc47	-0.0022704767
94	0x3b64893d	0.003487184
95	0x3a85882b	0.0010187676
96	0xb98f3fd2	-0.00027322635
97	0x3a7d3c9f	0.00096602173
98	0xb9c77870	-0.0003804597
99	0x39479702	0.00019034374
100	0x3b37f8dd	0.0028071918
101	0x3a6954f8	0.0008900906
102	0xbb2ec12c	-0.0026665432
103	0xba3ee6f3	-0.0007282339
104	0xbad7dd9e	-0.0016469245
105	0x3a87de4f	0.0010365936
106	0xbba21aec	-0.004947057
107	0xbb2118d0	-0.002458144
108	0x3bb83b64	0.0056223143
109	0xbac32857	-0.0014889342
110	0xba86a8fd	-0.0010273751
111	0xbb982b36	-0.004643823
112	0x3a647a85	0.00087157666
113	0x398e9e9a	0.00027202518
114	0x3c1ed47c	0.009694215
115	0xbb35e26d	-0.0027753368
116	0x3a962e8b	0.0011457963
117	0xbb6343f9	-0.0034677966
118	0xb98156f5	-0.00024669585
119	0x3ae8d08a	0.0017762345
120	0xba972a3a	-0.001153297
121	0x3b179f1b	0.0023135606
122	0x3a5cc982	0.0008422361
123	0x3ad2c311	0.0016079863
124	0xbb37f4a8	-0.002806941
125	0xbb52138d	-0.003205511
126	0xbb578d75	-0.0032890711
127	0xbb257fcc	-0.0025253175

network_body._body_endoder.seq_layers.4.weight f4 [128, 128]
0	0x3d6ce9d9	0.057840202
1	0x3d6926e1	0.056921843
2	0x3ccba5d0	0.024859339
3	0x3e2f8b69	0.17143025
4	0xbc6d74e9	-0.014493206
5	0xbdc2109d	-0.09475825
6	0xbd815b68	-0.063162625
7	0x3d941115	0.07229821
8	0xbdf0a4a3	-0.11750152
9	0x3c8f3ef3	0.017486071
10	0xbd93a9ec	-0.072101444
11	0xbc434483	-0.01191819
12	0x3e0046e6	0.12527046
13	0xbd8fba87	-0.07017999
14	0x3ccd1606	0.025034916
15	0xbe16b032	-0.1471565
16	0x3d5c11ee	0.053728037
17	0xbdb5c148	-0.08874756
18	0xbdee6336	-0.11640017
19	0x3c187238	0.009304576
20	0xbd7a1a8a	-0.061060466
21	0xbd4c2630	-0.049841106
22	0xbdd8ab94	-0.10579601
23	0xbdb3c99e	-0.0877869
24	0x3d989106	0.07449536
25	0xbc2e6c73	-0.0106459735
26	0x3d380432	0.044925876
27	0xbdf7cfeb	-0.12100204
28	0x3d256fb9	0.04038975
29	0xbe48f99c	-0.19626468
30	0xbdef8e34	-0.11697045
31	0x3d0c69dd	0.034280647
32	0xbd25e472	-0.040501066
33	0xbd7787b3	-0.060432147
34	0x3d852476	0.06501095
35	0x3d0bee77	0.034162965
36	0x3de68548	0.1125589
37	0x3d84291d	0.06453154
38	0xbdd78a09	-0.10524375
39	0xbccdcf02	-0.025123123
40	0xbcece282	-0.028916601
41	0x3e191908	0.14950955
42	0xbdb62db4	-0.08895436
43	0xbe000a0f	-0.12503837
44	0x3d8d640f	0.0690385
45	0x3e18dda3	0.14928298
46	0xbcd595b1	-0.026072355
47	0xbdb5de02	-0.08880235
48	0xba9836f2	-0.0011613055
49	0xbd34cb3e	-0.04413914
50	0xbe0e2a50	-0.13883328
51	0xbe08be99	-0.13353957
52	0xbdb444ef	-0.088022105
53	0x3bca9e7b	0.006183443
54	0x3d9bb611	0.07603086
55	0x3df72ec4	0.12069467
56	0x3c4612ce	0.012089444
57	0xbd8df755	-0.069319405
58	0xbd94a93b	-0.07258841
59	0xbcffb160	-0.031212509
60	0x3c6ecce3	0.014575216
61	0xbbd9d4a2	-0.0066476623
62	0xbca87e48	-0.020568028
63	0x3b81e663	0.003964232
64	0x3e53f988	0.20700657
65	0xbd397075	-0.045273263
66	0x3d93e50f	0.07221424
67	0x3decf3c8	0.11569935
68	0x3da0be96	0.078488514
69	0x3da306a9	0.07960255
70	0x3d3c6a24	0.04599966
71	0x3e084353	0.13306932
72	0x3c6a3557	0.014294944
73	0xbbd7c516	-0.006584774
74	0x3dc27d1b	0.09496518
75	0xbdbf97c6	-0.0935512
76	0x3d4be80f	0.049781855
77	0x3dabe259	0.08392782
78	0x3e0152dd	0.12629266
79	0xbd30d814	-0.04317482
80	0x3e857c18	0.2607124
81	0x3d419c9e	0.047268502
82	0x3ccdefbe	0.025138732
83	0xbe0ebe68	-0.13939822
84	0xbe07030b	-0.13184755
85	0x3e0afab4	0.13572198
86	0x3de8fec0	0.11376715
87	0x3e0b4d8a	0.13603798
88	0xbe571ccc	-0.21007079
89	0x3da5f4a0	0.08103299
90	0x3bb7aab1	0.005605065
91	0x3de0bfa3	0.10974052
92	0xbc9d51c9	-0.019204037
93	0xbd3ba7fa	-0.04581449
94	0x3cdf9970	0.027294844
95	0x3ddea00d	0.10870371
96	0x3e0ae6cf	0.13564609
97	0x3b3a03a9	0.002838353
98	0x3d095e14	0.033536986
99	0xbd8cf170	-0.06881988
100	0x3da662ff	0.08124351
101	0x3af8e720	0.0018989779
102	0x3d22abeb	0.039714735
103	0xbd6c040e	-0.057621054
104	0xbd2c0000	-0.041992188
105	0x3e35da39	0.17759027
106	0xbd6b7794	-0.057487085
107	0x3db904c5	0.09034113
108	0x3df4ac44	0.119469196
109	0x3d1c0df6	0.03809925
110	0xbdd68dea	-0.10476287
111	0x3dd806b3	0.10548153
112	0x3d85d281	0.06534291
113	0x3d8cfb87	0.068839125
114	0x3b4a397d	0.003085702
115	0xbd3a86c7	-0.04553869
116	0x3c69804a	0.014251778
117	0x3dc4481d	0.09584067
118	0xbd0790d4	-0.033097103
119	0xbd893253	-0.06699052
120	0x3cf70e25	0.030158112
121	0x3dc5cbad	0.09657989
122	0xbd646651	-0.05576164
123	0x3c59134c	0.01324923
124	0xbcda49ba	-0.026646484
125	0xbe0811c6	-0.1328803
126	0x3e3e7e77	0.1860293
127	0x3e3380ce	0.17529604
128	0xbd35c6e1	-0.04437912
129	0xbcc96332	-0.024583433
130	0x3dbb0844	0.09132436
131	0xbd2b6560	-0.041844726
132	0xbd840e3e	-0.06448029
133	0x3c00d0d9	0.007862293
134	0x3d1c09b0	0.038095176
135	0xbd36238b	-0.04446749
136	0xbe18b126	-0.14911327
137	0xbd9648b5	-0.073380865
138	0x3dbe9eec	0.09307656
139	0xbdeeb80d	-0.11656199
140	0x3abb9599	0.0014311551
141	0xbe05d8ea	-0.13071027
142	0x3e003c6e	0.12523052
143	0x3df80d6b	0.12111934
144	0xbd1b4421	-0.03790677
145	0xbd8b712d	-0.06808696
146	0x3d38e81c	0.04514323
147	0xbd7310f0	-0.059342325
148	0x3d50df4d	0.050994206
149	0x3e05b043	0.1305552
150	0x3d73c60d	0.059515048
151	0xbc7da5bc	-0.015481409
152	0xbe04c0ec	-0.12964219
153	0xbd9e055e	-0.077158675
154	0xbc9295f6	-0.017893773
155	0x3daf1012	0.08547987
156	0x3dbd5fa7	0.0924676
157	0x3e1477c8	0.14498818
158	0xbd3d7425	-0.046253342
159	0x3dd0ab64	0.1018894
160	0xbdd09888	-0.10185343
161	0x3ce3e6bd	0.027819986
162	0xbc7e604f	-0.015525891
163	0xbad339af	-0.0016115214
164	0x3d58aeab	0.05290095
165	0x3c5b830b	0.013397942
166	0x3d2d9c8d	0.042385627
167	0x3dccd4e6	0.10001545
168	0xbe043655	-0.12911351
169	0x3cdabc52	0.026701126
170	0xbdafbbd2	-0.08580746
171	0xbc5042fc	-0.012711283
172	0xbccff145	-0.025383601
173	0xbbd29b3c	-0.006427197
174	0xbd308c60	-0.043102622
175	0xbda0acb8	-0.078454435
176	0x3c8802a0	0.016602814
177	0x3c247812	0.010038393
178	0xbd94a1f5	-0.07257453
179	0x3c72699f	0.01479569
180	0xbe5bbbaf	-0.21458314
181	0x3d445052	0.047928162
182	0xbdcfc6a3	-0.10145309
183	0xbda4fd29	-0.08056099
184	0x3c8fddb2	0.017561767
185	0xbd90d382	-0.07071592
186	0xbd0f96bc	-0.03505586
187	0xbc4ee035	-0.012626697
188	0x3d151543	0.03639723
189	0x3cca8213	0.024720227
190	0x3afe5518	0.0019404022
191	0x3e1fba2c	0.15598363
192	0xbd853356	-0.06503932
193	0x3b242d7b	0.0025051523
194	0x3d2d0308	0.04223922
195	0xbd60f939	-0.054925177
196	0xbdc35a36	-0.09538691
197	0x3c2014a0	0.009770542
198	0xbe719f5b	-0.23595946
199	0x3d8a5bbe	0.0675578
200	0xbdcfe380	-0.10150814
201	0x3d3d52ce	0.046221547
202	0x3d254e7b	0.040358048
203	0x3e620acb	0.2207443
204	0x3ca16487	0.019701255
205	0xbdc8cbfc	-0.09804532
206	0xbc59a144	-0.013283078
207	0xbd9c80f4	-0.07641783
208	0xbd44d48d	-0.048054267
209	0x3c341b15	0.010992785
210	0x3d6dc501	0.058049206
211	0xbe08566e	-0.1331422
212	0x3d421fd0	0.04739362
213	0x3db2d008	0.08731085
214	0xbde642cb	-0.112432085
215	0xbc3c85ef	-0.011506542
216	0xbdd8f7f7	-0.105941705
217	0x3c5621a8	0.013069548
218	0xbd82f2ea	-0.063939884
219	0x3d7afb43	0.061274778
220	0xbda05943	-0.07829525
221	0xbb2785ca	-0.0025561922
222	0xbb340343	-0.0027467764
223	0xbd9a7c79	-0.075432725
224	0xbca0be48	-0.019621983
225	0xbdd328b8	-0.10310501
226	0x3d886079	0.06659026
227	0x3dbeab38	0.09310001
228	0x3915f278	0.00014300074
229	0xbdd663b1	-0.104682334
230	0x3b4ac30b	0.0030939009
231	0x3ca5233c	0.020158403
232	0xbdd7eb12	-0.10542883
233	0x3d00d36a	0.03145162
234	0x3c0d2931	0.008615778
235	0x3cf649b9	0.03006445
236	0xbc80ee17	-0.01573853
237	0xbdb7484b	-0.08949336
238	0xbc3f9e75	-0.011695494
239	0xbbfd4969	-0.0077296984
240	0x3ddaa792	0.10676493
241	0xbcb86cdd	-0.022512848
242	0xbc049fc1	-0.008094729
243	0x3db881e0	0.09009147
244	0xbd138429	-0.03601471
245	0xbe08ed37	-0.1337174
246	0xbd65be85	-0.056089897
247	0xbd4af256	-0.049547516
248	0xbd5ad3cc	-0.05342464
249	0x3c9fef9b	0.019523432
250	0x3c64d606	0.013967043
251	0x3d63986e	0.05556529
252	0xbdfd9309	-0.1238156
253	0xbd84ca51	-0.06483901
254	0x3dca6124	0.09881809
255	0x3cd35a82	0.025799993

network_body._body_endoder.seq_layers.4.bias f4 [128]
0	0xbb659c07	-0.0035035626
1	0xbb49fd16	-0.0030821017
2	0x3a01bbc4	0.0004948939
3	0x3ae7d208	0.0017686496
4	0xbad51c2a	-0.0016259004
5	0xbb554188	-0.003254028
6	0xbb827fb3	-0.003982508
7	0x3aaf7e1c	0.0013389024
8	0x3b3f37c0	0.0029177517
9	0xb9aaea75	-0.0003259961
10	0xba522f10	-0.0008017877
11	0xb8d2d005	-0.00010052327
12	0xba14a134	-0.0005669773
13	0xbaaa3120	-0.0012984611
14	0x3a97cbdf	0.0011581144
15	0x3b497313	0.0030738756
16	0xbb045dc2	-0.0020197486
17	0xbbabdef7	-0.0052450853
18	0xbb3e64cb	-0.0029051777
19	0xbb320e8d	-0.0027169317
20	0x3b291096	0.002579724
21	0x3adbc01e	0.0016765629
22	0xba3f7292	-0.0007303144
23	0x3afe067b	0.0019380593
24	0xbb53ce2f	-0.003231894
25	0xbabb00bb	-0.0014267185
26	0xbb00445c	-0.0019571995
27	0x3b3facc8	0.0029247273
28	0xbb2e5b0e	-0.0026604566
29	0x3acc8676	0.0015604037
30	0xb96c9625	-0.00022562647
31	0xbb4b748f	-0.0031044816
32	0x3a440feb	0.00074791786
33	0xbafb0e3d	-0.0019154024
34	0x3b1e6b22	0.0024172743
35	0x3a9f83b0	0.0012169983
36	0x3bbdbb90	0.0057901815
37	0xb9b2c5dc	-0.00034098222
38	0xbb48530e	-0.0030567083
39	0xba632682	-0.0008665101
40	0xbb4022d2	-0.002931763
41	0xb8a23848	-7.735245e-05
42	0xb94bfa18	-0.00019452756
43	0x39c54908	0.0003762918
44	0x3a791d1c	0.0009502934
45	0xbab6eb33	-0.0013955593
46	0xbb15f8a3	-0.0022883795
47	0xb99bfc6b	-0.0002975197
48	0xbae29e1e	-0.0017289554
49	0x3b363db2	0.002780777
50	0x3a804407	0.0009785899
51	0xbb5c3777	-0.0033602396
52	0x3b539828	0.0032286737
53	0x397a714c	0.00023884064
54	0xbb94ee85	-0.0045450353
55	0xbb2ca789	-0.0026344976
56	0xba5448f0	-0.0008098027
57	0xbb01e2e0	-0.0019819066
58	0xbb7bf097	-0.0038442963
59	0x3a284f22	0.0006420483
60	0x3b2a566e	0.0025991458
61	0x3b33933e	0.0027400996
62	0x3ad00d95	0.0015873188
63	0xbb95d6d1	-0.0045727273
64	0x3b8654b7	0.0040994543
65	0x3ac3d4c9	0.0014940734
66	0xba92dfb4	-0.0011205585
67	0x3abde670	0.0014488231
68	0x3b83e553	0.0040251403
69	0xbac0f9e3	-0.001472291
70	0x3ae4bd20	0.0017451383
71	0x3ab16dba	0.0013536729
72	0x3a71467c	0.00092039234
73	0x3bcf6742	0.006329448
74	0x3b81d68b	0.003962343
75	0x3a532810	0.0008054981
76	0xba538e3f	-0.00080702076
77	0x3b1f9ebe	0.0024356092
78	0x3bdebc51	0.0067973514
79	0xb9843ec6	-0.00025223772
80	0xbb0678ce	-0.0020518783
81	0xb6f72058	-7.364939e-06
82	0x39653c0e	0.00021861514
83	0x3b234012	0.0024910015
84	0x3b242eee	0.0025052386
85	0xba8b40bf	-0.0010624154
86	0xba36ce5c	-0.0006973499
87	0x39bc176b	0.00035875602
88	0x3b25e16f	0.002531137
89	0x3b0b0c1d	0.0021216937
90	0xbb18e9ec	-0.0023332788
91	0x3a5e8680	0.000848867
92	0x3b91d7a9	0.0044507575
93	0x3af2ddda	0.0018529252
94	0xbafedd99	-0.0019444703
95	0xbb2685f3	-0.002540943
96	0x3b778593	0.0037768825
97	0x36ee74c0	7.106544e-06
98	0x3b3277fb	0.0027232158
99	0xbaf3685a	-0.0018570528
100	0xbb0a9079	-0.0021143241
101	0x3b5131e8	0.0031920616
102	0x3b464bdc	0.0030257618
103	0xbb2aaede	-0.002604417
104	0xbab8448c	-0.0014058514
105	0x3a7f7196	0.00097444037
106	0xba6b39a1	-0.0008973126
107	0xba2e5c3b	-0.00066513167
108	0xb9c71c2c	-0.00037977227
109	0x3ab821e8	0.0014048191
110	0xbbaace8e	-0.0052126115
111	0xbac3be52	-0.0014934039
112	0xba9fdcfc	-0.0012196596
113	0x3b37e272	0.0028058556
114	0xbb4105cb	-0.0029452916
115	0x3ad023cf	0.0015879812
116	0x3a8f0fe8	0.0010914775
117	0x3a4562a2	0.0007529651
118	0x3b984fef	0.0046482007
119	0x39e51e62	0.0004370092
120	0xbac38a61	-0.001491856
121	0x3ab123f9	0.0013514749
122	0x3a5899c5	0.00082626595
123	0x3a089f7e	0.00052117545
124	0x3b333df9	0.002735017
125	0xbb9d05d0	-0.0047919527
126	0x3b6a650e	0.00357658
127	0xbb09f120	-0.0021048263

action_model._continuous_distribution.log_sigma f4 [1, 4]
0	0x3c189a3a	0.009314114
1	0xb905d175	-0.00012761897
2	0x3c64e9b0	0.013971731
3	0x3bcc5b9a	0.0062365057

action_model._continuous_distribution.mu.weight f4 [4, 128]
0	0x3c6783bc	0.014130529
1	0xbc38231a	-0.011238838
2	0x3b26bde8	0.0025442783
3	0x3cd1afb3	0.025596475
4	0xbbefa4aa	-0.0073133307
5	0x3be77222	0.0070631662
6	0xbc56cf67	-0.013110972
7	0xbc89e45b	-0.016832521
8	0x3c02241c	0.007943179
9	0xbc9b8762	-0.018985454
10	0x3d002e9d	0.031294454
11	0x3cefba1b	0.029263547
12	0xbbec8a80	-0.007218659
13	0xbc2bd5e3	-0.010488006
14	0x3c9159e6	0.017743062
15	0xbc362760	-0.011117786
16	0xbc9a9d30	-0.018873781
17	0xbc0760f4	-0.0082628615
18	0x3c6b65c6	0.014367526
19	0x3bc5ef09	0.006040458
20	0xbcc576ec	-0.024104558
21	0xb905d15d	-0.00012761862
22	0xbc9db724	-0.019252367
23	0x3c92867b	0.01788639
24	0x3bba6b88	0.0056890883
25	0xbb1f56ce	-0.0024313214
26	0x3ca03f3b	0.0195614
27	0xbc1fa614	-0.009744186
28	0x3a578bb6	0.00082224177
29	0x399f0d2f	0.00030336666
30	0x3c50e7ac	0.012750547
31	0xbcb820b2	-0.022476528
32	0xbcc35b78	-0.023847327
33	0x3c0478a3	0.008085403
34	0xbc2e7801	-0.010648728
35	0xbb05edca	-0.0020435923
36	0xba32353c	-0.00067980937
37	0x3bdcb2fa	0.006735203
38	0x3ac85640	0.0015284494
39	0x3d3c08f6	0.045906983
40	0x3ba9e266	0.0051844595
41	0x3c0bc467	0.008530713
42	0xbca5f2ab	-0.020257315
43	0x3d122dc8	0.03568819
44	0xbd190181	-0.03735495
45	0x3c5c657c	0.01345193
46	0xbc6ca73b	-0.014444168
47	0xbd19c8db	-0.037545066
48	0x3cea2453	0.028581774
49	0xbc8ace46	-0.016944062
50	0x3bdd1dfa	0.0067479583
51	0xbbe64f7e	-0.007028519
52	0x3c773b18	0.015089773
53	0xbcc88d72	-0.024481509
54	0xbbb6b5ca	-0.00557587
55	0xbc9d2dd7	-0.019186897
56	0x3c42879d	0.011873153
57	0x3c15ac09	0.009135255
58	0xbcee1702	-0.029063705
59	0xbb12d4b9	-0.0022404625
60	0xbbbf5a75	-0.0058396407
61	0x3bf01694	0.0073269103
62	0x3c393f97	0.011306665
63	0xbadd6b83	-0.0016893003
64	0x3c17bfcd	0.009262037
65	0x3ce1fa63	0.027585214
66	0xbb12a69e	-0.0022377144
67	0x3c79782e	0.015226407
68	0x3c23ef24	0.010005746
69	0x3c5ddf5e	0.013542024
70	0x3bbe0d85	0.0057999515
71	0xbbd05a9c	-0.0063584577
72	0x3b003bb0	0.0019566827
73	0x3bd23fbc	0.006416289
74	0x3c66e0a6	0.014091646
75	0xbc6e0e03	-0.014529708
76	0xbad73cf6	-0.0016421366
77	0xbbc0b76f	-0.005881242
78	0x3a6cbf28	0.000903117
79	0x3d87b5d5	0.066264786
80	0x3b425c03	0.0029656894
81	0x3ce0f59e	0.02746087
82	0xba3fce98	-0.00073168566
83	0xbc7c8b74	-0.015414108
84	0xbc00f54e	-0.007870985
85	0x3b486d19	0.0030582605
86	0xbb82972d	-0.0039853067
87	0xbc815725	-0.015788624
88	0xbcf02eca	-0.029319186
89	0xbc0193ed	-0.007908803
90	0x3c9dc605	0.019259462
91	0xbc073c88	-0.008254178
92	0x3d31aea1	0.04337943
93	0x3bc75357	0.006082933
94	0x3c2861ea	0.010277251
95	0xbacb1343	-0.0015493411
96	0x3c335937	0.010946563
97	0xbbb66d55	-0.0055672326
98	0xbc369174	-0.011143077
99	0x3a9e7a1d	0.0012090836
100	0x3b8cc525	0.0042959624
101	0xbb7ad8ed	-0.003827627
102	0x3cd4bbdd	0.025968486
103	0x3c383909	0.011244067
104	0x3b99efe2	0.0046977857
105	0xbc15d4b2	-0.009144949
106	0xbb24c924	-0.0025144303
107	0xbae9f945	-0.0017850777
108	0x3cf4b3e1	0.02987093
109	0x3ccbe9f7	0.024891837
110	0x3bc2687e	0.0059328666
111	0x3d2a30aa	0.041550316
112	0x3c8d17a6	0.01722319
113	0x3c9e12c6	0.019296061
114	0x3c016c4d	0.007899356
115	0x3cbcaf0e	0.023032691
116	0x3c8abded	0.016936267
117	0x3b1f636d	0.0024320737
118	0xba607202	-0.00085619104
119	0x3d4df61d	0.05028354
120	0x3c3656b4	0.01112907
121	0xbc816389	-0.015794532
122	0xbc6915f6	-0.014226427
123	0xbbda9bf2	-0.006671422
124	0xbc1f89d1	-0.009737448
125	0x3c27fe99	0.010253572
126	0xbb83aca8	-0.004018385
127	0xbc064efe	-0.008197544
128	0x3c6f84a1	0.014619024
129	0x3ba4f2ad	0.005033812
130	0xbcc88a36	-0.024479967
131	0xbc55425e	-0.013016311
132	0xbbc7c677	-0.006096657
133	0x3cbd58aa	0.023113567
134	0x3c097213	0.008389014
135	0xbcc5eb7a	-0.024160136
136	0x3c6360d5	0.013878067
137	0xbcc94efc	-0.024573795
138	0x3b98f54e	0.0046679145
139	0x3c7a149a	0.015263701
140	0x3d0086d9	0.0313786
141	0x3b87c56c	0.0041434076
142	0xbc3b1322	-0.011418136
143	0xbb3d6b9a	-0.0028903247
144	0xbc82ea51	-0.015980871
145	0x3bd67b38	0.0065454505
146	0xbb1d4b50	-0.0024001189
147	0x3b73c80a	0.003719809
148	0xbc231efb	-0.009956117
149	0xbd01cd1b	-0.031689744
150	0x3c05ed2e	0.008174224
151	0xbc57686f	-0.0131474575
152	0x3c45cf64	0.012073372
153	0x3cc3959b	0.023875048
154	0x3c442fbf	0.011974274
155	0xbd506b00	-0.050883293
156	0xbc0a2b64	-0.008433197
157	0x3cc35042	0.02384198
158	0x3caf3d84	0.021391638
159	0x3d268d98	0.040662378
160	0x3b124fa3	0.00223253
161	0x3ccfa7cf	0.025348572
162	0xbd6e6a71	-0.05820698
163	0xbca54bcc	-0.020177744
164	0x39ced3db	0.00039449226
165	0xbbff3022	-0.0077877203
166	0x3ce45597	0.027872844
167	0x3d1d92d4	0.038470104
168	0xbc3c9c4b	-0.0115118725
169	0xbca4da08	-0.020123497
170	0x3b9949c6	0.004677984
171	0xbbd6afa9	-0.006551702
172	0xbca0de8d	-0.01963737
173	0xbca6c893	-0.020359313
174	0xbb3894f2	-0.002816495
175	0xba7cc810	-0.0009642849
176	0x3c637a4c	0.013884138
177	0x3c67b889	0.014143118
178	0xbcae9cb4	-0.021314956
179	0x3ce72b90	0.028219014
180	0xbc4129b3	-0.011789727
181	0xb987d431	-0.00025907301
182	0x3cb6b59f	0.0223034
183	0x3ceb5bea	0.028730351
184	0xbc3eeba9	-0.011652865
185	0x3cd1be9c	0.025603585
186	0xbc27a01e	-0.010231046
187	0xb9b73e80	-0.00034951046
188	0xbcc883ba	-0.024476875
189	0xbcc23735	-0.023707965
190	0xbc7a8649	-0.015290805
191	0x3c2235ac	0.009900492
192	0xbc3925e9	-0.011300542
193	0xbcb1b4ef	-0.021692721
194	0x3bfa34c6	0.0076356856
195	0xbc836bba	-0.016042579
196	0x3c8ce5b4	0.017199375
197	0xbc6ba0fa	-0.0143816415
198	0xbc8d4f82	-0.017249826
199	0x3b8e86df	0.004349574
200	0x3c2d816f	0.010589941
201	0x3bb9f06d	0.005674413
202	0x3c1ab75d	0.009443131
203	0x3b4bf7a0	0.0031122938
204	0x3bb4d99a	0.005519104
205	0xbc8a5bb7	-0.016889436
206	0xbb83585c	-0.004008336
207	0xbc0aafca	-0.008464763
208	0xbbd14942	-0.006386907
209	0xbca2dfdb	-0.019882133
210	0xbc82c95a	-0.015965153
211	0x3bc7665b	0.0060852
212	0xbccda13e	-0.0251013
213	0xbc23bbec	-0.009993535
214	0x3d09450a	0.033513106
215	0xba867468	-0.001025808
216	0xbb6d79cf	-0.0036235934
217	0x3ca3ce31	0.01999578
218	0x3baf0958	0.00534169
219	0x3c4b6ead	0.012416524
220	0xbd338eee	-0.04383748
221	0xbc1a26e0	-0.009408683
222	0x3c80a4cb	0.01570358
223	0x3c21e490	0.009881154
224	0x3c6dca1d	0.01451352
225	0x3c4982fb	0.012299295
226	0xbcab0016	-0.020874064
227	0x3c2fd342	0.01073152
228	0x3c936cf6	0.017996293
229	0x3bcb1823	0.0061979457
230	0xbce206d7	-0.027591152
231	0x3ce13c8d	0.027494693
232	0x3c00d5ae	0.007863445
233	0xbabdd6f8	-0.0014483621
234	0xbc16e223	-0.009209189
235	0x3abf2cef	0.0014585535
236	0xbc40f6fd	-0.011777637
237	0x3afcf02c	0.0019297651
238	0x3cba3afc	0.022733204
239	0x3bfba315	0.007679353
240	0x3bc91c6e	0.0061374223
241	0x3ca02ffc	0.01955413
242	0x3cc32902	0.023823265
243	0xbc898a9b	-0.016789725
244	0xbb847852	-0.0040426636
245	0xba7992a5	-0.0009520448
246	0x3b25b58a	0.0025285208
247	0x3cc65962	0.024212543
248	0x3ce2ad75	0.027670601
249	0x3bef5f6c	0.0073050763
250	0xbbcea780	-0.0063065886
251	0x3c65b128	0.014019288
252	0xbd000b90	-0.031261027
253	0x3c68f42f	0.014218374
254	0xbce15626	-0.0275069
255	0x3d3c7cea	0.046017565

action_model._continuous_distribution.mu.bias f4 [4]
0	0x3a9aa294	0.001179772
1	0xbb68ff3d	-0.0035552524
2	0x3b0dab86	0.0021617129
3	0x3af744c4	0.0018865098
