results/sac1/Shooter.onnx (onnx, 664341 bytes, 11 tensors)

network_body.observation_encoder.processors.0.normalizer.running_mean f4 [68]
0.016553715 0.9833352 0.0 0.21109681 0.014220642 0.98566824 0.0 0.21139497
0.016109321 0.98377955 0.0 0.21187991 0.013109654 0.9867793 0.0 0.21259032
0.01622042 0.98366845 0.0 0.21331283 0.014331738 0.98555714 0.0 0.21376443
0.018664593 0.9812243 0.0 0.21493861 0.0123319635 0.987557 0.0 0.2155603
0.016220419 0.98366845 0.0 0.21789126 0.013998444 0.98589045 0.0 0.2178981
0.017331405 0.9825575 0.0 0.22084504 0.013442951 0.9864459 0.0 0.22071846
0.015998222 0.98389065 0.0 0.22467065 0.013887347 0.98600155 0.0 0.22354443
0.01710921 0.9827796 0.0 0.22809839 0.012887456 0.9870015 0.0 0.22664446
0.016553717 0.9833352 0.0 0.23234256
00000000: a89b 873c dbbb 7b3f 0000 0000 c329 583e
00000010: b2fd 683c c154 7c3f 0000 0000 ec77 583e
00000020: b2f7 833c fad8 7b3f 0000 0000 0cf7 583e
00000030: e0c9 563c 919d 7c3f 0000 0000 47b1 593e
00000040: b0e0 843c b2d1 7b3f 0000 0000 ae6e 5a3e
00000050: abcf 6a3c 794d 7c3f 0000 0000 10e5 5a3e
00000060: 7de6 983c 8431 7b3f 0000 0000 de18 5c3e
00000070: 010c 4a3c 89d0 7c3f 0000 0000 d7bb 5c3e
00000080: afe0 843c b2d1 7b3f 0000 0000 e31e 5f3e
00000090: bb59 653c 5163 7c3f 0000 0000 ae20 5f3e
000000a0: 97fa 8d3c e388 7b3f 0000 0000 3425 623e
000000b0: d33f 5c3c b887 7c3f 0000 0000 0504 623e
000000c0: b40e 833c 42e0 7b3f 0000 0000 1010 663e
000000d0: c187 633c 996a 7c3f 0000 0000 d5e8 643e
000000e0: 9d28 8c3c 7297 7b3f 0000 0000 a092 693e
000000f0: e925 533c 21ac 7c3f 0000 0000 7c15 683e
00000100: a99b 873c dbbb 7b3f 0000 0000 35eb 6d3e

network_body.observation_encoder.processors.1.normalizer.running_mean f4 [52]
0.016553715 0.9833352 0.0 0.21109681 0.013998444 0.98589045 0.0 0.2179194
0.017331406 0.9825575 0.0 0.22086693 0.012443061 0.98744583 0.0 0.23356017
0.0178869 0.982002 0.0 0.24201523 0.01633152 0.9835574 0.0 0.2534822
0.020553274 0.97933567 0.0 0.27044305 0.01922009 0.9806688 0.0 0.2800562
0.025552716 0.9743362 0.0 0.29970282 0.026330408 0.9735585 0.0 0.30957913
0.027330296 0.97255856 0.0 0.32295018 0.02521942 0.97466946 0.0 0.32857373
0.025552714 0.9743362 0.0 0.3323546
00000000: a89b 873c dbbb 7b3f 0000 0000 c329 583e
00000010: bb59 653c 5163 7c3f 0000 0000 4326 5f3e
00000020: 98fa 8d3c e388 7b3f 0000 0000 f12a 623e
00000030: fbdd 4b3c 40c9 7c3f 0000 0000 662a 6f3e
00000040: 8c87 923c 7c64 7b3f 0000 0000 d7d2 773e
00000050: aec9 853c 6bca 7b3f 0000 0000 6bc8 813e
00000060: 575f a83c beb5 7a3f 0000 0000 8377 8a3e
00000070: 7373 9d3c 1c0d 7b3f 0000 0000 8763 8f3e
00000080: ee53 d13c 196e 793f 0000 0000 a672 993e
00000090: deb2 d73c 213b 793f 0000 0000 2881 9e3e
000000a0: c9e3 df3c 99f9 783f 0000 0000 ba59 a53e
000000b0: f598 ce3c f083 793f 0000 0000 d13a a83e
000000c0: ed53 d13c 196e 793f 0000 0000 622a aa3e

network_body._body_endoder.seq_layers.0.weight f4 [256, 120]
-0.03947924 -0.15582827 -0.058623 0.1260443 0.0074811643 -0.23026566 0.0744119 0.0005883138
0.038684513 0.045668606 0.043796834 0.11013441 -0.015050473 0.0739261 0.05762702 0.018766142
0.01789678 0.13155009 -0.03961881 -0.14676479 0.009664083 0.04828109 -0.024739405 0.025187137
0.18899222 0.016520482 0.025287949 -0.06410742 0.007083848 0.03789215 0.105017565 -0.0849877
0.0275274 -0.074296154 0.15487695 0.051759556 -0.027565531 0.15464556 0.10952016 -0.23418176
-0.022965977 -0.00894864 -0.006338455 0.059834786 -0.052852478 -0.07571116 0.06637687 -0.06012128
0.09536755 0.07945868 -0.081095755 -0.019727478 0.04323945 -0.041674268 0.1204499 0.0026389745
0.05921471 0.034130897 0.014038781 0.02731737 -0.119896166 -0.06861663 -0.011826759 -0.041303467
0.0037187329 -0.16720267 -0.10394514 -0.025413819 0.04782295 0.078499384 0.0009985986 0.01266907
-0.04588343 0.04586945 -0.003804673 -0.010086365 0.046398945 0.052090164 -0.095622584 -0.081210434
-0.07464751 -0.18438293 -0.049873896 -0.114109136 0.040784795 0.021561733 -0.055259485 0.028742906
-0.09944569 0.0162977 0.09079648 0.0139600495 -0.08968541 -0.0633103 0.10329592 -0.076288
0.039502434 -0.009575255 0.031045591 0.07760276 -0.04484776 0.05112033 0.054234326 0.03777912
-0.09887676 -0.008979316 -0.06869552 -0.121932335 -0.02141779 -0.024039298 0.10394713 -0.056153614
0.0012239317 -0.11449042 0.046316825 0.05794298 0.072414 -0.013148388 0.09642815 -0.0765637
-0.10078701 0.01999013 -0.036015645 -0.060956623 0.066894956 -0.14938757 -0.04144347 0.12607189
0.018750476 0.05324082 0.17513207 0.050746482 0.022309419 -0.21907157 -0.10718349 0.0817285
0.08850159 0.022587353 -0.11449916 -0.06443803 -0.00876503 0.15025182 0.00054515025 -0.06275682
-0.027012018 -0.1021445 0.02657587 -0.061350726 -0.047214396 0.01136908 -0.021433216 -0.017879965
-0.037027612 0.109702274 -0.14385377 0.094617315 0.056073 -0.12335861 0.08332455 -0.0714898
0.057070218 -0.19529097 -0.046136104 -0.096479475 0.029568138 -0.10900668 0.011649303 -0.11564323
0.20335324 -0.049263183 -0.13697702 -0.18354537 -0.09157673 -0.02185195 0.13079472 -0.05735178
0.023303768 -0.045549683 0.1820269 -0.03133144 0.061518382 -0.04916222 -0.23047373 -0.06427737
-0.038986437 0.11657457 0.04803991 0.06832944 0.04283589 -0.08388495 -0.083701245 0.04560559
0.06885104 0.009703841 -0.00865148 0.019594835 -0.068911396 0.06886517 0.05172803 0.0022720878
-0.0780181 0.08252748 -0.09592547 -0.076672785 -0.092184596 -0.1229901 0.053670537 0.1141162
0.13415259 0.12073804 -0.12913543 -0.21272595 0.092695385 0.07923206 -0.011364716 -0.031947806
-0.09306646 -0.1027112 0.079553775 0.12672646 -0.055786513 -0.023487737 -0.0761399 -0.2166436
0.1256895 0.13189694 -0.017416315 0.017308274 0.13558125 -0.17131618 -0.19969796 0.031979997
0.068297155 -0.092559 -0.028659184 0.032720257 0.13532732 -0.18301833 -0.034647025 0.06260001
0.014260901 0.13583435 -0.00034652968 0.1330584 -0.21857151 0.124450505 -0.058125317 0.08755705
0.00082675746 -0.12400591 0.080362 0.043991607 0.029147336 0.051905133 -0.18786418 -0.08617508
00000000: fcb4 21bd 7291 1fbe ac1e 70bd c211 013e
00000010: 8e24 f53b c3ca 6bbe 4465 983d 1239 1a3a
00000020: a773 1e3d 010f 3b3d 4f64 333d 268e e13d
00000030: 4296 76bc 9166 973d 4f0a 6c3d 74bb 993c
00000040: 459c 923c 11b5 063e 5547 22bd 8249 16be
00000050: 1a56 1e3c 64c2 453d 4baa cabc 4155 ce3c
00000060: 2d87 413e f655 873c ac28 cf3c c04a 83bd
00000070: a01f e83b cd34 1b3d 7313 d73d 080e aebd
00000080: 2481 e13c 9528 98bd 1098 1e3e d401 543d
00000090: 1cd1 e1bc 685b 1e3e 1b4c e03d 58cd 6fbe
000000a0: 2523 bcbc 519d 12bc d0b2 cfbb 5215 753d
000000b0: d77b 58bd 740e 9bbd 99f0 873d bb41 76bd
000000c0: 1050 c33d 3bbb a23d 8815 a6bd 859b a1bc
000000d0: d91b 313d a3b2 2abd 70ae f63d a5f2 2c3b
000000e0: 208b 723d d7cc 0b3d ea02 663c adc8 df3c
000000f0: 1f8c f5bd e086 8cbd 06c5 41bc d32d 29bd
00000100: fcb5 733b 2d37 2bbe 31e1 d4bd a430 d0bc
00000110: ffe1 433d 49c4 a03d 69e3 823a ee91 4f3c
00000120: 43f0 3bbd 9be1 3b3d d257 79bb 4841 25bc
00000130: d20c 3e3d 7f5c 553d c6d5 c3bd a851 a6bd
00000140: cbe0 98bd e1ce 3cbe 9248 4cbd 0db2 e9bd
00000150: f50d 273d 3ba2 b03c c557 62bd 3e76 eb3c
00000160: 2faa cbbd c182 853c 81f3 b93d b1b8 643c
00000170: fcac b7bd d5a8 81bd d08c d33d e23c 9cbd
00000180: 4ecd 213d 88e1 1cbc 5353 fe3c 32ee 9e3d
00000190: 49b2 37bd 8d63 513d d024 5e3d 47be 1a3d
000001a0: e67f cabd fb1d 13bc 3db0 8cbd a9b7 f9bd
000001b0: 5c74 afbc 10ee c4bc 3ce2 d43d 5501 66bd
000001c0: 556c a03a f479 eabd b6b6 3d3d 9e55 6d3d
000001d0: cb4d 943d 566c 57bc 1f7c c53d 6ecd 9cbd
000001e0: 6b69 cebd 57c2 a33c 2485 13bd a7ad 79bd
000001f0: 3900 893d 0ef9 18be a1c0 29bd fd18 013e
00000200: 999a 993c 0c13 5a3d d255 333e 8bdb 4f3d
00000210: 3ec2 b63c 4c54 60be 0583 dbbd 4661 a73d
00000220: 5240 b53d 1d09 b93c 897e eabd 16f8 83bd
00000230: 339b 0fbc 9ddb 193e 6ae8 0e3a a686 80bd
00000240: 4f48 ddbc 2331 d1bd a4b5 d93c e64a 7bbd
00000250: e263 41bd 6145 3a3c b694 afbc 0179 92bc
00000260: 44aa 17bd 96ab e03d 674e 13be b9c6 c13d
00000270: cdac 653d 70a3 fcbd 10a6 aa3d 3f69 92bd
00000280: 76c2 693d 5bfa 47be 36f9 3cbd 0897 c5bd
00000290: e138 f23c e53e dfbd b8dc 3e3c 5cd6 ecbd
000002a0: d53b 503e 31c8 49bd b443 0cbe 51f3 3bbe
000002b0: 958c bbbd dc02 b3bc 0def 053e b3e9 6abd
000002c0: 8be7 be3c 4e92 3abd 4265 3a3e 6555 00bd
000002d0: b3fa 7b3d 535e 49bd 4e01 6cbe dba3 83bd
000002e0: 3eb0 1fbd a6be ee3d 7fc5 443d 4ef0 8b3d
000002f0: b074 2f3d dfcb abbd 8f6b abbd edcc 3a3d
00000300: c601 8d3d dcfc 1e3c f0be 0dbc 5985 a03c
00000310: 6b21 8dbd 2f09 8d3d c5e0 533d 4fe7 143b
00000320: f4c7 9fbd 2b04 a93d 9374 c4bd 9f06 9dbd
00000330: 47cb bcbd 3ce2 fbbd a3d5 5b3d c1b5 e93d
00000340: 4c5f 093e 8145 f73d 143c 04be d5d4 59be
00000350: 14d7 bd3d 6b44 a23d 1333 3abc b4db 02bd
00000360: a199 bebd 405a d2bd 17ed a23d 95c4 013e
00000370: 6680 64bd 5b69 c0bc 3cef 9bbd d2d7 5dbe
00000380: c0b4 003e fe0f 073e a9ac 8ebc 15ca 8d3c
00000390: d0d5 0a3e 826d 2fbe 9f7d 4cbe 75fd 023d
000003a0: 61df 8b3d 938f bdbd aac6 eabc ad05 063d
000003b0: 3f93 0a3e 2869 3bbe 0aea 0dbd 6f34 803d
000003c0: 8ea6 693c 2918 0b3e 6dae b5b9 7640 083e
000003d0: 36d1 5fbe e8df fe3d d014 6ebd 1c51 b33d
000003e0: c1ba 583a cff6 fdbd d594 a43d 8b30 343d
000003f0: 65c6 ee3c 7a9a 543d 785f 40be 8f7c b0bd

network_body._body_endoder.seq_layers.0.bias f4 [256]
0.0 0.0 0.0 0.0 0.0 0.0 0.0 0.0
0.0 0.0 0.0 0.0 0.0 0.0 0.0 0.0
0.0 0.0 0.0 0.0 0.0 0.0 0.0 0.0
0.0 0.0 0.0 0.0 0.0 0.0 0.0 0.0
0.0 0.0 0.0 0.0 0.0 0.0 0.0 0.0
0.0 0.0 0.0 0.0 0.0 0.0 0.0 0.0
0.0 0.0 0.0 0.0 0.0 0.0 0.0 0.0
0.0 0.0 0.0 0.0 0.0 0.0 0.0 0.0
0.0 0.0 0.0 0.0 0.0 0.0 0.0 0.0
0.0 0.0 0.0 0.0 0.0 0.0 0.0 0.0
0.0 0.0 0.0 0.0 0.0 0.0 0.0 0.0
0.0 0.0 0.0 0.0 0.0 0.0 0.0 0.0
0.0 0.0 0.0 0.0 0.0 0.0 0.0 0.0
0.0 0.0 0.0 0.0 0.0 0.0 0.0 0.0
0.0 0.0 0.0 0.0 0.0 0.0 0.0 0.0
0.0 0.0 0.0 0.0 0.0 0.0 0.0 0.0
0.0 0.0 0.0 0.0 0.0 0.0 0.0 0.0
0.0 0.0 0.0 0.0 0.0 0.0 0.0 0.0
0.0 0.0 0.0 0.0 0.0 0.0 0.0 0.0
0.0 0.0 0.0 0.0 0.0 0.0 0.0 0.0
0.0 0.0 0.0 0.0 0.0 0.0 0.0 0.0
0.0 0.0 0.0 0.0 0.0 0.0 0.0 0.0
0.0 0.0 0.0 0.0 0.0 0.0 0.0 0.0
0.0 0.0 0.0 0.0 0.0 0.0 0.0 0.0
0.0 0.0 0.0 0.0 0.0 0.0 0.0 0.0
0.0 0.0 0.0 0.0 0.0 0.0 0.0 0.0
0.0 0.0 0.0 0.0 0.0 0.0 0.0 0.0
0.0 0.0 0.0 0.0 0.0 0.0 0.0 0.0
0.0 0.0 0.0 0.0 0.0 0.0 0.0 0.0
0.0 0.0 0.0 0.0 0.0 0.0 0.0 0.0
0.0 0.0 0.0 0.0 0.0 0.0 0.0 0.0
0.0 0.0 0.0 0.0 0.0 0.0 0.0 0.0
00000000: 0000 0000 0000 0000 0000 0000 0000 0000
00000010: 0000 0000 0000 0000 0000 0000 0000 0000
00000020: 0000 0000 0000 0000 0000 0000 0000 0000
00000030: 0000 0000 0000 0000 0000 0000 0000 0000
00000040: 0000 0000 0000 0000 0000 0000 0000 0000
00000050: 0000 0000 0000 0000 0000 0000 0000 0000
00000060: 0000 0000 0000 0000 0000 0000 0000 0000
00000070: 0000 0000 0000 0000 0000 0000 0000 0000
00000080: 0000 0000 0000 0000 0000 0000 0000 0000
00000090: 0000 0000 0000 0000 0000 0000 0000 0000
000000a0: 0000 0000 0000 0000 0000 0000 0000 0000
000000b0: 0000 0000 0000 0000 0000 0000 0000 0000
000000c0: 0000 0000 0000 0000 0000 0000 0000 0000
000000d0: 0000 0000 0000 0000 0000 0000 0000 0000
000000e0: 0000 0000 0000 0000 0000 0000 0000 0000
000000f0: 0000 0000 0000 0000 0000 0000 0000 0000
00000100: 0000 0000 0000 0000 0000 0000 0000 0000
00000110: 0000 0000 0000 0000 0000 0000 0000 0000
00000120: 0000 0000 0000 0000 0000 0000 0000 0000
00000130: 0000 0000 0000 0000 0000 0000 0000 0000
00000140: 0000 0000 0000 0000 0000 0000 0000 0000
00000150: 0000 0000 0000 0000 0000 0000 0000 0000
00000160: 0000 0000 0000 0000 0000 0000 0000 0000
00000170: 0000 0000 0000 0000 0000 0000 0000 0000
00000180: 0000 0000 0000 0000 0000 0000 0000 0000
00000190: 0000 0000 0000 0000 0000 0000 0000 0000
000001a0: 0000 0000 0000 0000 0000 0000 0000 0000
000001b0: 0000 0000 0000 0000 0000 0000 0000 0000
000001c0: 0000 0000 0000 0000 0000 0000 0000 0000
000001d0: 0000 0000 0000 0000 0000 0000 0000 0000
000001e0: 0000 0000 0000 0000 0000 0000 0000 0000
000001f0: 0000 0000 0000 0000 0000 0000 0000 0000
00000200: 0000 0000 0000 0000 0000 0000 0000 0000
00000210: 0000 0000 0000 0000 0000 0000 0000 0000
00000220: 0000 0000 0000 0000 0000 0000 0000 0000
00000230: 0000 0000 0000 0000 0000 0000 0000 0000
00000240: 0000 0000 0000 0000 0000 0000 0000 0000
00000250: 0000 0000 0000 0000 0000 0000 0000 0000
00000260: 0000 0000 0000 0000 0000 0000 0000 0000
00000270: 0000 0000 0000 0000 0000 0000 0000 0000
00000280: 0000 0000 0000 0000 0000 0000 0000 0000
00000290: 0000 0000 0000 0000 0000 0000 0000 0000
000002a0: 0000 0000 0000 0000 0000 0000 0000 0000
000002b0: 0000 0000 0000 0000 0000 0000 0000 0000
000002c0: 0000 0000 0000 0000 0000 0000 0000 0000
000002d0: 0000 0000 0000 0000 0000 0000 0000 0000
000002e0: 0000 0000 0000 0000 0000 0000 0000 0000
000002f0: 0000 0000 0000 0000 0000 0000 0000 0000
00000300: 0000 0000 0000 0000 0000 0000 0000 0000
00000310: 0000 0000 0000 0000 0000 0000 0000 0000
00000320: 0000 0000 0000 0000 0000 0000 0000 0000
00000330: 0000 0000 0000 0000 0000 0000 0000 0000
00000340: 0000 0000 0000 0000 0000 0000 0000 0000
00000350: 0000 0000 0000 0000 0000 0000 0000 0000
00000360: 0000 0000 0000 0000 0000 0000 0000 0000
00000370: 0000 0000 0000 0000 0000 0000 0000 0000
00000380: 0000 0000 0000 0000 0000 0000 0000 0000
00000390: 0000 0000 0000 0000 0000 0000 0000 0000
000003a0: 0000 0000 0000 0000 0000 0000 0000 0000
000003b0: 0000 0000 0000 0000 0000 0000 0000 0000
000003c0: 0000 0000 0000 0000 0000 0000 0000 0000
000003d0: 0000 0000 0000 0000 0000 0000 0000 0000
000003e0: 0000 0000 0000 0000 0000 0000 0000 0000
000003f0: 0000 0000 0000 0000 0000 0000 0000 0000

network_body._body_endoder.seq_layers.2.weight f4 [256, 256]
0.11420455 -0.07855245 0.012838227 0.0056010005 -0.044551037 0.03122762 -0.00884176 -0.029232323
-0.07030264 0.023550367 -0.032809995 -0.023707043 -0.01575086 0.10274818 0.004178158 -0.080183916
0.018663878 -0.045990895 -0.058603458 0.02348315 0.07350329 0.020085976 0.13381876 -0.028037436
0.04633421 0.0714158 1.9416171e-05 0.015572033 0.110274896 -0.059861455 -0.006932654 -0.021167742
0.02042409 0.010507739 0.05925562 0.07687788 0.02694415 -0.118028305 0.017716018 0.03311039
-0.127522 -0.0052335374 -0.0033035097 0.039288625 0.016250487 0.044641353 -0.039265763 -0.024098374
0.046459638 -0.05529043 0.0156114055 0.08325272 -0.021745022 -0.08970232 0.093490615 0.08465574
0.014458266 0.016293505 0.05136259 0.0052978527 0.04321964 -0.05717392 0.08656522 0.045590498
0.014665671 -0.02753988 -0.044419065 -0.017934779 0.030388046 -0.14030994 0.010184206 -0.027557325
-0.020124525 0.04539962 0.06977872 0.0015908923 0.005080851 0.004957569 -0.06647272 0.009927461
-0.054722518 -0.018781228 0.026110059 0.007407067 0.016222069 0.11529581 0.028145598 0.013574836
-0.010009324 0.12948158 -0.033953976 0.14141649 -0.012972813 -0.018762171 0.0019832954 0.10123529
-0.0037784153 -0.030184038 0.10883055 0.027271403 -0.051498726 0.06439838 0.014533566 -0.008457591
0.06318555 -0.008153017 0.04081838 0.003407942 0.06734537 0.096350476 -0.043093633 0.01159614
-0.018109472 -0.050379205 0.031410974 0.11604794 0.11313945 0.03108271 -0.08941283 0.0051592346
-0.10622609 0.015216597 0.016030641 0.05132886 -0.065813854 -0.02447709 0.115792535 -0.06666651
-0.07601855 0.034898862 0.006243521 -0.042414986 0.015148772 -0.047097445 -0.018367285 0.033518348
0.039313875 0.08753463 0.009042041 -0.010152917 -0.015539492 -0.04494966 0.06787494 -0.07405761
0.035594366 -0.11719526 -0.049821474 0.077624395 -0.017814724 -0.04186487 0.0057969755 -0.008167593
-0.02798721 -0.12654679 -0.060932804 -0.018296221 0.07172039 0.01983164 0.024388626 -0.060915846
-0.043691818 -0.052716378 -0.048475415 0.009468999 -0.046516184 0.0048389956 -0.09087776 0.0027399976
-0.053529058 0.07557227 -0.050855752 0.049933165 -0.06531912 0.010099381 -0.011905001 0.0202781
0.028715705 -0.047329612 0.038549043 0.0054330574 0.113267064 -0.036348786 0.039710525 -0.070883885
0.06290719 0.013973799 0.011130389 0.0025646694 0.023140771 0.05477184 -0.031248925 0.016765215
-0.07435842 0.031511255 -0.0032841724 -0.032445755 0.07027596 0.08147173 0.06857876 -0.0405595
0.07121052 0.10946737 0.0053364863 0.015384792 -0.040220052 -0.034840975 0.07963791 0.023264734
0.022075323 0.038318373 -0.01901852 -0.02610315 -0.06419527 -0.015121618 0.056644846 -0.029226642
-0.118088104 0.12292131 0.027580492 0.089142986 0.052875645 0.002402757 -0.056165997 0.025672842
0.11026965 -0.0025854786 -0.056266695 -0.028016182 0.031992253 0.07311928 -0.028817616 -0.055014588
0.01934075 0.005265064 -0.04809544 -0.034555007 0.08499576 0.018237833 -0.05563354 -0.071766585
0.028124684 -0.11257972 0.096714444 -0.03032286 0.02813915 -0.014285318 0.12479955 -0.032860503
0.01944643 -0.16728474 0.066051014 -0.013933212 0.069921605 -0.0013524856 -0.0065198806 -0.019914698
00000000: 13e4 e93d 1be0 a0bd 6d57 523c 9988 b73b
00000010: 267b 36bd 11d1 ff3c 08dd 10bc a078 efbc
00000020: d5fa 8fbd b3ec c03c c663 06bd 4635 c2bc
00000030: f307 81bc a36d d23d eee8 883b 7737 a4bd
00000040: fde4 983c f360 3cbd 2e0a 70bd bc5f c03c
00000050: e588 963d 588b a43c c907 093e c4ae e5bc
00000060: f1c8 3d3d 7242 923d e9df a237 d721 7f3c
00000070: ced7 e13d 4931 75bd 512b e3bb f967 adbc
00000080: 6c50 a73c a728 2c3c 05b6 723d 2672 9d3d
00000090: fab9 dc3c d3b8 f1bd 2f21 913c c39e 073d
000000a0: 2195 02be 187e abbb b27f 58bb 1ced 203d
000000b0: be1f 853c dad9 363d 23d5 20bd f469 c5bc
000000c0: 764c 3e3d 3878 62bd fbc6 7f3c 6780 aa3d
000000d0: 9e22 b2bc dab5 b7bd 0278 bf3d fd5f ad3d
000000e0: 5de2 6c3c f579 853c 9461 523d 9c99 ad3b
000000f0: 1407 313d 332f 6abd 1b49 b13d 1abd 3a3d
00000100: 4848 703c 509b e1bc c4f0 35bd f5eb 92bc
00000110: 5af0 f83c 69ad 0fbe a8db 263c e6bf e1bc
00000120: 30dc a4bc f4f4 393d 25e8 8e3d 7d85 d03a
00000130: 447d a63b 1a73 a23b d922 88bd caa6 223c
00000140: b824 60bd 17db 99bc c3e4 d53c fbb6 f23b
00000150: 25e4 843c 3620 ec3d 9991 e63c fd68 5e3c
00000160: 26fe 23bc d296 043e 5313 0bbd 7ccf 103e
00000170: ec8b 54bc 20b3 99bc 2dfa 013b 7354 cf3d
00000180: 4a9f 77bb 8444 f7bc 8de2 de3d 4768 df3c
00000190: 54f0 52bd 4ce3 833d 321e 6e3c b591 0abc
000001a0: 6d67 813d 3b94 05bc 2c31 273d c757 5f3b
000001b0: 5fec 893d 6653 c53d f382 30bd bdfd 3d3c
000001c0: 515a 94bc 6d5a 4ebd cba8 003d 8baa ed3d
000001d0: a8b5 e73d 2ba1 fe3c 131e b7bd cc0e a93b
000001e0: 108d d9bd 094f 793c b152 833c 363e 523d
000001f0: 6ac9 86bd 2e84 c8bc a324 ed3d 7488 88bd
00000200: 9daf 9bbd 1cf2 0e3d 7396 cc3b 56bb 2dbd
00000210: 8e32 783c 40e9 40bd fd76 96bc 894a 093d
00000220: 9607 213d 5b45 b33d 1225 143c 6c58 26bc
00000230: 5a99 7ebc 221d 38bd 0402 8b3d 84ab 97bd
00000240: 66cb 113d 1204 f0bd 9a11 4cbd 8af9 9e3d
00000250: 2ff0 91bc 7f7a 2bbd 8ef4 bd3b 5ed1 05bc
00000260: 6f45 e5bc 7b95 01be ad94 79bd f5e1 95bc
00000270: 24e2 923d f775 a23c a8ca c73c e582 79bd
00000280: 31f6 32bd 21ed 57bd 288e 46bd dc23 1b3c
00000290: c187 3ebd 7090 9e3b 1e1e babd 8891 333b
000002a0: 4941 5bbd a2c5 9a3d 1f4e 50bd b886 4c3d
000002b0: 08c6 85bd e077 253c 310d 43bc 421e a63c
000002c0: 333d eb3c b2dc 41bd 9ae5 1d3d ca07 b23b
000002d0: 90f8 e73d 77e2 14bd 81a7 223d 922b 91bd
000002e0: 7cd5 803d 5cf2 643c 3c5c 363c 0314 283b
000002f0: b791 bd3c 7058 603d bffd ffbc 3457 893c
00000300: 3a49 98bd f211 013d 453b 57bb d7e5 04bd
00000310: d8ec 8f3d a6da a63d 0573 8c3d b821 26bd
00000320: d2d6 913d 6e30 e03d b1dd ae3b 7f10 7c3c
00000330: c8bd 24bd 69b5 0ebd 3319 a33d af95 be3c
00000340: 4fd7 b43c baf3 1c3d bacc 9bbc 46d6 d5bc
00000350: cf78 83bd aac0 77bc 6d04 683d b66c efbc
00000360: 2dd8 f1bd 2bbe fb3d 7cf0 e13c 9990 b63d
00000370: 2294 583d 9377 1d3b 510e 66bd da4f d23c
00000380: 0ed5 e13d 2271 29bb e877 66bd 3182 e5bc
00000390: 4f0a 033d 90bf 953d ec12 ecbc fa56 61bd
000003a0: 7e70 9e3c 8f86 ac3b b9ff 44bd 8d89 0dbd
000003b0: 4212 ae3d 8267 953c ffdf 63bd 5cfa 92bd
000003c0: bd65 e63c 3290 e6bd 3912 c63d a667 f8bc
000003d0: 1384 e63c f70c 6abc e896 ff3d bc98 06bd
000003e0: 1f4e 9f3c b14c 2bbe c145 873d 2048 64bc
000003f0: 0f33 8f3d e345 b1ba b9a4 d5bb 2624 a3bc

network_body._body_endoder.seq_layers.4.weight f4 [256, 256]
0.052787896 -0.0067186127 0.056411978 -0.01721565 -0.07134572 0.038520947 -0.02362355 -0.038750634
-0.054049965 -0.008980841 -0.01111414 0.12452534 0.08818845 0.07578543 0.11276595 -0.052379843
-0.043404937 -0.0010758381 0.014999199 0.10528445 0.06610467 -0.014960758 -0.05994872 -0.021055745
-0.04036937 -0.06283709 -0.004557271 0.09456399 0.059678994 -0.029939985 -0.047197435 0.089459114
0.052044693 0.004519711 -0.07907915 0.01315578 0.0025329264 0.073445484 0.09074656 -0.02865456
0.1659406 0.079859376 0.08178536 -0.05661576 0.027100528 -0.0186438 0.017071282 -0.056122683
0.035742387 0.01596319 0.031537056 0.09255179 0.026684772 0.036573753 0.0044036456 0.07738887
-0.02989308 0.02207294 0.1180775 0.05937876 0.04145775 -0.07122154 0.024199905 0.078602694
-0.092775345 -0.035997882 -0.11785834 0.035813518 0.07120022 0.040324043 -0.08507398 -0.029021787
0.010976779 0.09830116 0.026661541 0.12686025 -0.1136939 0.0802024 -0.012169301 -0.18719742
0.12635472 0.010622993 0.040930133 0.025713319 -0.06927496 0.040848702 0.014479116 0.019445524
-0.0035159064 0.01120432 -0.099728785 0.054576673 -0.027038814 0.07788777 0.0736604 -0.064846404
0.0066399802 -0.07694171 -0.024900043 -0.058063492 0.01356341 0.061793372 -0.03327227 -0.0014021671
0.16906312 -0.03795015 0.10880646 -0.041965205 0.0032627527 -0.029958488 -0.0051694186 0.011608727
0.015903825 0.03857166 0.0841668 -0.0927242 0.039905585 -0.012834873 0.06683248 0.04362949
-0.0060791504 0.041659255 -0.020717705 0.029108917 0.09974062 0.10928649 -0.053252682 -0.10389408
0.021472335 -0.03092307 -0.064921655 0.094302066 -0.042448986 0.088877834 -0.058883645 -0.066770986
-0.06473002 0.08593484 0.011518242 0.08782637 0.0083061075 -0.049272858 0.048192147 0.07566354
0.050208278 -0.08569031 0.055436235 0.1071153 -0.004431848 -0.008603249 -0.02819179 0.007938243
-0.04657541 0.018952237 0.04125205 -0.020394104 0.037183512 0.059344612 0.04420729 -0.1234908
-0.036788277 0.025024869 0.07554741 0.08449402 -0.037378617 -0.10706702 -0.06331444 0.07001236
-0.04548262 0.042754706 -0.06009687 0.034955867 -0.060499646 0.17953809 -0.06248824 -0.017907238
0.052980475 0.07362344 -0.055186782 -0.0013180047 -0.046341557 0.14071575 -0.025092669 -0.01052436
-0.024859322 0.0036299338 -0.032908272 -0.086007215 -0.010935778 -0.046732184 0.079420514 -0.14280298
-0.09237064 -0.062288985 0.044620574 -0.049621534 0.029796764 -0.007798502 -0.079200745 -0.0341875
-0.019381443 -0.089207105 0.018054085 -0.026524724 -0.046748616 -0.09289359 0.03472821 0.026639445
0.050837647 0.074821025 0.063297786 0.046276413 -0.0016881229 0.09173007 0.04495406 0.14719239
-0.02697739 -0.08305086 -0.017824156 0.06699105 0.039664257 0.0074401926 -0.041519832 0.084402025
0.024279935 0.032658193 0.08091825 0.09809903 0.021337656 0.044654362 0.07528966 0.06372915
-0.05089066 -0.00010535913 -0.026703006 -0.027076121 -0.07368592 0.14692597 -0.13068977 -0.047056906
-0.024794407 -0.03856384 -0.0043193474 0.068485245 0.08671809 0.13709988 0.0066758855 -0.101205155
0.03713114 -0.012173429 -0.028889442 0.027173307 -0.059021674 0.03516117 -0.026148735 -0.09758292
00000000: 1f38 583d cf27 dcbb 3f10 673d d607 8dbc
00000010: b41d 92bd 24c8 1d3d 2d86 c1bc fcb8 1ebd
00000020: 7f63 5dbd 6124 13bc 1518 36bc 2407 ff3d
00000030: 259c b43d 6435 9b3d d6f1 e63d 3f8c 56bd
00000040: 60c9 31bd 2303 8dba 33bf 753c 609f d73d
00000050: e361 873d f81d 75bc ca8c 75bd 197d acbc
00000060: 5a5a 25bd bbb0 80bd 2955 95bb c4aa c13d
00000070: f671 743d b344 f5bc 1952 41bd 5736 b73d
00000080: d12c 553d 151a 943b 40f4 a1bd 578b 573c
00000090: 74ff 253b 966a 963d 55d9 b93d f8bc eabc
000000a0: 55ec 293e 508d a33d 157f a73d ede5 67bd
000000b0: ed01 de3c e2ba 98bc 13d9 8b3c e6e0 65bd
000000c0: 9c66 123d 3cc5 823c 002d 013d cb8b bd3d
000000d0: 069a da3c 5cce 153d 754c 903b 0e7e 9e3d
000000e0: 55e2 f4bc 4fd2 b43c 9ed2 f13d 2537 733d
000000f0: 9acf 293d 99dc 91bd e13e c63c 73fa a03d
00000100: 0001 bebd 8472 13bd b75f f1bd 32b1 123d
00000110: 6cd1 913d d32a 253d 443b aebd 19bf edbc
00000120: f3d7 333c 1e52 c93d 4e69 da3c a7e7 013e
00000130: 59d8 e8bd 2841 a43d bf61 47bc aeb0 3fbe
00000140: 2263 013e 100c 2e3c 5ba6 273d bda4 d23c
00000150: 08e0 8dbd f850 273d d039 6d3c 384c 9f3c
00000160: 1f6b 66bb 5392 373c 9b3e ccbd ca8b 5f3d
00000170: 8180 ddbc a083 9f3d 44db 963d 31ce 84bd
00000180: 3194 d93b 9e93 9dbd 2dfb cbbc fcd3 6dbd
00000190: 1139 5e3c 0c1b 7d3d 8148 08bd ecc8 b7ba
000001a0: e21e 2d3e 9e71 1bbd ecd5 de3d b5e3 2bbd
000001b0: e8d3 553b 816b f5bc 3a64 a9bb 8832 3e3c
000001c0: bd48 823c 51fd 1d3d a55f ac3d 2fe6 bdbd
000001d0: 0a74 233d 5c49 52bc 78df 883d d6b4 323d
000001e0: 9c33 c7bb e5a2 2a3d 2db8 a9bc d375 ee3c
000001f0: cf44 cc3d 98d1 df3d 7c1f 5abd 6bc6 d4bd
00000200: c0e6 af3c 6152 fdbc a5f5 84bd 7121 c13d
00000210: fdde 2dbd 9505 b63d fa2f 71bd 3abf 88bd
00000220: 2c91 84bd 9bfe af3d 02b7 3c3c 50de b33d
00000230: 5716 083c 56d2 49bd 2165 453d 7cf5 9a3d
00000240: 32a7 4d3d 677e afbd 1b11 633d 445f db3d
00000250: 0939 91bb a4f4 0cbc 78f2 e6bc 680f 023c
00000260: dbc5 3ebd b941 9b3c e9f7 283d 8911 a7bc
00000270: bd4d 183d 5613 733d b412 353d bfe8 fcbd
00000280: 4eaf 16bd f400 cd3c 9ab8 9a3d 330b ad3d
00000290: 521a 19bd f445 dbbd 00ab 81bd a462 8f3d
000002a0: fc4b 3abd 8f1f 2f3d 2328 76bd e22d 0f3d
000002b0: 7ace 77bd d5d8 373e abf3 7fbd 33b2 92bc
000002c0: 0e02 593d e3c7 963d 890b 62bd e6c0 acba
000002d0: a5d0 3dbd ca17 103e 248f cdbc 5e6e 2cbc
000002e0: c7a5 cbbc 2fe4 6d3b d3ca 06bd 8d24 b0bd
000002f0: fa2b 33bc 3f6a 3fbd 39a7 a23d f23a 12be
00000300: d12c bdbd bc22 7fbd 10c4 363d f33f 4bbd
00000310: 5818 f43c 948a ffbb 0034 a2bd 3108 0cbd
00000320: d5c5 9ebc 37b2 b6bd 29e6 933c 614a d9bc
00000330: 7a7b 3fbd ff3e bebd 2b3f 0e3d f73a da3c
00000340: 233b 503d c43b 993d 45a2 813d 568c 3d3d
00000350: 0144 ddba fadc bb3d c021 383d 9ab9 163e
00000360: b0ff dcbc 9216 aabd f703 92bc 9b32 893d
00000370: fd76 223d dccc f33b b310 2abd f8da ac3d
00000380: b7e6 c63c 99c4 053d 78b8 a53d 25e8 c83d
00000390: 4fcc ae3c 7ee7 363d 7731 9a3d 6e84 823d
000003a0: ba72 50bd 41f4 dcb8 43c0 dabc bece ddbc
000003b0: a5e8 96bd c373 163e 8ad3 05be bebe 40bd
000003c0: a41d cbbc 1ef5 1dbd 5089 8dbb fe41 8c3d
000003d0: 4199 b13d e963 0c3e 63c1 da3b a644 cfbd
000003e0: d216 183d 1073 47bc 8da9 ecbc 8e9a de3c
000003f0: b6c0 71bd 2905 103d df35 d6bc 8ed9 c7bd

action_model._continuous_distribution.mu.weight f4 [4, 256]
0.004446257 -0.015375549 0.009332878 0.035800148 -0.023630476 0.0040811924 -0.01760263 0.008139891
0.007875431 0.0009618594 -0.024197076 -0.013089483 -0.0018588317 -0.010769191 -0.0018770632 -0.0044087595
-0.0071312524 -0.023310741 -0.003393912 -0.015724218 -0.009599298 0.020431248 -0.00097188074 0.0011369013
-0.011431869 0.005165491 -0.021661695 -0.015169188 -0.0073899585 -0.017714826 0.026175639 0.012683968
0.019566357 0.016713237 0.008559525 0.022558764 0.007933993 -0.010534249 -0.007861945 -0.0064431834
-0.014581057 -0.009803365 0.0077462434 0.008863836 0.01154905 -0.0009059468 0.008233196 -0.021385958
0.000336821 -0.00348757 -0.006179826 0.041406926 -0.0028798801 0.015834855 -0.013187758 0.003987647
-0.0004078182 0.020415863 0.00086466636 -0.027270807 -0.010329696 -0.01373363 -0.012934441 -0.0051623895
-0.019500315 -0.0032366514 0.0011015843 -0.0014558666 -0.011143846 0.0025742953 0.0014536465 -0.0018050006
0.012180855 -0.0047962884 -0.021605797 -0.0029089118 -0.00437891 0.0014487387 0.003968067 -0.0027188312
-0.027865762 0.0037263476 0.0003905636 -0.024403665 0.00226822 0.0027976346 -0.0034247048 -0.00050249783
-0.01715426 0.0024849335 -0.0043825572 0.00978062 0.009134421 -0.00035233074 -0.02487245 -0.034401104
-0.00032248252 -0.011192552 0.007249868 0.014141271 -0.015709095 -0.0051725656 0.001303145 -0.00038079653
0.0155057935 -0.01315535 -0.010697033 -0.0053843125 0.013100232 0.022331102 0.0072380863 6.86443e-05
0.00875716 0.018389216 -0.00084664254 -0.0064674416 -0.018905655 0.0115088355 -0.007972153 -0.01350154
-0.0043630213 -0.011630498 0.031084511 -0.020798763 -0.012727094 -0.013386928 0.0046266112 -0.010763515
0.009017841 0.00034272333 -0.0067908536 0.0026974508 -0.004692918 0.0096081635 -0.0027163269 -0.0059146592
-0.002671614 -0.005433 -0.0041923258 -0.018257374 -0.02431765 0.009723818 -0.0062377015 -0.016827742
0.010343519 -0.0018651894 0.010616606 0.016983328 -0.0077090706 0.02217861 -0.001725263 -0.018813943
-0.003691307 -0.007474882 -0.0038493008 0.00210274 -0.023257626 0.016517015 -0.022054778 0.008470411
0.025842309 -0.011335125 -0.00054056966 -0.0014478918 0.017422382 0.001781484 0.007984063 0.011618674
0.014657646 0.01413382 0.0028686158 -0.006927566 0.0069049387 -0.0032601126 -0.005850748 0.011790148
0.00649445 0.015119232 -0.0154644465 0.00033606618 0.0024756945 0.002489321 -0.018196717 -0.009673429
0.021909194 0.0059388685 0.021611365 -0.0055335476 0.0018316245 0.013636551 0.020025527 -0.005039051
-0.0051189144 -0.008674306 0.0052422 -0.005792918 0.0050913063 0.0046180356 -0.0034185846 0.012267443
0.00836719 -0.021768825 0.032969173 0.004553871 -0.010267976 -0.004545731 -0.002324161 -0.0067892657
-0.0055913148 -0.01285395 -0.0050533866 0.009349196 0.01838145 -0.0010313134 -0.018658036 0.014269446
-0.009422227 0.011024321 0.0034732146 -0.009310824 -0.010493088 0.016944183 0.019494835 -0.0004882874
0.0031935223 0.019027798 0.009883211 0.0058022295 -0.009147969 0.018292373 -0.016917845 0.0023428488
-0.026119256 0.0075580077 -0.006794905 -0.028936196 0.0059592403 0.0032942423 -0.02280826 0.010200596
-0.0284916 -0.019782891 0.008785413 -0.022351475 0.019361459 -0.012040936 -0.005075503 -0.014605507
0.0066246665 -0.0042283824 -0.007853794 0.0163633 0.008526039 -0.005925177 -0.0007023621 0.0009842834
00000000: e8b1 913b bae9 7bbc ede8 183c 2da3 123d
00000010: b394 c1bc 86bb 853b 6433 90bc 2d5d 053c
00000020: f407 013c 4b25 7c3a f238 c6bc 4575 56bc
00000030: 0ba4 f3ba 4371 30bc ca07 f6ba 5b77 90bb
00000040: 48ad e9bb 2bf6 bebc 656c 5ebb 13d0 80bc
00000050: 6046 1dbc 6f5f a73c d0c5 7eba 1404 953a
00000060: bc4c 3bbc 4743 a93b de73 b1bc 3088 78bc
00000070: 7727 f2bb af1e 91bc 4b6e d63c 6bd0 4f3c
00000080: a049 a03c 33ea 883c 403d 0c3c 28cd b83c
00000090: 94fd 013c d897 2cbc 63cf 00bc 5721 d3bb
000000a0: 63e5 6ebc 4b9e 20bc 33d4 fd3b 9f39 113c
000000b0: 3a38 3d3c 107d 6dba 87e4 063c 9b31 afbc
000000c0: 5997 b039 b78f 64bb 2380 cabb 4f9a 293d
000000d0: 5fbc 3cbb 19b8 813c 7711 58bc cfaa 823b
000000e0: 6fd0 d5b9 2b3f a73c c7aa 623a 0767 dfbc
000000f0: e33d 29bc 0503 61bc faea 53bc 4329 a9bb
00000100: 20bf 9fbc 001e 54bb 0963 903a c7d2 beba
00000110: ae94 36bc 82b5 283b 4888 be3a c595 ecba
00000120: 3592 473c 2f2a 9dbb a4fe b0bc 71a3 3ebb
00000130: f67c 8fbb 9be3 bd3a 8f06 823b 6b2e 32bb
00000140: bd46 e4bc bd35 743b 8fc4 cc39 32ea c7bc
00000150: 6ba6 143b 8558 373b 0371 60bb 0fba 03ba
00000160: 1787 8cbc 44da 223b 8e9b 8fbb e53e 203c
00000170: 8aa8 153c 08b9 b8b9 4fc1 cbbc 2ce8 0cbd
00000180: df12 a9b9 f760 37bc 4d90 ed3b cab0 673c
00000190: 5cb0 80bc a07e a9bb 4ace aa3a a5a5 c7b9
000001a0: 030c 7e3c 8a89 57bc 9c42 2fbc e36e b0bb
000001b0: 5ba2 563c b7ef b63c 782d ed3b 21f5 8f38
000001c0: 317a 0f3c fba4 963c 38f1 5dba d5ec d3bb
000001d0: 08e0 9abc 8e8f 3c3c a29d 02bc 9035 5dbc
000001e0: adf7 8ebb d88d 3ebc f2a4 fe3c 2b62 aabc
000001f0: 4d85 50bc d854 5bbc d49a 973b 7459 30bc
00000200: 91bf 133c 8caf b339 cf85 debb b7c7 303b
00000210: 0dc7 99bb 8f6b 1d3c 6704 32bb c2cf c1bb
00000220: 3f16 2fbb 4f07 b2bb c75f 89bb 7d90 95bc
00000230: cf35 c7bc a650 1f3c a265 ccbb 55da 89bc
00000240: dd77 293c 5f79 f4ba 46f1 2d3c 9f20 8b3c
00000250: 5f9c fcbb ebaf b53c 3822 e2ba b31f 9abc
00000260: dbe9 71bb dbef f4bb 8d44 7cbb 20ce 093b
00000270: c786 bebc b14e 873c 39ac b4bc 7bc7 0a3c
00000280: 40b3 d33c f6b6 39bc 04b5 0dba 30c7 bdba
00000290: 62b9 8e3c af80 e93a 96cf 023c 405c 3e3c
000002a0: a026 703c 8a91 673c 63ff 3b3b a300 e3bb
000002b0: d342 e23b 9da7 55bb a2b7 bfbb 772b 413c
000002c0: 65cf d43b a8b6 773c 975e 7dbc 0a32 b039
000002d0: 433f 223b e023 233b 4811 95bc 4d7d 1ebc
000002e0: e97a b33c d79a c23b 510a b13c c352 b5bb
000002f0: 1f13 f03a d76b 5f3c 930c a43c a01e a5bb
00000300: 91bc a7bb ad1e 0ebc c3c6 ab3b 85d2 bdbb
00000310: f9d4 a63b e452 973b 550a 60bb 63fd 483c
00000320: 8a16 093c 8954 b2bc af0a 073d a438 953b
00000330: 033b 28bc 5bf4 94bb f350 18bb 7d78 debb
00000340: 5937 b7bb 6099 52bc e196 a5bb 5f2d 193c
00000350: b294 963c 232d 87ba bdd8 98bc 65ca 693c
00000360: af5f 1abc 5b9f 343c df9e 633b 6d8c 18bc
00000370: 33eb 2bbc 87ce 8a3c a2b3 9f3c 6a00 00ba
00000380: 6a4a 513b 2fe0 9b3c 31ed 213c a120 be3b
00000390: 5de1 15bc e3d9 953c 4b97 8abc 7b8a 193b
000003a0: 0df8 d5bc 2aa9 f73b cba7 debb 9a0b edbc
000003b0: bb45 c33b 37e4 573b 63d8 babc 6720 273c
000003c0: 3767 e9bc bb0f a2bc b1f0 0f3c 711a b7bc
000003d0: ec9b 9e3c 5947 45bc 6850 a6bb f04b 6fbc
000003e0: bb13 d93b 3e8e 8abb 33ad 00bc 540c 863c
000003f0: cdb0 0b3c fd27 c2bb b91e 38ba 1203 813a

action_model._continuous_distribution.mu.bias f4 [4]
0.0 0.0 0.0 0.0
00000000: 0000 0000 0000 0000 0000 0000 0000 0000

action_model._continuous_distribution.log_sigma.weight f4 [4, 256]
-0.015611022 0.009883835 -0.01607596 -0.017571831 0.0023067358 0.011178119 -0.0069490024 -0.014261487
-0.004376027 -0.0031249905 -0.008623155 0.011312986 -0.011105462 0.018063871 -0.0010688732 0.013707106
0.002012839 -0.022297239 0.019824445 -0.00047582222 -0.0008757852 0.0035066635 0.0055500525 0.01652371
0.0009065955 0.010019051 -0.0046745865 0.01414499 -0.000460832 -0.03542493 -0.012575412 -0.012243724
-0.00040935 0.0010294853 -0.00088350475 -0.007861655 -0.0012050772 0.019608697 0.02044296 -0.01226547
-0.020293957 0.0045421156 0.012946071 -0.017769301 -0.015186868 -0.0014718951 0.0024712419 -0.021651821
-0.015072773 0.014202227 -0.005418602 -0.0106836585 0.006406851 0.003906566 -0.023331543 0.014759432
-0.0070592435 0.01129492 0.011954407 -0.00018673098 0.004687363 -0.0025977816 -0.014982087 -0.021413323
0.013721739 0.0025680198 0.013251764 -0.017445939 -0.012854554 -0.016946651 0.016778462 0.002102786
-0.016455071 0.005142414 0.014232597 0.009991749 -0.00744823 0.009768588 -0.010677488 -0.012774651
-3.8360336e-05 0.00733607 -0.0072626285 0.015173768 -0.0014872262 -0.02035659 -0.012559637 -0.008383307
-0.0016012446 -0.002245861 0.016144712 -0.006366644 -0.0066520795 -0.0035656465 -0.007457912 -0.0021296002
-0.004322858 -0.019677032 -0.024189262 -0.011337029 -0.0020136412 0.010976884 -0.018787127 -0.0052708816
-0.013428506 0.0031486151 -0.007990747 -0.0048250477 -0.0017177385 0.019539293 -0.0066613317 0.006147983
-0.0052105165 0.009010506 0.013519797 -0.003467065 0.002749465 -0.0040224656 0.007384637 0.006711654
-0.00014680272 -0.018442735 0.017426489 -0.002087448 -0.0013704743 -0.024706325 0.016158504 0.0037591034
-0.008628098 -0.0062628957 0.008253216 -0.008764351 0.011819965 0.006242801 -0.0036861803 -0.028074434
-0.010251885 0.024011819 -0.010137535 0.0080326 -0.0102587035 0.02583296 0.01973693 0.0038451476
-0.003199969 0.0057261847 0.0014911735 0.008108198 -0.0058191693 0.0132523095 -0.010696337 0.01577175
-0.015403451 -0.008471126 -0.0075484053 0.004780643 0.005948361 0.016525952 -0.0067088096 0.014142947
0.0019333608 0.012877742 -0.0022898193 -0.017576432 0.0062141004 0.0018947463 0.0011905268 0.007237357
0.0056700255 -0.0070084925 0.021484125 -0.008894138 -0.00101521 -0.009274564 0.0015351892 -0.010712428
0.010160776 0.001431817 -0.0016658215 -0.0020067932 0.0113315955 0.006448266 -0.012350813 -0.012532552
-0.010217097 0.0016828267 0.0072661117 0.012539789 -0.0009519925 -0.03312532 0.005666699 0.002885259
0.017827537 -0.010746042 0.0019841578 0.003914515 0.0019388761 -0.02592898 -0.015182477 -0.007891469
-0.015713993 -0.00095780584 0.009238049 -0.022957696 -0.012684575 0.019874018 -0.011651114 0.0057365606
-0.010812998 0.0020624828 0.0082381535 0.0024647259 -0.005496208 -0.009721248 0.0013908881 0.016318763
0.0049692127 -0.0002776516 -0.0024290578 0.0004787195 -0.00025974153 -0.0257038 -0.013759389 -0.0047887675
0.01752982 -0.008537515 0.007182078 0.017553499 0.0026206912 0.041204315 0.004914489 0.012199058
-0.0075227744 0.023482 -0.0027808358 -0.0144865755 0.0059280577 -0.009963623 -0.0013774822 -0.0109977275
0.0016496148 0.021424746 0.006835434 0.0074753924 0.007781154 0.008570829 -0.008402204 0.01717397
-0.008617861 -0.00436313 0.0055321464 -0.007116351 -0.01792721 0.00867354 -0.0073252902 0.020035852
00000000: 5fc5 7fbc cfef 213c bbb1 83bc cdf2 8fbc
00000010: 9b2c 173b 6e24 373c 75b4 e3bb 03a9 69bc
00000020: c664 8fbb a4cc 4cbb 2248 0dbc 1a5a 393c
00000030: aff3 35bc affa 933c 6f19 8cba c593 603c
00000040: d6e9 033b b3a8 b6bc e066 a23c c777 f9b9
00000050: f394 65ba 0dd0 653b 37dd b53b bb5c 873c
00000060: 98a8 6d3a f226 243c 462d 99bb 63c0 673c
00000070: d39b f1b9 bb19 11bd 1a09 4ebc e799 48bc
00000080: 079e d6b9 cbef 863a 009b 67ba 2cce 00bc
00000090: aef3 9dba 6ba2 a03c ff77 a73c 1cf5 48bc
000000a0: 833f a6bc 07d6 943b c21b 543c ed90 91bc
000000b0: 57d2 78bc 9bec c0ba 8ff4 213b 295f b1bc
000000c0: cbf3 76bc 75b0 683c 878e b1bb 830a 2fbc
000000d0: 90f0 d13b a702 803b cb21 bfbc 8bd1 713c
000000e0: 3a51 e7bb 540e 393c 6bdc 433c 37cd 43b9
000000f0: 7398 993b 8b3f 2abb 6d77 75bc fe6a afbc
00000100: 25d1 603c 394c 283b ed1d 593c c9ea 8ebc
00000110: e89b 52bc b4d3 8abc fc72 893c e5ce 093b
00000120: c9cc 86bc b281 a83b d72f 693c 6fb4 233c
00000130: 4810 f4bb 6d0c 203c a1f0 2ebc c54c 51bc
00000140: 19e5 20b8 6a63 f03b 58fb edbb 659b 783c
00000150: 08ef c2ba ddc2 a6bc f0c6 4dbc 235a 09bc
00000160: dae0 d1ba 4c2f 13bb ea41 843c 489f d0bb
00000170: b0f9 d9bb 9fad 69bb 8061 f4bb c390 0bbb
00000180: c3a6 8dbb ba31 a1bc 8f28 c6bc f2be 39bc
00000190: 4bf7 03bb 63d8 333c 76e7 99bc 5cb7 acbb
000001a0: 3d03 5cbc ff58 4e3b 9feb 02bc 6f1b 9ebb
000001b0: bd25 e1ba de10 a03c 4d47 dabb 0575 c93b
000001c0: fbbc aabb cda0 133c 2382 5d3c b337 63bb
000001d0: 5e30 343b e3ce 83bb d3fa f13b 6fed db3b
000001e0: 0eef 19b9 3815 97bc ffc1 8e3c 91cd 08bb
000001f0: 7da1 b3ba eb64 cabc d75e 843c 4a5b 763b
00000200: de5c 0dbc fa38 cdbb 7f38 073c 5a98 0fbc
00000210: 87a8 413c 6990 cc3b d893 71bb 5bfc e5bc
00000220: 86f7 27bc 6fb4 c43c e717 26bc 2b9b 033c
00000230: 1f14 28bc a59f d33c 58af a13c dffe 7b3b
00000240: 92b6 51bb b8a2 bb3b 7b73 c33a 3fd8 043c
00000250: bbae bebb 3720 593c b03f 2fbc c233 813c
00000260: c25e 7cbc 7aca 0abc 9d58 f7bb f1a6 9c3b
00000270: 78ea c23b 6f61 873c 93d5 dbbb d2b7 673c
00000280: d368 fd3a 2afd 523c cb10 16bb 73fc 8fbc
00000290: a79f cb3b 2359 f83a 730b 9c3a 5a27 ed3b
000002a0: 9fcb b93b 7fa7 e5bb 7aff af3c b8b8 11bc
000002b0: cb10 85ba 57f4 17bc 6738 c93a 2e83 2fbc
000002c0: 6279 263c ceab bb3a b257 daba 6784 03bb
000002d0: 28a8 393c fa4b d33b 105b 4abc 5555 4dbc
000002e0: 9c65 27bc 4b92 dc3a 9018 ee3b b073 4d3c
000002f0: 238f 79ba 6aae 07bd b7af b93b 9d16 3d3b
00000300: 0e0b 923c 2b10 30bc a508 023b 5545 803b
00000310: e321 fe3a 0369 d4bc edbf 78bc 384b 01bc
00000320: a2ba 80bc 4315 7bba 305b 173c c711 bcbc
00000330: f7d2 4fbc d6ce a23c 50e4 3ebc c2f9 bb3b
00000340: 0029 31bc b82a 073b 52f9 063c 3d87 213b
00000350: 8919 b4bb df45 1fbc 764e b63a edae 853c
00000360: c7d4 a23b c491 91b9 d430 1fbb a5fc fa39
00000370: eb2d 88b9 c790 d2bc 0f6f 61bc 18eb 9cbb
00000380: b29a 8f3c efe0 0bbc a357 eb3b 5bcc 8f3c
00000390: e7bf 2b3b dbc5 283d b909 a13b 8fde 473c
000003a0: 9b81 f6bb 535d c03c af3e 36bb 1a59 6dbc
000003b0: 2740 c23b 773e 23bc a28c b4ba d02f 34bc
000003c0: e337 d83a f382 af3c c7fb df3b 23f4 f43b
000003d0: 0df9 fe3b aa6c 0c3c 66a9 09bc 6db0 8c3c
000003e0: ee31 0dbc 96f8 8ebb 0247 b53b 4730 e9bb
000003f0: 16dc 92bc 771b 0e3c fd08 f0bb 3a22 a43c

onnx::Div_61 f4 [68]
0.12802652 0.12844534 0.01054034 0.16443841 0.11886764 0.11932078 0.01054034 0.16500469
0.1263365 0.12676129 0.01054034 0.1648058 0.11423174 0.11470427 0.01054034 0.16586679
0.12676126 0.12718455 0.01054034 0.1652017 0.11932074 0.11977211 0.01054034 0.16658626
0.13574728 0.13614063 0.01054034 0.16580349 0.110864714 0.111352324 0.01054034 0.16759878
0.12676126 0.12718453 0.01054034 0.1673898 0.11795586 0.11841273 0.01054034 0.168527
0.13092795 0.13133688 0.01054034 0.16827968 0.11564314 0.11610961 0.01054034 0.16996044
0.1259102 0.12633651 0.01054034 0.1699752 0.11749718 0.11795587 0.01054034 0.17063703
0.13010605 0.13051772 0.01054034 0.17126313 0.1132805 0.11375718 0.01054034 0.17171894
0.12802653 0.12844534 0.01054034 0.17262357
00000000: 6219 033e 2d87 033e 64b1 2c3c 8b62 283e
00000010: e170 f33d 745e f43d 64b1 2c3c fdf6 283e
00000020: 5b5e 013e b6cd 013e 64b1 2c3c dac2 283e
00000030: 55f2 e93d 13ea ea3d 64b1 2c3c fcd8 293e
00000040: b4cd 013e ab3c 023e 64b1 2c3c a22a 293e
00000050: 6f5e f43d 144b f53d 64b1 2c3c 9795 2a3e
00000060: 5601 0b3e 7368 0b3e 64b1 2c3c 64c8 293e
00000070: 0a0d e33d b00c e43d 64b1 2c3c 049f 2b3e
00000080: b4cd 013e a93c 023e 64b1 2c3c 3b68 2b3e
00000090: d892 f13d 6082 f23d 64b1 2c3c 5892 2c3e
000000a0: fa11 063e 2d7d 063e 64b1 2c3c 8251 2c3e
000000b0: 50d6 ec3d e0ca ed3d 64b1 2c3c 1c0a 2e3e
000000c0: 9aee 003e 5c5e 013e 64b1 2c3c fb0d 2e3e
000000d0: 5da2 f03d d992 f13d 64b1 2c3c 79bb 2e3e
000000e0: 853a 053e 70a6 053e 64b1 2c3c 9a5f 2f3e
000000f0: 9bff e73d 86f9 e83d 64b1 2c3c 17d7 2f3e
00000100: 6319 033e 2d87 033e 64b1 2c3c 3cc4 303e

onnx::Div_64 f4 [52]
0.12802652 0.12844534 0.01054034 0.16443841 0.11795586 0.11841273 0.01054034 0.16853811
0.13092795 0.13133687 0.01054034 0.16828807 0.11135228 0.11183764 0.01054034 0.17362635
0.13295886 0.13336107 0.01054034 0.17541839 0.1271845 0.12760629 0.01054034 0.17813075
0.14227416 0.14264803 0.01054034 0.18237634 0.13770175 0.13808909 0.01054034 0.17981957
0.15814827 0.15848121 0.01054034 0.18212497 0.16046251 0.16079012 0.01054034 0.17956649
0.16338436 0.16370547 0.01054034 0.17992358 0.15714484 0.15748014 0.01054034 0.18023911
0.15814827 0.15848121 0.01054034 0.17995816
00000000: 6219 033e 2d87 033e 64b1 2c3c 8b62 283e
00000010: d892 f13d 6082 f23d 64b1 2c3c 4195 2c3e
00000020: fa11 063e 2c7d 063e 64b1 2c3c b553 2c3e
00000030: aa0c e43d 220b e53d 64b1 2c3c 1bcb 313e
00000040: 5e26 083e ce8f 083e 64b1 2c3c e1a0 333e
00000050: a73c 023e 39ab 023e 64b1 2c3c e867 363e
00000060: 51b0 113e 5312 123e 64b1 2c3c ddc0 3a3e
00000070: b001 0d3e 3a67 0d3e 64b1 2c3c 9f22 383e
00000080: 9ff1 213e e648 223e 64b1 2c3c f87e 3a3e
00000090: 4950 243e 2aa6 243e 64b1 2c3c 47e0 373e
000000a0: 3b4e 273e 68a2 273e 64b1 2c3c e33d 383e
000000b0: 94ea 203e 7942 213e 64b1 2c3c 9a90 383e
000000c0: 9ff1 213e e648 223e 64b1 2c3c f446 383e
