results/attackshooternnm/Shooter/Shooter-499395.onnx (onnx, 201499 bytes, 9 tensors)

network_body._body_endoder.seq_layers.0.weight f4 [128, 120]
-0.07696994 0.026531884 0.0760496 0.04255249 -0.18032399 -0.06256171 -0.006001173 -0.047875956
-0.0200728 0.14750499 0.17629375 0.09565837 0.1675563 0.052843988 -0.12069082 0.14666645
0.2387899 0.05630658 -0.033326615 0.005307443 -0.02818929 0.013024278 -0.08754749 -0.12418447
-0.07690421 -0.0020007777 0.09907929 -0.11180658 0.02159586 -0.028470134 0.081124276 0.15236686
0.13337621 -0.040580433 -0.0056472137 0.0727711 0.012977088 -0.090903215 -0.013876709 0.046765685
-0.14194907 0.1317241 -0.0014945792 0.18296814 -0.0384722 0.019895136 0.16425808 0.02805914
-0.05878182 0.0047072284 0.11978532 0.16314366 0.19721395 -0.06967946 -0.1526998 -0.04300065
0.10188561 -0.0032615568 0.006063799 -0.05407772 -0.040223572 0.037800718 0.031935092 0.033118233
0.013338426 -0.07776812 -0.0076379096 0.1605262 -0.052386265 0.19663101 0.014911783 0.028271183
-0.05417349 -7.4259864e-05 0.08176309 -0.030101623 0.03673652 0.06985559 -0.037739325 0.032508574
0.082334094 -0.1024217 -0.11582268 -0.04102412 0.15386379 0.073367976 0.1091022 0.044480752
0.1260289 -0.020138333 0.14556134 -0.25765544 0.0051202355 -0.01520604 0.062775806 -0.1890419
0.045844 -0.049902864 -0.083729394 0.02557665 0.032372367 -0.21514046 -0.08185685 0.0036940477
0.030887643 0.022603676 0.18581249 -0.028366664 -0.0853527 -0.08615695 -0.056145336 0.094877824
-0.026415396 0.17779292 0.048247468 -0.08063777 0.050265722 -0.10192643 -0.039519653 0.08150044
0.013010042 0.042001158 0.1499811 -0.013372104 -0.09557626 0.059269074 -0.1633932 0.110150725
0.23509341 -0.08725068 0.07874972 -0.081675865 0.14465019 0.047122087 -0.077066146 0.023038927
-0.021086406 -0.14209074 0.07254896 0.17996423 0.16310422 -0.104739405 -0.09045346 0.06499993
0.12908569 -0.0075449278 0.076097086 0.029215196 -0.10681435 0.069165885 0.023143185 0.07984786
-0.10248522 0.037614666 0.08183433 -0.020223686 0.20370097 0.029893683 0.20023702 -0.017615017
0.007885856 -0.08368093 0.059641674 -0.13855408 -0.19807914 0.15358424 0.14653984 0.03593435
0.03611498 0.015285297 0.00021795787 0.0021236958 -0.113447145 0.05715551 0.007093255 0.019421834
-0.013732428 0.04268552 -0.07707031 0.16030207 -0.06429259 0.015688049 -0.18911067 -0.046865318
-0.03782071 -0.039029352 0.036019944 0.0007681833 -0.013556342 0.12722166 -0.034925785 -0.0037818812
-0.012498283 -0.19115812 0.11019555 0.068934694 0.110586084 -0.15408175 -0.079884015 -0.13470043
-0.045397263 0.123215035 0.29120183 0.093030594 -0.00055771787 -0.030079933 0.18439509 -0.18747792
-0.04086536 0.13453956 -0.05729322 -0.058412094 0.17933121 -0.02783239 0.058848422 0.0646928
-0.11463506 0.10445159 0.03488949 -0.045665126 -0.035953797 -0.08601554 -0.11567109 0.116935894
-0.12530084 0.096010275 0.07233013 -0.0054983757 0.026043369 -0.1728292 0.06131712 0.15395944
-0.046176348 -0.008362896 0.021509055 0.04884015 -0.050027095 0.068834536 0.091045976 -0.12267156
-0.03277258 0.016485795 -0.16656406 -0.040482357 -0.070611745 -0.025753008 0.09106266 0.019808538
-0.037273306 0.012266575 0.057208445 -0.015742041 0.019280162 -0.13685764 -0.03474283 0.031888258
00000000: 6aa2 9dbd 6559 d93c e5bf 9b3d 854b 2e3d
00000010: daa6 38be 5b20 80bd 7da5 c4bb 9419 44bd
00000020: b66f a4bc 8c0b 173e 5986 343e 89e8 c33d
00000030: e193 2b3e f072 583d c02c f7bd bb2f 163e
00000040: 5785 743e baa1 663d 7d81 08bd 0fea ad3b
00000050: 3aed e6bc c863 553c 194c b3bd 6d54 febd
00000060: f47f 9dbd 7b1f 03bb 15ea ca3d d9fa e4bd
00000070: cde9 b03c 333a e9bc 7c24 a63d 0f06 1c3e
00000080: c693 083e ab37 26bd 430c b9bb 0409 953d
00000090: da9d 543c 772b babd 235b 63bc 608d 3f3d
000000a0: 195b 11be afe2 063e c2e5 c3ba 005c 3b3e
000000b0: 0795 1dbd 20fb a23c 4533 283e 48dc e53c
000000c0: 35c5 70bd 183f 9a3b 0152 f53d 220f 273e
000000d0: 74f2 493e 1bb4 8ebd 565d 1cbe 7321 30bd
000000e0: 67a9 d03d d8bf 55bb d5b2 c63b 9980 5dbd
000000f0: 79c1 24bd edd4 1a3d 5fce 023d fca6 073d
00000100: 6a89 5a3c e444 9fbd 6e47 fabb fb60 243e
00000110: fb92 56bd a459 493e 8d50 743c f898 e73c
00000120: 05e5 5dbd f6bb 9bb8 6873 a73d ae97 f6bc
00000130: 0879 163d 7310 8f3d 8d94 1abd b627 053d
00000140: c79e a83d 78c2 d1bd 7134 edbd e808 28bd
00000150: 788e 1d3e f341 963d f970 df3d 7331 363d
00000160: b80d 013e 25f9 a4bc 080e 153e 6aeb 83be
00000170: a6c7 a73b c122 79bc 9a90 803d 3394 41be
00000180: ebc6 3b3d f266 4cbd 517a abbd 1f86 d13c
00000190: e398 043d c84d 5cbe 90a4 a7bd d617 723b
000001a0: 1508 fd3c 582b b93c a145 3e3e 3561 e8bc
000001b0: 65cd aebd 0e73 b0bd a7f8 65bd 4e4f c23d
000001c0: 1a65 d8bc 590f 363e 239f 453d 6a25 a5bd
000001d0: 6ee3 4d3d cebe d0bd 5cdf 21bd b4e9 a63d
000001e0: 1228 553c 6809 2c3d a594 193e ab16 5bbc
000001f0: 7cbd c3bd 21c4 723d 8c50 27be b496 e13d
00000200: 54bc 703e 7cb0 b2bd 8847 a13d ad45 a7bd
00000210: 2e1f 143e 1703 413d dbd4 9dbd 22bc bc3c
00000220: 66bd acbc 3c80 11be 8d94 943d 8b48 383e
00000230: cb04 273e 9d81 d6bd aa3f b9bd af1e 853d
00000240: 0a2f 043e 713b f7bb cad8 9b3d b554 ef3c
00000250: 7bc1 dabd d8a6 8d3d c796 bd3c 4687 a33d
00000260: c5e3 d1bd d611 1a3d c298 a73d 25ac a5bc
00000270: fd96 503e 99e3 f43c ef0a 4d3e 5e4d 90bc
00000280: ad33 013c e860 abbd d44a 743d 1fe1 0dbe
00000290: 42d5 4abe 3045 1d3e 8a0e 163e e62f 133d
000002a0: 4ded 133d 2f6f 7a3c 9f8b 6439 b42d 0b3b
000002b0: fa56 e8bd e51b 6a3d 896e e83b 8a1a 9f3c
000002c0: fafd 60bc 03d7 2e3d 0ad7 9dbd 3a26 243e
000002d0: d5ab 83bd 3984 803c 3aa6 41be d9f5 3fbd
000002e0: e4e9 1abd 3edd 1fbd a689 133d e95f 493a
000002f0: 6b1b 5ebc 6546 023e 570e 0fbd 70d9 77bb
00000300: 99c5 4cbc f4be 43be 34ae e13d a22d 8d3d
00000310: f57a e23d 9bc7 1dbe 3b9a a3bd e9ee 09be
00000320: 7bf2 39bd 2a58 fc3d 6818 953e d386 be3d
00000330: d033 12ba 316a f6bc 11d2 3c3e 36fa 3fbe
00000340: 7062 27bd bdc4 093e 4cac 6abd 8541 6fbd
00000350: 9aa2 373e c100 e4bc 0b0b 713d a97d 843d
00000360: c9c5 eabd b7ea d53d 48e8 0e3d 5b0b 3bbd
00000370: 4a44 13bd ea28 b0bd f7e4 ecbd 167c ef3d
00000380: dd4e 00be 09a1 c43d d221 943d b82b b4bb
00000390: e758 d53c 23fa 30be a927 7b3d 8ba7 1d3e
000003a0: 6923 3dbd 8704 09bc c233 b03c 9c0c 483d
000003b0: 36e9 4cbd 1ff9 8c3d 5076 ba3d 3a3b fbbd
000003c0: 8a3c 06bd 380d 873c c58f 2abe d4d0 25bd
000003d0: e49c 90bd f9f7 d2bc 0f7f ba3d 8445 a23c
000003e0: e5ab 18bd bff9 483c 6753 6a3d 74f5 80bc
000003f0: 6ef1 9d3c 6924 0cbe 7f4e 0ebd 439d 023d

network_body._body_endoder.seq_layers.0.bias f4 [128]
0.002538006 -0.0011837211 0.002421091 0.0075849863 0.0037942354 -0.008494641 0.010333038 -0.005161091
-0.015439807 0.0050993627 0.0026115656 -0.0048383684 0.009769409 -0.017320937 -0.002640514 0.014799407
-0.0008248214 -0.0019870647 -0.010784939 0.0052473973 0.0061244317 0.0040207515 -0.0053240694 0.0073142317
0.0032569645 0.002996995 -0.0006754261 0.0018272479 -0.0030845478 0.007990063 0.0028358127 -0.00033324558
0.0015652641 -0.0030201382 -0.008160536 0.020868976 0.004867997 -0.011990022 -0.006551246 -0.004608834
0.002010595 -0.003359872 0.017835915 -0.0028562115 0.010281593 -0.0014924455 -0.009271717 0.0034646064
0.008914443 0.00774951 -0.0035892364 0.004410463 -0.0013156445 0.012324856 0.011914478 0.015445387
0.0010367507 0.0016018224 0.0071293046 -0.001448371 0.0012521149 0.004406962 -0.00214787 0.008722194
0.0077568665 0.0073836497 0.015472162 -0.0014282234 -0.0013161078 0.0034982401 0.0064410637 0.009291528
0.012431766 0.00112298 0.010078307 0.011633488 0.00024237094 -0.007782545 0.0024840757 0.013579819
0.0085008675 0.0009936753 0.0035064234 0.0028978956 0.0061160293 -0.009729891 -0.0013457418 -0.001784286
-0.0014775406 0.012139223 0.003870945 -0.0028031333 -0.0018850273 0.009906194 0.010576551 0.007621071
-0.014513313 -0.001516755 0.0024230538 0.007863537 0.0066768113 -0.0020749036 0.009508909 0.010648312
0.0027871775 0.0022530989 0.011589698 0.009078961 0.0076694842 0.003368437 -0.005504677 0.011859369
0.0028788182 -0.0013434438 0.0055146264 0.003950338 -0.0038399282 -0.0036537969 0.011610108 -0.0072320895
0.00070467615 0.00055645185 -0.0067113307 -0.0013507388 0.015723275 0.017460098 0.0020813635 0.011819757
00000000: ad54 263b 1727 9bba 2bab 1e3b 7a8b f83b
00000010: b5a8 783b 1b2d 0bbc e74b 293c 5f1e a9bb
00000020: 3ff7 7cbc 8e18 a73b cd26 2b3b 2d8b 9ebb
00000030: df0f 203c a3e4 8dbc 790c 2dbb 3679 723c
00000040: d438 58ba 6a39 02bb 50b3 30bc 5cf2 ab3b
00000050: 75af c83b 82c0 833b 8875 aebb 39ac ef3b
00000060: cc72 553b 3c69 443b 140f 31ba 4480 ef3a
00000070: 2026 4abb c1e8 023c 0bd9 393b 77b7 aeb9
00000080: 8c29 cd3a 83ed 45bb c5b3 05bc 6af5 aa3c
00000090: b883 9f3b cc71 44bc d6ab d6bb b405 97bb
000000a0: 30c4 033b 4c31 5cbb a01c 923c 472f 3bbb
000000b0: 2074 283c 299e c3ba 66e8 17bc 730e 633b
000000c0: e20d 123c 9aef fd3b 6539 6bbb a585 903b
000000d0: b471 acba 31ee 493c f134 433c a60e 7d3c
000000e0: 95e3 873a 3ef4 d13a f19c e93b 44d7 bdba
000000f0: 011e a43a 4768 903b 47c3 0cbb 88e7 0e3c
00000100: 502d fe3b 8bf2 f13b f37e 7d3c 3a33 bbba
00000110: 4081 acba bb42 653b 8f0f d33b 7e3b 183c
00000120: 9bae 4b3c f530 933a 7c1f 253c 639a 3e3c
00000130: f424 7e39 b804 ffbb e0cb 223b e47d 5e3c
00000140: 3947 0b3c 363e 823a 06cc 653b 9fea 3d3b
00000150: f968 c83b 1f6a 1fbc 9a63 b0ba b4de e9ba
00000160: 09aa c1ba 97e3 463c aeaf 7d3b c6b4 37bb
00000170: 0513 f7ba 974d 223c 4549 2d3c 2dba f93b
00000180: 3fc9 6dbc dacd c6ba 19cc 1e3b 11d6 003c
00000190: 27c9 da3b 1bfb 07bb 41cb 1b3c 4276 2e3c
000001a0: 14a9 363b baa8 133b b7e2 3d3c ecbf 143c
000001b0: 4c50 fb3b ffc0 5c3b 9460 b4bb cd4d 423c
000001c0: 8eaa 3c3b 7e16 b0ba 0ab4 b43b d671 813b
000001d0: 4ea7 7bbb 8a74 6fbb 5338 3e3c 2afb ecbb
000001e0: 04ba 383a dade 113a b9ea dbbb 460b b1ba
000001f0: 19ce 803c 7b08 8f3c 7c67 083b a7a7 413c

network_body._body_endoder.seq_layers.2.weight f4 [128, 128]
-0.016284212 -0.02361264 0.058706526 -0.08468759 -0.018545851 -0.13089527 -0.017287778 0.18723331
-0.16552556 -0.035516232 0.10304461 -0.13149805 -0.056294713 -0.005453796 -0.050480846 0.03443635
-0.16087589 0.08498698 -0.068273455 -0.05942875 0.040259495 0.11306856 -0.19633405 -0.0028216906
-0.053383492 -0.077432975 0.037574712 -0.12460539 -0.009250033 -0.015792578 -0.20076463 -0.118444316
-0.070520714 -0.15748936 -0.05366321 -0.024778593 -0.11685154 0.0048337528 -0.14415726 0.06169967
-0.10268136 -0.22593188 0.00846805 0.03140299 0.26685217 -0.12620279 -0.10415792 -0.03041389
0.08808121 -0.026523495 0.036290076 -0.1269795 -0.030810961 0.17406164 -0.15744679 -0.05255244
-0.041976333 0.021249296 0.05881323 -0.011800522 0.064027146 -0.048602384 0.1572297 -0.11911955
-0.038655907 0.009120366 -0.08670989 -0.058036897 0.04865944 -0.10059472 -0.04272377 0.08927491
0.026939122 0.15296264 0.022556635 0.011828444 0.037903164 -0.08954147 0.097288325 -0.034137502
-0.09806729 -0.032571778 -0.047141936 -0.059579466 0.16874485 0.04990011 -0.022712747 -0.04058123
-0.06517866 -0.08756909 0.032459367 0.1226271 0.013661622 -0.113544665 -0.052065633 -0.070201896
-0.05391547 -0.02210052 -0.0459025 -0.15011461 0.028731529 0.081587225 0.057046503 0.016807867
-0.054573357 -0.10367029 0.05411524 -0.025258062 0.02305404 -0.15606064 -0.100035965 -0.007641024
-0.09462885 0.01095895 0.011408239 0.055465963 -0.021444498 -0.041111708 0.009753959 -0.021699896
-0.10027754 -0.09601408 -0.014709423 0.06803808 0.007812582 0.04605263 0.1281811 -0.040273033
0.1366244 -0.05591862 0.029631756 -0.043249972 0.052551143 -0.11123321 0.18010257 -0.06678812
0.06547301 -0.12120078 0.004704771 -0.007431386 -0.1338874 0.07624568 0.008633627 0.07294933
-0.15271705 0.1525504 0.0023737424 0.05567032 0.0033786127 0.024803894 -0.041407533 0.014688803
0.007398568 -0.015871428 0.024150543 0.1908085 0.039531033 -0.08263961 0.16273282 0.14747927
0.10224298 0.061257437 0.01100087 -0.08872147 -0.0422437 -0.11616611 -0.016519288 -0.03379916
-0.048881285 0.12008654 0.00796111 -0.19149192 0.12760943 0.09546152 0.00451029 -0.04411686
-0.15399453 -0.1628468 -0.062745444 0.06849527 0.049544822 0.08464191 -0.11502295 -0.042493664
0.047048964 0.081794605 -0.005282869 -0.07366971 0.014659035 0.08034544 0.1232921 0.11491932
0.004172171 0.11475394 0.030890362 0.12036329 -0.16432784 0.0710058 -0.00034824255 0.107777104
-0.06639829 0.02152209 0.01739961 -0.19914311 -0.041925747 -0.062049665 -0.14404072 0.06676744
-0.018878832 -0.1206237 0.05975799 0.17947239 0.0088914735 -0.109216034 -0.05302548 0.052260477
-0.09508828 -0.098036796 -0.053478263 -0.012274075 -0.023467213 -0.17996322 0.025762388 -0.06640767
0.060274422 -0.021785941 -0.089009665 0.093637995 0.09958425 0.03228409 -0.021294663 0.045364875
0.046508245 0.009273057 -0.07373565 -0.016926793 -0.080806516 -0.16496699 0.06584891 -0.14495513
0.06762086 -0.004451024 -0.0077013704 -0.09766248 0.0066102645 0.0297239 -0.007628315 -0.10515077
-0.035654474 -0.04171178 -0.08045333 0.096824415 -0.12849116 -0.044850938 0.012199792 -0.10390945
00000000: 7866 85bc 4c6f c1bc 4176 703d b070 adbd
00000010: 78ed 97bc 6909 06be 199f 8dbc 17ba 3f3e
00000020: 887f 29be 7879 11bd 0d09 d33d 6da7 06be
00000030: 4995 66bd c2b5 b2bb 01c5 4ebd 210d 0d3d
00000040: a6bc 24be a70d ae3d f4d2 8bbd 906b 73bd
00000050: 24e7 243d 7d90 e73d cb0b 49be 1dec 38bb
00000060: a6a8 5abd 2e95 9ebd f1e7 193d 1c31 ffbd
00000070: 738d 17bc 705f 81bc 3e95 4dbe ef92 f2bd
00000080: 2a6d 90bd e444 21be f4cd 5bbd 7afc cabc
00000090: dc4f efbd 7564 9e3b f69d 13be cbb8 7c3d
000000a0: 9b4a d2bd b05a 67be 93bd 0a3c 6ca0 003d
000000b0: d9a0 883e 4e3b 01be bf50 d5bd 8d26 f9bc
000000c0: ec63 b43d cd47 d9bc e7a4 143d ea06 02be
000000d0: 4567 fcbc 373d 323e bb39 21be 3a41 57bd
000000e0: 60ef 2bbd 0113 ae3c 24e6 703d fa56 41bc
000000f0: aa20 833d 4b13 47bd d300 213e f3f4 f3bd
00000100: a855 1ebd 966d 153c f494 b1bd 19b8 6dbd
00000110: 1f4f 473d 9b04 cebd 1fff 2ebd c4d5 b63d
00000120: 6faf dc3c 3da2 1c3e b1c8 b83c 17cc 413c
00000130: 5940 1b3d 8561 b7bd 1a3f c73d c4d3 0bbd
00000140: 81d7 c8bd fc69 05bd e717 41bd 9909 74bd
00000150: 73cb 2c3e 0f64 4c3d 1510 babc 8138 26bd
00000160: 647c 85bd 6c57 b3bd 1df4 043d eb23 fb3d
00000170: ffd4 5f3c 1b8a e8bd c642 55bd 03c6 8fbd
00000180: 78d6 5cbd 260c b5bc 4304 3cbd a5b7 19be
00000190: 625e eb3c 3417 a73d 98a9 693d a7b0 893c
000001a0: 5088 5fbd 1751 d4bd f1a7 5d3d ffe9 cebc
000001b0: d3db bc3c 5cce 1fbe a8df ccbd 8e61 fabb
000001c0: c5cc c1bd 2b8d 333c 9fe9 3a3c 4730 633d
000001d0: 5fac afbc c064 28bd 12cf 1f3c fbc3 b1bc
000001e0: 505e cdbd 08a3 c4bd cbff 70bc 8d57 8b3d
000001f0: 5800 003c afa1 3c3d e841 033e 56f5 24bd
00000200: 44e7 0b3e ec0a 65bd 4cbe f23c e226 31bd
00000210: de3f 573d 3dce e3bd cf6c 383e 36c8 88bd
00000220: b716 863d 1d38 f8bd 7b2a 9a3b fc82 f3bb
00000230: c719 09be b226 9c3d 0e74 0d3c 7566 953d
00000240: dc61 1cbe 2c36 1c3e ca90 1b3b 9006 643d
00000250: b76b 5d3b 8931 cb3c f29a 29bd 4ea9 703c
00000260: b06f f23b cc04 82bc 5cd7 c53c 4e63 433e
00000270: 4beb 213d f53e a9bd 6fa3 263e ce04 173e
00000280: c464 d13d 14e9 7a3d fe3c 343c 9ab3 b5bd
00000290: bb07 2dbd 7fe8 edbd 7553 87bc fd70 0abd
000002a0: be37 48bd efef f53d 516f 023c 7516 44be
000002b0: 0cac 023e 5481 c33d 0ecb 933b e1b3 34bd
000002c0: beb0 1dbe 50c1 26be af80 80bd 4047 8c3d
000002d0: 83ef 4a3d bd58 ad3d 2791 ebbd d60d 2ebd
000002e0: 6ab6 403d ee83 a73d eb1b adbb 25e0 96bd
000002f0: 732c 703c 268c a43d 9280 fc3d d25a eb3d
00000300: b5b6 883b 1d04 eb3d c90d fd3c 0781 f63d
00000310: 8f45 28be 7d6b 913d 5394 b6b9 3eba dc3d
00000320: d4fb 87bd 184f b03c a089 8e3c 2cec 4bbe
00000330: 55ba 2bbd ca27 7ebd 697f 13be 5ebd 883d
00000340: c8a7 9abc 8f09 f7bd cbc4 743d 9cc7 373e
00000350: 8bad 113c a8ac dfbd 3f31 59bd 150f 563d
00000360: a5bd c2bd 84c7 c8bd 060c 5bbd 3419 49bc
00000370: 503e c0bc 4748 38be a50b d33c bf00 88bd
00000380: 50e2 763d 6e78 b2bc b34a b6bd 47c5 bf3d
00000390: d4f2 cb3d 523c 043d 2572 aebc 85d0 393d
000003a0: 6e7f 3e3d 05ee 173c b702 97bd 0faa 8abc
000003b0: e37d a5bd 1bed 28be cbdb 863d 1e6f 14be
000003c0: ce7c 8a3d e5d9 91bb c75b fcbb 4403 c8bd
000003d0: eb9a d83b 897f f33c f2f6 f9bb 4959 d7bd
000003e0: 6d0a 12bd f9d9 2abd b7c4 a4bd e14b c63d
000003f0: 3093 03be 9eb5 37bd a3e1 473c 7ace d4bd

network_body._body_endoder.seq_layers.2.bias f4 [128]
-0.0028272637 -0.0025621655 0.009136236 0.0056184623 -0.00019913109 0.0051541924 0.0067108334 0.0077687735
0.00086469605 -0.00012563124 0.0011638863 0.0076190536 0.006474097 -0.00024403931 0.008236895 0.005337989
0.0037419647 -0.0011288808 0.009158333 -0.00070952484 0.0022982766 0.005296761 -0.0016636845 0.0058924924
0.00062376435 0.011090099 0.012546496 -0.008091237 0.0027747347 0.0061370395 0.010678005 0.007345015
-0.0033775012 0.0038167767 0.0023082497 0.0023288853 -0.006454742 0.0054443404 0.002941218 -0.0008549246
0.0019780854 0.0090587195 -0.0020200985 -0.0040411646 -0.010049838 0.007891633 -0.0032425756 0.008904204
-0.0049593872 -0.000107774846 -0.007896732 0.0066351136 0.007859623 0.00075609394 0.008862187 -0.0032842685
-0.0006466739 -0.0035051515 0.005623183 -0.0017419008 0.0074734115 0.0044492255 0.0007852333 0.0041249073
-0.0036790913 0.002688171 -0.00014807071 0.0067731394 0.0042482587 -0.0051711276 0.005075007 -0.001140013
-0.0008966104 -0.0056698886 0.010674492 -0.0018660774 0.0065433923 -0.0022973965 0.010762931 0.0067096944
0.0028991199 -0.000819856 -0.0021854886 -0.0029890868 -0.0005195143 -0.00021940969 0.009118704 -0.004098012
-0.0020478328 -0.0009067892 0.006840585 0.008509873 0.0050650234 0.0007356611 0.003934696 0.004655425
-0.0005071867 0.0019737412 -0.0061276737 0.0076805446 0.0026418704 0.0009092751 0.009967744 -0.0051961616
0.0025661625 0.0066995476 0.003229254 0.0003246736 0.0019887092 0.0042872922 -8.8336135e-05 0.008088975
0.00624623 0.0007583453 0.0039330614 0.00018056275 -0.0011998534 -0.0021099942 0.005041925 -0.005443235
0.0016564954 0.0024319973 -9.588867e-05 -0.0016814653 -0.0043006074 0.0036718808 0.0033013779 0.0014774029
00000000: 9d49 39bb 01ea 27bb 27b0 153c 141b b83b
00000010: d8cd 50b9 80e4 a83b 8de6 db3b 3291 fe3b
00000020: c5ac 623a e1bb 03b9 8b8d 983a 41a9 f93b
00000030: a924 d43b cee4 7fb9 0bf4 063c 4cea ae3b
00000040: c03b 753b f4f6 93ba d50c 163c 68ff 39ba
00000050: af9e 163b 7490 ad3b fd0f daba cf15 c13b
00000060: 1e84 233a 3fb3 353c d18f 4d3c 1c91 04bc
00000070: 53d8 353b 3819 c93b cdf2 2e3c 74ae f03b
00000080: 1159 5dbb e322 7a3b 0146 173b 36a0 183b
00000090: 4d82 d3bb 7066 b23b 73c1 403b 051d 60ba
000000a0: c4a2 013b 066b 143c a163 04bb bf6b 84bb
000000b0: 13a8 24bc e84b 013c 6481 54bb f0e2 113c
000000c0: 5b82 a2bb 2e05 e2b8 4b61 01bc 5e6b d93b
000000d0: a6c5 003c 9b34 463a b532 113c e23c 57bb
000000e0: 8d85 29ba afb6 65bb ae42 b83b 7e50 e4ba
000000f0: 85e3 f43b cfca 913b 1dd8 4d3a 3b2a 873b
00000100: e91c 71bb 072c 303b 6e43 1bb9 36f1 dd3b
00000110: fa34 8b3b 9072 a9bb 3f4c a63b 7d6c 95ba
00000120: 810a 6bba 79ca b9bb 11e4 2e3c 2b97 f4ba
00000130: f469 d63b eb8f 16bb 0157 303c ffdc db3b
00000140: 29ff 3d3b 9beb 56ba 6a3a 0fbb 8ee4 43bb
00000150: 0430 08ba 5711 66b9 9e66 153c 9e48 86bb
00000160: ef34 06bb 98b5 6dba fc26 e03b ff6c 0b3c
00000170: 7ff8 a53b 61d9 403a 9fee 803b 898c 983b
00000180: b9f4 04ba e259 013b a7ca c8bb 14ad fb3b
00000190: 3b23 2d3b 6b5c 6e3a c04f 233c 9044 aabb
000001a0: 102d 283b e187 db3b e4a1 533b f438 aa39
000001b0: 0155 023b 6a7c 8c3b 1a41 b9b8 9f87 043c
000001c0: 2dad cc3b b1cb 463a e9e0 803b 7255 3d39
000001d0: 6644 9dba d447 0abb bb36 a53b 2a5d b2bb
000001e0: c31e d93a 2562 1f3b d617 c9b8 9d64 dcba
000001f0: 1cec 8cbb f0a3 703b ee5b 583b 6aa5 c13a

network_body._body_endoder.seq_layers.4.weight f4 [128, 128]
-0.057499297 0.09196747 -0.015074253 -0.004573091 0.03339647 0.060079288 0.083824106 -0.051369697
-0.10039312 0.16504115 0.057425003 -0.044840086 0.066226825 0.13490695 0.032493338 -0.05660563
0.09687003 -0.092862226 -0.029430324 -0.037485104 -0.025460005 -0.07791768 -0.10388826 -0.20268272
0.081190966 0.048638817 0.075744785 0.051199894 0.093041375 -0.050319254 -0.19673732 0.0072434912
0.05025168 0.08273163 -0.025829049 -0.12988536 0.03590048 -0.04529417 0.29728213 0.03151756
-0.077199206 0.012609901 -0.014197665 0.020425262 0.042685695 -0.03842076 -0.06550885 0.11542791
0.024342915 -0.03714019 0.12523712 -0.0339883 -0.07314514 -0.069270894 -0.05581246 -0.038957022
-0.0018915576 0.07525774 -0.117185906 -0.13675313 0.11671139 0.0251395 -0.006432673 -0.00056195084
0.14874873 -0.062363602 0.035997637 0.1311529 0.01409955 0.14010143 -0.029303188 -0.058531012
-0.052171316 -0.013126779 0.076746374 -0.15217066 0.12831116 0.11107021 0.07333288 -0.074975744
-0.07364153 -0.060218118 -0.0513694 0.050602216 0.05619529 -0.12896161 0.0762704 -0.039939057
-0.03947552 0.06711813 0.085645415 0.023640065 -0.038864676 0.056693185 0.25963852 0.10668417
0.11048641 -0.12925643 -0.18189052 0.02718133 0.0136872735 0.14764105 -0.012862094 0.027689194
0.11541367 0.013641692 -0.09376776 0.029346885 0.17018789 0.012708452 -0.09762637 -0.047317445
-0.020659253 -0.0654496 -0.06885751 0.022640875 0.06545468 -0.0011667716 -0.025445007 0.028354751
-0.055823978 -0.069144204 -0.024142863 -0.013505799 -0.19674642 -0.07714062 -0.13525341 0.07035211
-0.12679581 0.049574357 -0.1285572 0.1459664 -0.024994647 0.017781097 0.07937885 -0.012644995
-0.025446488 -0.088659056 0.10621324 -0.053381458 0.04289938 0.02177233 -0.052170426 -0.0696695
-0.0047418247 -0.1477796 -0.008891874 0.11457776 -0.085836045 0.08439441 0.039913263 -0.027492456
-0.06471396 0.06405378 0.047869243 -0.08913195 0.016122574 -0.014056455 -0.013751854 0.07255495
-0.07760737 -0.0030583115 -0.030705567 -0.15850103 -0.021421524 0.031302836 0.084609635 -0.10348047
0.09460673 0.07913641 0.008115018 0.0017168487 -0.05511304 -0.15849121 -0.0817076 0.036544148
-0.038740184 -0.051451713 -0.071634635 -0.032885343 -0.045413774 0.017181575 -0.12441079 -0.04459227
-0.0882735 -0.0043088584 0.014658243 -0.115099795 -0.04199483 0.1432813 0.017383913 -0.061240237
-0.012231354 0.16179359 -0.1854212 0.04529177 -0.102762826 0.054630004 0.0678571 0.098974
0.015445142 -0.121982776 0.015743876 -0.10756511 -0.05983892 -0.089984015 0.042068094 0.044120062
0.01083536 -0.00018840449 -0.09340016 -0.004881754 -0.118297346 -0.040344417 0.054757055 0.026361413
-0.021744778 -0.0055307597 0.07227366 0.05854203 0.009935587 -0.038197257 -0.03407653 -0.09225343
0.024333166 -0.075657435 -0.091745704 0.068571724 0.010248094 -0.024586635 -0.057576507 0.019501437
-0.03684683 0.15048575 -0.086525485 0.15949108 0.0292576 0.0054175365 -0.11022441 -0.026046064
0.021261593 0.073846206 0.16823144 -0.10892873 -0.013344775 -0.04278986 -0.11002615 0.058479667
0.019686691 0.026748301 0.054573394 0.023076676 -0.07893435 0.12854426 -0.14818004 0.11757624
00000000: 6284 6bbd 7159 bc3d 00fa 76bc ded9 95bb
00000010: bdca 083d b315 763d f9ab ab3d 0869 52bd
00000020: e89a cdbd 8c00 293e 7b36 6b3d 3daa 37bd
00000030: eea1 873d 0c25 0a3e bc17 053d 4edb 67bd
00000040: cb63 c63d 8d2e bebd dd17 f1bc fb89 19bd
00000050: 8091 d0bc 4e93 9fbd 5ec3 d4bd 0f8c 4fbe
00000060: 7347 a63d 7f39 473d 1520 9b3d fbb6 513d
00000070: 7a8c be3d 901b 4ebd 8275 49be cf5a ed3b
00000080: b5d4 4d3d 336f a93d 7197 d3bc ab00 05be
00000090: 620c 133d 6186 39bd 5d35 983e 8f18 013d
000000a0: 9e1a 9ebd c299 4e3c 539d 68bc e152 a73c
000000b0: 32d7 2e3d 165f 1dbd 8129 86bd 7865 ec3d
000000c0: cb6a c73c 5020 18bd 293e 003e 5137 0bbd
000000d0: 1fcd 95bd e6dd 8dbd 9b9b 64bd 6691 1fbd
000000e0: 24ee f7ba bb20 9a3d 2aff efbd 0309 0cbe
000000f0: 6206 ef3d 5af1 cd3c 2cc9 d2bb e24f 13ba
00000100: 9651 183e fa70 7fbd 4272 133d f24c 063e
00000110: cd01 673c c076 0f3e 3d0d f0bc 37be 6fbd
00000120: 97b1 55bd b411 57bc 342d 9d3d a0d2 1bbe
00000130: 0064 033e c778 e33d 8d2f 963d e28c 99bd
00000140: 5fd1 96bd 46a7 76bd b868 52bd 4544 4f3d
00000150: 082d 663d 830e 04be a833 9c3d 2397 23bd
00000160: 15b1 21bd 3b75 893d dd66 af3d cfa8 c13c
00000170: 9130 1fbd 1d37 683d 57ef 843e 3b7d da3d
00000180: b346 e23d cc5b 04be 8241 3abe 61ab de3c
00000190: 9640 603c 372f 173e 88bb 52bc 73d4 e23c
000001a0: 015e ec3d 6781 5f3c 5009 c0bd e168 f03c
000001b0: bc45 2e3e 1c37 503c 56f0 c7bd f0cf 41bd
000001c0: 983d a9bc 710a 86bd 2b05 8dbd 5b79 b93c
000001d0: 1a0d 863d 5cee 98ba 0c72 d0bc 3948 e83c
000001e0: afa7 64bd 7a9b 8dbd 41c7 c5bc 6d47 5dbc
000001f0: e577 49be e7fb 9dbd df7f 0abe c414 903d
00000200: c3d6 01be 7b0e 4b3d 80a4 03be 3778 153e
00000210: 93c1 ccbc aaa9 913c 6191 a23d f42c 4fbc
00000220: 2775 d0bc e192 b5bd 5486 d93d 84a6 5abd
00000230: 43b7 2f3d e35b b23c a8b0 55bd e2ae 8ebd
00000240: 4f61 9bbb 8953 17be 39af 11bc bfa7 ea3d
00000250: cfca afbd fad6 ac3d 177c 233d dc37 e1bc
00000260: c188 84bd a12e 833d 8a12 443d d08a b6bd
00000270: 7d13 843c 0c4d 66bc 754f 61bc b197 943d
00000280: 9df0 9ebd f46d 48bb 3e8a fbbc 184e 22be
00000290: 317c afbc 6737 003d d147 ad3d 92ed d3bd
000002a0: 2cc1 c13d 4512 a23d daf4 043c e207 e13a
000002b0: 36be 61bd 854b 22be 5056 a7bd 51af 153d
000002c0: 07ae 1ebd 08bf 52bd 2eb5 92bd c8b2 06bd
000002d0: cb03 3abd 60c0 8c3c 16cb febd 62a6 36bd
000002e0: bdc8 b4bd 5331 8dbb 2129 703c 71b9 ebbd
000002f0: c502 2cbd 55b8 123e b568 8e3c 0bd7 7abd
00000300: 0466 48bc 38ad 253e 0edf 3dbe dd83 393d
00000310: 5175 d2bd b6c3 5f3d aaf8 8a3d e1b2 ca3d
00000320: 9f0d 7d3c 1bd2 f9bd 4df9 803c 194b dcbd
00000330: a819 75bd 8a49 b8bd 984f 2c3d 3db7 343d
00000340: cb86 313c 728e 45b9 9548 bfbd 1ff7 9fbb
00000350: e145 f2bd 3040 25bd ef48 603d e4f3 d73c
00000360: 1b22 b2bc 603b b5bb 3604 943d c5c9 6f3d
00000370: dfc8 223c ba74 1cbd d593 0bbd 5eef bcbd
00000380: 5956 c73c 49f2 9abd 2ce5 bbbd 556f 8c3d
00000390: 9fe7 273c e969 c9bc 58d5 6bbd 7ac1 9f3c
000003a0: b4ec 16bd f018 1a3e 4634 b1bd a151 233e
000003b0: a2ad ef3c 9785 b13b 56bd e1bd 8e5e d5bc
000003c0: cb2c ae3c ae3c 973d dd44 2c3e 0716 dfbd
000003d0: 0ba4 5abc 6c44 2fbd 6455 e1bd 6088 6f3d
000003e0: fc45 a13c 411f db3c 5a88 5f3d 4c0b bd3c
000003f0: 55a8 a1bd 1ba1 033e 82bc 17be d0cb f03d

network_body._body_endoder.seq_layers.4.bias f4 [128]
0.0031518936 0.0051253363 0.002528395 0.002668727 -0.002706305 0.0004513347 0.00092655036 -0.003907751
0.0045809364 0.009902951 -0.0017409092 0.0024547444 -0.00094465754 0.0033120236 0.0006570565 0.0069186166
0.0079104435 -0.0016994905 0.0019748588 -0.005519145 0.0024890997 0.0054433 0.007403085 0.001641384
-0.0002591077 0.00076169276 -0.00010198341 0.010759644 0.004311094 -0.004971485 0.007958726 -0.0011054098
0.0003052921 -0.0023237553 -0.0031662984 0.0027186584 0.0026478523 0.003042555 -0.0025203666 -0.0032242525
0.00871851 0.0049278433 -0.00040527215 -0.0019907937 -0.0061242473 0.00046303388 0.0088217165 0.00020908943
-0.008199606 0.0056545376 0.0056287567 -0.004129687 0.0072450424 -0.0056145764 0.003337549 -0.00015088168
0.0028853763 0.0004092293 0.0059150276 0.0047945813 -0.0018816601 0.012189347 -0.010117099 0.009794923
-0.0074404785 -0.002548149 -0.004039233 -0.007316012 -0.002256158 -0.005847535 -0.0023763068 -0.008486305
0.008226173 -0.0018852686 -0.0005444813 0.002270719 -0.006175015 -0.002145679 0.001380984 0.0028086135
-0.0015560287 -0.0019510118 -0.005295311 -0.003141022 -0.0018302747 0.0056539173 0.002113591 0.0042519076
0.00074292964 -0.00096533226 -0.006341881 -0.0035003049 0.0015530505 -0.00037824054 0.010286846 -0.003208355
0.0026955395 0.0032142268 -0.0056699747 0.0011892937 -0.006352903 -0.0013893556 0.000984456 -0.0040038484
-0.001538732 0.0067196297 -0.002098355 0.00067278405 -0.0033208851 0.014133111 0.001737417 1.8950574e-05
-0.0089415265 0.00079077156 0.006105555 -0.009585477 -0.008172841 0.0019271115 -0.001798475 -0.002346506
-0.004683438 0.008541052 -0.0013995249 0.0038140966 0.010390369 -0.0017598679 0.001988038 0.0010907849
00000000: 0090 4e3b 70f2 a73b 6eb3 253b cfe5 2e3b
00000010: 435c 31bb 1ea1 ec39 bee3 723a 970c 80bb
00000020: ae1b 963b fd3f 223c 382f e4ba c7df 203b
00000030: e5a2 77ba 890e 593b 513e 2c3a 90b5 e23b
00000040: ce9a 013c 70c1 deba a26c 013b f2d9 b4bb
00000050: 2a20 233b b65d b23b 9495 f23b b523 d73a
00000060: d9d8 87b9 56ac 473a eddf d5b8 3849 303c
00000070: 1444 8d3b d7e7 a2bb 5165 023c 66e3 90ba
00000080: 9d0f a039 254a 18bb ac81 4fbb 852b 323b
00000090: 9787 2d3b 9a65 473b bc2c 25bb fb4d 53bb
000000a0: 15d8 0e3c bf79 a13b b57a d4b9 fa77 02bb
000000b0: e9ad c8bb 5bc3 f239 f688 103c 043f 5b39
000000c0: a457 06bc b349 b93b 6f71 b83b 5352 87bb
000000d0: d267 ed3b 7bfa b7bb c8ba 5a3b fe35 1eb9
000000e0: 9518 3d3b d48d d639 d9d2 c13b dd1b 9d3b
000000f0: 09a2 f6ba d4b5 473c 30c2 25bc e27a 203c
00000100: 42cf f3bb d9fe 26bb 8b5b 84bb 28bb efbb
00000110: 0ddc 13bb ae9c bfbb d0bb 1bbb 250a 0bbc
00000120: 12c7 063c 1e1b f7ba 86bb 0eba 58d0 143b
00000130: c857 cabb 859e 0cbb 2202 b53a b710 383b
00000140: a9f3 cbba 18b9 ffba 4a84 adbb 9bd9 4dbb
00000150: d4e5 efba 7f44 b93b 2c84 0a3b 9653 8b3b
00000160: 2ac1 423a 5a0e 7dba 8ecf cfbb 5f65 65bb
00000170: ba8f cb3a 964e c6b9 298a 283c 4443 52bb
00000180: a6a7 303b c7a5 523b 32cb b9bb 13e2 9b3a
00000190: 032c d0bb 0a1b b6ba dd08 813a b732 83bb
000001a0: 47af c9ba 5730 dc3b 8e84 09bb c65d 303a
000001b0: 35a3 59bb 908e 673c 0aba e33a 0cf8 9e37
000001c0: 7b7f 12bc c84b 4f3a 1c11 c83b 680c 1dbc
000001d0: 61e7 05bc 2297 fc3a cfba ebba d7c7 19bb
000001e0: 8777 99bb c5ef 0b3c 4370 b7ba ecf5 793b
000001f0: 5e3c 2a3c 5eab e6ba be49 023b abf8 8e3a

action_model._continuous_distribution.log_sigma f4 [1, 4]
0.0009062479 0.032065786 -0.012003355 -0.0026316512
00000000: 4491 6d3a 6a57 033d b8a9 44bc c877 2cbb

action_model._continuous_distribution.mu.weight f4 [4, 128]
0.01498665 0.008127099 0.021931812 0.01098197 -0.025074119 -0.037414305 -0.06065171 0.0050179693
0.01883799 0.028244952 -0.011196769 -0.023608964 0.0032122328 0.010619827 0.011021879 -0.008162542
0.01559834 -0.025950458 -0.0018600889 -0.022730542 -0.030995356 0.00519196 0.03171703 0.014353642
-0.029906943 -0.05421047 0.0029360163 0.057834856 0.020954408 -0.020386256 0.038570464 0.006385559
0.008997522 -0.011285625 0.0009400081 0.009622049 0.015084345 -0.011646163 -0.029464157 -0.013016738
0.035960104 0.028945204 0.011475031 -0.034520034 -0.031698238 -0.042426508 0.033338718 -0.021081893
-0.013964532 0.015966028 0.019249763 -0.019961394 0.034403842 -0.02001083 0.0020707161 -0.03499865
-0.027076973 0.016957141 0.004426216 0.025686458 -0.010220708 0.069185 -0.015188637 0.056411687
-0.0044616987 -0.009562864 -0.021190347 -0.02528565 -0.03547609 -0.01587661 -0.035927184 -0.024126822
0.030791475 -0.0011839923 0.008923144 -0.0028945298 -0.030063875 -0.00311536 0.012823607 -0.040845435
-0.03481811 0.009179237 -0.046592917 -0.052374072 -0.009601435 0.039092585 0.014837037 0.020540657
0.0063132104 -0.04974897 -0.0021041927 -0.023040371 -0.00892617 -0.044303674 0.026555048 0.006273645
-0.00023338778 0.023885423 -0.026280364 -0.04334794 -0.021870703 -0.032166906 -0.02955061 -0.034299526
-0.030314798 0.025520312 -0.017729824 -0.010731906 -0.018112365 0.029227661 0.011258043 -0.034902044
-0.0364823 -0.008420379 0.029235197 -0.02193256 -0.039898477 0.0035200235 -0.026637025 0.0068589984
-0.056026123 0.030848034 -0.0125777 -0.054889392 0.038571037 -0.010133822 0.021502582 -0.0538308
0.026689399 -0.000467127 -0.013219561 0.015048819 0.025960801 -0.004852136 0.013807042 0.018513568
0.04671305 0.016849156 -0.031079566 -0.027966948 0.024455644 -0.03568129 0.012393453 0.005907699
-0.011704447 -0.024142051 0.014968093 0.01247756 -0.029061068 0.0026374806 -0.023740673 -0.0141508
-0.025650246 0.01645851 0.016682275 0.01606662 -0.001462425 0.022976886 -0.0010426928 -0.0057503954
0.04023709 -0.029003328 -0.010886226 0.035314396 0.00067466765 -0.017266566 -0.00993955 0.011906432
0.034547284 -0.031228429 -0.0012863347 -0.023967061 0.0049025854 -0.036023773 0.00026129652 -0.031956542
-0.013865169 -0.029890077 0.035282884 -0.01640086 -0.009450667 0.0058416054 -0.00063527655 0.014839231
-0.022643518 0.0029071819 -0.00418133 -0.025546947 -0.034504786 0.002325069 -0.004879143 0.010124471
0.0017589441 0.017545355 -0.0066292663 -0.011789742 0.020153143 -0.007889241 -0.03592857 -0.01624166
0.012878682 0.012311762 0.010915325 -0.029457185 -0.006032538 -0.020992037 0.045949083 -0.05609208
0.027827168 0.003824865 -0.027073015 0.015745724 -0.01562095 0.009729819 0.00826902 -0.0030783862
0.0066782814 -0.013997089 0.008800174 0.00762252 0.0058162883 -0.011044552 -0.019250905 -0.014260344
-0.012675814 -0.022260817 0.0014980533 -0.020217769 -0.031248476 -0.021341223 -0.0150557645 0.017728698
-0.035894956 0.026839998 -0.013457328 0.026731476 0.0236098 0.0034616939 0.008502254 0.009907457
-0.000102117556 0.012880064 0.03906377 0.005425134 -0.011000229 -0.014473326 -0.021977486 0.012366061
-0.019685747 -0.0017237726 0.0053542955 0.01990889 0.023059474 -0.020696418 -0.009738289 0.0035036919
00000000: 918a 753c 8627 053c 58aa b33c b8ed 333c
00000010: 3d68 cdbc be3f 19bd ed6d 78bd c76d a43b
00000020: 2152 9a3c f561 e73c a772 37bc 9667 c1bc
00000030: 5384 523b c8fe 2d3c 1c95 343c 2fbc 05bc
00000040: 2e90 7f3c 0e96 d4bc 3ace f3ba 6735 babc
00000050: f9e9 fdbc 5121 aa3b b7e9 013d 8a2b 6b3c
00000060: 68ff f4bc cc0b 5ebd 2e6a 403b 3ee4 6c3d
00000070: 94a8 ab3c 1401 a7bc 10fc 1d3d f43d d13b
00000080: 586a 133c 58e7 38bc e06a 763a cca5 1d3c
00000090: 5424 773c 8ccf 3ebc d15e f1bc 2844 55bc
000000a0: e74a 133d 7e1e ed3c c501 3c3c e164 0dbd
000000b0: 03d6 01bd 6bc7 2dbd 2e8e 083d efb3 acbc
000000c0: 7ecb 64bc 30cb 823c aeb1 9d3c 1486 a3bc
000000d0: 0beb 0c3d c1ed a3bc dab4 073b bf5a 0fbd
000000e0: 87d0 ddbc b4e9 8a3c ca09 913b 686c d23c
000000f0: c274 27bc deb0 8d3d c3d9 78bc f10f 673d
00000100: 7133 92bb 8fad 1cbc 6197 adbc da23 cfbc
00000110: 604f 11bd aa0f 82bc 6228 13bd 9da5 c5bc
00000120: 673e fc3c 3030 9bba 6132 123c 27b2 3dbb
00000130: 8448 f6bc 112b 4cbb 1b1a 523c 8b4d 27bd
00000140: 6f9d 0ebd 8364 163c 37d8 3ebd 3286 56bd
00000150: 564f 1dbc 8c1f 203d 0b17 733c e144 a83c
00000160: 0cdf ce3b 93c5 4bbd 7fe6 09bb 29bf bcbc
00000170: 123f 12bc c577 35bd f989 d93c 2693 cd3b
00000180: 8eb9 74b9 5dab c33c eb49 d7bc 9c8d 31bd
00000190: 302a b3bc 72c1 03bd 1f14 f2bc a97d 0cbd
000001a0: bd56 f8bc f90f d13c 233e 91bc e0d4 2fbc
000001b0: 6260 94bc d96e ef3c a873 383c 72f5 0ebd
000001c0: 776e 15bd a1f5 09bc a77e ef3c e9ab b3bc
000001d0: 966c 23bd 32b0 663b e435 dabc 73c1 e03b
000001e0: a67b 65bd 04b5 fc3c b312 4ebc b3d3 60bd
000001f0: aafc 1d3d 5508 26bc 2f26 b03c af7d 5cbd
00000200: baa3 da3c bae8 f4b9 dc96 58bc 528f 763c
00000210: bfab d43c abfe 9ebb ee36 623c c4a9 973c
00000220: 2f56 3f3d 3e07 8a3c 939a febc f11a e5bc
00000230: 3457 c83c 8b26 12bd e90d 4b3c 5f95 c13b
00000240: 02c4 3fbc 8dc5 c5bc bb3c 753c ae6e 4c3c
00000250: 7a11 eebc 95d9 2c3b cd7b c2bc c2d8 67bc
00000260: 7720 d2bc ffd3 863c 44a9 883c 259e 833c
00000270: d7ae bfba 063a bc3c f7aa 88ba d06d bcbb
00000280: a6cf 243d 6398 edbc 245c 32bc d4a5 103d
00000290: 2edc 303a 9d72 8dbc 7fd9 22bc 3213 433c
000002a0: 7481 0d3d c3d2 ffbc 3b9a a8ba 9256 c4bc
000002b0: dea5 a03b aa8d 13bd a0fe 8839 dde4 02bd
000002c0: bc2a 63bc 09dc f4bc c984 103d 195b 86bc
000002d0: f8d6 1abc f06a bf3b b088 26ba 3f20 733c
000002e0: e67e b9bc 6b86 3e3b 8a03 89bb d547 d1bc
000002f0: e454 0dbd 2f60 183b 38e1 9fbb 1ce1 253c
00000300: 5f8c e63a 47bb 8f3c 513a d9bb c329 41bc
00000310: 3418 a53c e041 01bc d629 13bd 3b0d 85bc
00000320: 1c01 533c 46b7 493c 31d6 323c 3250 f1bc
00000330: 99ac c5bb 7ef7 abbc 1b35 3c3d cfc0 65bd
00000340: cdf5 e33c 96aa 7a3b 3ac8 ddbc 2dfd 803c
00000350: 03ef 7fbc d269 1f3c c97a 073c c0be 49bb
00000360: 7cd5 da3b 0c54 65bc 9b2e 103c 55c6 f93b
00000370: 9096 be3b 35f4 34bc 13b4 9dbc 38a4 69bc
00000380: 38ae 4fbc 515c b6bc 545a c43a bc9f a5bc
00000390: cefc ffbc cad3 aebc 74ac 76bc c63b 913c
000003a0: 9706 13bd 8edf db3c 207c 5cbc f8fb da3c
000003b0: 5769 c13c 96dd 623b 0a4d 0b3c e352 223c
000003c0: f227 d6b8 e706 533c 5501 203d 53c5 b13b
000003d0: 4e3a 34bc 8721 6dbc 210a b4bc 059b 4a3c
000003e0: 0144 a1bc 36f0 e1ba 1673 af3b f817 a33c
000003f0: 39e7 bc3c 898b a9bc 588d 1fbc 329e 653b

action_model._continuous_distribution.mu.bias f4 [4]
0.007208595 0.00045171627 -0.004205352 -0.00089281274
00000000: 1436 ec3b 55d4 ec39 0dcd 89bb a60b 6aba
