results/shooter1/Shooter/Shooter-415265.onnx (onnx, 201499 bytes, 9 tensors)

network_body._body_endoder.seq_layers.0.weight f4 [128, 120]
000000 48 11 22 be 0f 58 9b bd 78 2e 72 3c c0 cf 4c 3d
       -0.15826905 -0.07585155 0.014781587 0.050002813
000010 c6 a0 99 3c 41 57 2e bd d9 78 a7 3d f8 a5 f6 bd
       0.01875342 -0.04256368 0.08177347 -0.12043375
000020 37 a2 f6 bb 53 23 13 be 85 c6 7c bb 87 4a 3d bd
       -0.0075266617 -0.14368944 -0.0038570475 -0.046213653
000030 29 fd 00 bd 3d 5a d2 bd 5d dd 0c bd 78 a1 fe bd
       -0.031491432 -0.10271118 -0.034390796 -0.124331415
000040 65 9b fb bb c5 49 f8 bd 8b 98 80 bd 08 0a f2 bd
       -0.0076784366 -0.121234454 -0.06279095 -0.118183196
000050 fe 7d 82 3d 0d 41 de bd b3 5c a4 b9 f6 a9 4b be
       0.06371687 -0.10852251 -0.00031349584 -0.19889054
000060 f7 c4 b6 3c 73 d2 f9 3b 27 d6 7d 3d 77 a5 5e bd
       0.022310717 0.0076239645 0.06197181 -0.05435702
000070 6d 55 ad bc 32 9d fc bc 69 9a 84 bc 61 9b 58 bd
       -0.021158898 -0.030836675 -0.01618691 -0.052882556
000080 3c 94 c2 3d 4e 75 44 bd 37 76 12 3d 84 61 ac bc
       0.0950093 -0.047963433 0.03575727 -0.021042593
000090 3f e1 ca 3b 06 e9 18 bc 09 17 53 3c e1 be 8b 3b
       0.006191402 -0.009332901 0.01288391 0.004264698
0000a0 af 49 31 bd c1 ce 05 3e db 7c 6b bd ff 9d 4c 3d
       -0.04328316 0.13067152 -0.05749212 0.049955364
0000b0 5c 69 7a 3d 73 9c c8 bd 43 3a 2d bd 7d 66 d0 bd
       0.061135635 -0.09795465 -0.04229189 -0.10175798
0000c0 e6 12 01 3d 4c 06 3b 3d 58 c2 5c bd bc a2 31 3e
       0.031512164 0.045660302 -0.05389628 0.17347234
0000d0 8a 32 2a bd 44 3c a0 3d 36 30 80 3d dc 64 95 bd
       -0.041552104 0.07823995 0.062591955 -0.07294628
0000e0 32 2a fe 3d c2 76 44 3d 1d 85 d3 bd 5f 0c ad 3d
       0.12410392 0.04796482 -0.10328124 0.08449625
0000f0 59 ee 93 be d6 4c bc bd 48 40 03 3d b4 55 33 3e
       -0.28892782 -0.09194343 0.032043725 0.17513162
000100 0e 95 7a 3e 3f b0 1c 3d de dd c9 3d ef 12 09 3e
       0.24470922 0.03825402 0.09856771 0.13386129
000110 d4 b0 b5 3b 00 64 64 3d 1c 69 2a be 3c 2b f7 3d
       0.005544761 0.05575943 -0.16641659 0.12068793
000120 14 d1 b7 3d 9d ea 76 3b 24 fd db 3c 17 f1 14 3d
       0.08975425 0.0037676462 0.026854105 0.036362734
000130 2e d2 f4 3d 35 96 62 3d b0 e8 80 3c b0 b9 7e bd
       0.11954151 0.05531903 0.015735954 -0.062188804
000140 c7 3e 28 b9 e2 27 37 bd 86 c7 bc bd 9d 8d 23 3d
       -0.00016045115 -0.04471577 -0.092177436 0.039929975
000150 35 f4 96 3c c0 91 55 bd 2c 55 2f bd 18 40 c0 3d
       0.018426994 -0.05214095 -0.042805836 0.09387225
000160 a4 0d 81 3c f0 f5 65 be 31 1f 83 bd b9 06 d8 3c
       0.015753575 -0.22457099 -0.06402434 0.026370393
000170 cb d6 69 3c 16 4e ec 3c 7e 27 af bd b9 92 1b 3c
       0.014272402 0.028845828 -0.085524544 0.009495431
000180 53 5c 0d be 50 df 0a be 14 11 15 3b 37 cf 76 3d
       -0.1380475 -0.1356175 0.0022745775 0.06025621
000190 47 2b 8e 3d c0 58 56 bc ef 4e dc bd 89 6f ba bd
       0.06941848 -0.013082683 -0.10757243 -0.09103305
0001a0 b8 2b af bd 48 50 32 3c b5 f3 1d 3d b5 8b ac 3c
       -0.085532606 0.010883398 0.038562495 0.021062711
0001b0 6a 21 1b bd 1e e3 2b 3d dd 0d f3 3c b8 9c 77 3c
       -0.037873663 0.041964643 0.029669696 0.015113048
0001c0 a6 47 13 3d 5f 79 df 3c 8d cb e8 bb ce 98 ba bd
       0.035957 0.027279554 -0.0071043433 -0.091111764
0001d0 08 26 a5 3d b0 5e 64 bd f6 a5 00 bd 3f ff 3b 3d
       0.080638945 -0.055754364 -0.031408273 0.04589772
0001e0 18 c1 c6 bd 03 23 0a be 59 ce 93 bd 75 20 61 bd
       -0.097047985 -0.13489918 -0.07217092 -0.054962594
0001f0 f6 ba 07 3d 0e 20 fd 3d cf 9c 8c bd cb 7d 53 3c
       0.033137284 0.123596296 -0.06865846 0.012908409
000200 52 75 45 3d 87 d2 00 be 06 8a 9b bd 45 25 02 3d
       0.04820759 -0.1258031 -0.07594685 0.031773824
000210 dd 84 c0 3d 84 93 0e 3b 84 f2 be bd 58 9b 47 3d
       0.09400342 0.0021755407 -0.093236 0.04873213
000220 26 89 8b bc 57 05 42 3c 69 f8 8d 3d 40 a9 ca 3d
       -0.01703317 0.011842093 0.06932146 0.09895563
000230 e8 f3 93 3d 3b 07 65 bd f4 72 82 bc 60 b2 af 3c
       0.07224256 -0.0559151 -0.015923955 0.02144736
000240 e2 48 48 3d d8 ce b4 bd e3 ac 0d 3d c0 13 75 3d
       0.04889763 -0.08828515 0.034588706 0.05983329
000250 52 d0 c3 bd 5e 7e 11 3e de 1e 36 be c1 5d 6e be
       -0.09561218 0.14208362 -0.17785212 -0.23277952
000260 1f fb 16 be 12 10 e1 bc fe 64 af 3d 52 df 24 be
       -0.14744233 -0.027473483 0.085641846 -0.16100815
000270 64 ab ff bb 45 8d e2 3c 82 18 72 3c 3b c6 e1 bc
       -0.007802414 0.027655253 0.014776351 -0.027560344
000280 2f 1d 52 3d 7d 2e 62 be f9 06 b7 bc 77 7e 9f 3d
       0.051297363 -0.22088046 -0.022342192 0.07787793
000290 71 be 35 3d 6b 1c 5f bc 16 84 08 be 49 6b 06 3d
       0.044371072 -0.013617615 -0.13331637 0.03281716
0002a0 32 2a 05 3e c4 c4 13 3d dd cd ab bd 25 ef bb 3c
       0.13004377 0.036076322 -0.08388875 0.022941181
0002b0 bf c1 b5 bd 4b 3b 43 bd f5 bd a2 3d e9 6f d1 bd
       -0.08874845 -0.047663968 0.07946388 -0.10226423
0002c0 a1 3c 66 3d 82 7c 3a 3d 36 89 7e bd d3 17 fe 3b
       0.056210164 0.045528896 -0.062142573 0.007754305
0002d0 bf 6a 0d 3e 1c 53 e1 bc 3d 87 43 3c b8 ed 02 bd
       0.13810252 -0.02750545 0.011934099 -0.031964988
0002e0 38 c0 36 be d9 c0 f8 3d a9 85 7a 3d 62 ac af 3d
       -0.17846763 0.12146158 0.061162625 0.08577801
0002f0 c4 98 e8 bd 7d 9f 42 3c c5 a3 6a bd e7 93 fc 3a
       -0.11357263 0.011878845 -0.05728509 0.0019270153
000300 72 10 f1 bd fc 04 18 bc e7 bc 7c 3d f9 64 16 3e
       -0.11770715 -0.009278532 0.06170359 0.14686956
000310 f0 e5 0d 3e d3 b0 c9 bc 2a 16 2d 3d 66 70 f4 bd
       0.13857245 -0.02462045 0.042257465 -0.11935501
000320 af 1c 38 3c 3b 92 32 3d c5 d5 38 3d ab bf 20 bd
       0.011237307 0.043596487 0.04512574 -0.03924529
000330 c4 ba 77 3c 8e c0 02 be 5a 6e 17 bd 25 98 f2 3d
       0.015120212 -0.12768766 -0.036970474 0.118454255
000340 49 ee 8a 3d 90 81 6d 3d e9 e7 85 bd fd 29 7e 3d
       0.067837305 0.05798489 -0.06538374 0.062051762
000350 d6 ca af bc 3a c6 90 bd 8a 5e 65 3d dd 6e 30 bd
       -0.021459024 -0.07069059 0.055998363 -0.043074477
000360 08 2c 30 bc 15 10 cc 3d d4 96 c2 3d da d8 2a be
       -0.010752685 0.09964005 0.095014244 -0.16684285
000370 49 47 78 3d f3 9f 4f 3d 43 e5 10 bd 36 a4 1c 3d
       0.060614858 0.05068965 -0.03537489 0.03824254
000380 1f 56 2f 3d 1b 00 46 bd 3d ea f0 bc e9 00 0e 3e
       0.04280674 -0.048339944 -0.029408569 0.13867535
000390 2a b0 82 b9 6f 90 6d 3d e2 8b 92 bd af 5a 03 3e
       -0.00024926785 0.05799907 -0.07155587 0.12827562
0003a0 fc 88 ed 3d be b6 40 3c 3d 0c bb bc 0f a8 76 be
       0.11598393 0.011762319 -0.022832984 -0.24087547
0003b0 6f a2 b5 3d fa c4 a5 bd 1e d9 d2 bd df 0e 2a 3e
       0.088688724 -0.08094211 -0.10295318 0.16607235
0003c0 22 52 5e be 37 c1 69 3e 29 b3 24 3e 34 c4 c9 3d
       -0.21711019 0.22827612 0.16083969 0.09851876
0003d0 53 a7 07 be 01 cc c1 3d db 94 b6 3d 3c df 3d 3e
       -0.13247423 0.09462739 0.08915111 0.18542188
0003e0 dc 12 83 3d b6 de 2b 3d dd d0 06 be e9 b7 7c bd
       0.064000815 0.04196044 -0.13165613 -0.061698828
0003f0 e5 f2 8d 3d a6 d7 a6 3d 3c 9b 09 3e ff 53 34 bd
       0.06931094 0.081466004 0.13438123 -0.044025417

network_body._body_endoder.seq_layers.0.bias f4 [128]
000000 8b 97 30 3a 27 9b 93 bb 4e 82 c0 ba 72 00 79 bb
       0.0006736449 -0.0045045796 -0.0014687271 -0.003799465
000010 89 d6 71 bb b4 06 ae bb 17 bc f1 bb c2 23 f8 3b
       -0.0036901555 -0.0053108577 -0.0073771584 0.007572622
000020 11 05 e9 3a 6a ed 70 bb 9c cb 56 ba 14 a7 2e 3c
       0.0017777999 -0.0036762604 -0.00081937923 0.010659952
000030 3c 4a 39 bb c2 21 41 ba 4f 98 06 3c bb db 6c bb
       -0.0028273007 -0.0007367396 0.008215024 -0.0036141712
000040 a9 fb 85 38 ef a1 90 ba bf 55 ad bb ac 91 3d bb
       6.3888096e-05 -0.0011034588 -0.0052897627 -0.0028925939
000050 da e3 0e 3c fa 84 36 bb 81 54 19 bb cc 87 cc ba
       0.008721316 -0.0027850256 -0.0023396316 -0.0015604435
000060 cc 5a 73 3b 9b f3 6b 3b fe f1 1a bb fd d2 f4 3a
       0.0037132977 0.0036003354 -0.0023642774 0.0018678602
000070 f2 7f bb 3b b7 56 78 ba 7a de 50 3b 1d 2a 62 3a
       0.0057220394 -0.0009473371 0.0031870888 0.0008627491
000080 7f 83 47 3a e5 c1 94 ba 02 0d b1 ba b2 b4 b8 bb
       0.0007610842 -0.0011349289 -0.0013507905 -0.005636775
000090 e9 1b be bb 12 d9 85 bb 5d 5e f8 3b 41 06 6c bb
       -0.005801667 -0.0040847147 0.0075796084 -0.003601447
0000a0 d9 65 61 b9 87 c9 65 bb d0 bd 59 3b 1d 61 16 3c
       -0.00021495613 -0.0035062747 0.003322471 0.009178427
0000b0 41 14 cb b8 9a 7e 93 bb 52 c6 2b bc 87 59 63 3b
       -9.683567e-05 -0.004501176 -0.010484295 0.0034690814
0000c0 bf f0 4c 3c f7 00 a6 3b b8 f7 c7 b9 b4 9b a4 ba
       0.01250857 0.005066033 -0.00038140803 -0.001255861
0000d0 17 d1 d0 3b d4 16 51 3b d9 76 52 3c 5f 44 2a 3b
       0.0063725817 0.0031904476 0.012845718 0.0025980694
0000e0 5f f7 1f 3c 0e 8f 2c bb 2e da c2 3a 03 ad 8d ba
       0.009763568 -0.0026330384 0.0014866048 -0.0010809008
0000f0 1a 66 3c 3a db 0f b3 39 45 60 84 3b 1e 43 bc 3a
       0.0007186845 0.00034153354 0.0040397965 0.0014363264
000100 b9 36 b8 bb c9 5e e7 bb f7 2d 5d 3a f6 95 7f bb
       -0.005621758 -0.00706086 0.000843733 -0.0038999296
000110 f0 41 92 3a 73 f9 13 3c 89 87 b9 bb d7 23 c1 bb
       0.0011158567 0.009031641 -0.005661909 -0.005894165
000120 8d 46 59 ba 09 29 ae 3a 0f 7a df 39 c9 ba 07 bb
       -0.0008288406 0.0013287376 0.00042624815 -0.0020710698
000130 61 34 cf bb e1 78 13 ba e0 8a 9e b9 1b 8f e1 3b
       -0.0063233827 -0.00056256173 -0.00030239578 0.0068835146
000140 cd f0 27 3c 4b a3 af bb e6 99 c9 ba b5 29 c7 3b
       0.0102502825 -0.005360042 -0.0015380948 0.00607797
000150 e7 11 8f 3b a9 c9 29 bb 9c 24 d4 3b 01 80 82 3b
       0.004366148 -0.0025907552 0.0064740907 0.0039825444
000160 6f 56 95 ba 43 ad af 3b 2a c7 de bb ce 42 9e bb
       -0.0011393557 0.0053612306 -0.0067986446 -0.004829741
000170 36 fa 50 bb a1 ac b1 39 ec fe 75 39 a1 4b 21 3b
       -0.0031887419 0.0003388869 0.00023459987 0.0024611729
000180 41 15 b7 ba d3 98 af 39 77 e3 8c bb 7e a9 84 3b
       -0.0013968126 0.00033492464 -0.004299577 0.0040485254
000190 63 37 8f 3a 1c f1 e0 bb ef 6c 8e 3c f1 ea e0 ba
       0.0010926541 -0.00686468 0.017385928 -0.0017159862
0001a0 f9 bd 80 3b fc e5 54 3a 63 5d e5 bb 88 18 19 3c
       0.0039288965 0.00081214285 -0.006999658 0.009344228
0001b0 8b 00 01 3c 6e 8e 1f 3b 25 53 29 bb bc ad 89 3b
       0.007873665 0.002434637 -0.0025836912 0.004201619
0001c0 71 1a b9 bb d7 6c 3b ba b8 46 99 39 90 ea ce 3b
       -0.005648904 -0.0007149702 0.00029235124 0.006314583
0001d0 63 30 c2 3a 00 11 bc b9 59 8a a6 bb fb d2 db ba
       0.0014815446 -0.0003587082 -0.0050824103 -0.0016771251
0001e0 25 45 87 3c 32 86 4a b8 d0 af 2e 3b cf f4 d2 ba
       0.016512463 -4.8285532e-05 0.0026655085 -0.0016094687
0001f0 e2 56 b7 bb 86 ff e1 b9 92 82 63 bb 82 0e 3c bb
       -0.005595074 -0.00043105724 -0.0034715277 -0.002869517

network_body._body_endoder.seq_layers.2.weight f4 [128, 128]
000000 89 d2 8b 3c 44 46 5e be 19 ce 37 be 7f 66 90 bd
       0.017068164 -0.21706492 -0.17949714 -0.070507996
000010 6c 80 f3 3d cb 13 97 bd 08 e7 b3 bd 0d ef 7a bd
       0.11889729 -0.07376822 -0.087843 -0.061263133
000020 52 1b 98 bc 6f b0 e9 bd f5 7e e8 bc 18 b8 95 bd
       -0.018567715 -0.11410605 -0.02838085 -0.07310504
000030 24 ae a9 3a d0 33 d0 bc 37 cf b4 3c fc 51 f8 3c
       0.0012945575 -0.025415331 0.022071464 0.03031253
000040 8b f7 b0 3d d9 49 7d bd e2 d1 18 3e fb 3c 01 3d
       0.08640965 -0.061838005 0.14923814 0.031552296
000050 7d 87 80 bd 7a bd c4 3b 40 4d 12 3e 6d 11 b2 ba
       -0.06275842 0.0060040327 0.14287281 -0.0013585516
000060 dc cc db bb 1b f7 14 3b ef b3 1a 3e b1 3c 29 3d
       -0.0067077707 0.0022730294 0.15107702 0.041317645
000070 7e ad b3 bb 49 58 7c 3d a0 02 af bc dc a7 f3 bd
       -0.0054833284 0.061607633 -0.021363556 -0.11897251
000080 39 5f a4 3d a7 05 f7 3c 96 1d f4 3d 7e 23 88 bd
       0.08025975 0.030154062 0.119197056 -0.066473946
000090 2c 17 51 bd 26 4f 4a 3d 71 89 51 3d ad e0 9a 3d
       -0.05104749 0.049391888 0.051156465 0.07562385
0000a0 4e ce 34 3e 6b 83 0c be 6f f0 87 bc 98 30 1a 3d
       0.17656824 -0.13722007 -0.01659414 0.037644
0000b0 6f 0a 19 3c 5a 08 d9 bd 78 27 00 3d 0f 2a 14 bb
       0.0093408665 -0.10597296 0.03128764 -0.0022608077
0000c0 99 d5 d9 bd 3a 40 d3 3d 10 12 8b bd cf 5e 61 3d
       -0.10636444 0.103149846 -0.067905545 0.055022057
0000d0 5d 55 de bc 3a d6 e9 bd 45 5f e8 3d ab 8d fb bd
       -0.027140314 -0.114178136 0.11346296 -0.122828804
0000e0 42 67 c9 3d 3d 2b 11 be 14 e8 f6 bc e3 8f 6f 3d
       0.09834148 -0.1417665 -0.03013996 0.05848683
0000f0 b1 ec 08 be 22 e1 c5 3c b6 cd cb 3d 0e bb ac 3d
       -0.1337154 0.024155203 0.099513456 0.08434115
000100 66 65 a4 bd 97 25 c9 3d 63 14 d9 bd 18 f7 20 be
       -0.08027153 0.09821623 -0.105995916 -0.15719259
000110 88 35 07 be dd f8 c8 bd 4e 74 33 be b8 08 f0 bd
       -0.13204014 -0.09813092 -0.17524835 -0.11720413
000120 0c bd d3 bd b4 78 14 3e 93 15 cb bb 76 69 24 3e
       -0.10338792 0.1449917 -0.00619764 0.16055855
000130 34 d0 c9 bb 83 48 a2 bd 4d 77 58 bd 5c 58 69 3b
       -0.006158853 -0.07923987 -0.05284815 0.0035605645
000140 4a 33 89 3b 1f 17 d6 bd 27 fd a0 3d 75 2d 75 3d
       0.0041870223 -0.10453629 0.07860785 0.059857804
000150 26 04 a2 3d 7a c1 d6 3c f0 07 f7 3d 5b bc 75 3d
       0.079109475 0.026215304 0.12062061 0.059994083
000160 e5 a6 d2 3b c5 f0 f6 bb 91 3b 34 3e 11 52 a3 3c
       0.006428587 -0.007536026 0.17600848 0.019936593
000170 d3 48 ad 3d 17 ac da 3c de 8b e9 3c 1a 58 7d bd
       0.08461156 0.026693387 0.028509077 -0.0618516
000180 70 b1 02 3d 36 20 93 bd b7 0b d9 bd a1 0c ec 3d
       0.0319075 -0.07183878 -0.105979376 0.11525846
000190 d1 4b a4 3c 22 12 10 3d ee 0d 29 bd 1c 37 55 3d
       0.020055683 0.035173543 -0.04127305 0.05205451
0001a0 ee 59 93 bd 41 d6 a1 3d 82 64 02 be e0 83 96 bd
       -0.07194887 0.07902194 -0.12733653 -0.07349372
0001b0 84 6c 21 bd a5 14 1a be 59 5c 7a 3d f4 37 b8 3d
       -0.03941013 -0.15046938 0.061123226 0.08995047
0001c0 7b 86 4a 3d af 17 3e bd ad dd 32 3d c1 c9 04 3c
       0.049444657 -0.046409305 0.043668438 0.0081047425
0001d0 92 d9 ec bd ed 3f b8 3d ad 4f 13 3d 8f 9d 87 bd
       -0.11564936 0.08996568 0.035964657 -0.06621849
0001e0 10 93 84 bd 65 5c 50 be 97 d1 d7 3c fd c7 35 3d
       -0.064733624 -0.20347746 0.026345057 0.044380177
0001f0 df cc 7d 3c c3 57 3e 3d 35 9e 73 3e 74 29 c0 3d
       0.01549074 0.046470415 0.2379082 0.093829066
000200 56 a9 87 3e e0 c0 7a bc d4 d5 0e be 27 f3 2c 3e
       0.2649638 -0.015304774 -0.13948756 0.1688963
000210 ae 0a 0d bd 98 cf aa bd 6a 56 e2 bd 4d b9 e7 3d
       -0.034434013 -0.083403766 -0.110516384 0.1131464
000220 42 2e 34 bc cb f1 fa bd 2b 7c d0 bc 86 1b bc bd
       -0.010997357 -0.122531496 -0.025449833 -0.09184937
000230 38 6e 97 bd c8 82 bd bd ef fe db bc 2e 99 46 bd
       -0.073940694 -0.0925346 -0.02685496 -0.048485927
000240 2b 5f ef 3d 0b 4b 86 bd 91 74 6e 3d 29 63 69 bd
       0.11688074 -0.06557282 0.058216635 -0.056979332
000250 0d d1 3d 3d 17 0e a0 bc 8c 2b 83 bd f9 70 ac 3d
       0.046341944 -0.019537969 -0.0640479 0.08419985
000260 3e 50 11 bc f3 86 76 3c 8a 1e d3 bd b2 a7 64 3c
       -0.008869229 0.015046823 -0.10308559 0.013955997
000270 98 51 ca 3d 01 a1 58 3d 61 f0 ac bd d0 1e a4 3d
       0.09878844 0.05288792 -0.08444286 0.080136895
000280 fb 6b a5 3d 8d 2b 19 bd c5 bc 32 3e f0 2b db bb
       0.08077236 -0.03739505 0.17454822 -0.0066885874
000290 62 12 9f 3d 77 30 ad bd 77 62 ac 3d 6e cd c2 3c
       0.07767178 -0.084565096 0.08417218 0.023779597
0002a0 2a 45 9e bd 81 b5 a1 bd e2 2c e4 bc 7b fd 9f 3c
       -0.07728036 -0.07895947 -0.027853433 0.019530049
0002b0 aa 41 6e 3d 9d 3a b3 bd dd 77 21 be 40 af 83 3d
       0.05816809 -0.08751414 -0.1576838 0.06429911
0002c0 9d 39 c2 3d dc e6 21 bc ad dc 2b bd 17 3e 26 be
       0.09483645 -0.009881701 -0.0419585 -0.16234623
0002d0 3a cf bf 3d 83 d2 31 be 59 69 17 3c d3 cc 75 3d
       0.09365697 -0.1736546 0.009241425 0.06000979
0002e0 61 cc 40 bd df f5 9d 3c cb 37 34 bd d4 7b 5e 3d
       -0.04706991 0.01928228 -0.04399852 0.05431731
0002f0 94 68 3b bc bd 2f 11 3e df 4e 69 bd 0f 33 76 3c
       -0.011438508 0.14178367 -0.056959983 0.015026822
000300 50 f1 ab 39 24 bb 64 bd 10 00 ff 3b bd 9e cb 3d
       0.00032795453 -0.055842534 0.00778199 0.09942386
000310 31 c4 42 be ff 89 05 be b0 e3 a3 bd 32 84 13 be
       -0.19020154 -0.13040923 -0.08002412 -0.14405897
000320 9f 9f 2e 3d d7 d7 94 3d 47 cc 42 3e 03 8f 63 bd
       0.042632695 0.07267731 0.19023238 -0.05555631
000330 07 0c b2 bd 56 e5 c6 3d 69 6f 02 3e 26 53 c1 3d
       -0.086937 0.09711711 0.12737812 0.094396874
000340 4b ad 96 bd c2 6c f3 bd 64 11 0a be 85 4e 2c be
       -0.07357272 -0.11885978 -0.13483196 -0.16826828
000350 56 15 a8 bc 64 d6 84 3d 82 c1 fe bd 0f 8b bc bc
       -0.020517986 0.06486204 -0.124392524 -0.023015527
000360 2b 34 2b bd 60 db c8 3d b7 22 3b bd 4d c9 bc 3c
       -0.041797798 0.098074675 -0.045687404 0.023045206
000370 8e 0a 27 3c 2a 16 ed 3d 91 30 6d bc 0a 64 3f 3e
       0.0101953875 0.11576493 -0.014476911 0.18690506
000380 ec 00 25 bc d4 08 41 3d 99 d1 96 bc 4e 1d e4 3b
       -0.010071021 0.04712756 -0.01841049 0.006961501
000390 05 af 69 3e 4f 04 0f bd 39 5f be 3c 24 ac 48 bd
       0.22820671 -0.03491622 0.023238765 -0.04899229
0003a0 11 a1 ca 3d 41 69 05 3e 23 10 ec 3c c2 6b 82 3d
       0.09894002 0.13028432 0.028816288 0.063682094
0003b0 d8 1d a1 bd 50 bb 73 bd 89 ad 5a be ab bd dc 3c
       -0.0786702 -0.059504807 -0.21355261 0.02694591
0003c0 a7 22 e0 bd 34 9c 76 bd a8 c6 18 bd 11 27 3e bc
       -0.109441094 -0.06020756 -0.03729883 -0.011605994
0003d0 d9 d7 c6 3d cd 89 4e be ed f0 cf bd 64 97 c1 3c
       0.097091384 -0.20169754 -0.10153375 0.023631759
0003e0 0e 44 e0 3d f5 d0 dc bd a6 2e 0e 3e 9b 8e ca bb
       0.109504804 -0.10782043 0.13884982 -0.0061815507
0003f0 aa ef ff 3d 62 ae e4 bc cc b1 89 bd 68 c4 5c bd
       0.12496884 -0.027915183 -0.06723365 -0.053898245

network_body._body_endoder.seq_layers.2.bias f4 [128]
000000 78 da a9 bb ed 2a b8 3b ab 6b f9 bb 9d b9 da bb
       -0.005183514 0.0056203515 -0.007611712 -0.006674959
000010 55 42 8e b8 a3 c6 23 bb 95 3d c2 bb 3b 46 db bb
       -6.783443e-05 -0.0024990223 -0.0059277513 -0.0066917217
000020 8f 99 7b 3b 0c f1 73 3b 91 a4 04 bb ed b1 4c bb
       0.0038391089 0.0037222533 -0.002023969 -0.0031233982
000030 16 51 2d ba 54 8f 01 ba 4e b9 da bb 74 e0 e1 3b
       -0.0006611509 -0.0004942317 -0.006674922 0.006893212
000040 cb 72 bc 3b cb 13 1c 3b 52 39 67 ba 22 13 c6 bb
       0.005750989 0.0023815508 -0.0008820492 -0.0060447613
000050 e0 bf b5 3b bf 16 13 bb 13 db ee 3a a8 fb 97 3b
       0.005546555 -0.0022443978 0.0018223248 0.004638154
000060 b2 ff 2c ba e4 80 b3 bb be 89 d1 ba e4 32 b4 3b
       -0.0006599381 -0.0054780114 -0.0015986485 0.0054992307
000070 70 8d cb 3b f6 73 01 bc e9 17 19 3c 92 d1 c1 bb
       0.006211929 -0.007901182 0.0093440795 -0.0059148753
000080 5b 3c e0 bb 39 fb c1 3b d2 e9 a0 3b 70 84 c0 3b
       -0.0068431324 0.0059198407 0.004910686 0.005875163
000090 e0 9f 57 3a 8f 99 2b 3c 17 ee a2 bb 76 3e 51 3b
       0.00082254224 0.010473623 -0.00497223 0.0031928099
0000a0 52 5f 80 3b 81 0e 6d ba 88 2c 28 ba e0 25 ed 39
       0.003917613 -0.0009042994 -0.0006415327 0.00045232382
0000b0 2f af 2a b9 7c 7c 98 3b aa 96 8c bb e0 65 ad bb
       -0.00016277724 0.0046535116 -0.0042904215 -0.0052916855
0000c0 61 3c df b9 a9 ee e0 bb 2d 1f 4f bb 00 0f 41 3b
       -0.0004257886 -0.006864388 -0.0031604276 0.0029458404
0000d0 95 ae 4b bb 2f 97 9a bb d5 e2 32 3c 2d 6a 6d ba
       -0.00310794 -0.0047177295 0.010918339 -0.0009056654
0000e0 2c d2 13 3c 53 52 4c 3b 8f b2 eb ba fa 5d b0 3b
       0.009022277 0.0031176999 -0.0017982292 0.0053822966
0000f0 e9 45 7a 3b 6d 82 06 bc 14 cc c6 3b e5 ea 31 3b
       0.0038188642 -0.008209807 0.0060668085 0.0027148065
000100 2f 86 6d ba ec c9 ef 3b 8a 49 ed ba 71 5c 87 3b
       -0.00090608274 0.007317772 -0.0018103581 0.004130893
000110 6a ed 86 3b a9 f1 fa ba d6 31 1c 3c a9 73 02 3b
       0.0041176574 -0.0019145507 0.009533366 0.0019905365
000120 ae 1d 68 3b 9b 05 5a 39 64 09 dd ba 5b e7 74 39
       0.003541808 0.00020792188 -0.001686376 0.0002335584
000130 b1 4e fd bb a0 03 00 bc 22 fc 87 bb 67 d8 1f 3c
       -0.007730328 -0.007813364 -0.0041499296 0.009756184
000140 c1 68 76 bb f2 b7 98 bb 56 68 5e 3b 60 2b c8 3b
       -0.003759906 -0.0046606 0.00339367 0.0061086863
000150 eb 57 c3 b9 7d 08 2d 3a b5 d6 80 bb f9 df 79 bb
       -0.00037258802 0.0006600691 -0.003931845 -0.0038127883
000160 a5 bb 8e bb 5a 8a 69 3b a0 b6 4d ba 2c 87 46 ba
       -0.004355865 0.0035635442 -0.00078473426 -0.0007573243
000170 49 eb 4e 3a d0 ad c0 bb b9 d3 15 3c 24 4d a2 bb
       0.00078933366 -0.005880095 0.009144717 -0.0049530435
000180 ba a8 99 ba a1 0b db bb 12 ca 5e bb 8f 3d 22 bb
       -0.0011723258 -0.006684736 -0.0033994955 -0.002475593
000190 c1 3e ba bb 94 6f ef 3a aa 24 a0 3b 4d ec 49 bb
       -0.0056837504 0.0018267506 0.004887183 -0.0030811012
0001a0 e6 33 63 bb 8c 40 16 bb 1c 33 60 bb 61 83 ac 3a
       -0.0034668385 -0.0022926657 -0.003421015 0.0013161713
0001b0 1a 79 52 bb 28 5c d4 3b 60 86 00 bc 42 c2 13 3c
       -0.003211564 0.0064807124 -0.0078445375 0.009018483
0001c0 2c 3b 8a ba ca 71 d1 3b 81 f2 22 3c a4 ab 8a bb
       -0.0010546199 0.0063917385 0.009945513 -0.004231887
0001d0 42 85 de bb 1a bb 6b 3b 99 ba 4a 3b 8a 70 aa 3a
       -0.006790788 0.0035969676 0.0030933975 0.001300351
0001e0 80 a8 a1 3a 22 38 f5 ba bc e6 cb bb 1f 93 92 3b
       0.0012333542 -0.0018708745 -0.006222574 0.0044731046
0001f0 9e f3 de bb e8 02 a2 bb de b2 18 ba f8 38 38 3c
       -0.006803944 -0.004944194 -0.0005824993 0.011244051

network_body._body_endoder.seq_layers.4.weight f4 [128, 128]
000000 8d cf 48 bd 9c dd f4 bd a7 8f c0 3d 0a 9c 09 3e
       -0.04902606 -0.11956331 0.094023995 0.1343843
000010 2d bc 2d 3e aa 80 2e 3c 33 c1 83 3b d5 47 94 bd
       0.16966315 0.010650793 0.004020834 -0.072402634
000020 f5 29 1c 3d ab af ad bc 80 86 49 3e 43 ea 3e bd
       0.03812595 -0.02120193 0.19680214 -0.046610128
000030 83 a5 2a be d5 ef e8 3c f5 1d af 3d fd e4 84 3d
       -0.166647 0.028434673 0.08550636 0.064889885
000040 36 c2 b4 3d d3 97 91 bd 7a be 95 bc 04 73 b3 3c
       0.08826105 -0.07109036 -0.018279303 0.02190543
000050 8b 13 77 be 32 fd 06 3e da cd 4e 3d 3b d5 ad 3d
       -0.24128549 0.13182524 0.050489284 0.08487936
000060 90 ff 41 3d 0a cb d3 3b cb 7e bf bc 0b 7a 1b be
       0.047362864 0.006463413 -0.02337589 -0.15183274
000070 7c d6 bc bd b6 ec 84 bd 94 01 99 3c a9 85 bd 3d
       -0.09220597 -0.064904615 0.01867751 0.09254009
000080 7b 6c 07 3e 60 cc a1 3d 4f 2f 79 3c 93 10 c3 3d
       0.13224976 0.079003096 0.015209033 0.09524646
000090 ee 95 32 3e e6 13 cd 3d d5 97 c6 3b 55 da 1c 3d
       0.17440006 0.10013561 0.0060605803 0.038294155
0000a0 9b 4a 84 3d 5a 65 e3 bd fb 6c 40 3d 7a 9c aa bc
       0.06459542 -0.11103316 0.046978932 -0.020826567
0000b0 69 1b d5 bd 5f 9c bb bc d1 8f 3f bd 82 4b eb 3d
       -0.10405619 -0.022901712 -0.046768013 0.11489011
0000c0 76 34 86 3d 81 39 97 3d 5f 5f 65 bd 32 12 8e bd
       0.06552975 0.07384015 -0.055999156 -0.06937064
0000d0 23 1b 22 bd 40 5e ac 3d 00 f2 1d 3a 1a cd 1b 3a
       -0.03957666 0.08416414 0.00060251355 0.0005943343
0000e0 71 49 f7 3c 5e 20 22 3e 33 af 45 3d b4 c5 f1 bd
       0.030186387 0.1583266 0.048262786 -0.11805287
0000f0 6c b3 3c bd f0 ef 16 3e 04 eb ac bc 82 b0 da bd
       -0.046069548 0.14739966 -0.021108158 -0.106781974
000100 1b 01 19 3e ee 1c 58 3d 2b 6e 7f 3d 73 c9 a2 3d
       0.14941828 0.052761964 0.062360924 0.0794858
000110 3f 21 6b be e4 02 f9 bd c9 f9 37 3d 0a b6 ec 3d
       -0.22961901 -0.121587545 0.044915948 0.11558159
000120 0b 45 5e 3d 2c 5a 5e 3d 6b cc 13 3e 88 e8 7f 3d
       0.054265063 0.054285213 0.14433448 0.06247762
000130 b0 a4 40 bc 3c 00 44 3e 0d ba cf 3d 5c a4 a8 bb
       -0.011758015 0.19140714 0.10142908 -0.0051465463
000140 53 30 76 bc ab e5 98 3d f1 6c b3 bc 5b 13 08 3b
       -0.01502617 0.07465681 -0.021902533 0.002076349
000150 90 6f ea 3d 38 00 3e 3d df b9 21 3e fd bf e5 bc
       0.1144706 0.046386927 0.1579356 -0.028045649
000160 43 e9 58 3e d0 d5 f5 bd 67 e6 97 3d b8 f2 20 bc
       0.21182732 -0.12003672 0.07416993 -0.009823494
000170 fd 4d 50 bd 6f ef 81 3d 9e d6 56 3d f2 67 13 3e
       -0.050855625 0.063444965 0.05245077 0.1439512
000180 b3 34 d9 bd d7 9b d1 3c 9f f6 b9 bd 6b 5c d8 bd
       -0.10605755 0.025587006 -0.09080242 -0.10564502
000190 d3 7a b2 bc 9d 71 03 3e 31 15 ef bc f8 ce b0 bc
       -0.021787083 0.12836309 -0.02918491 -0.021583065
0001a0 5b 97 53 bd be ca 5c 3d 5e da b7 bd 5b e4 74 bd
       -0.051658016 0.053904288 -0.08977197 -0.05978809
0001b0 b8 97 8f 3d 77 b0 a9 3c e1 f9 45 3c e6 7f d1 bd
       0.0701136 0.020714028 0.012083502 -0.10229473
0001c0 10 a9 c9 3a 1d ef 56 3d b3 57 02 3d 7a 65 18 3e
       0.0015385468 0.05247413 0.031821918 0.1488246
0001d0 14 08 1d 3c 9e d2 8c 3e 1e ca 19 3d b2 d6 13 bc
       0.0095844455 0.27504438 0.03754627 -0.009023355
0001e0 8d f6 ad bd 64 7e 83 bd 6e 4a 2a 3e f2 64 b2 bd
       -0.084942915 -0.064205915 0.16629955 -0.0871066
0001f0 ca 72 5e 3d 22 8e 9d 3d 9d 67 5e 3d 21 47 36 be
       0.05430869 0.07693125 0.054298032 -0.17800571
000200 56 19 f7 3d af b0 03 3d 01 8b 05 3e 10 74 05 3e
       0.12065379 0.03215092 0.13041307 0.13032556
000210 99 6f 0a 3d 82 04 1b be 3a 4b 12 bc 3a 5e 11 be
       0.033797834 -0.15138438 -0.008929068 -0.14196101
000220 0f b0 e1 bd b2 d5 e6 3d 62 82 40 3a 45 de 28 3d
       -0.11019909 0.11271228 0.00073436473 0.041227598
000230 0a d8 fb bc dd 37 24 bc 4e 51 03 bd 5e a7 18 be
       -0.030742664 -0.0100230845 -0.03205996 -0.14907596
000240 f3 b9 f2 3c c2 e5 8f bd ea e1 80 3d 18 07 ff bd
       0.029629683 -0.07026245 0.0629309 -0.12452525
000250 d2 5b 94 bd f3 ff 8b bd 45 77 52 bd 0a 9c fe bc
       -0.07244076 -0.06835928 -0.051383276 -0.031080265
000260 c4 fa b9 bd b6 2a ca 3c 99 39 c1 3d a6 4c 88 bd
       -0.09081033 0.02467857 0.09434814 -0.066552445
000270 14 50 c2 bc c7 19 2d 3d 5e 55 c1 bd c5 7b 77 bd
       -0.023719825 0.04226091 -0.094401106 -0.06042077
000280 8e 13 4a be 43 9f 29 bd 5d d8 38 bc 03 7f 09 3e
       -0.19734022 -0.04141165 -0.011282054 0.13427357
000290 f2 12 b5 3d b1 45 2b be 63 ac 2e bb b8 3f 9f bd
       0.08841504 -0.16725804 -0.0026653043 -0.07775825
0002a0 c3 7c e4 bc 2a f8 99 bd a8 d7 44 3d d8 47 33 bc
       -0.027891522 -0.07518037 0.04805723 -0.010942422
0002b0 7c 05 01 be fb 5e 42 bc 24 7d 3b 3d 08 fa 3f 3d
       -0.12599748 -0.011863465 0.04577364 0.046869308
0002c0 40 46 d0 3d e6 da b5 3d 0e eb bf 3c 60 31 74 bd
       0.10169649 0.08879642 0.023427512 -0.0596174
0002d0 23 89 af bd f2 eb 3a bd 12 06 a6 bd 39 7e 2d 3b
       -0.08571079 -0.04563517 -0.081066266 0.002647294
0002e0 18 b2 a6 3d fe f2 2f 3e 1c bf 2c bd 70 50 80 bd
       0.081394374 0.17182538 -0.042174444 -0.06265342
0002f0 72 e3 ed bd 12 7c 97 bd fe ab 9b bc f0 b7 50 3d
       -0.116156474 -0.073967114 -0.01900291 0.050956666
000300 d9 d9 53 3c 50 fe 37 be 3c a6 02 be 0c 7b 88 3c
       0.012930357 -0.17968106 -0.12758726 0.016660236
000310 2f 40 dd ba ff b8 c2 bd 0e c9 0b 3e fd 74 2a be
       -0.001688009 -0.095079415 0.13650915 -0.1664619
000320 5e ac a7 bd e5 36 77 3d cf a5 39 bd f9 ea 2c 3e
       -0.08187173 0.060355086 -0.045324143 0.1688651
000330 6e 11 fb bc 54 eb b0 bd 14 cc ad bd aa d9 0e 3e
       -0.03064796 -0.08638635 -0.084861904 0.1395022
000340 d7 fc b3 3d 70 e9 a4 bd 9d 79 00 3d a8 1a 5e be
       0.0878846 -0.08052337 0.03136598 -0.21689856
000350 3c 19 f7 3d dc e3 0c 3d 50 dd bd bd 6d f3 ad bc
       0.1206536 0.03439699 -0.09270728 -0.021234239
000360 de ff e8 bc cd e7 ae bd ed 28 9d 3d 3d da b5 3d
       -0.02844232 -0.08540306 0.076738216 0.08879516
000370 ad b3 ff 3d 47 b1 c3 3c 99 48 a3 3d 65 bd e5 3b
       0.12485442 0.023888243 0.07972831 0.007011103
000380 b3 4f a8 bd 83 dd c0 3d 61 cd fc bd 47 6f 98 bb
       -0.082183264 0.0941725 -0.123438604 -0.004651937
000390 ac 68 d9 3d bd e6 84 bd 74 63 0a be 4c 85 2f bc
       0.10615668 -0.06489322 -0.13514501 -0.010712933
0003a0 80 6f b7 bc 3a 41 ff 3d ab b2 48 bc 17 71 7f bd
       -0.022392035 0.12463613 -0.012249629 -0.06236371
0003b0 6e c3 d0 bc 02 30 1f 3d 52 19 0b 3d d4 b1 ca bd
       -0.025483813 0.038864143 0.033959694 -0.09897199
0003c0 6b 5d d8 bd 1f 6a 46 3d b5 65 4c 3d e8 d2 fe bd
       -0.10564693 0.04844105 0.049901683 -0.12442571
0003d0 f5 4b ec 3c 5b 88 c9 3d 57 7e 2d bd d9 53 b1 3c
       0.028844813 0.09840461 -0.042356815 0.021646427
0003e0 a5 ec 66 bc 49 5c 64 3d 32 7c 3d 3e 0a 5c e4 bd
       -0.014094506 0.055752072 0.18504408 -0.111503676
0003f0 3c 49 40 3c 81 c7 ba 3d ee da bf bc ef 3a de bc
       0.01173621 0.091200836 -0.023419823 -0.027127711

network_body._body_endoder.seq_layers.4.bias f4 [128]
000000 7a 65 bf bb c6 cf 17 bb ea 13 40 39 55 60 96 3b
       -0.0058409544 -0.0023164614 0.00018317965 0.0045891204
000010 18 70 c0 bb 37 05 cd ba 38 f2 81 ba 1e dc 92 ba
       -0.0058727376 -0.0015641813 -0.0009914106 -0.0011204516
000020 88 98 c4 3b 85 30 93 bb d4 c0 5f 3c 50 7f 28 bb
       0.0059996285 -0.004491868 0.013656814 -0.002571065
000030 78 02 85 3a 3a 9c 74 3b 55 34 87 3b 6c 1e 3e 39
       0.001014783 0.0037324564 0.0041261115 0.00018131145
000040 61 45 c1 bb 36 ac e6 3a dc 28 da 3b c3 fe 8c ba
       -0.005898163 0.001759893 0.006657703 -0.0010757077
000050 e2 89 be 3b ff ad 8a 3b 35 a3 f3 38 0f 5b ae 3b
       0.0058147768 0.0042321677 0.000116175426 0.0053209136
000060 6f 4f 23 3b 9f 7a 26 3c 32 2c 94 bb 48 65 1a 3c
       0.0024919172 0.010161071 -0.00452187 0.009423561
000070 f0 5b 8c 3b e5 33 20 3c 1a 48 c6 ba a0 42 da bb
       0.0042834207 0.009777998 -0.0015127689 -0.0066607744
000080 39 9f dd bb bb 9f c9 bb 76 93 d3 3a 38 de 03 bc
       -0.0067633656 -0.0061530746 0.0016141969 -0.008048587
000090 23 70 3a 3b 19 0f 34 ba 50 d5 90 3a a3 92 79 bb
       0.0028448186 -0.0006868705 0.00110499 -0.0038081787
0000a0 89 89 97 bb f7 59 dc bb 58 0a af 3a 27 9e a5 bb
       -0.0046245498 -0.006724592 0.0013354523 -0.0050542536
0000b0 06 77 ba 3b 78 b7 23 3c 12 83 b3 3a 9a c1 a9 bb
       0.005690458 0.009992473 0.0013695678 -0.00518055
0000c0 53 25 68 38 18 51 5d 39 ec 88 7d ba 46 e8 bd 3a
       5.534787e-05 0.00021106412 -0.0009671587 0.0014488779
0000d0 da 92 89 3b 1b 74 b3 bb 0d 62 61 ba ed 3a 29 bc
       0.0041984143 -0.0054764873 -0.00085976796 -0.01032899
0000e0 d6 b4 62 bb 5d bd 51 3a 46 2e 8d 3b 00 54 3c 3b
       -0.003459265 0.00080009346 0.0043084947 0.0028736591
0000f0 43 84 0d bb 59 0d 36 b9 1e bb cc bb e2 8d 6e 3b
       -0.0021593727 -0.00017361845 -0.006247892 0.0036400487
000100 2e 3b f7 3b 70 3e c4 bb aa 5f 19 3b d4 f2 d2 bb
       0.0075448966 -0.0059888884 0.0023402967 -0.006437639
000110 63 0b 1b bb d1 ec e7 3b c9 b5 1a 3c e8 a1 78 3b
       -0.002365791 0.0070777913 0.009442755 0.00379383
000120 f1 40 0d b9 76 0c 56 bb 47 35 d6 3b c2 ad 71 bb
       -0.00013471 -0.0032661236 0.006537113 -0.003687725
000130 46 d1 00 bb fd aa 17 bb 86 2f 15 bb f4 63 08 3b
       -0.0019655987 -0.0023142688 -0.0022763922 0.002081153
000140 db 18 0a 3c cb f9 81 3b 23 fa 34 3b d7 99 23 bb
       0.008428778 0.003966545 0.0027614913 -0.0024963522
000150 c2 1f e7 3b 63 74 54 ba 7a 8b 00 3c cf db 9e 3b
       0.0070533464 -0.0008104501 0.007845754 0.0048479806
000160 19 fe 01 3c c3 52 42 3b 50 fc e2 bb 32 ba 90 3a
       0.007934117 0.002965138 -0.0069270507 0.0011041819
000170 5a 99 70 bb b1 48 db 3b e1 5b 74 ba 0b 23 19 3c
       -0.0036712498 0.006692015 -0.00093215524 0.009346734
000180 d9 48 42 bb 27 a4 78 3b 39 e1 f1 bb 4c a0 18 bc
       -0.0029645471 0.003793964 -0.007381585 -0.0093155615
000190 a8 33 1f 3c 7c bb 25 3a 59 6b 3b 3b 93 35 e9 ba
       0.009716906 0.0006322188 0.002859792 -0.0017792456
0001a0 ce 93 1e 3c a7 78 88 3a f1 7a 87 3a f1 ae 34 bb
       0.009678794 0.0010411934 0.0010336322 -0.0027570094
0001b0 0a 57 69 bb 34 7c 10 bb 33 4c c3 37 50 fc 09 ba
       -0.0035604858 -0.0022046687 2.3281294e-05 -0.0005263733
0001c0 1f c5 58 3a f1 c8 57 bb 1d 08 7e 3a f2 50 4b 3a
       0.00082691194 -0.0032926167 0.000969054 0.0007755897
0001d0 ef ee 0f 3c 56 57 b4 bb 58 55 c9 bb 22 37 ef 3b
       0.008784994 -0.0055035753 -0.006144207 0.0073002735
0001e0 19 4a 5b bb 59 4e 07 bc 5c 2e 8e 3b cd 22 ee 3b
       -0.0033460914 -0.008258426 0.0043390226 0.007267332
0001f0 ec 9b 8e 3b 22 e6 23 3c 21 21 03 3c dd ab 9f bb
       0.0043520834 0.010003598 0.008003504 -0.0048727826

action_model._continuous_distribution.log_sigma f4 [1, 4]
000000 a5 3b b0 3c 39 03 a9 3c bc 07 ec 3b bb 9e 04 bc
       0.021512816 0.02063142 0.0072030704 -0.008094485

action_model._continuous_distribution.mu.weight f4 [4, 128]
000000 04 1c 1f bd 71 7b 4f 3a d9 32 f0 3a 0d f5 0b bc
       -0.038845077 0.00079148175 0.0018325701 -0.008542311
000010 b4 22 5b bc e6 ff c1 ba d4 03 83 bb a0 cb 85 3b
       -0.013374973 -0.0014800995 -0.003998259 0.004083112
000020 16 82 af 3c 28 2a ed bc f5 37 b0 3c 99 71 fd 3a
       0.021424334 -0.028950766 0.021511057 0.0019336223
000030 d0 e9 dd bb be 99 cd 3c 24 b1 bf 3c d6 67 ff bb
       -0.0067722574 0.025097724 0.023399897 -0.0077943606
000040 b9 b1 ec bc 59 ba 08 bc 76 c0 10 3d dd 85 11 bc
       -0.028893339 -0.00834521 0.035339795 -0.008882013
000050 aa 56 b2 3c 1c 5a a4 3c 9d 3d ad bb 79 5d d4 3b
       0.02176984 0.020062499 -0.005286886 0.0064808694
000060 fb 1b 90 bc c9 a9 07 3d be 73 5e 3b d2 b6 e2 3c
       -0.017591467 0.033120904 0.00339435 0.027675066
000070 9a b2 fc 3c 5b 16 2b 3d 0f 9c 80 bc 70 86 18 bd
       0.030846883 0.041769367 -0.015699415 -0.037237585
000080 ed 6f b0 bc 3a 1d c0 bc 3d 19 a4 ba 03 89 2c bd
       -0.021537745 -0.023451436 -0.0012519729 -0.042122852
000090 6b 57 35 bc 9c 25 1a bc 3f 96 e9 bb 96 f3 a5 ba
       -0.011068205 -0.009408381 -0.0071285064 -0.0012661095
0000a0 2b 3f 4d bb 00 b6 79 bb 47 2c bf 3a ca 65 24 bc
       -0.0031318169 -0.0038102865 0.0014585339 -0.010034034
0000b0 5a ab a8 3c 59 87 c4 3c 1a 07 2c bc d9 ef 08 3c
       0.02058952 0.02399032 -0.01049974 0.008357965
0000c0 1b c7 b2 bc 00 7d 9a 3c cf df ba bc d6 01 c4 3c
       -0.021823457 0.018858433 -0.022811798 0.023926657
0000d0 12 a8 0d 3c 86 d6 28 bd 86 ba b5 bc 33 bb 95 bc
       0.008646028 -0.04122021 -0.022183668 -0.01827774
0000e0 11 71 d6 bc d6 60 63 bb 1c dc f1 3b 39 e6 60 3c
       -0.026176961 -0.003469517 0.0073809754 0.013726764
0000f0 fe 70 d7 bc a0 7d 87 bb ee b2 52 bd cf 48 90 3b
       -0.026298996 -0.0041348487 -0.051440172 0.0044032107
000100 bd a6 df 3c 1e 77 4f bc 83 32 14 bc aa dc d3 bc
       0.027301187 -0.012662677 -0.009045246 -0.025862057
000110 ff 94 8b bc 13 85 05 3d 57 cb a3 3c 0c 39 85 3c
       -0.01703882 0.032597613 0.01999442 0.016262554
000120 e7 1d 67 3b 95 91 cf bc cf 4d 4b 3b 90 e3 8a bc
       0.0035265626 -0.025337974 0.003102172 -0.016954213
000130 35 bd 66 bc ce 1c 2a bd 11 cb e6 3a e1 8b d8 3b
       -0.014083196 -0.041531377 0.0017608126 0.0066084717
000140 13 98 bd 3c 2a 3f 6c 3c 1e bc 44 38 bc 98 a1 3b
       0.023143804 0.014419356 4.690524e-05 0.0049315374
000150 b3 4c 01 3d dc c8 a7 3c 40 34 02 3d a5 e1 09 3d
       0.031567287 0.02048152 0.03178811 0.033662457
000160 cd db 80 3c 2e a8 99 3c e1 46 f6 ba 4b 06 0c bc
       0.01572981 0.018756952 -0.0018789434 -0.008546422
000170 9c 1f 8b bb 29 ca 39 3c 94 d6 74 bb 66 43 cb 3c
       -0.0042457115 0.011339703 -0.0037359344 0.024812412
000180 20 12 c1 bc 78 96 cf ba 47 c2 81 bc e9 85 dc bc
       -0.023568213 -0.001583769 -0.015839709 -0.026919322
000190 14 89 e7 3c b8 bc 1c 3c 1b 32 82 3c 1e 5d 3f bc
       0.028263606 0.009566478 0.015893033 -0.011679916
0001a0 d6 c5 1a 3d 6c 14 c1 bb 5b e3 89 bc a4 5c 9c bc
       0.037786327 -0.005892327 -0.016832044 -0.019087143
0001b0 81 f9 de 3a b9 0d 18 3c cb 01 dc 3b 43 cc aa 3b
       0.0017011614 0.0092806155 0.006714081 0.005212338
0001c0 6f 0f e4 ba 76 35 c9 bc 50 94 6f 3c db 8b a1 bb
       -0.0017399619 -0.024561625 0.014622763 -0.004930002
0001d0 b7 59 9c 3c 35 ce ef bb 8c 92 10 bd fe 69 8f 3c
       0.019085748 -0.007318283 -0.035296008 0.017506596
0001e0 00 57 58 bc 34 58 c5 bc 3a 4b 42 3c 5f 85 02 3c
       -0.013204336 -0.02408991 0.011858756 0.007966368
0001f0 cb 98 0b 3c d2 61 15 3d d7 13 0f 3d 28 ad 8f bc
       0.008520315 0.03647024 0.03493103 -0.017538622
000200 47 0b 0b 3d da 8d a7 3c a9 83 62 bb db b8 6e bc
       0.0339463 0.020453382 -0.003456334 -0.01457044
000210 20 19 89 39 c8 29 fb bc e6 e0 b4 bc 9c 07 93 3c
       0.00026149396 -0.030659571 -0.022079896 0.017947964
000220 52 fb 93 bb 6c 43 79 3b 9b bd d6 b9 3b 99 02 3d
       -0.0045160437 0.0038034571 -0.00040958528 0.031884413
000230 ca 2e a7 bc d6 6a 16 bd c4 0f fd 3b b4 8c ca bc
       -0.020408053 -0.03672298 0.0077228267 -0.024725296
000240 f0 e2 02 3a 84 73 96 bc 30 87 57 3c 16 22 46 bc
       0.0004992923 -0.018365629 0.01315479 -0.012093088
000250 dc 90 e8 3a 4f 8d cc b9 9f c3 62 3c 10 8e d5 bb
       0.0017743367 -0.00039015195 0.013840585 -0.0065171793
000260 6a c2 40 bb 5e 42 18 3c 65 60 20 3b 4d 7c 5c bb
       -0.0029412755 0.009293167 0.0024471518 -0.0033643425
000270 4a 40 ed 3c d9 de e8 bb 87 e3 04 bc 55 f8 6f 3b
       0.02896132 -0.0071066436 -0.008110887 0.0036616523
000280 91 f1 05 bc ac a5 98 3a 70 21 89 bc 27 49 04 bc
       -0.00817527 0.0011646054 -0.016739577 -0.0080740815
000290 8c 21 8d 3c 7d 72 77 3a dc c1 38 3c 3c 32 d0 bb
       0.01722791 0.00094393623 0.011276688 -0.0063536447
0002a0 53 05 cb 3b ce a5 4d 3a 0f 5d ef ba 97 f0 2e 3c
       0.006195703 0.0007844836 -0.0018261987 0.010677478
0002b0 9e 45 93 ba 48 2b 72 3b 01 57 cd bc 4f 7c 1f 3b
       -0.0011235957 0.0036952067 -0.0250659 0.0024335568
0002c0 71 7a a9 bc 65 49 52 3c af 12 71 bc 2f 07 5e bd
       -0.020688267 0.012834881 -0.014713927 -0.05420607
0002d0 25 42 2d bc 9c 28 42 39 b4 82 55 3d 0b aa c9 bb
       -0.010574852 0.0001851641 0.0521266 -0.006154304
0002e0 b4 f8 69 3d c3 00 67 3c 0b 0e f6 39 7f 97 0b 3c
       0.057121947 0.014099303 0.0004693124 0.008520006
0002f0 1d 09 a7 bb 43 ab d4 bc 9d f9 ae 3c 7b 67 b9 3c
       -0.005097522 -0.02596057 0.02135926 0.022632351
000300 66 f2 55 3c 15 4e 9a 3c 46 f2 9b bb 76 d2 f1 3b
       0.013058281 0.01883606 -0.004759106 0.007379825
000310 30 d2 fd 3b 54 99 5b 39 ff 99 a5 3b 97 14 3c 3a
       0.0077460036 0.00020942587 0.005053758 0.0007174699
000320 bd 4d c6 3a 1b fa 6f bb b1 1b a8 ba 87 6d 2f 3a
       0.0015129369 -0.003661758 -0.0012825635 0.0006692041
000330 cf cb 8c 3a c0 07 9f bc e7 14 e1 bb c9 59 dc 3c
       0.0010741892 -0.019412875 -0.006868947 0.026898282
000340 1d 9e af b9 27 70 95 bc d3 31 1e 3c 27 bb 11 3c
       -0.00033496405 -0.018241955 0.009655434 0.008894718
000350 d4 7c 8a bc 0b 81 38 bc 61 9d 3b bc 27 d4 be 3c
       -0.016905226 -0.011261235 -0.011451096 0.023294521
000360 3d 6c c2 bb 06 d9 a5 3c e6 29 07 bb d7 0e cf bc
       -0.005933313 0.020245086 -0.0020624339 -0.02527563
000370 94 83 5e bb 0c 63 90 bc 71 41 f1 bc f4 29 82 3b
       -0.0033952938 -0.017625354 -0.02945015 0.0039722864
000380 a3 13 b1 bc 4f a0 85 3c e9 7c f9 3c f6 6e 20 bb
       -0.021615809 0.016311793 0.03045507 -0.00244802
000390 b0 c3 21 3b fb 15 d6 3c de d4 88 bc ee f5 46 3b
       0.002468329 0.026133528 -0.016703065 0.0030358988
0003a0 eb 95 80 bb 6c 31 b2 3c f5 4b c2 bc 3d 7f 89 bc
       -0.0039241216 0.021752082 -0.02371786 -0.016784305
0003b0 8b ab 52 bc 40 67 83 3b ea 3f b0 3c 7a a3 23 bc
       -0.012858282 0.004010111 0.021514852 -0.009987706
0003c0 1c bf d1 bc 30 17 fd bb 85 cb b4 bb 56 af 33 bc
       -0.025603823 -0.0077237114 -0.0055174255 -0.010967096
0003d0 0c e4 6d 3c f2 43 fa bb 4e 57 cf 3b 6b 12 33 38
       0.014519703 -0.0076374942 0.006327546 4.269408e-05
0003e0 ff be 4b 3c a7 d6 d7 3b 76 53 21 bc 5d 7a 28 bb
       0.012435674 0.006586868 -0.009846559 -0.00257077
0003f0 17 ff 72 3b 16 85 0f bb 32 9a 6d 3c 59 40 86 bc
       0.0037078315 -0.0021899394 0.014502095 -0.016388105

action_model._continuous_distribution.mu.bias f4 [4]
000000 ad ad e1 3b f7 4e 6e ba 73 0e 84 3b ca 5a bb bb
       0.006887159 -0.0009090746 0.004030043 -0.00571761
