results/shooter1/Shooter/Shooter-999686.onnx (onnx, 201499 bytes, 9 tensors)

network_body._body_endoder.seq_layers.0.weight f4 [128, 120]
0	0xbc82f9f6	-0.015988331
1	0xbd097bf3	-0.033565473
2	0xbdacf1e7	-0.08444577
3	0xbd0d9a23	-0.034570824
4	0xbd4818fc	-0.048851952
5	0xbd8aae4c	-0.06771526
6	0xbd908077	-0.07055753
7	0x3e85bca6	0.2612049
8	0xbe4737eb	-0.19454925
9	0xbe38a5d2	-0.18032005
10	0x3d1c8dac	0.038221046
11	0x3d522908	0.05130866
12	0x3dbef783	0.09324553
13	0xba93eb41	-0.0011285321
14	0x3dc5c0e3	0.09655931
15	0x3dc6183a	0.096725896
16	0x3e022daa	0.12712732
17	0xbcbd27b4	-0.023090221
18	0xbda084f0	-0.07837856
19	0x3db79b8a	0.089652136
20	0xbd075cc9	-0.03304747
21	0xbca9065f	-0.02063292
22	0xbd67b4e3	-0.05656899
23	0xbb4c822b	-0.0031205516
24	0xbc1d4bfd	-0.009600637
25	0x3c6ae4fe	0.014336823
26	0xbc5bffb2	-0.013427662
27	0x3d897347	0.067114405
28	0xb97948c6	-0.000237736
29	0x3d2823b9	0.041049693
30	0x3d48e747	0.04904869
31	0xbcf87661	-0.030329885
32	0x3e0be80f	0.13662742
33	0x3d8c3b4c	0.068472475
34	0xbd7d1dd5	-0.06179603
35	0xbd931490	-0.07181656
36	0x3db84fd3	0.089996
37	0xbc7187f4	-0.014741886
38	0x3d10d997	0.03536376
39	0x3d8fcd8b	0.07021626
40	0x3db0d826	0.08634977
41	0x3d7591f9	0.059953663
42	0x3cf2cf1d	0.029639775
43	0x3c79283f	0.015207349
44	0xbd6043f2	-0.054752298
45	0xbd9c06cd	-0.07618485
46	0x3c487df0	0.012237057
47	0x3c476ee8	0.012172438
48	0x3e16cc47	0.14726363
49	0xbdb2f2d4	-0.08737722
50	0x3d5bda6f	0.05367511
51	0xbd8120f1	-0.06305111
52	0xbce66db8	-0.02812849
53	0x3e621f7d	0.22082324
54	0x3d82c0b2	0.0638441
55	0xbdaa612b	-0.083193146
56	0xbdd9312a	-0.106050804
57	0xbcabad99	-0.020956801
58	0xbc996863	-0.018726533
59	0xbd8a4335	-0.067511
60	0xbc287854	-0.010282595
61	0x3c327310	0.010891691
62	0xbd3fec61	-0.046856288
63	0x3d9367be	0.071975216
64	0x3e246404	0.16053778
65	0xbdd4a46b	-0.10382923
66	0xbd6c0ce3	-0.057629477
67	0x3e816d13	0.2527853
68	0x3e39b7ce	0.18136522
69	0xbe1aac0c	-0.15104693
70	0xbe083757	-0.1330236
71	0xbe5d4d0f	-0.21611427
72	0xbe0b9da0	-0.13634348
73	0xbc894fd7	-0.016761703
74	0xbe132c5d	-0.14372392
75	0x3c1deb0f	0.009638562
76	0xbdde96a0	-0.10868573
77	0x3d0b463c	0.034002528
78	0x3c46fe41	0.01214558
79	0x3cf88ec9	0.030341523
80	0xbde01be0	-0.10942817
81	0xbdabccfc	-0.08388707
82	0x3c1c018b	0.009521852
83	0xbdecb532	-0.11557998
84	0xbce0029c	-0.027344994
85	0x3ca48516	0.020082992
86	0x3b98f064	0.0046673287
87	0x3de4c1bf	0.11169767
88	0x3aeaba82	0.0017908367
89	0xbd5de1d6	-0.054170452
90	0x3d2cf8b3	0.042229366
91	0x3e80dde2	0.25169283
92	0xbd2f4d0e	-0.042798094
93	0xbe114f5a	-0.14190426
94	0x3de2ec2f	0.11080205
95	0x3c8100a9	0.015747385
96	0xbd8935e7	-0.06699734
97	0x3e0f64b5	0.1400326
98	0x3ae0b93d	0.0017145049
99	0xbde99249	-0.11404855
100	0xbc3d3952	-0.011549311
101	0xbc3dff75	-0.01159655
102	0xbdfc4113	-0.123170994
103	0xbd0b1d48	-0.03396347
104	0x3e84ad07	0.2591326
105	0x3de6e06b	0.11273273
106	0x3da2dc2a	0.07952149
107	0x3d8ac167	0.0677517
108	0xbd9a96e6	-0.07548313
109	0x3e67ff47	0.22655974
110	0x3d8b5961	0.06804157
111	0x3c91fd7b	0.017821064
112	0x3d88d1f1	0.06680668
113	0x3e168fd9	0.14703311
114	0xbd362be3	-0.044475447
115	0xbe33ccf6	-0.17558655
116	0x3d1374c8	0.036000043
117	0x3cea664f	0.028613238
118	0xbd0c3eda	-0.034239627
119	0xbe431ce8	-0.19053996
120	0x3dcc351f	0.099710695
121	0x3d30db13	0.043177675
122	0xbe4f55cf	-0.20247577
123	0xbcedc55c	-0.029024772
124	0x3e0baaeb	0.13639419
125	0x3e108890	0.14114594
126	0x3d833920	0.0640738
127	0xbc956b6c	-0.0182397
128	0x3c80b50d	0.015711332
129	0x3d421da9	0.047391567
130	0xbcfd14a7	-0.030893637
131	0xbc1328bb	-0.008981879
132	0xbd866cdc	-0.06563732
133	0x3d729539	0.05922434
134	0xbd9414ea	-0.072305515
135	0x3b851626	0.004061478
136	0x3daaf9ba	0.08348413
137	0x3d430b2e	0.047618084
138	0x3e3982f1	0.18116356
139	0x3c7c30f6	0.015392533
140	0xbd2861d1	-0.04110891
141	0x3d243f02	0.04009915
142	0xbcd1d391	-0.025613578
143	0xbd219919	-0.039452646
144	0x3e19f370	0.1503427
145	0x3d0af701	0.033926968
146	0xbdf9dc04	-0.12200168
147	0x3d4ecf67	0.050490763
148	0xbc2589a8	-0.010103621
149	0x3d1446a9	0.0362002
150	0xbdadcae2	-0.084859625
151	0x3c98e2cb	0.01866283
152	0xbd7ac026	-0.061218403
153	0x3d790eb4	0.060805038
154	0xbce3486e	-0.027744498
155	0xbdcb8793	-0.09937968
156	0x3d8feaea	0.07027228
157	0xbde16cd1	-0.11007083
158	0x3d3d5b60	0.04622972
159	0xbdad5f68	-0.08465463
160	0x3d560e67	0.05225983
161	0xbdb4543b	-0.08805128
162	0xbe18b938	-0.14914405
163	0x3dc76267	0.09735566
164	0x3c8aba70	0.016934603
165	0xbde9ea31	-0.114216216
166	0x3de54cd9	0.11196298
167	0xbdbdf6bb	-0.09275576
168	0x3d9904b3	0.074715994
169	0xbc7ebe96	-0.015548369
170	0xbe0286a6	-0.12746677
171	0xbe13e32e	-0.14442131
172	0xbd8f2293	-0.069890164
173	0xbd8a070f	-0.067396276
174	0xbde2de69	-0.110775776
175	0xbd19fd2e	-0.037594967
176	0x3d452c53	0.048137974
177	0xbd8d207c	-0.068909615
178	0x3d3f62c3	0.046725046
179	0x3cfdff99	0.031005668
180	0xbd879436	-0.06620066
181	0xbdbcddf9	-0.092220254
182	0xbd623121	-0.055222634
183	0xbcaded7e	-0.02123141
184	0xbd72a2b2	-0.05923719
185	0x3cce21d2	0.025162611
186	0x3d87ecba	0.06636949
187	0x3d05fb5e	0.032710426
188	0x3d490108	0.04907325
189	0xbe14912a	-0.145085
190	0xbbc328ee	-0.005955807
191	0x3c90e5dc	0.01768773
192	0x3d48ecc1	0.04905391
193	0x3e5d2b81	0.21598627
194	0xbe301880	-0.17196846
195	0x3dfeb60c	0.124370664
196	0x3cb9b989	0.022671478
197	0x3d234393	0.039859366
198	0xbdc94a04	-0.098285705
199	0x3d9365e9	0.07197172
200	0x3df6d1a1	0.12051702
201	0xbcaddab9	-0.02122246
202	0x3c2f4140	0.010696709
203	0x3ca35ca1	0.01994163
204	0xbd78661e	-0.06064426
205	0x3d7608be	0.06006693
206	0xbe0afa0a	-0.13571945
207	0xbc0cfb35	-0.008604814
208	0xbd453289	-0.048143897
209	0xbd154d58	-0.036450714
210	0xbcb57356	-0.022149723
211	0x3d12c626	0.0358335
212	0x3e1cba27	0.15305386
213	0x3d8e43e9	0.069465466
214	0x3dea3b5f	0.114371054
215	0x3e428349	0.18995394
216	0xbe23003c	-0.15918058
217	0x3db463e6	0.088081166
218	0xbd6e1cbd	-0.058132876
219	0xbe6345a1	-0.2219453
220	0xbe18bc51	-0.14915587
221	0xbbcfde85	-0.006343665
222	0xbd9028b0	-0.070390105
223	0x3d7870dc	0.060654506
224	0xbd7a9a57	-0.061182346
225	0xbe0443c1	-0.12916471
226	0x3e2e7765	0.17037733
227	0xbe133589	-0.14375891
228	0xbe4b5315	-0.19855912
229	0xbe340cbb	-0.17582981
230	0xbcf85cc2	-0.030317668
231	0x3dee8ee4	0.11648348
232	0x3d6ff5ea	0.05858413
233	0xbceaa0ac	-0.028641067
234	0xbd791d60	-0.06081903
235	0x3de3c0a0	0.11120725
236	0xbe3ec556	-0.18629965
237	0x3d36f512	0.04466731
238	0x3ca98f40	0.02069819
239	0xbd8c058d	-0.06836996
240	0x3e47daaa	0.19517007
241	0xbd4cb106	-0.04997351
242	0xbc8d80fc	-0.017273419
243	0xbe15cd2f	-0.14629053
244	0x3c8efc35	0.017454246
245	0x3db18930	0.086687446
246	0xbe11e054	-0.1424573
247	0x3e28b390	0.16474748
248	0x3dd1940a	0.10233314
249	0xbd742d84	-0.05961372
250	0xbd5badfd	-0.053632725
251	0xbd7316fc	-0.05934809
252	0xbd6d079a	-0.057868578
253	0x3c383acf	0.01124449
254	0x3c097e0c	0.008391868
255	0x3d2edab5	0.042689044

network_body._body_endoder.seq_layers.0.bias f4 [128]
0	0x3bff6cc0	0.0077949464
1	0x3c16154f	0.009160354
2	0x3be9fcdb	0.0071407384
3	0x3c422f28	0.011852063
4	0x3b53ff6f	0.0032348295
5	0xbb8db913	-0.004325041
6	0xbafa95a7	-0.0019118086
7	0x3bbe2f57	0.005803983
8	0xbb1a8eb3	-0.002358359
9	0x3c14df3a	0.0090864245
10	0xbc0cf552	-0.008603411
11	0x3b5aecbd	0.0033405267
12	0x3bddc28a	0.0067675756
13	0xbb318a0c	-0.002709034
14	0xbbccf0bf	-0.006254285
15	0x3c76b78b	0.0150584085
16	0x3b52671f	0.0032104922
17	0x3c5ac4a0	0.013352543
18	0x3b7088eb	0.0036702703
19	0x39b058ba	0.00033635442
20	0x3c6abc57	0.01432713
21	0x3c2db81d	0.010602978
22	0x3c446a9a	0.011988306
23	0xbaaa5fce	-0.0012998523
24	0x3ba6f3a4	0.005094962
25	0x3be94de8	0.007119883
26	0x3bb8fa8a	0.005645101
27	0xba993499	-0.0011688649
28	0xbbbfd1fa	-0.0058538886
29	0xbc23a81a	-0.009988809
30	0x3b3c542f	0.00287367
31	0x3a3473ed	0.00068837294
32	0x3b280238	0.0025636088
33	0x3c53f2b5	0.012936284
34	0xbb9c2f7d	-0.004766403
35	0x3cfe006f	0.031006066
36	0x3c91799e	0.017758187
37	0x3aa0b233	0.0012260139
38	0x3af03ed4	0.0018329271
39	0x3b8414b8	0.00403079
40	0xbbcae4fb	-0.0061918474
41	0x3c4a4dc9	0.012347647
42	0xbc7fa1b6	-0.01560252
43	0x3c49d183	0.012318018
44	0xbb037ca7	-0.0020063312
45	0x3c847be9	0.016172366
46	0x3c2ef75a	0.01067909
47	0x3c283061	0.010265441
48	0x3b8d44bb	0.004311172
49	0xbbaf2f25	-0.0053461962
50	0xbbd7953e	-0.0065790704
51	0xbbce3aee	-0.006293646
52	0x3c31b779	0.010846966
53	0x3c42101f	0.011844664
54	0x3c80233d	0.015641803
55	0xbc158ade	-0.009127347
56	0x381fd432	3.8106176e-05
57	0x3c4c1cc1	0.012458027
58	0x3b9a2f3c	0.004705338
59	0x3c1141cd	0.008865786
60	0xbb6eb1b2	-0.0036421833
61	0xbba9cd91	-0.005181976
62	0xbb61afaa	-0.003443698
63	0x3b0933d8	0.0020935442
64	0x3c3c18e9	0.011480548
65	0xbbfb8ba8	-0.0076765604
66	0xbbec2c76	-0.0072074486
67	0x3c0f8694	0.008760113
68	0x3c6473ae	0.013943596
69	0x3c5fba81	0.013655306
70	0x3c857dcf	0.016295342
71	0x3b708650	0.003670115
72	0x3900b7a0	0.00012275437
73	0xbb04334f	-0.0020172184
74	0x3b6be8e0	0.0035996959
75	0x3c1686e4	0.009187434
76	0x3c2ca649	0.010537692
77	0x3c426e33	0.011867094
78	0x3b2dabac	0.002650003
79	0x3be06a57	0.006848614
80	0x3a5fb845	0.0008534233
81	0x3aeaac5b	0.0017904149
82	0x3ccb16e5	0.02479119
83	0x3b9e9f4b	0.0048407665
84	0x3b1d190f	0.0023971235
85	0x3c4b2f93	0.012401479
86	0x3c5afd97	0.013366125
87	0x3c1aaa48	0.009440012
88	0x3abb1d6c	0.0014275736
89	0x3b088e41	0.0020836743
90	0x3c305ed3	0.010764795
91	0x3b35992d	0.0027709708
92	0x3c39cc49	0.011340209
93	0xbb595587	-0.003316255
94	0xb75b033c	-1.305417e-05
95	0xbc09ca38	-0.008410029
96	0xbbbe3917	-0.0058051455
97	0xbc1741fe	-0.009232042
98	0x3bece9bd	0.007230012
99	0xbbc9a2dd	-0.006153448
100	0x3c74806d	0.014923197
101	0x3b978793	0.004624316
102	0xbbeeb16c	-0.007284334
103	0x3c0d6dd8	0.008632146
104	0x3b64e760	0.003492795
105	0x3c628429	0.013825455
106	0x3b29c7d7	0.0025906467
107	0x3b65d6b5	0.0035070602
108	0x3c071cb7	0.008246592
109	0xbbb527ae	-0.005528412
110	0x3bdb717e	0.006696879
111	0xbb529f3d	-0.003213837
112	0xbc05f841	-0.008176864
113	0x3bdb3ae8	0.006690372
114	0x3c04f6e8	0.008115508
115	0x3c2e492a	0.010637561
116	0xbb967a82	-0.004592241
117	0x39993521	0.00029222018
118	0x3bcb5676	0.0062053753
119	0x3c2d33b0	0.010571405
120	0x3cb9b2e8	0.022668317
121	0xbb1404bf	-0.0022585837
122	0x3c62a6e7	0.013833738
123	0x3c897bd5	0.01678268
124	0x3c0b58bf	0.008505045
125	0x3c8a84b4	0.01690898
126	0x3c0ee89d	0.0087224515
127	0x3c0d4b4b	0.008623908

network_body._body_endoder.seq_layers.2.weight f4 [128, 128]
0	0x3e034be1	0.12821914
1	0x3b257d5d	0.0025251724
2	0x3d16c3b8	0.036807746
3	0x3e15b410	0.1461947
4	0x3d9e8119	0.07739467
5	0x3d4f422e	0.050600223
6	0x3c6a5218	0.014301799
7	0xbd2ca9a4	-0.04215397
8	0x3d112117	0.035431948
9	0x3cc2320b	0.023705503
10	0xbe0a56bd	-0.1350965
11	0xbdff8319	-0.12476177
12	0xbb99fa73	-0.0046990453
13	0x3df9e2a5	0.12201432
14	0xbe29b9f2	-0.16574839
15	0x3d4f4d20	0.05061066
16	0x3d6d9bd4	0.058009937
17	0x3da0c519	0.078500934
18	0xbd1ae013	-0.03781135
19	0x3d842e80	0.06454182
20	0x3e0f79ca	0.14011303
21	0x3d41e0bb	0.04733346
22	0xbd8e7da7	-0.0695756
23	0x3d1ecf11	0.038771693
24	0xbd178ef6	-0.037001573
25	0x3cb75c60	0.022382915
26	0x3dd51fa3	0.10406425
27	0xbd309190	-0.04310757
28	0xbe6259bd	-0.22104545
29	0xbd128f9b	-0.035781484
30	0x3d807064	0.06271437
31	0xbe284ab0	-0.16434741
32	0xbd84c509	-0.06482894
33	0x3e344fdc	0.17608589
34	0xbd96ffe5	-0.07373027
35	0x3cf64694	0.030062951
36	0xbe6fcbfa	-0.23417655
37	0xbdda794e	-0.10667668
38	0xbd611faf	-0.054961856
39	0xbc885e09	-0.016646402
40	0xbce9bd91	-0.028532775
41	0x3e06fde0	0.13182783
42	0xbd73ed20	-0.059552312
43	0x3d888707	0.066663794
44	0x3daff8a2	0.08592345
45	0xbcff2632	-0.031146143
46	0x3e5f24cd	0.21791382
47	0x3d755a56	0.059900604
48	0x3d78bca8	0.06072679
49	0xbc0cefb1	-0.008602069
50	0xbd839f11	-0.06426824
51	0x3c6004a3	0.0136729805
52	0x3e5cfe54	0.21581393
53	0x3e170d99	0.14751281
54	0xbe8b6f92	-0.2723356
55	0xbd217521	-0.039418343
56	0x3e1de27c	0.15418428
57	0xbd65934a	-0.05604867
58	0x3c2a1656	0.010381302
59	0x3ddba4a7	0.10724764
60	0x3d48ff90	0.04907185
61	0xbd835d92	-0.064143315
62	0xbe162556	-0.1466268
63	0xbceb4488	-0.028719202
64	0x3c942054	0.018081822
65	0x3d2e84c0	0.04260707
66	0xbe0cb072	-0.13739184
67	0x3de5ecbd	0.11226795
68	0x3e389e9d	0.18029256
69	0x3d22582a	0.03963486
70	0x3d816086	0.063172385
71	0x3d118821	0.035530213
72	0x3dd9fc35	0.10643808
73	0xbdba26e4	-0.09089449
74	0xbc70e9cb	-0.014704178
75	0x3d665c15	0.05624016
76	0x3e25f6d7	0.16207443
77	0xbc5bb286	-0.0134092625
78	0xbe09682e	-0.13418648
79	0x3e030f15	0.12798722
80	0x3e213021	0.15741016
81	0xbd4e0247	-0.05029514
82	0x3dcecd52	0.100977555
83	0xbdb3c01c	-0.08776876
84	0x3cd15c37	0.025556667
85	0xbd9485fd	-0.07252119
86	0xbd459963	-0.048241984
87	0xbd1b52e6	-0.037920855
88	0x3c30cde9	0.01079128
89	0x3d025904	0.031823173
90	0x3cb2d2a9	0.021828966
91	0x3de317d6	0.11088531
92	0x3d843c52	0.06456818
93	0x3da6a57e	0.08137034
94	0x3c6e5d8b	0.01454867
95	0xbd15c846	-0.03656795
96	0xbd06746a	-0.032825865
97	0xbd0d44e9	-0.034489546
98	0x3e82810f	0.2548909
99	0xbe10b028	-0.14129698
100	0xbd2e9f41	-0.042632345
101	0xbd0fb95e	-0.03508889
102	0x3c2f9acd	0.01071806
103	0xbd401577	-0.04689547
104	0x3d76fcf1	0.060299817
105	0x3e376153	0.1790822
106	0x3d9e4f4f	0.07729971
107	0xbdbd4cf9	-0.09243197
108	0xbd82d8e5	-0.063890256
109	0x3da145d2	0.07874645
110	0x3dedb6a4	0.116071016
111	0xbdfa1dd9	-0.12212724
112	0xbc783e99	-0.015151643
113	0xbd3b5956	-0.045739494
114	0xbdf56684	-0.11982444
115	0xbdfe0034	-0.124023825
116	0xbd2ffde1	-0.042966727
117	0xbd90b775	-0.07066242
118	0x3e5fb200	0.21845245
119	0xbb84925d	-0.004045768
120	0x3e0f6e3f	0.140069
121	0x3da03dbd	0.07824276
122	0x3d93024b	0.07178172
123	0x3dc563fb	0.096382104
124	0x3bbd2da7	0.0057732644
125	0x3cae61d1	0.021286877
126	0x3d95c559	0.07313032
127	0x3e51d42e	0.20491096
128	0x3db62315	0.0889341
129	0x3c93f795	0.018062392
130	0x3de4a513	0.11164298
131	0x3c866b20	0.016408503
132	0xbc22d91a	-0.009939456
133	0x3ddf9ce4	0.109185964
134	0x3d37dd3c	0.04488872
135	0x3df9917d	0.12185953
136	0x3df4372e	0.11924587
137	0xbca70bc2	-0.020391349
138	0x3d31cca2	0.043408044
139	0xbd371f84	-0.04470779
140	0xbdc0847a	-0.09400268
141	0xbdc11e5c	-0.09429619
142	0xbd730e4e	-0.059339814
143	0xbc0b69a6	-0.008509075
144	0xbd767855	-0.06017335
145	0x3d7d2494	0.06180246
146	0xbd8dda26	-0.06926374
147	0x3e0474e3	0.12935214
148	0xbdd7039e	-0.10498737
149	0x3cf9d2ca	0.03049602
150	0x3c53d7a3	0.01292983
151	0x3c89ae33	0.016806697
152	0xbe157f5e	-0.14599368
153	0xbe51fec3	-0.2050734
154	0x3c917c3d	0.017759437
155	0x3e3d3abf	0.18479441
156	0xbdf1abed	-0.1180037
157	0x3e8300ff	0.25586697
158	0xbcf74002	-0.030181888
159	0xbdcf2b47	-0.101156764
160	0x3de8a3d4	0.11359373
161	0xbdff5ef9	-0.124692865
162	0xbbaa0d90	-0.005189605
163	0xbda0e1e2	-0.07855584
164	0xbdb111d0	-0.086459756
165	0x3d5f3660	0.054495215
166	0x3de07cbe	0.10961293
167	0xbddbc915	-0.10731713
168	0xbc69521e	-0.01424077
169	0xbe1679d5	-0.14694913
170	0x3c2cc443	0.010544839
171	0x3da602aa	0.08105977
172	0xbe0be497	-0.13661419
173	0xbc24e215	-0.010063668
174	0xbda7f242	-0.08200504
175	0x3dfc2964	0.12312582
176	0xbdc55f83	-0.09637358
177	0xbdeabf5b	-0.114622794
178	0xbe308c63	-0.17241053
179	0xbd5450a5	-0.05183472
180	0xbd66a96e	-0.056313924
181	0x3c8019bb	0.01563727
182	0x3b87c826	0.0041437326
183	0xbe05cdc6	-0.13066778
184	0xbda7ec3c	-0.08199355
185	0xbd16f65a	-0.036856033
186	0x3d85863d	0.065197445
187	0xbd8b7158	-0.06808728
188	0x3e4eb02a	0.20184389
189	0x3dd40a12	0.10353483
190	0x3d8ac98c	0.06776723
191	0xbde68dfc	-0.1125755
192	0x3c57c7d3	0.0131702
193	0x3e280f07	0.16411982
194	0x3de4bf0a	0.1116925
195	0x3ac74097	0.0015201744
196	0xbd56022a	-0.052248158
197	0xbbde064e	-0.006775654
198	0xbd913f96	-0.07092206
199	0x3dfbad17	0.12288874
200	0x3db16858	0.0866248
201	0x3e062f00	0.13103867
202	0x3cb16af6	0.021657448
203	0xbb8e307a	-0.004339275
204	0x3d8c60a0	0.06854367
205	0xbd82e1d7	-0.06390732
206	0x3e154b06	0.145794
207	0xbccabf19	-0.024749326
208	0xbd490d12	-0.04908473
209	0xbd7492fb	-0.059710484
210	0xbda0908e	-0.078400716
211	0x3ba81605	0.005129578
212	0x3d634460	0.05548513
213	0xbe50e859	-0.20401134
214	0x3d1a68b3	0.037697505
215	0xbda0aa21	-0.078449495
216	0xbe132f09	-0.14373411
217	0xbc0efc87	-0.008727199
218	0xbda035a5	-0.07822732
219	0x3b150f23	0.0022744618
220	0x3d352536	0.04422494
221	0xbd8924ca	-0.0669647
222	0xbdc248c6	-0.09486537
223	0x3d5ebc55	0.054378826
224	0x3c6adc13	0.014334696
225	0xbd01682f	-0.031593498
226	0xbdd58197	-0.10425108
227	0xbc9703f5	-0.018434504
228	0x3e200ad4	0.1562913
229	0xbca99810	-0.020702392
230	0x3df56e11	0.11983884
231	0x3c179e60	0.009254068
232	0x3df3ba1f	0.11900734
233	0x3c277d3f	0.010222732
234	0x3c9e8819	0.019352006
235	0xbc7a3c0d	-0.015273106
236	0x3d3b3ad3	0.045710396
237	0x3dd18f7b	0.10232445
238	0xbe740ea8	-0.23833716
239	0xbce8ef07	-0.02843429
240	0x3dfcfb9d	0.12352679
241	0xbdb83dcc	-0.08996162
242	0x3a551785	0.000812881
243	0xbdc6ea21	-0.09712625
244	0x3ce73e0a	0.028227825
245	0xbc81eafa	-0.015859116
246	0xbdc7d9cb	-0.097583376
247	0xbd0814a4	-0.03322281
248	0xbdaca355	-0.084295906
249	0xbd28ee41	-0.04124284
250	0x3d789c69	0.06069604
251	0xbcd0e4d5	-0.02549974
252	0xbde625d0	-0.11237681
253	0x3e010ea7	0.12603246
254	0xbe06bf56	-0.13158926
255	0xbd5f0a89	-0.054453406

network_body._body_endoder.seq_layers.2.bias f4 [128]
0	0x3c7f5185	0.015583401
1	0xbabfbb98	-0.0014628051
2	0x3c0d5867	0.008627034
3	0x3af52d88	0.0018705586
4	0xbb982c6f	-0.004643969
5	0x3bbb49eb	0.005715599
6	0x3c09993b	0.008398349
7	0xbb2dfdb5	-0.0026548926
8	0x3aa1b5c6	0.0012337498
9	0x3ba1fce1	0.0049434756
10	0x3bfba34e	0.0076793795
11	0x3b1b20f1	0.0023670758
12	0xbb3975c5	-0.0028298956
13	0xbbe919fb	-0.007113693
14	0x3c0b487e	0.00850117
15	0x3bbc82e8	0.00575291
16	0x3be7ede1	0.007077918
17	0xb8be60dc	-9.0779475e-05
18	0x3b70df0e	0.0036754045
19	0x3a7ca7b6	0.0009638028
20	0xbb8d4eb8	-0.0043123625
21	0xbc3638f1	-0.011121974
22	0xbac91988	-0.0015342692
23	0xbb1fd922	-0.0024390896
24	0x3b1e79bc	0.0024181446
25	0xb9775ce2	-0.00023590357
26	0x3bcc1ff8	0.006229397
27	0x3b3c5d23	0.0028742037
28	0xbbba14ad	-0.0056787343
29	0xb853e370	-5.0518138e-05
30	0x3bccdf7b	0.006252227
31	0x3b83be64	0.004020499
32	0x3b801b5a	0.0039095106
33	0xbac58767	-0.001507026
34	0x3b694f1f	0.0035600138
35	0x3b00c224	0.0019646967
36	0x3bd76ee3	0.006574498
37	0x3b5763e9	0.0032865948
38	0x3b791071	0.0038004185
39	0xbbae4d5e	-0.0053192815
40	0xbb23d8f0	-0.002500113
41	0x3c68f549	0.014218637
42	0x3c4e8811	0.012605683
43	0x3bee3494	0.0072694514
44	0x3b070239	0.002060069
45	0x3b7dc0cd	0.0038719655
46	0x3c689493	0.014195579
47	0x3b830951	0.0039989133
48	0x3c26f5a3	0.0101904
49	0x3cbe17b9	0.023204671
50	0xbaa47fde	-0.0012550314
51	0x3c23d02d	0.009998363
52	0xb9c2ec1e	-0.00037178484
53	0x3b91a4d9	0.0044447
54	0x3a8ebc52	0.0010889864
55	0x39351b7d	0.00017271745
56	0x3c446917	0.011987946
57	0x3a522db1	0.0008017673
58	0xbb80855f	-0.003922149
59	0x3b9d34aa	0.004797538
60	0x3a105666	0.00055060384
61	0xbbbb8e80	-0.0057237744
62	0x3b4f23f8	0.0031607132
63	0xbc0bfe63	-0.008544537
64	0xba88c6a0	-0.0010435171
65	0x3bae06d9	0.005310875
66	0x3c15ebd7	0.009150467
67	0xbc06f136	-0.00823622
68	0x3b81620e	0.0039484566
69	0xba1d98ec	-0.0006011862
70	0x3c1922d1	0.00934668
71	0x39c14f58	0.00036870944
72	0xbbeb7c72	-0.007186466
73	0x3b59a600	0.0033210516
74	0xb95f25c8	-0.00021281012
75	0xbaba9a26	-0.0014236614
76	0x3b4894d2	0.0030606282
77	0x3c6d9d80	0.014502883
78	0x3ac41dde	0.0014962514
79	0x3bd5cdc1	0.006524772
80	0x3c293b10	0.010329023
81	0x3ac6d202	0.0015168788
82	0x3b82aaef	0.003987662
83	0xbbe61973	-0.0070220768
84	0x3bfbdcb0	0.00768622
85	0x3a183254	0.00058058393
86	0xbad4c6b9	-0.001623354
87	0xb99b4768	-0.00029617106
88	0x3b6f05ab	0.0036471884
89	0x3bdec6ce	0.0067986017
90	0x3b570254	0.0032807784
91	0x3c8adb96	0.01695041
92	0x3bfe7a4a	0.007766043
93	0x3b8fee55	0.004392425
94	0xbb131ed5	-0.0022448797
95	0x3b0c1072	0.0021372107
96	0xbc1f84d8	-0.009736262
97	0xb937dfd5	-0.00017535624
98	0x3bac073f	0.0052498872
99	0x3bf41d36	0.0074497713
100	0x3bd960d2	0.0066338563
101	0x3b90c1b4	0.0044176225
102	0x3b64a864	0.0034890408
103	0xba62cceb	-0.0008651751
104	0x3bb04cdd	0.0053802566
105	0x3b216e66	0.0024632453
106	0xba49fe7f	-0.00077054644
107	0xbb38ef81	-0.0028218927
108	0x39eb3ae9	0.00044866584
109	0xbb4144ab	-0.0029490392
110	0x3c2834e9	0.010266521
111	0x3c1c72ef	0.009548887
112	0x3b886e60	0.0041635484
113	0x3c814791	0.015781196
114	0x3bf01bd5	0.0073275366
115	0x3a99c7b7	0.0011732493
116	0x3af267a1	0.0018494019
117	0x3b36221e	0.0027791332
118	0x3b80efa0	0.0039348155
119	0x3b07685d	0.002066157
120	0xbb46f89b	-0.0030360583
121	0x3bbf577b	0.005839286
122	0x39550e2d	0.00020318544
123	0xbb8140d3	-0.003944495
124	0x3af1f733	0.0018460512
125	0x3c209a67	0.009802437
126	0x3bc0b762	0.005881236
127	0x3b92dd71	0.0044819643

network_body._body_endoder.seq_layers.4.weight f4 [128, 128]
0	0xbd96c3b6	-0.07361548
1	0xbdcb75dd	-0.0993459
2	0xbc8ef6a2	-0.017451588
3	0x3d55cbc6	0.052196287
4	0xbdf742d1	-0.12073291
5	0xbe1eb539	-0.15498818
6	0x3d17a55c	0.037022933
7	0x3ddb9a08	0.107227385
8	0x3c0a2478	0.008431546
9	0x3e41cf96	0.18926844
10	0xbe276168	-0.16345751
11	0x3d7b752f	0.06139105
12	0xbcc5e75a	-0.024158169
13	0xbdb0e662	-0.08637692
14	0x3ce73441	0.028223159
15	0xbcf2ab11	-0.029622586
16	0xbd1ea111	-0.038727824
17	0x3dab02d8	0.08350152
18	0xbe6ba480	-0.2301197
19	0x3e048fcd	0.1294548
20	0xbd8ed5e2	-0.06974389
21	0x3d44cef4	0.04804893
22	0xbd84becc	-0.06481704
23	0x3e111c44	0.14170939
24	0xbc6958d0	-0.014242366
25	0x3e47f818	0.19528234
26	0x3d1a1f5c	0.037627563
27	0x3d00724d	0.031359006
28	0xbe57edaf	-0.21086763
29	0xbd56ff2f	-0.052489456
30	0x3d8fa3db	0.07013675
31	0x3cec8ade	0.02887481
32	0xbe33b528	-0.17549574
33	0x3d1348ba	0.03595803
34	0xbd080541	-0.033208136
35	0x3e0753fc	0.13215631
36	0x3d977802	0.073959365
37	0xbdce120b	-0.10062035
38	0xbcb1d68f	-0.021708755
39	0xbd87e9f0	-0.06636417
40	0xbce0a25a	-0.027421165
41	0x3d325a05	0.04354288
42	0xbe2f5171	-0.17120911
43	0x3db7ab80	0.08968258
44	0x3d790e67	0.06080475
45	0x3e16797c	0.1469478
46	0xbd8b354a	-0.067972735
47	0x3c64ed05	0.0139725255
48	0x3dfb2319	0.12262554
49	0xbe757764	-0.23971325
50	0x3d84beb6	0.06481688
51	0x3e1f1475	0.15535147
52	0xbdef045d	-0.11670754
53	0xbda6c092	-0.081421986
54	0xbd50d22a	-0.050981678
55	0xbdc20826	-0.094742104
56	0xbd1a2793	-0.037635397
57	0x3d1f5d68	0.03890744
58	0xbd05b677	-0.032644715
59	0xbc51f19a	-0.01281395
60	0xbd91c17f	-0.071169846
61	0xbc45e132	-0.0120776165
62	0x3e448be8	0.19193995
63	0x3dfefa62	0.124501005
64	0x3e2d116f	0.16901182
65	0x3dac3778	0.08409017
66	0xbd37053b	-0.044682723
67	0xbdc0d108	-0.094148695
68	0x3d8db3f4	0.06919089
69	0xbdba6222	-0.091007486
70	0x3c5c81f9	0.013458722
71	0xbd8a3e46	-0.06750159
72	0xbdc04a71	-0.093891986
73	0x3bfa3d5e	0.00763671
74	0xbdea575a	-0.11442442
75	0xbd7dfff8	-0.06201169
76	0xbdacc364	-0.08435705
77	0xbce8d7ec	-0.028423272
78	0x3e19d0bd	0.15021034
79	0xbd5da08e	-0.054108195
80	0x3b348463	0.002754473
81	0x3d4aa2aa	0.049471535
82	0xbdb75ce1	-0.08953262
83	0xbd89fe0a	-0.06737907
84	0xbd0fdae8	-0.035120875
85	0x3cc113f2	0.023569081
86	0xbe214d05	-0.15752037
87	0x393b3839	0.00017854654
88	0xbc6badc0	-0.014384687
89	0x3ca4402c	0.02005013
90	0xbca274fb	-0.019831171
91	0xbdd7bcfa	-0.10534091
92	0xbdfb2039	-0.12262005
93	0xbda1e1d1	-0.07904399
94	0xbcced845	-0.02524961
95	0x3d8a54a1	0.06754423
96	0x3d6a5a3e	0.057214968
97	0xbdb66161	-0.08905292
98	0x3de6b970	0.11265838
99	0xbdb831ae	-0.08993851
100	0xbdbdef33	-0.09274139
101	0x3c478480	0.012177587
102	0x3d0d4a0c	0.034494445
103	0xbd4b8ffd	-0.049697865
104	0xbdf71951	-0.120653756
105	0x3cfd25cb	0.03090181
106	0x3c8cdcac	0.017195068
107	0x3cfd83cd	0.030946637
108	0x3dbafb84	0.09130004
109	0x3c169d3d	0.009192762
110	0xbd86310d	-0.065523244
111	0xbd54ddfa	-0.051969506
112	0x3dee0796	0.11622541
113	0x3d8dba6a	0.06920321
114	0xbe075e65	-0.13219602
115	0xbca2628e	-0.019822385
116	0x3d9fce97	0.07803076
117	0xbd5858bb	-0.052818995
118	0xbd31aed6	-0.043379627
119	0xbd6de7be	-0.058082335
120	0x3d6e4a72	0.058176465
121	0xbe3f4996	-0.18680415
122	0x3c153744	0.009107415
123	0x3cd4e1c0	0.025986552
124	0x3dc38021	0.09545923
125	0x3d8da3fc	0.06916043
126	0x3d184751	0.037177388
127	0xbd56aa81	-0.0524087
128	0xbdab8ca0	-0.083764315
129	0x3d9b3b28	0.075796425
130	0xbd9ec1ea	-0.0775183
131	0x3c593b4b	0.013258765
132	0x3c7bdc50	0.015372351
133	0x3d83b53b	0.06431051
134	0x3ce5830c	0.02801659
135	0x3dccd3be	0.10001324
136	0xbd56f1cf	-0.0524767
137	0xbe2b0539	-0.16701211
138	0xbca1f6a8	-0.019770935
139	0xbd1ce331	-0.038302604
140	0xbdd44c73	-0.10366144
141	0xbd83a440	-0.064278126
142	0xbda57139	-0.08078236
143	0x3cb23809	0.021755235
144	0x3e8c2795	0.2737395
145	0xbdf31aa0	-0.11870313
146	0x3d7a5d98	0.061124414
147	0xbd36e085	-0.044647712
148	0xbdfe79f6	-0.12425606
149	0xbd5e2261	-0.054232005
150	0x3d98b65e	0.07456659
151	0x3e04467b	0.12917511
152	0xbde638fc	-0.11241338
153	0x3db833ec	0.08994278
154	0xbe11f0d4	-0.14252025
155	0xbe3ba1d9	-0.18323459
156	0x3bcc9e16	0.0062444312
157	0xbd74ce91	-0.05976731
158	0xbd130f84	-0.03590347
159	0xbdf103ef	-0.117683284
160	0xbcbb5d20	-0.022871554
161	0xbd2340ab	-0.039856594
162	0x3c3d89b7	0.011568478
163	0x3e7daccc	0.24772948
164	0x3d551bc2	0.052028425
165	0x3cf72d4c	0.030172966
166	0x3da5f093	0.081025265
167	0x3a0636fb	0.0005119887
168	0x3e6c0c6e	0.23051617
169	0xbd5cae47	-0.05387714
170	0xbe06fc0b	-0.13182084
171	0x3d695c06	0.056972526
172	0xbccf02f8	-0.02526997
173	0x3ca9ee89	0.020743625
174	0x3e03eda6	0.12883624
175	0x3c36a5e0	0.011147946
176	0x3e413bb3	0.1887043
177	0xbe57192f	-0.210057
178	0xbda1fcf3	-0.07909574
179	0xbc1289c7	-0.0089439815
180	0xbdacb100	-0.084321976
181	0x3d73bc11	0.059505526
182	0x3da87b1d	0.08226607
183	0x3e14f33f	0.14545916
184	0xba48a1d0	-0.00076535065
185	0x3e104a06	0.14090738
186	0xbe173f9b	-0.14770357
187	0x3d7b3cf3	0.061337423
188	0x3e1d5acb	0.15366666
189	0xbd3b0bcb	-0.045665544
190	0x3dacca50	0.084370255
191	0x3c811043	0.015754825
192	0x3975093e	0.00023368464
193	0xbe2d2f57	-0.1691259
194	0x3cebae70	0.028769702
195	0xbdbb3193	-0.09140315
196	0xbd575401	-0.052570347
197	0x3e304e1e	0.172173
198	0x3d003616	0.03130158
199	0xbd312171	-0.043244783
200	0xbdebfbaf	-0.11522614
201	0x3b8fafc8	0.0043849684
202	0xbbce86c4	-0.0063026864
203	0xbe335bdd	-0.17515512
204	0x3e2e9c30	0.17051768
205	0x3c40cabd	0.011767087
206	0xbd435cfd	-0.047696102
207	0xbde11179	-0.10989661
208	0xbd91acf6	-0.07113068
209	0x3da18c4b	0.07888087
210	0xbc797bd2	-0.015227275
211	0x3c9a6273	0.018845772
212	0xbd67c807	-0.056587245
213	0x3d05762f	0.03258341
214	0x3e102aab	0.14078777
215	0xbc49207c	-0.012275811
216	0x3baa9b2a	0.0052064853
217	0x3daf68bd	0.08564899
218	0xbceca91f	-0.028889237
219	0xbcf8cdc7	-0.03037156
220	0xbd6ceb11	-0.057841364
221	0x3d69d2fb	0.057085972
222	0x3c8da25c	0.017289333
223	0x3e2dcab1	0.16971852
224	0x3ce25a49	0.027630942
225	0xbd46ba5b	-0.048517566
226	0x3da00543	0.078135036
227	0x3c777a6b	0.01510487
228	0xbca4d05e	-0.020118888
229	0x3e009b68	0.12559283
230	0x3e4bc4e9	0.19899334
231	0x3d74c8ef	0.059761938
232	0x3e27a8cb	0.16372983
233	0xbe059886	-0.13046464
234	0x3e1a8e95	0.15093453
235	0xbbaad52f	-0.0052134017
236	0x3ca15109	0.01969196
237	0x3e2eecb1	0.17082478
238	0x3d2e4c54	0.04255326
239	0xbc6257a2	-0.013814839
240	0x3e0e1aac	0.13877362
241	0xbd95501d	-0.07290671
242	0xbdb67e2f	-0.08910786
243	0x3dabe5ce	0.08393441
244	0xbd39e19c	-0.045381173
245	0x3d959372	0.073035136
246	0xbd7cecdb	-0.06174932
247	0xbdb104ac	-0.08643469
248	0x3c6c618d	0.014427555
249	0x3de1f0d5	0.11032263
250	0xbcc27a2c	-0.023739897
251	0x3e2ec294	0.17066413
252	0x3da97207	0.08273702
253	0xbb22901b	-0.0024805132
254	0x3d3a7720	0.045523763
255	0xbd3e48a7	-0.046456005

network_body._body_endoder.seq_layers.4.bias f4 [128]
0	0xbb731b4f	-0.0037095135
1	0x3bf7e038	0.0075645708
2	0x3ba46bc5	0.00501773
3	0xbb3e602a	-0.0029049017
4	0xba53fa8b	-0.0008086345
5	0x3b6effce	0.003646839
6	0xbb064750	-0.0020489283
7	0x3b7ec3ff	0.0038874147
8	0x3b58457d	0.0033000403
9	0x3a8c4b58	0.0010703607
10	0xb94b81a9	-0.00019407891
11	0x3bdb3c67	0.00669055
12	0x3a33f5a6	0.00068649126
13	0xbb1515f5	-0.0022748683
14	0xba037034	-0.0005013973
15	0x3b0f3494	0.0021851407
16	0x3b700217	0.003662234
17	0xbaa209d9	-0.0012362554
18	0x3b6aa19a	0.0035801888
19	0x3c16099c	0.0091575645
20	0x3bc0ee21	0.005887762
21	0xb9bb16ab	-0.00035684308
22	0x3c0874e8	0.008328654
23	0x3b2b6605	0.0026153338
24	0x3b291bd8	0.002580395
25	0x3c22689b	0.009912635
26	0x3bd1e2ed	0.0064052255
27	0x3c26ef0d	0.01018883
28	0xba70a2f0	-0.0009179553
29	0x3bec3e5a	0.0072095813
30	0x3b050c68	0.0020301584
31	0x3c58e4d8	0.013238154
32	0x3b71391f	0.0036807728
33	0x3a9beb73	0.0011895731
34	0xbc150c11	-0.009097115
35	0x3bc5c70d	0.0060356916
36	0x39a4667d	0.00031356877
37	0x3beb1dd0	0.007175185
38	0x3a6213c3	0.00086241605
39	0x398a2cb3	0.00026354715
40	0xb969939e	-0.00022275603
41	0x3aa4ded7	0.0012578618
42	0xbabb807b	-0.0014305258
43	0xbb055ecc	-0.0020350693
44	0x3beaaea3	0.0071619316
45	0x3baf38b4	0.0053473357
46	0x3bcef023	0.0063152476
47	0xbb782bab	-0.0037867825
48	0xba125e02	-0.0005583466
49	0x3c0088e0	0.007845134
50	0xbaae261e	-0.0013286506
51	0x3bdd52d8	0.0067542605
52	0x3afaaaaa	0.0019124348
53	0x3bf2c5e7	0.0074088457
54	0x3c272de1	0.0102038095
55	0xb956529a	-0.00020439402
56	0xbbcaf741	-0.0061940257
57	0x3b81da65	0.0039628022
58	0x3b863393	0.0040955036
59	0xbac96d0a	-0.0015367579
60	0x3b497108	0.0030737538
61	0x3bfcdc18	0.007716667
62	0x3b7f144d	0.0038922012
63	0xbb428674	-0.002968219
64	0x3b555a0a	0.0032554888
65	0x3b69cab7	0.0035673806
66	0x3bf9ef9f	0.007627442
67	0x3c0cfd71	0.008605347
68	0x3c230a7e	0.009951232
69	0x3be7654f	0.0070616375
70	0x3a024484	0.0004969316
71	0x3bc8b8d1	0.0061255475
72	0x3b90b416	0.004415999
73	0xbb863d61	-0.0040966724
74	0x3ba7cb86	0.0051206974
75	0x3b285b69	0.002568925
76	0xbbdd33e1	-0.006750569
77	0x3b846c0d	0.004041201
78	0x3b869c83	0.004108013
79	0x3b80792a	0.003920694
80	0x3c3ed151	0.011646585
81	0xb92d51da	-0.00016529058
82	0x3badf75a	0.0053090276
83	0x3b9cc39c	0.0047840606
84	0xbb013bb5	-0.0019719426
85	0x3abf171f	0.0014579034
86	0x38a4c8ab	7.857507e-05
87	0x3b864868	0.004097987
88	0x3b8e76c6	0.004347655
89	0xbbc4da46	-0.0060074655
90	0x3bfcf257	0.007719319
91	0x3bb9a855	0.0056658187
92	0x3b085517	0.002080267
93	0x3bfa2c3d	0.007634668
94	0xbaf97428	-0.001903181
95	0x3be10a2b	0.006867667
96	0x3b61b1a1	0.003443815
97	0x3b6c0278	0.0036012214
98	0x3b543ae2	0.003238373
99	0x3aaef110	0.0013346989
100	0x3bea0ad8	0.007142406
101	0xbc1b68b1	-0.00948541
102	0xba968d94	-0.0011486285
103	0x381e1e16	3.7698155e-05
104	0xbc0625f3	-0.008187759
105	0x3a4d5bc2	0.00078338024
106	0x3c09e466	0.008416271
107	0x3b6632fb	0.0035125602
108	0x3b67e4f5	0.0035384272
109	0xbb9f2906	-0.0048571853
110	0x3b9eb446	0.0048432676
111	0x3c41cc3c	0.011828478
112	0x3b887990	0.004164882
113	0x3bdcc8f6	0.0067378236
114	0x3b4f41b7	0.0031624862
115	0xb8547b27	-5.0659433e-05
116	0x3b0f3638	0.0021852385
117	0x39dd24de	0.00042179873
118	0x3c532f8c	0.012889754
119	0x3ba25d8f	0.0049550007
120	0x3c04dbdf	0.008109062
121	0x3b9b510e	0.004739887
122	0x3b757226	0.003745207
123	0x3bfe618b	0.007763093
124	0xbaa8e21e	-0.0012884771
125	0x3a57fbb0	0.00082391035
126	0xbc4d7945	-0.01254112
127	0x3b670c26	0.0035255044

action_model._continuous_distribution.log_sigma f4 [1, 4]
0	0x3c835ab9	0.01603447
1	0x3d04bba0	0.032405496
2	0x3d036d88	0.03208688
3	0x3d7cbcfd	0.06170367

action_model._continuous_distribution.mu.weight f4 [4, 128]
0	0xbc70f965	-0.014707898
1	0xbd556629	-0.05209938
2	0xbd17cf26	-0.037062787
3	0xbce60afd	-0.028081411
4	0xbc552cc2	-0.013011159
5	0x3d179274	0.037004903
6	0x3b0bbe26	0.0021323054
7	0xbce8dffc	-0.028427117
8	0x3d3d8771	0.046271745
9	0x3b96711e	0.0045911213
10	0xbca9816e	-0.0206916
11	0x3d12d337	0.03584596
12	0x3c9ca3b5	0.01912103
13	0xbd1c7137	-0.038193908
14	0xbbd024ee	-0.0063520586
15	0xbd4eefa6	-0.050521515
16	0xbc5fc6d0	-0.01365824
17	0x3c463a77	0.0120989
18	0xbd63420c	-0.05548291
19	0x3cf941f9	0.030426966
20	0x3d912d94	0.070887715
21	0xbbf33181	-0.007421673
22	0x3d281bc3	0.0410421
23	0xbce2e917	-0.027699037
24	0xbd131f0b	-0.035918277
25	0x3d5c2b33	0.053752135
26	0x3cd1f421	0.025629105
27	0x3d778f60	0.060439467
28	0xbc810687	-0.015750183
29	0x3d0e9cda	0.034817554
30	0xbc4eb8e9	-0.012617328
31	0x3dc85a43	0.09782841
32	0x3d2050ac	0.039139435
33	0xba60a8e5	-0.0008570089
34	0xbc4cc0df	-0.012497156
35	0x3d2f75f7	0.04283711
36	0x3d0f922e	0.035051517
37	0x3d7de886	0.06198933
38	0xbd27a033	-0.040924262
39	0x3b78b947	0.003795223
40	0xbcdc1e27	-0.026869847
41	0xbcf5e8d4	-0.030018248
42	0x3c27077f	0.010194658
43	0x3c833d96	0.016020577
44	0xbd1971d0	-0.037462056
45	0xbd2e2e9b	-0.042524915
46	0x3cf99c58	0.030470058
47	0xbc11a548	-0.008889504
48	0xbb6697af	-0.0035185625
49	0x3cef0796	0.029178422
50	0x3ce5c4aa	0.028047878
51	0x3d0ed16e	0.034867696
52	0x3d1787dd	0.036994804
53	0x3d2b830a	0.041873015
54	0x3d64f61c	0.05589877
55	0xbb5ef7b1	-0.0034022147
56	0x39bb3376	0.0003570576
57	0xbd09631f	-0.033541795
58	0x3b429f76	0.0029697097
59	0xbcc02871	-0.023456784
60	0xbb7b5dd2	-0.0038355482
61	0x3d5bbd2d	0.05364721
62	0x3d19db92	0.037562914
63	0xbbe75246	-0.0070593683
64	0x3ce38bf0	0.027776688
65	0xbce9bdcb	-0.028532883
66	0x3d84eda7	0.06490641
67	0xbd4ae184	-0.049531475
68	0x3cec565b	0.028849771
69	0x3d2079a8	0.03917852
70	0x3d29c8a6	0.04145112
71	0x3bfc3eba	0.0076979073
72	0x3d75354a	0.059865274
73	0xbc7b0d9e	-0.015323071
74	0x3c87b8b3	0.016567564
75	0x3c865a68	0.016400531
76	0x3bc66b5e	0.0060552796
77	0x3d2951aa	0.041337647
78	0xbd1abb48	-0.03777626
79	0xbd1e0dc8	-0.03858736
80	0x3d813cba	0.06310411
81	0x3ceb38d0	0.028713614
82	0xbd77a43e	-0.060459368
83	0x3ca1020d	0.019654298
84	0x3ca76dec	0.020438157
85	0xbd3cd2de	-0.046099536
86	0xbc37b51d	-0.011212614
87	0xbc385635	-0.011251022
88	0xbd064a26	-0.032785557
89	0x3b050c4d	0.0020301521
90	0x3d6a5ccf	0.057217415
91	0xbcff4759	-0.03116195
92	0xbcabe836	-0.02098475
93	0xbd81f32a	-0.06345208
94	0x3b365757	0.0027823055
95	0xbd775c90	-0.06039101
96	0x3cdc4e2d	0.026892746
97	0xbd5156e2	-0.05110825
98	0x3d8830eb	0.06649955
99	0x3d03d1c7	0.03218248
100	0xbd53ca0b	-0.051706355
101	0xbb338786	-0.002739401
102	0xbc90999a	-0.017651368
103	0x3d058097	0.032593336
104	0x3bb20490	0.005432673
105	0xbd14848d	-0.036259223
106	0xbd33c7bf	-0.043891665
107	0x3c64095f	0.01391825
108	0x3c7a6705	0.015283351
109	0x3c4385c4	0.011933748
110	0xbd2f1d6d	-0.042752672
111	0x3ccc47a5	0.024936507
112	0x3cb96537	0.02263127
113	0xbd2bd105	-0.041947383
114	0x3d809238	0.06277889
115	0xbccc2aad	-0.024922693
116	0xbd35c6e5	-0.044379134
117	0x3ba6bd91	0.005088516
118	0x3d9a2501	0.07526589
119	0xba60faa6	-0.00085822714
120	0x3d76d42f	0.060260948
121	0x3d27fdab	0.0410134
122	0x3d13209a	0.035919763
123	0x3d388f5f	0.045058604
124	0xbcc7313b	-0.024315467
125	0xba5023e6	-0.00079399196
126	0x3ad05d66	0.0015896976
127	0x3d2286a9	0.039679203
128	0x3cf3737f	0.029718159
129	0x3d0cea1d	0.034402955
130	0x3c88afb3	0.016685342
131	0x3c5f348e	0.01362337
132	0x3cb1a2a4	0.021683998
133	0x3c95f9b6	0.018307548
134	0x3c8a9eb6	0.016921382
135	0x3c976890	0.018482476
136	0xbc9e4813	-0.019321477
137	0xbb7cc0f5	-0.003856716
138	0xbce6fd78	-0.028197035
139	0xba30f379	-0.00067501474
140	0x3cc6a418	0.024248168
141	0xbc73bb6a	-0.014876226
142	0x3c878457	0.016542597
143	0xbcdc55cd	-0.026896382
144	0xbc63887b	-0.01388752
145	0x3d15ad61	0.0365423
146	0xbcc12cd6	-0.02358095
147	0x3bc6f831	0.006072067
148	0xbcce946a	-0.025217254
149	0x3c6fda07	0.014639384
150	0xb7a9e380	-2.0252308e-05
151	0x3c844f2f	0.016151039
152	0x3abb6880	0.0014298111
153	0x39af1aaa	0.00033398467
154	0xbcb06d9a	-0.021536637
155	0xbd0185e1	-0.031621817
156	0xbbd48d4f	-0.006486572
157	0xbd0e21bf	-0.03470015
158	0xbc725ef8	-0.01479315
159	0xbcc71fcb	-0.024307152
160	0x3c82d080	0.015968561
161	0xbb27a19e	-0.002557851
162	0x3be1d8c1	0.006892294
163	0xbb85e8e1	-0.004086599
164	0x3c8d4a00	0.0172472
165	0x3cb20e4a	0.02173533
166	0x3c309405	0.010777478
167	0xbc2e7a32	-0.010649251
168	0x3cafbb96	0.021451753
169	0x3c8ed2a0	0.017434418
170	0x3c63a5b0	0.013894483
171	0xbd2a458e	-0.04157024
172	0x3d1fa05b	0.038971286
173	0xbc7d3c2a	-0.015456239
174	0x3c643ad3	0.01393004
175	0xbae43477	-0.0017410655
176	0x3d46d6bb	0.048544627
177	0xbc35e7f7	-0.011102668
178	0x3ad7b844	0.0016458114
179	0xbc50405d	-0.012710658
180	0xbb99e0b5	-0.0046959766
181	0xbbb0eae5	-0.0053990954
182	0xbcd67eb5	-0.026183465
183	0x3b62137c	0.0034496477
184	0xbbc2bd86	-0.005943003
185	0xb9e0c31f	-0.00042869986
186	0xbd201e89	-0.03909162
187	0x3c1ed8ce	0.009695245
188	0x3cfc80ef	0.0308232
189	0xbca3559d	-0.019938285
190	0x3c46afd9	0.012126886
191	0xbd02a5bb	-0.031896334
192	0x3c334665	0.010942076
193	0xbc04c401	-0.008103372
194	0x3b9fabf1	0.004872792
195	0x3cca2b54	0.024678864
196	0xbcb1ce1f	-0.021704732
197	0xbc59add0	-0.013286069
198	0x3c011763	0.007879111
199	0xbc49e0e3	-0.012321684
200	0xbc4dcceb	-0.012561063
201	0x3c3a48b3	0.011369872
202	0x3c289af0	0.010290846
203	0xbca59130	-0.020210832
204	0xbaf3aa25	-0.0018590136
205	0xbc9e472e	-0.01932105
206	0xbc8b620c	-0.017014526
207	0x3bc5024b	0.0060122362
208	0xbc455130	-0.012043282
209	0x3c864f81	0.016395332
210	0xbcde203a	-0.027114976
211	0xbcfb75f8	-0.0306959
212	0x3d067cdb	0.032833915
213	0xbac624c2	-0.0015117156
214	0x3d44b7d7	0.048026886
215	0x3d143a25	0.036188263
216	0x3cf10578	0.029421553
217	0x3c47a5ee	0.012185557
218	0x3cc3b1c7	0.023888482
219	0x3c73703d	0.014858303
220	0xbc9e80cc	-0.019348525
221	0xbc12f410	-0.008969322
222	0x3d06ba9e	0.032892816
223	0xbc84e694	-0.01622323
224	0xbc223887	-0.0099011725
225	0xbba6348a	-0.005072181
226	0xbb0b58b9	-0.00212626
227	0x3c42a3ad	0.011879844
228	0x3c0d9826	0.008642232
229	0xbb459e06	-0.0030154004
230	0xbc62fdf9	-0.013854497
231	0xbc3f72e1	-0.011685104
232	0x3c26145d	0.010136691
233	0xbaa033b4	-0.001222244
234	0x3d0cc5d6	0.03436836
235	0xbca968b3	-0.020679807
236	0xbca8f157	-0.020622892
237	0x3bae2f92	0.0053157294
238	0x3ca72ba7	0.020406557
239	0xbcbca411	-0.023027452
240	0xbc838ec1	-0.016059281
241	0x3bcafffb	0.006195066
242	0xbb572ac4	-0.0032831887
243	0x3cddeb25	0.027089665
244	0xbca52040	-0.02015698
245	0xbc8929f7	-0.016743643
246	0xbc988356	-0.018617313
247	0xbc2a27b0	-0.010385439
248	0xba6e3a7b	-0.0009087694
249	0xbd8b9f61	-0.068175085
250	0xbc3c6cb4	-0.011500526
251	0xbc7e3884	-0.015516404
252	0xbbffebf4	-0.00781011
253	0x3d054ac9	0.032542024
254	0xbb1a211d	-0.0023518272
255	0x3c90adae	0.017660942

action_model._continuous_distribution.mu.bias f4 [4]
0	0xbaf2acff	-0.0018514692
1	0x39ba7c97	0.0003556951
2	0x3b6e2872	0.0036340025
3	0x39e94e87	0.0004449973
