results/shooter1/sacshooter1/Shooter/Shooter-28000.onnx (onnx, 203238 bytes, 10 tensors)

network_body._body_endoder.seq_layers.0.weight f4 [128, 120]
-0.14043424 0.084491044 -0.160923 -0.122411884 0.036320344 -0.1281883 -0.028710084 -0.034985956
0.084622614 0.107209414 0.065620475 -0.10864484 -0.117180854 0.09479509 0.14182389 -0.05414614
-0.03737492 -0.059127573 0.030411985 -0.22538646 -0.13274096 0.08995049 0.062344454 -0.090759546
0.17046008 -0.100085616 0.057187665 -0.0528535 0.04914022 -0.0100099 0.08015698 -0.041088525
-0.008366575 -0.05106137 0.039861448 0.025982229 -0.17072152 0.048753947 -0.16456982 0.13631596
-0.0014397881 -0.00027283793 0.09040968 -0.035458446 -0.07926759 -0.13020997 -0.13631965 0.22501326
-0.18732412 -0.054908022 -0.01462373 -0.103901945 -0.07107284 0.30526328 -0.14658806 -0.017239956
-0.14048 -0.07437923 -0.010432424 0.050687175 0.070244454 0.043836396 0.060866028 0.052534513
0.0689647 0.11169433 -0.07891114 0.020519992 0.049223725 -0.02951498 0.008729878 -0.035866663
0.011183572 -0.04552269 -0.021473167 0.032019194 -0.055156905 0.039019305 0.03544596 0.0027221683
0.07596296 -0.112434484 -0.026385086 0.043481573 -0.12177887 -0.06010448 -0.09291102 -0.180381
-0.09816296 0.11283021 0.19522694 0.019132152 -0.0003724968 0.011216504 -0.26733443 0.0577826
-0.06625233 -0.060718015 0.034392513 0.034572393 0.05603331 -0.12448566 0.064930335 0.017933983
-0.02614743 0.077512875 -0.053333465 0.055008303 0.1115909 0.038151424 -0.079687096 0.010170042
0.1184416 -0.0976873 -0.048118636 0.07260542 -0.088565126 -0.08654413 0.011566828 0.19583644
-0.062808745 -0.17322047 -0.054205697 0.020060027 -0.005075071 -0.08398202 0.10655658 -0.06051101
0.0046620765 -0.1171943 -0.039899774 -0.06231437 0.051460043 -0.09548107 0.04532181 -0.09534053
0.008893179 -0.113716125 -0.27564046 0.10300516 -0.082462065 0.045213807 0.14654927 0.06989251
-0.055298895 -0.0051167556 0.015568948 0.11198217 0.07344424 -0.016779784 0.10786597 0.094199404
0.016358629 -0.10940162 -0.06687683 0.019571615 0.05209235 -0.004998276 -0.0132102985 -0.03596133
0.04432878 0.081804395 0.02625582 0.089352824 0.19069932 -0.0049370388 0.120774865 -0.02982502
0.098532565 -0.046830762 0.07579414 -0.020183517 -0.06741292 -0.01040925 -0.018416703 -0.025255926
0.114899635 -0.06473762 -0.08111695 0.047290403 -0.05335558 -0.019784661 0.13363296 -0.0887368
0.061291356 0.018955888 -0.014864788 0.070963755 0.02918191 -0.0038867826 0.02183733 -0.010675373
-0.015251395 -0.06435311 -0.030177876 0.12002112 0.1548374 -0.027654579 -0.098119535 -0.0077004284
0.07418374 0.18795623 0.037433915 0.023526583 -0.071421236 0.027873717 0.041634392 0.14649019
0.07807861 0.15996288 0.03319331 0.13850199 -0.075698085 0.16032712 -0.25958216 -0.00055684475
0.030155232 0.024392389 0.1167458 0.08834672 -0.16012819 0.1372289 -0.070194945 -0.14012511
-0.015182423 0.03916798 0.07424765 0.027277594 -0.0027842605 -0.030284455 0.05136595 -0.056991093
-0.16459869 0.1580344 -0.02502701 0.034259718 0.023355218 -0.098110706 -0.01743973 -0.09227755
0.00028922426 0.03797051 0.015013176 -0.04701947 -0.03625578 0.0013149314 -0.06844802 -0.018517487
-0.09846464 0.034179352 0.0002817167 0.14410919 0.12616765 -0.121381246 0.0013019074 -0.05442823
00000000: fecd 0fbe a409 ad3d 00c9 24be 15b3 fabd
00000010: a4c4 143d cb43 03be 6931 ebbc 6f4d 0fbd
00000020: 9f4e ad3d 9c90 db3d 0764 863d 3081 debd
00000030: 84fc efbd ee23 c23d 483a 113e 58c8 5dbd
00000040: 7216 19bd c12f 72bd 8e22 f93c b5cb 66be
00000050: 3fed 07be f637 b83d e65c 7f3d 24e0 b9bd
00000060: 168d 2e3e b0f9 ccbd 9d3d 6a3d e97c 58bd
00000070: 4147 493d 9000 24bc 5829 a43d 714c 28bd
00000080: f613 09bc ba25 51bd c245 233d afd8 d43c
00000090: 9fd1 2ebe 38b2 473d fe84 28be 6996 0b3e
000000a0: 46b7 bcba b00b 8fb9 b628 b93d e03c 11bd
000000b0: 0c57 a2bd c355 05be 6197 0bbe e069 663e
000000c0: e5d1 3fbe 3ce7 60bd 5f98 6fbc 8bca d4bd
000000d0: a38e 91bd 784b 9c3e 2e1b 16be cf3a 8dbc
000000e0: fdd9 0fbe 2354 98bd c2ec 2abc 5b9d 4f3d
000000f0: 53dc 8f3d cb8d 333d a84e 793d 6e2e 573d
00000100: 5d3d 8d3d ffbf e43d 2a9c a1bd 8b19 a83c
00000110: d19e 493d 66c9 f1bc c307 0f3c ece8 12bd
00000120: 4d3b 373c 0076 3abd 7fe8 afbc 8f26 033d
00000130: 35ec 61bd b5d2 1f3d c82f 113d 6866 323b
00000140: 7892 9b3d 0d44 e6bd 8925 d8bc bc19 323d
00000150: 3367 f9bd 1d30 76bd 2248 bebd ccb5 38be
00000160: a909 c9bd 8613 e73d 92e9 473e 08bb 9c3c
00000170: ad4b c3b9 6dc5 373c 0fe0 88be 73ad 6c3d
00000180: 4daf 87bd 74b3 78bd 2adf 0c3d c89b 0d3d
00000190: 2f83 653d 56f2 febd 32fa 843d 4aea 923c
000001a0: 2333 d6bc 12bf 9e3d 3174 5abd 6350 613d
000001b0: c589 e43d ab44 1c3d fd32 a3bd 3fa0 263c
000001c0: 8291 f23d 4710 c8bd 0c18 45bd 27b2 943d
000001d0: a261 b5bd 0d3e b1bd cb82 3d3c 5989 483e
000001e0: dfa1 80bd b560 31be cb06 5ebd ed54 a43c
000001f0: c84c a6bb c4fe abbd 563a da3d 65da 77bd
00000200: 55c4 983b 9103 f0bd f26d 23bd 5a3d 7fbd
00000210: c4c7 523d 948b c3bd 5da3 393d e541 c3bd
00000220: b2b4 113c 00e4 e8bd bf20 8dbe 5ff4 d23d
00000230: dfe1 a8bd 1d32 393d 0311 163e ce23 8f3d
00000240: 1881 62bd 75aa a7bb e714 7f3c e856 e53d
00000250: ef69 963d c275 89bc d5e8 dc3d 9eeb c03d
00000260: 8802 863c f50d e0bd b8f6 88bd a754 a03c
00000270: ca5e 553d 94c8 a3bb 0270 58bc 304c 13bd
00000280: 1892 353d 1089 a73d 7216 d73c 9dfe b63d
00000290: af46 433e e2c6 a1bb d058 f73d 9a53 f4bc
000002a0: 71cb c93d 9dd1 3fbd f539 9b3d e757 a5bc
000002b0: c90f 8abd 8f8b 2abc a0de 96bc 84e5 cebc
000002c0: 8050 eb3d 2895 84bd a520 a6bd 95b3 413d
000002d0: 618b 5abd 7113 a2bc 14d7 083e a4bb b5bd
000002e0: a50c 7b3d 6149 9b3c 718b 73bc 7255 913d
000002f0: e70e ef3c 64b9 7ebb 33e4 b23c c2e7 2ebc
00000300: fde0 79bc 90cb 83bd 9837 f7bc a2cd f53d
00000310: b28d 1e3e db8b e2bc e5f2 c8bd e053 fcbb
00000320: a5ed 973d 9977 403e 4e54 193d d2ba c03c
00000330: 4c45 92bd 6c57 e43c d388 2a3d 8601 163e
00000340: aee7 9f3d 4fcd 233e b5f5 073d 77d3 0d3e
00000350: 9907 9bbd cb2c 243e f4e7 84be 38f9 11ba
00000360: 1b08 f73c 8cd2 c73c 6c18 ef3d 20ef b43d
00000370: a5f8 23be bc85 0c3e 5ec2 8fbd f57c 0fbe
00000380: b3bf 78bc 9b6e 203d 270f 983d 4375 df3c
00000390: 2478 36bb 1b17 f8bc 1a65 523d 7e6f 69bd
000003a0: 8f8c 28be c5d3 213e 7205 cdbc eb53 0c3d
000003b0: 7153 bf3c 44ee c8bd c4dd 8ebc 03fc bcbd
000003c0: 06a3 9739 f786 1b3d d3f9 753c 7d97 40bd
000003d0: f180 14bd c759 ac3a 7a2e 8cbd fcb1 97bc
000003e0: d4a7 c9bd a6ff 0b3d 60b3 9339 5c91 133e
000003f0: 1832 013e bb96 f8bd c3a4 aa3a 23f0 5ebd

network_body._body_endoder.seq_layers.0.bias f4 [128]
-0.0062534935 -0.003246342 -0.0018052873 -0.0024870145 -0.008203076 -0.0035930034 0.00038857773 -0.011597688
-0.006242053 0.0027479047 0.0028121194 0.0014345291 -0.0032357995 -0.010796191 -0.00087700423 -0.0035132356
-6.8087604e-05 -0.0030378469 0.009726908 -0.0014281552 -0.0052343626 -0.004224044 0.001734894 -0.010520963
-0.013757225 -0.005691357 -0.0018069289 -0.00068151625 -0.006708503 0.0017109847 -0.010181922 -0.013550342
0.0009299317 -0.0041810763 0.005954722 -0.0055425283 0.0025094824 -0.000120242825 -0.0105470065 0.0032589757
-0.0063430225 0.00040407866 0.003369302 -0.00608605 -0.0064364723 -0.010574485 -0.015985437 0.007978544
-0.0035530352 -0.0064058807 -0.008544585 -0.0021113856 -0.0018662057 0.003954782 0.00034740518 -0.003378308
-0.014526819 0.002059454 -0.005430927 0.0071250973 0.0008839619 -0.0042869463 -0.002095867 -0.0022834558
-0.0078078127 -0.0028007126 0.0068930294 -0.0020017053 -0.0048221047 0.00096467807 -0.009892612 -0.00607852
-0.0029573527 -0.011206606 0.004022456 0.0020679338 -0.017071655 -0.011748165 0.0016947059 -0.008129946
-0.0004955725 -0.006126419 -0.003064316 -0.0040233154 -0.01710112 -0.008576393 0.00087727455 0.002883142
-0.009364822 0.0015924063 -0.010121666 -0.009068223 -0.004975914 -0.012520872 0.0010138657 -0.012268953
-0.014390509 -0.0041388324 -0.004020723 -0.0006032971 0.0013745021 -0.0017058565 -0.012609502 -0.0022698143
-0.01798211 0.0012234407 0.001860353 0.008301853 0.0014915689 -0.0039519607 -0.004428273 -0.0038277793
-0.008322163 -0.009869309 -0.0032313706 -0.0021252094 -0.0061531425 -0.0028212925 0.0058069252 -0.0068082586
-0.00044702666 -0.0008658884 0.002158665 -0.008374531 -0.004060514 -0.0044188634 -0.0018687064 -0.004617183
00000000: 1bea ccbb 95c0 54bb 649f ecba 2efd 22bb
00000010: 3266 06bc 9878 6bbb 05ba cb39 3b04 3ebc
00000020: 238a ccbb 3116 343b 894b 383b cf06 bc3a
00000030: b50f 54bb 82e2 30bc c2e6 65ba 503e 66bb
00000040: 41ca 8eb8 9d16 47bb 9c5d 1f3c f030 bbba
00000050: 0485 abbb d969 8abb 6265 e33a 1e60 2cbc
00000060: fc65 61bc 907e babb 79d6 ecba c8a7 32ba
00000070: 00d3 dbbb 1f43 e03a 14d2 26bc 4102 5ebc
00000080: a9c6 733a 6901 89bb d41f c33b 199e b5bb
00000090: 2176 243b e02a fcb8 5acd 2cbc 8a94 553b
000000a0: 21d9 cfbb 85da d339 82cf 5c3b 7d6d c7bb
000000b0: 0be9 d2bb 9b40 2dbc e4f3 82bc 70b8 023c
000000c0: 0ada 68bb 6ce8 d1bb 96fe 0bbc 2c5f 0abb
000000d0: 799b f4ba 1e97 813b ef23 b639 9a66 5dbb
000000e0: e501 6ebc e8f7 063b ebf5 b1bb a679 e93b
000000f0: aeb9 673a 8379 8cbb d05a 09bb 08a6 15bb
00000100: aed8 ffbb 298c 37bb ecde e13b 0b2f 03bb
00000110: bf02 9ebb 73e2 7c3a 9f14 22bc 522e c7bb
00000120: 25d0 41bb ea9b 37bc cece 833b 2c86 073b
00000130: dbd9 8bbc 607b 40bc e520 de3a 7733 05bc
00000140: 4fe9 01ba 21c0 c8bb b1d2 48bb 04d6 83bb
00000150: a617 8cbc 0084 0cbc e6f8 653a 19f3 3c3b
00000160: e96e 19bc 4ab8 d03a 58d5 25bc e292 14bc
00000170: fe0c a3bb 5824 4dbc b0e3 843a b803 49bc
00000180: 2bc6 6bbc 0b9f 87bb 45c0 83bb 9526 1eba
00000190: a328 b43a 0c97 dfba 1698 4ebc 2ac1 14bb
000001a0: 384f 93bc dc5b a03a 17d7 f33a 7f04 083c
000001b0: bf80 c33a 737f 81bb 0c1b 91bb 7bdb 7abb
000001c0: ae59 08bc e2b2 21bc 67c5 53bb 1947 0bbb
000001d0: 4da0 c9bb 6fe5 38bb 0548 be3b d017 dfbb
000001e0: e75e eab9 c9fc 62ba 6478 0d3b 5435 09bc
000001f0: 0f0e 85bb 1dcc 90bb 62ef f4ba bd4b 97bb

network_body._body_endoder.seq_layers.2.weight f4 [128, 128]
-0.029624384 -0.025591072 0.052689094 0.02113672 -0.06473505 -0.093902074 -0.09120716 -0.062988415
-0.048306238 -0.06749482 -0.020399654 0.24504325 0.095993 -0.07057016 -0.030873701 -0.015458394
0.010760228 0.09926785 -0.12520002 0.16851671 0.12343368 0.05053337 -0.0152123645 0.001038947
-0.1343928 -0.033904027 0.028640425 0.037955496 -0.022735968 0.07058785 0.027880944 -0.055669796
0.09808154 0.0023808656 -0.044695955 -0.117749564 -0.11791451 0.010877843 0.0641371 0.051430475
0.07949107 0.010886665 -0.14699377 0.09696031 0.0803733 0.03138307 -0.12256633 0.07123718
0.025707472 0.07971789 0.043361504 0.11714033 0.100349195 0.086261384 -0.059496626 0.059667327
-0.014861818 0.052185327 -0.0390833 -0.022884281 -0.0024292155 -0.09199678 -0.0794025 0.043824896
0.030353405 0.109180644 0.06503487 -0.045469746 -0.097546466 0.0932771 -0.18637446 0.050224576
0.029993055 0.008670675 0.007810183 0.1427069 0.099931836 -0.123312324 -0.087753505 0.112830065
-0.012273921 0.0029694338 -0.058939733 0.042640965 0.025049131 0.017062228 0.043211635 -0.1035692
0.025230968 0.020874262 0.071501836 -0.0038684427 0.07143773 -0.0014812355 -0.02023593 -0.23512141
-0.03396618 -0.040250994 -0.0504644 0.04663538 0.05269033 0.059433978 0.0039957683 0.053000167
0.11688727 0.06543727 0.06768148 0.17074226 -0.044098802 -0.018556142 -0.20400733 0.109540105
-0.061378974 0.014721696 0.08665549 0.022210168 -0.010786314 0.11066524 0.07177206 0.055800486
-0.029674942 0.017368246 0.21793993 0.17018482 0.05710097 0.22000985 -0.026417667 0.020134958
-0.002340115 -0.051498316 -0.11914623 -0.20372008 -0.08059547 -0.018860802 -0.010043908 0.1561542
-0.0536402 -0.013232025 0.106867805 -0.08192727 -0.104865566 -0.063230366 0.07528308 -0.080211595
-0.03281044 0.19004206 0.03579157 -0.013312522 0.0321809 0.010554699 0.021759091 0.06705589
-0.07004572 0.074142285 0.064846925 0.0015350751 0.075700715 -0.07647569 0.07344102 0.08446505
0.046261676 -0.10151753 -0.0024336502 -0.00052767067 0.09033547 0.10527566 -0.017883472 -0.090880185
0.06943974 -0.15336818 -0.018539444 0.0046970947 -0.087414265 0.06186167 -0.023635602 0.06473223
0.11888231 -0.021940665 0.05766537 -0.10390612 -0.021248689 -0.028064024 0.005743505 -0.023013538
-0.059198305 -0.018719643 0.041451845 -0.03884822 0.18730606 0.1310062 -0.124339975 0.08248194
-0.06847467 0.20216343 0.16194685 0.116061635 -0.10327004 0.15758848 -0.065873936 0.14894433
0.15032184 0.021156054 0.001241497 -0.034559943 -0.0809375 -0.083405375 0.01567068 -0.062341247
0.005408884 0.044129103 -0.034601245 -0.038717087 -0.07301658 -0.024381155 -0.048573323 -0.11157921
-0.067389786 -0.091311134 0.032612875 -0.072246924 -0.11437213 -0.08272594 -0.10194381 -0.031182911
0.03162979 0.04389791 0.1300123 -0.05334297 -0.016643297 -0.25302395 -0.019410858 -0.12657925
-0.043793514 0.14846697 0.18808705 0.0743861 -0.003663227 -0.01724541 0.016661113 -0.036916927
-0.060225848 0.08151268 0.1294358 -0.17479497 0.018178277 -0.043612715 0.05098064 -0.10070961
-0.023348091 -0.026195811 0.0016898486 -0.042096388 -0.15031818 -0.07114276 0.008359551 -0.08566196
00000000: d6ae f2bc 5ea4 d1bc 85d0 573d ea26 ad3c
00000010: cf93 84bd bb4f c0bd d2ca babd 1200 81bd
00000020: c3dc 45bd b93a 8abd 2d1d a7bc 9eec 7a3e
00000030: fa97 c43d 1787 90bd d8ea fcbc 3445 7dbc
00000040: ab4b 303c f14c cb3d 6f34 00be a58f 2c3e
00000050: ccca fc3d 14fc 4e3d 483d 79bc 472d 883a
00000060: 449e 09be f3de 0abd 539f ea3c 3977 1b3d
00000070: c840 babc 5d90 903d 9466 e43c 0306 64bd
00000080: f9de c83d 4c08 1c3b 1b13 37bd af26 f1bd
00000090: 2a7d f1bd fb38 323c 505a 833d c3a8 523d
000000a0: 37cc a23d fc5d 323c 8985 16be 2193 c63d
000000b0: c29a a43d 898b 003d 0e04 fbbd cce4 913d
000000c0: 7a98 d23c 2243 a33d d59b 313d 45e7 ef3d
000000d0: e183 cd3d cfa9 b03d bcb2 73bd ba65 743d
000000e0: fc7e 73bc 48c0 553d cf15 20bd d177 bbbc
000000f0: 7933 1fbb cf68 bcbd c79d a2bd bc81 333d
00000100: b4a7 f83c 1a9a df3d 0031 853d 7c3e 3abd
00000110: 71c6 c7bd 1008 bf3d f2d8 3ebe 49b8 4d3d
00000120: ffb3 f53c 720f 0e3c 90ec ff3b c221 123e
00000130: 10a9 cc3d 2c8b fcbd 1cb8 b3bd 7313 e73d
00000140: 8e18 49bc d59a 423b ca6a 71bd 4ba8 2e3d
00000150: d633 cd3c 16c6 8b3c affe 303d 171c d4bd
00000160: 2db1 ce3c 8000 ab3c 8e6f 923d b385 7dbb
00000170: f24d 923d 0426 c2ba d2c5 a5bc abc3 70be
00000180: 1f20 0bbd 3ade 24bd c2b3 4ebd bd04 3f3d
00000190: d1d1 573d 0b71 733d efee 823b b416 593d
000001a0: 9862 ef3d fa03 863d 969c 8a3d 0fd7 2e3e
000001b0: f2a0 34bd 0d03 98bc 4ce7 50be 9056 e03d
000001c0: 8568 7bbd 4533 713c 6f78 b13d 19f2 b53c
000001d0: 14b9 30bc 75a4 e23d 3bfd 923d 0d8f 643d
000001e0: dd18 f3bc da47 8e3c a52b 5f3e ee44 2e3e
000001f0: b5e2 693d 434a 613e dd69 d8bc 11f2 a43c
00000200: 9d5c 19bb e6ef 52bd f002 f4bd ff9b 50be
00000210: 3d0f a5bd f881 9abc 348f 24bc e3e6 1f3e
00000220: d4b5 5bbd 23cb 58bc 82dd da3d 7cc9 a7bd
00000230: c2c3 d6bd ec7e 81bd 042e 9a3d fa45 a4bd
00000240: 3d64 06bd 639a 423e 2e9a 123d c41c 5abc
00000250: 1fd0 033d 9eed 2c3c 1f40 b23c 9954 893d
00000260: 2174 8fbd e9d7 973d 77ce 843d 9334 c93a
00000270: fa08 9b3d 499f 9cbd 3f68 963d 03fc ac3d
00000280: e27c 3d3d 6ce8 cfbd e07d 1fbb 6153 0aba
00000290: ce01 b93d c49a d73d 5c80 92bc 641f babd
000002a0: 6c36 8e3d 8c0c 1dbe 08e0 97bc 16ea 993b
000002b0: 4006 b3bd aa62 7d3d 739f c1bc 5592 843d
000002c0: 9278 f33d e9bc b3bc 8632 6c3d bbcc d4bd
000002d0: bb11 aebc 86e6 e5bc 0334 bc3b e386 bcbc
000002e0: ec79 72bd f059 99bc 69c9 293d 501f 1fbd
000002f0: 29cd 3f3e 7d26 063e f5a5 febd 4bec a83d
00000300: 733c 8cbd ee03 4f3e 65d5 253e b9b1 ed3d
00000310: 3e7f d3bd e05e 213e eae8 86bd dd84 183e
00000320: f8ed 193e 764f ad3c bab9 a23a ba8e 0dbd
00000330: 8fc2 a5bd 70d0 aabd cc5f 803c 8959 7fbd
00000340: 023d b13b b8c0 343d 09ba 0dbd cf95 1ebd
00000350: b789 95bd fdba c7bc d2f4 46bd a483 e4bd
00000360: a803 8abd 5501 bbbd 1495 053d 32f6 93bd
00000370: ef3b eabd 386c a9bd ebc7 d0bd 4e73 ffbc
00000380: 3d8e 013d 4bce 333d f221 053e 287e 5abd
00000390: 8657 88bc 5b8c 81be 8503 9fbc fe9d 01be
000003a0: d460 33bd ba07 183e e499 403e bd57 983d
000003b0: c012 70bb 3f46 8dbc e37c 883c 3436 17bd
000003c0: 61af 76bd 1ff0 a63d d18a 043e 74fd 32be
000003d0: 9cea 943c 3fa3 32bd 13d1 503d d740 cebd
000003e0: 7f44 bfbc 9998 d6bc e97d dd3a 436d 2cbd
000003f0: 02ed 19be 4cb3 91bd 80f6 083c 8a6f afbd

network_body._body_endoder.seq_layers.2.bias f4 [128]
-0.0033613858 0.0023283972 -0.008490808 -0.0011040726 0.0017097864 -0.0008901931 0.0046847523 -0.0055691153
0.00072886865 -0.009800148 -0.011226693 -0.0137618985 -0.003587356 -0.0016166762 0.007854459 -0.0043877703
0.0067545385 -0.010508205 0.007939908 -0.008880327 -0.007939001 -1.8184759e-05 -0.0049026883 -0.007701033
0.0014206581 0.0015401294 -0.005136573 -0.002959482 -0.010454353 -0.0040785056 0.011179736 0.004778544
0.0019057926 0.0046953093 0.004247846 -5.4148513e-05 -0.0047928304 0.003339828 -0.007882582 0.0045783636
0.004098728 -0.009398119 -0.00081843865 -0.005952172 0.0028658714 0.010323712 0.004461892 0.017758721
-0.0020712093 -0.009127387 -0.0071327426 0.004033323 0.0025784182 -0.0038944664 -0.0010217543 -0.0040159617
0.010378989 -0.011060419 -0.0091514345 0.0014697594 0.01543313 0.0041841 -0.011071259 -0.017503165
-0.002196303 -0.008405981 -0.009942178 0.0022322526 -0.0055553555 0.000602729 0.0051721823 -0.009696831
0.0028513272 -0.0055858702 0.0055383565 -0.005985037 0.00069592264 -0.011442106 -0.0075249495 -0.011273895
-0.00027284972 0.011757863 -0.008230546 -0.005475439 -0.0010385865 -0.0049185753 -0.014828585 0.008420877
-0.0031202836 0.0019866608 0.005953398 0.005647772 -0.009081801 -0.0065024374 -0.009045019 -0.004752126
-0.010379401 0.008957942 -0.0056240857 -0.004881397 -0.018572332 -0.012804826 -0.00014066868 -0.010324648
-0.0067816265 0.0040334156 -0.01042238 -0.0074252873 0.009013659 0.0040909275 -0.006974149 0.0026934957
-0.0067711705 -0.0012608572 0.0039030297 -0.0021833663 -0.014120965 0.0064608045 -0.005849805 -0.004519853
-0.019996062 -0.0016279173 0.0139142815 0.0038411063 -0.0057024434 -0.0019359908 -0.006022327 0.0043279864
00000000: b24a 5cbb 0698 183b 081d 0bbc 87b6 90ba
00000010: e91a e03a d95b 69ba 8d82 993b 207d b6bb
00000020: 8c11 3f3a cd90 20bc 2af0 37bc 9679 61bc
00000030: d919 6bbb a7e6 d3ba fdaf 003c 49c7 8fbb
00000040: 2d55 dd3b 9b2a 2cbc 6316 023c cb7e 11bc
00000050: 9512 02bc 798b 98b7 bba6 a0bb f258 fcbb
00000060: 6035 ba3a 2bde c93a b350 a8bb def3 41bb
00000070: bc48 2bbc fca4 85bb 362b 373c 5595 9c3b
00000080: cacb f93a 1cdb 993b 8431 8b3b 861d 63b8
00000090: 2d0d 9dbb 04e1 5a3b f225 01bc 1906 963b
000000a0: 9f4e 863b 91fa 19bc 7d8c 56ba 700a c3bb
000000b0: 58d1 3b3b c924 293c 1035 923b bd7a 913c
000000c0: 20bd 07bb 098b 15bc c8b9 e9bb f729 843b
000000d0: aefa 283b 4e3a 7fbb 63ec 85ba 5498 83bb
000000e0: a30c 2a3c c236 35bc e6ef 15bc f1a4 c03a
000000f0: 3ddb 7c3c c61a 893b 3a64 35bc cc62 8fbc
00000100: daef 0fbb 3db9 09bc 84e4 22bc fc4a 123b
00000110: b309 b6bb 7500 1e3a 697b a93b 75df 1ebc
00000120: 55dd 3a3b ad09 b7bb 1a7b b53b 211e c4bb
00000130: 946e 363a ac77 3bbc da93 f6bb 25b6 38bc
00000140: 450d 8fb9 0da4 403c 69d9 06bc 506b b3bb
00000150: 2e21 88ba 002c a1bb 98f3 72bc b8f7 093c
00000160: ac7d 4cbb a332 023b b914 c33b f210 b93b
00000170: d6cb 14bc 6612 d5bb 8f31 14bc b9b7 9bbb
00000180: 5d0e 2abc 55c4 123c 404a b8bb 20f4 9fbb
00000190: 0125 98bc 55cb 51bc 7680 13b9 b628 29bc
000001a0: 6838 debb be2a 843b a1c2 2abc d34f f3bb
000001b0: 07ae 133c 300d 863b 6787 e4bb 5c85 303b
000001c0: b2e0 ddbb 5943 a5ba f9c9 7f3b cf16 0fbb
000001d0: 9f5b 67bc 28b5 d33b b9af bfbb 461b 94bb
000001e0: c8ce a3bc d75f d5ba baf8 633c 12bb 7b3b
000001f0: 90db babb 12c1 fdba f156 c5bb c8d1 8d3b

network_body._body_endoder.seq_layers.4.weight f4 [128, 128]
0.06884869 -0.052725498 -0.08034493 0.08972165 0.25292212 -0.0056735827 0.025027769 0.07811096
0.09942597 0.017184384 0.0113881845 -0.0034966175 0.12883236 0.05929159 -0.029169204 -0.063382685
0.08483946 0.0032836937 0.084643334 -0.11603303 -0.030523067 -0.115884215 0.114126 -0.13848507
0.0035215805 0.03069517 0.14320579 -0.06254663 0.069146425 -0.09719679 -0.1880718 -0.048952986
-0.16649452 0.132468 -0.10536184 -0.047098447 0.0354767 -0.041293573 0.20935516 0.15185994
0.00015725041 0.010009752 -0.021106213 -0.050562363 -0.10383892 0.16878796 0.059134807 -0.067480505
-0.029836155 -0.062414672 -0.13921231 -0.030558554 0.15763432 0.1335565 0.120306656 -0.05308466
-0.052008465 -0.037751153 0.022822566 0.04326631 0.018345667 0.15273331 -0.16266647 -0.08412056
0.018582 0.09273783 -0.05758536 0.05841732 0.036266364 -0.18176706 -0.08542491 0.032798436
0.00819773 0.11376075 -0.068463765 -0.047140703 -0.0066283713 -0.14663936 0.11614706 -0.1516671
-0.0335526 0.07271326 -0.07960979 0.020437658 0.0072843465 -0.11329865 0.058242805 0.19128297
0.12323965 -0.067238785 -0.097020626 0.09647061 0.027309356 0.038258586 0.09271785 -0.13091148
-0.017111918 0.019441536 -0.057591997 0.02287105 0.07498439 0.05353256 0.023166573 -0.095341735
-0.13336687 0.019615673 0.17129761 -0.010443308 -0.05993263 -0.0149998665 -0.03434555 0.078413814
0.00066518504 0.022418834 -0.122193865 -0.0024227174 0.03253216 -0.121115945 -0.013450933 -0.01617428
0.0014239387 0.120164685 0.06119543 -0.016716499 0.12793563 -0.06555169 -0.047147773 -0.11186859
-0.0063643493 0.110525556 0.068944074 -0.15828697 -0.08921114 0.062348932 -0.016845083 -0.05886973
0.101747334 -0.0021871247 0.074278615 0.0146980975 -0.13699728 -0.048572116 -0.149483 0.29590034
-0.16050245 0.03820349 0.050361156 0.07770948 0.048400514 0.11915436 0.17529605 -0.057539392
-0.11481186 -0.024438476 0.00823431 0.13849832 -0.028745642 -0.1263309 0.004623347 0.029749794
-0.09757058 0.001552178 -0.058028873 -0.029756041 -0.058691394 -0.0005587126 0.12978382 -0.0205605
0.060589075 -0.06888447 -0.06515028 -0.022600027 0.0669798 0.13338104 -0.17477687 -0.101396404
-0.03669606 0.09144677 -0.02229711 0.06491373 0.19943736 0.027262433 0.080166735 -0.10148377
-0.0053717764 -0.06910673 -0.13743633 0.1089243 -0.09232356 -0.07870173 -0.026589245 -0.04481088
0.08855373 0.03326116 -0.05606013 -0.12054337 0.00039474762 -0.017271455 -0.08308474 0.24236491
0.03086244 -0.1302956 -0.044907447 -0.056872834 0.012560932 -0.035273775 -0.045555424 0.016822122
0.053739913 0.039960608 -0.0862999 -0.036282454 0.015331466 0.004034318 -0.1269721 0.029161148
0.14804342 -0.08230862 -0.05553262 0.043418076 -0.09464861 0.0729706 -0.06707284 0.13119876
-0.17095263 0.028455587 0.0598766 0.056101207 0.097629786 0.04730682 0.14895068 -0.03645355
0.14117417 0.03824876 0.20719287 -0.030876286 0.011606138 0.08472436 -0.07092335 0.023637077
-0.13277401 -0.01684203 0.08403544 0.0010282112 0.016327437 -0.11013073 -0.096632645 -0.1639358
-0.10344759 0.0012624033 -0.023861645 0.09131711 0.24654458 -0.09807387 0.066033795 0.07482772
00000000: 8b00 8d3d b1f6 57bd e28b a4bd fcbf b73d
00000010: 027f 813e 76e9 b9bb 0907 cd3c a4f8 9f3d
00000020: d89f cb3d 44c6 8c3c 8295 3a3c 8227 65bb
00000030: a1ec 033e bddb 723d 41f4 eebc c8ce 81bd
00000040: 50c0 ad3d 3d33 573b 7c59 ad3d baa2 edbd
00000050: 830b fabc b454 edbd e4ba e93d 08cf 0dbe
00000060: 51ca 663b 7074 fb3c 8aa4 123e 7318 80bd
00000070: a49c 8d3d 1c0f c7bd e595 40be ed82 48bd
00000080: 8a7d 2abe b1a5 073e f3c7 d7bd 4dea 40bd
00000090: 0450 113d 7323 29bd 3361 563e 2c81 1b3e
000000a0: 96e3 2439 f1ff 233c f0e6 acbc 7b1a 4fbd
000000b0: 80a9 d4bd c0d6 2c3e 5737 723d 3833 8abd
000000c0: f46a f4bc 87a6 7fbd ac8d 0ebe ef55 fabc
000000d0: e46a 213e 09c3 083e 5663 f63d 4d6f 59bd
000000e0: d406 55bd f4a0 1abd 64f6 ba3c 0438 313d
000000f0: a749 963c 1f66 1c3e 0a92 26be 6647 acbd
00000100: 4739 983c 55ed bd3d a0de 6bbd 0047 6f3d
00000110: 0a8c 143d 2521 3abe 41f3 aebd a757 063d
00000120: c64f 063c 65fb e83d bb36 8cbd 9c16 41bd
00000130: cf32 d9bb a128 16be 83de ed3d 9f4e 1bbe
00000140: 736e 09bd b1ea 943d 750a a3bd e06c a73c
00000150: 87b1 ee3b 1f09 e8bd 0290 6e3d afdf 433e
00000160: 1265 fc3d 7db4 89bd c0b2 c6bd 6292 c53d
00000170: dfb7 df3c 09b5 1c3d dbe2 bd3d a90d 06be
00000180: 4b2e 8cbc db43 9f3c 96e5 6bbd 115c bb3c
00000190: 6a91 993d f544 5b3d d3c7 bd3c 8742 c3bd
000001a0: 5391 08be 0cb1 a03c a468 2f3e 691a 2bbc
000001b0: eb7b 75bd 00c2 75bc ebad 0cbd 6c97 a03d
000001c0: d05f 2e3a b4a7 b73c c740 fabd 74c6 1ebb
000001d0: 7140 053d a30b f8bd 4d61 5cbc ec7f 84bc
000001e0: 74a3 ba3a e718 f63d 0fa8 7a3d 0af1 88bc
000001f0: 8f01 033e f73f 86bd 061e 41bd 5c1b e5bd
00000200: 088c d0bb 395b e23d 8d32 8d3d fb15 22be
00000210: 55b4 b6bd 9861 7f3d b3fe 89bc 6321 71bd
00000220: e860 d03d dd55 0fbb 631f 983d 4ad0 703c
00000230: 0449 0cbe 8ef3 46bd 1212 19be 4080 973e
00000240: c15a 24be 437b 1c3d 8047 4e3d 2626 9f3d
00000250: 9e3f 463d 3307 f43d cf80 333e 6dae 6bbd
00000260: 7b22 ebbd 3333 c8bc 33e9 063c 81d2 0d3e
00000270: fb7b ebbc e35c 01be 727f 973b d7b5 f33c
00000280: 16d3 c7bd 7372 cb3a afaf 6dbd f1c2 f3bc
00000290: 6366 70bd 9176 12ba 0de6 043e 7e6e a8bc
000002a0: 402c 783d 4d13 8dbd 836d 85bd b123 b9bc
000002b0: b52c 893d 0a95 083e b5f8 32be eba8 cfbd
000002c0: 9c4e 16bd 7248 bb3d 6ea8 b6bc 7df1 843d
000002d0: 4f39 4c3e 7755 df3c 752e a43d b9d6 cfbd
000002e0: ba05 b0bb d487 8dbd 1cbc 0cbe b413 df3d
000002f0: 2214 bdbd 5f2e a1bd b0d1 d9bc 9d8b 37bd
00000300: a85b b53d db3c 083d 4f9f 65bd 71df f6bd
00000310: 21f6 ce39 de7c 8dbc 5528 aabd 822e 783e
00000320: 3ad3 fc3c 366c 05be dff0 37bd 7df3 68bd
00000330: 5ecc 4d3c 3c7b 10bd 5398 3abd 8cce 893c
00000340: 621e 5c3d bcad 233d 01be b0bd e99c 14bd
00000350: d430 7b3c 5032 843b f904 02be 5ce3 ee3c
00000360: b298 173e 6c91 a8bd 2c76 63bd 27d7 313d
00000370: 21d7 c1bd 9c71 953d 7c5d 89bd f858 063e
00000380: 350e 2fbe b11b e93c 2a41 753d 61ca 653d
00000390: 20f2 c73d ccc4 413d 8786 183e 5150 15bd
000003a0: f68f 103e bbaa 1c3d 5e2a 543e 44f0 fcbc
000003b0: ac27 3e3c f783 ad3d 4340 91bd 8ba2 c13c
000003c0: e9f5 07be 4cf8 89bc c61a ac3d 0bc5 863a
000003d0: 1ec1 853c 388c e1bd 56e7 c5bd c9de 27be
000003e0: 54dc d3bd 3a77 a53a 7f79 c3bc 7704 bb3d
000003f0: 2f76 7c3e f4da c8bd ba3c 873d 473f 993d

network_body._body_endoder.seq_layers.4.bias f4 [128]
0.006470767 -0.0047699776 0.015158817 -0.0022195883 -0.009175257 -0.0014473544 -0.0057258666 0.0013179823
-0.010972203 -0.010762597 0.0054786946 0.0010003622 -0.01261233 -0.014416667 0.0053695436 -0.009630159
-0.010004567 -0.00828458 -0.0004489054 0.0060595567 -0.0027627535 0.007905943 0.012798891 -0.0047508203
-0.0077333404 0.009079814 -0.011265563 0.0038605602 -0.006676747 -0.0067304033 -0.0014766058 0.005884792
-0.0018183322 -0.0054823225 0.008945598 -0.0112372385 -0.014324147 -0.0054296963 0.0005539463 -0.0068568303
0.0020338949 -0.007894067 -0.017419012 -0.0011918133 -0.013630356 -0.01667342 0.011388273 -0.01187859
0.0031718593 -0.021716481 -0.0014522115 0.0030546023 0.0040753917 0.0030386185 -0.0103072515 -0.015447175
-0.0069400705 0.0088935895 0.0027773222 -0.010383163 0.0076984544 0.0063453526 -0.0115188025 0.00026832338
0.0073312237 0.00793963 -0.0006097685 0.01169156 0.0042099557 0.00348098 -0.0057177967 0.0023623623
-0.016926073 0.0040086447 -0.0022727977 0.010583893 -0.007587621 -0.004004517 -0.011837863 -0.0055045085
-0.011001136 0.01287402 -0.020131048 -0.0019457857 -0.0033533098 -0.0040747547 -0.0014415651 0.010066196
-0.0016031768 -0.010225509 0.011094016 0.0007190328 0.0004939363 -0.0055320878 -0.0038296217 0.010663633
-0.0017675859 -0.0069958135 0.006148882 0.00037584183 -0.010655207 -0.009219619 -0.012429767 0.009668045
0.006495369 0.0016544103 0.013705348 -0.013771042 -0.008022352 0.0011303589 -0.0036946603 0.0013912327
-0.010357326 -0.014209714 -0.0059518726 -0.003372463 0.010950264 0.0066381106 0.008451792 -0.0036513212
0.006116505 -0.022623187 -0.018189523 0.008925785 0.0109040355 -0.008466518 -0.0063081835 0.005453242
00000000: ba08 d43b 794d 9cbb b05c 783c 8376 11bb
00000010: d153 16bc 28b5 bdba 0da0 bbbb 26c0 ac3a
00000020: c1c4 33bc 9b55 30bc 9f86 b33b 961e 833a
00000030: f2a3 4ebc e233 6cbc fff2 af3b d0c7 1dbc
00000040: 32ea 23bc 0cbc 07bc 105b ebb9 3f8f c63b
00000050: 500f 35bb ee87 013c 71b2 513c c5ac 9bbb
00000060: f667 fdbb 80c3 143c 3293 38bc 7401 7d3b
00000070: 9dc8 dabb b78a dcbb ab8a c1ba 37d5 c03b
00000080: 1b55 eeba 0ea5 b3bb 8f90 123c 651c 38bc
00000090: d4af 6abc 98eb b1bb b536 113a 43af e0bb
000000a0: 184b 053b 1e56 01bc 51b2 8ebc 9e36 9cba
000000b0: db51 5fbc b296 88bc e195 3a3c 6b9e 42bc
000000c0: f8de 4f3b c3e6 b1bc 2258 beba b92f 483b
000000d0: dd8a 853b 8f23 473b bfdf 28bc 2616 7dbc
000000e0: 8869 e3bb 6bb6 113c bc03 363b 241e 2abc
000000f0: 5143 fc3b adec cf3b 5cb9 3cbc c1ad 8c39
00000100: c33a f03b 3915 023c dfd8 1fba f58d 3f3c
00000110: abf3 893b 2721 643b 5b5c bbbb ddd1 1a3b
00000120: 8ca8 8abc f35a 833b 38f3 14bb 1168 2d3c
00000130: 94a1 f8bb 5338 83bb 99f3 41bc 2a5f b4bb
00000140: 1c3e 34bc 8eed 523c dee9 a4bc bc09 ffba
00000150: 34c3 5bbb 8585 85bb e6f2 bcba b0ec 243c
00000160: b021 d2ba e588 27bc adc3 353c 797d 3c3a
00000170: 817b 013a 8446 b5bb 64fa 7abb 85b6 2e3c
00000180: 57ae e7ba 233d e5bb 907c c93b a30c c539
00000190: 2d93 2ebc e30d 17bc 39a6 4bbc b866 1e3c
000001a0: 1bd7 d43b ccd8 d83a 658c 603c f09f 61bc
000001b0: 2f70 03bc 8d28 943a 1d22 72bb 065a b63a
000001c0: c6b1 29bc dccf 68bc ed07 c3bb 8a04 5dbb
000001d0: bc68 333c 8284 d93b 6379 0a3c 014b 6fbb
000001e0: f66c c83b 4354 b9bc 3202 95bc 753d 123c
000001f0: d7a6 323c 26b7 0abc e1b4 cebb 1cb1 b23b

action_model._continuous_distribution.mu.weight f4 [4, 128]
0.013875159 0.001984976 -0.0074444427 -0.009387821 0.012972488 -0.013720016 0.00615784 0.005059502
0.009744746 0.014303059 -0.0021876097 0.012814071 -0.00946759 0.035384063 -0.023992907 0.0035175136
0.030829273 -0.002248431 0.003478553 0.006304717 -0.0039417385 0.019255055 0.010796731 0.0012348517
-0.002374993 -0.0022818337 0.013681447 0.004826841 -0.014089194 0.014386751 0.011350122 -0.011385068
-0.008768429 0.0034286287 -0.00010966555 -0.003334045 0.007981894 0.014784533 0.035934392 -0.008116674
-0.0043846425 0.012277636 -0.011507049 0.016502524 0.0026080727 -0.004918134 -0.0033637155 -0.01475748
-0.028129414 0.012667218 0.034158204 -0.004421809 -0.00058025453 -0.0013160626 0.0055021625 0.0021335662
-0.006645387 0.024652395 -0.014534671 0.0058068754 -0.00035452473 0.0012997128 -0.013425998 -0.0016527665
0.0036394147 -0.0020820093 -0.024071317 0.012394914 0.009383355 -0.008741775 0.00086882117 -0.007199488
0.009999439 0.0029076715 -0.006046916 -0.012737756 0.011251303 0.018016333 -0.00012422407 -0.002305647
-0.011032439 -0.015468211 0.008424233 -0.005150093 0.0010195756 -0.011155666 -0.012462132 0.003340589
0.0013563704 -0.014826647 -0.032531627 -0.0010939892 -0.015064492 -0.002118172 -0.002477444 0.0026396872
-0.0020256087 -0.008075036 0.003296769 0.009501264 -0.0045762677 0.013355155 -0.014573626 -0.003749598
-0.009599618 -0.011352537 0.0031012776 0.017400714 -0.0035231207 0.002437407 0.010870789 0.010415889
0.03225778 -0.0057544336 -0.0006807541 0.0076204874 0.007823767 -0.0050171516 0.0023758607 -0.004835876
0.0061582825 -0.014280216 -0.0077028675 0.0069558704 0.037723143 0.0002496887 0.0035326045 0.010645674
0.001772717 -0.00680144 -0.031732194 0.0072681895 -0.00327059 0.009579791 0.005224029 -0.0019422378
-0.0045859683 0.006342117 0.00047613762 0.006988551 0.016840033 0.024345221 0.00844655 -0.00480135
-0.018753149 0.008718401 0.0011680136 -0.0010942054 -0.0008490512 -0.018519294 0.002867199 -0.00033855127
0.0063609076 0.005475385 0.0017420948 0.026101714 -0.012237161 0.012233489 -0.004608012 0.013608993
0.008941421 -0.014823249 0.002284512 -0.00015931111 0.04916947 -0.025067529 0.0027471036 -0.006243436
0.012690246 -0.010117904 0.014996627 -0.0019899148 0.011431911 0.012407389 0.001852201 0.028715253
0.022234526 -0.02300302 0.009256318 0.005918989 0.015912637 0.0151217 -0.014488387 0.00418645
0.02313839 0.0019024549 0.005143998 -0.0005587913 -0.0027592985 -0.0050246026 0.020548187 -0.012817838
-0.008578946 0.0065815574 -0.0029401826 0.0021804047 0.0068913223 -0.014364454 -0.0055519305 -0.0037038017
0.00089212856 -0.0032099131 0.009647615 -0.0044968524 0.021615652 0.0050823214 -0.011392154 0.0024173614
0.022838034 0.0074948277 0.0018147595 -0.017814822 -0.01192036 -0.004249878 0.020159451 -0.0032787367
0.00502927 0.004171207 0.015374145 0.00936249 -0.005641227 -0.003811523 -0.017336069 -0.015176326
0.0065180445 -0.002407006 -0.004090935 0.009464014 -0.027908491 0.0033256158 -0.006102818 -0.0059948247
0.0064610643 -0.0016048682 -7.118069e-05 -0.018295981 0.01274175 -0.0026509538 -0.006669228 -0.0058081583
0.009751492 -0.011617468 -0.004183484 0.0091862045 -0.0032820909 0.00902204 0.0030394155 -0.004827901
-0.00015928505 -0.004994109 0.0053903293 0.001703835 -0.006996941 -0.011398485 0.0022195403 0.024130093
00000000: a354 633c 5f16 023b 83f0 f3bb 60cf 19bc
00000010: 8f8a 543c ebc9 60bc b5c7 c93b 2eca a53b
00000020: 6da8 1f3c 6157 6a3c 005e 0fbb 1cf2 513c
00000030: f31d 1bbc e1ee 103d c68c c4bc 1686 663b
00000040: ac8d fc3c 6a5a 13bb 6ff8 633b cd97 ce3b
00000050: b329 81bb c7bc 9d3c c6e4 303c bfda a13a
00000060: c5a5 1bbb d18a 15bb 2628 603c 7a2a 9e3b
00000070: 5dd6 66bc 68b6 6b3c ddf5 393c 7088 3abc
00000080: 75a9 0fbc d8b2 603b 3efc e5b8 fe7f 5abb
00000090: 7dc6 023c d33a 723c f12f 133d ccfb 04bc
000000a0: 0cad 8fbb 2328 493c 1088 3cbc 4d30 873c
000000b0: 33ec 2a3b 4c28 a1bb c871 5cbb 5bc9 71bc
000000c0: a86f e6bc 2a8a 4f3c 79e9 0b3d d3e4 90bb
000000d0: 391c 18ba bc7f acba 7c4b b43b 4dd3 0b3b
000000e0: 8cc1 d9bb d2f3 c93c d422 6ebc 9a47 be3b
000000f0: 81df b9b9 205b aa3a b8f8 5bbc a4a1 d8ba
00000100: 3f83 6e3b 5272 08bb 3631 c5bc 0a14 4b3c
00000110: a5bc 193c a939 0fbc 9ac1 633a afe9 ebbb
00000120: b0d4 233c a28e 3e3b 3525 c6bb 05b2 50bc
00000130: 6357 383c fd96 933c 2542 02b9 561a 17bb
00000140: 67c1 34bc 616e 7dbc cb05 0a3c 1dc2 a8bb
00000150: 48a3 853a 41c6 36bc f82d 4cbc c9ed 5a3b
00000160: 3dc8 b13a 77eb 72bc e23f 05bd 3064 8fba
00000170: 0fd1 76bc 07d1 0abb 9d5c 22bb 9afe 2c3b
00000180: 13c0 04bb 284d 04bc 9b0e 583b 31ab 1b3c
00000190: 84f4 95bb 94cf 5a3c 38c6 6ebc d1bb 75bb
000001a0: b747 1dbc feff 39bc ce3e 4b3b f18b 8e3c
000001b0: 28e4 66bb e7bc 1f3b 651b 323c 68a7 2a3c
000001c0: bc20 043d b08f bcbb a274 32ba 48b5 f93b
000001d0: 422f 003c eb66 a4bb 54b4 1b3b 4576 9ebb
000001e0: 6bcb c93b 91f7 69bc 5668 fcbb 12ee e33b
000001f0: 9583 1a3d a6e8 8239 4583 673b 316b 2e3c
00000200: 835a e83a 9dde debb 9ef9 01bd fe29 ee3b
00000210: 6557 56bb 8ef4 1c3c 552e ab3b b092 feba
00000220: e445 96bb 89d1 cf3b 1ca2 f939 3700 e53b
00000230: 1cf4 893c a16f c73c 6663 0a3c a554 9dbb
00000240: 34a0 99bc a0d7 0e3c 0818 993a 716b 8fba
00000250: dd92 5eba c6b5 97bc 9ee7 3b3b 957f b1b9
00000260: 296f d03b dc6a b33b 0057 e43a 43d3 d53c
00000270: 607e 48bc f96e 483c cefe 96bb 41f8 5e3c
00000280: 0a7f 123c 36dd 72bc c0b7 153b c00c 27b9
00000290: ed65 493d 6b5a cdbc c008 343b bd95 ccbb
000002a0: c0ea 4f3c 91c5 25bc 6ab4 753c 3b69 02bb
000002b0: e94c 3b3c 5c48 4b3c 8dc5 f23a 403c eb3c
000002c0: 2e25 b63c d470 bcbc d0a7 173c 14f4 c13b
000002d0: 385b 823c 02c1 773c b360 6dbc 7d2e 893b
000002e0: b98c bd3c cb5b f93a fc8e a83b d97b 12ba
000002f0: 59d5 34bb 6ca5 a4bb ac54 a83c e901 52bc
00000300: b58e 0cbc 1baa d73b 14b0 40bb 1fe5 0e3b
00000310: 9ad0 e13b e358 6bbc f8ec b5bb 7bbb 72bb
00000320: bcdd 693a 685d 52bb 0811 1e3c 555a 93bb
00000330: 4f13 b13c 9a89 a63b 28a6 3abc 986c 1e3b
00000340: d416 bb3c 2c97 f53b 39dd ed3a 64f0 91bc
00000350: 9d4d 43bc 9042 8bbb 6f25 a53c 13e0 56bb
00000360: 93cc a43b 9fae 883b d6e3 7b3c 2165 193c
00000370: 0bda b8bb bfca 79bb 5f04 8ebc 20a6 78bc
00000380: 5295 d53b dcbe 1dbb 400d 86bb f40e 1b3c
00000390: 59a0 e4bc 93f2 593b 26fa c7bb 3c70 c4bb
000003a0: 56b7 d33b 715a d2ba d846 95b8 74e1 95bc
000003b0: c6c2 503c a0bb 2dbb 8a89 dabb 5d52 bebb
000003c0: b9c4 1f3c 3157 3ebc 9b15 89bb bc81 163c
000003d0: 5918 57bb 2ed1 133c ee30 473b 5e33 9ebb
000003e0: c105 27b9 9fa5 a3bb 5ca1 b03b 3753 df3a
000003f0: 9846 e5bb b6c0 3abc b575 113b 79ac c53c

action_model._continuous_distribution.mu.bias f4 [4]
-0.0015127597 0.0008355313 -0.0005273891 0.00056148425
00000000: cb47 c6ba 8e07 5b3a 7c40 0aba 9230 133a

action_model._continuous_distribution.log_sigma.weight f4 [4, 128]
0.0006878931 0.0051269676 -0.03211627 -0.0028930118 0.007112507 0.0057415986 0.010645154 0.0024628923
0.043480087 0.0050721834 -0.007292291 -0.013064365 0.01839159 0.016244689 -0.009745182 0.010191865
0.024587462 0.0035459814 0.018896647 -0.019003589 0.0023548324 -0.014169125 -0.037027687 -0.015330629
0.011480161 -0.027034968 0.009830269 -0.014827886 -0.032506224 0.036733206 -0.009894171 -0.012788081
-0.019462228 -0.0001512064 -0.009495324 0.030453023 0.012617901 -0.0069622304 -0.001930287 0.03052977
-0.0051653297 0.045066644 0.025915146 0.014086813 0.038084805 0.036459446 -0.010849727 0.026758432
-0.014444886 0.025799984 -0.00803822 0.0016911348 -0.015489652 -0.026698008 0.015101988 0.006197417
0.008149791 -0.002213536 0.016752228 0.013446516 -0.017400557 -0.02262178 0.024409678 0.008242926
-0.0037891376 0.013315482 0.009232808 -0.013774482 0.018044448 -0.00023053936 0.017493956 -0.0141305635
0.036322404 -0.011782121 0.005337335 0.005744001 0.0072892136 0.002379669 0.031204563 0.0015963711
0.010041631 -0.035927225 0.03360714 0.025166517 -0.034098305 0.0016493738 -0.023556221 -0.024819545
-0.004831194 -0.0040062373 -0.01964688 -0.009707622 -0.020915309 0.013653336 -0.031377703 -0.028712954
0.011201173 0.0012888396 -0.0050264383 6.5109714e-05 0.0039203796 0.0019454249 0.019288642 -0.0063758055
-0.023965074 0.013283056 -0.033578523 0.027127517 0.0037283502 -0.010029716 0.02741674 -0.008785787
0.02789968 0.040972568 0.015609026 0.0060351216 -0.023586148 -0.0391601 -0.0032549931 -0.0037737645
-0.032756954 0.044139378 0.0031069408 -0.011661671 -0.01888993 0.022343764 0.012791887 0.009827678
0.008746612 -0.0046837786 -0.053142972 0.020751158 0.010032187 -0.0261842 0.004440428 -0.0017479163
0.013620805 0.0051455996 -0.019967468 0.0040888716 0.011606762 0.013789877 -0.013812747 0.023088282
0.0310891 0.01431782 0.014680839 -0.0035095694 -0.0072340886 0.00073551433 -0.01024932 -0.0021109376
0.0059798784 -0.015823144 0.010463777 -0.013281672 0.0057033063 -0.0044571124 0.0054745255 -0.010965063
-0.0033593643 -0.011056434 -0.007188 0.01575382 0.06438283 0.00039665023 -0.026966536 0.0032717295
-0.0056409836 -0.0076493137 0.05015903 0.02409227 0.0028104912 0.027647797 -0.020896165 0.047708735
-0.014948082 0.033573017 -0.029678822 0.011663651 -0.0033325832 0.004007339 0.013891228 0.06607196
-0.0013339877 -0.02233867 -0.012455386 0.005654467 -0.013964141 0.007263468 0.022250626 -0.038547594
-0.0010322302 0.0036530108 0.01109078 -0.011517794 0.008323236 0.0025918172 -0.015731873 0.0017039786
0.026186097 -0.0023933386 0.030595263 -0.014039252 0.029423177 -0.008839647 0.0090389885 -0.005882013
0.032591034 -0.029815001 0.016057562 -0.020133374 -0.008620599 -0.008713552 -0.016702998 -0.022914166
-0.011922995 0.05500665 -0.018450253 -0.009000465 0.005026854 -0.0104996795 -0.005510902 -0.040776417
-0.00834068 -0.010488243 -0.023511432 -0.0046101185 0.014230611 -0.01148719 0.03791674 -0.014090834
-0.00023254928 0.012590059 -0.005926174 0.028991928 -0.0048067323 7.9427045e-06 0.0065858136 -0.007612054
0.0040511643 0.020622317 0.0070205685 -0.0016306363 -0.03650394 -0.0017574735 -0.011927009 -0.0151407765
0.019620406 0.0064169434 0.031181812 -0.0030469913 -0.031517148 0.017315589 0.0033420443 0.0031607717
00000000: b953 343a 1f00 a83b 5a8c 03bd af98 3dbb
00000010: 0810 e93b 0524 bc3b 0369 2e3c 7a68 213b
00000020: 2d18 323d 8f34 a63b 2cf4 eebb eb0b 56bc
00000030: f6a9 963c 9513 853c 41aa 1fbc c8fb 263c
00000040: a56b c93c b263 683b 24cd 9a3c 6aad 9bbc
00000050: 8853 1a3b 9e25 68bc 58aa 17bd 522d 7bbc
00000060: 4917 3c3c 7078 ddbc 230f 213c a9f0 72bc
00000070: 3f25 05bd 8f75 163d 291b 22bc 1985 51bc
00000080: 406f 9fbc 298d 1eb9 4792 1bbc 9e78 f93c
00000090: 50bb 4e3c 6c23 e4bb af01 fdba 9119 fa3c
000000a0: ed41 a9bb cd97 383d 004c d43c 60cc 663c
000000b0: d0fe 1b3d 8056 153d 0ec3 31bc 8034 db3c
000000c0: 3eaa 6cbc 7d5a d33c bdb2 03bc 11a9 dd3a
000000d0: 4fc8 7dbc c8b5 dabc 546e 773c b413 cb3b
000000e0: b386 053c f910 11bb f83b 893c c74e 5c3c
000000f0: 9d8b 8ebc 5051 b9bc cef6 c73c 560d 073c
00000100: 2e53 78bb 2e29 5a3c 3445 173c 5dae 61bc
00000110: f3d1 933c f0bc 71b9 7c4f 8f3c e183 67bc
00000120: cdc6 143d cc09 41bc d0e4 ae3b 2c38 bc3b
00000130: 5bda ee3b 39f4 1b3b b6a0 ff3c 533d d13a
00000140: a785 243c 6d28 13bd a4a7 093d 032a ce3c
00000150: aaaa 0bbd cd2f d83a faf8 c0bc 5c52 cbbc
00000160: fe4e 9ebb c146 83bb 7ef2 a0bc b80c 1fbc
00000170: 9556 abbc 3eb2 5f3c e885 00bd 6e37 ebbc
00000180: 2085 373c 48ee a83a d2b4 a4bb 838b 8838
00000190: 8776 803b a1fd fe3a 3703 9e3c 22ec d0bb
000001a0: 6752 c4bc 2da1 593c a289 09bd 873a de3c
000001b0: 5657 743b ae53 24bc 1299 e03c 43f2 0fbc
000001c0: df8d e43c dad2 273d 00bd 7f3c 45c2 c53b
000001d0: bd37 c1bc 5766 20bd b951 55bb 4351 77bb
000001e0: 282c 06bd 7ecb 343d d19d 4b3b 9810 3fbc
000001f0: 0ebf 9abc 450a b73c 1095 513c 4504 213c
00000200: f34d 0f3c 627a 99bb 72ac 59bd 55fe a93c
00000210: 0b5e 243c 3f80 d6bc 0381 913b 571a e5ba
00000220: cc29 5f3c 6b9c a83b d192 a3bc f1fb 853b
00000230: 4a2a 3e3c f0ee 613c dc4e 62bc a323 bd3c
00000240: 91ae fe3c 4a95 6a3c e787 703c ce00 66bb
00000250: ef0b edbb 88cf 403a c4ec 27bc a857 0abb
00000260: dbf2 c33b 8a9f 81bc 4370 2b3c 5f9b 59bc
00000270: cde2 ba3b f80c 92bb a663 b33b cfa6 33bc
00000280: c828 5cbb 0c26 35bc 5089 ebbb 280e 813c
00000290: 25db 833d 7ef5 cf39 ede8 dcbc 836a 563b
000002a0: 00d8 b8bb 18a7 fabb 8e73 4d3d 275d c53c
000002b0: 3830 383b a27d e23c 6f2e abbc 3c6a 433d
000002c0: cde8 74bc dc83 093d 0021 f3bc e618 3f3c
000002d0: 7867 5abb ff4f 833b 0898 633c bc50 873d
000002e0: 33d9 aeba 96ff b6bc ad11 4cbc 1b49 b93b
000002f0: dac9 64bc 6302 ee3b f246 b63c 15e4 1dbd
00000300: e64b 87ba 5a67 6f3b 1ab6 353c 21b5 3cbc
00000310: 2f5e 083c 7adb 293b 21e0 80bc 0958 df3a
00000320: 3a84 d63c 8fd9 1cbb eba2 fa3c e404 66bc
00000330: e008 f13c 2bd4 10bc 4418 143c e7bd c0bb
00000340: 2d7e 053d 973e f4bc 268b 833c bfee a4bc
00000350: 6a3d 0dbc 49c3 0ebc bad4 88bc 7db6 bbbc
00000360: aa58 43bc a74e 613d fc24 97bc b076 13bc
00000370: 4fb8 a43b d906 2cbc cc94 b4bb 2c05 27bd
00000380: 59a7 08bc e1d6 2bbc 0c9b c0bc 7a10 97bb
00000390: 8227 693c c434 3cbc 954e 1b3d 3edd 66bc
000003a0: 79d8 73b9 8946 4e3c 5a30 c2bb 7b80 ed3c
000003b0: cb81 9dbb a841 0537 cfcd d73b 896e f9bb
000003c0: a1bf 843b 22f0 a83c cc0c e63b 13bb d5ba
000003d0: 2885 15bd 065b e6ba 8069 43bc 0511 78bc
000003e0: f9ba a03c 3945 d23b 0071 ff3c 08b0 47bb
000003f0: 2018 01bd 6cd9 8d3c 3306 5b3b f324 4f3b

action_model._continuous_distribution.log_sigma.bias f4 [4]
-0.02007833 -0.016916813 -0.017637843 -0.019432595
00000000: 4f7b a4bc 2195 8abc 3d7d 90bc 1b31 9fbc
