results/attackshooternnm/Shooter.onnx (onnx, 201499 bytes, 9 tensors)

network_body._body_endoder.seq_layers.0.weight f4 [128, 120]
00000000: f44d a6bd 139e f73c e5bf 9b3d 1261 4c3d
00000010: afcf 3cbe 458c 71bd 7da5 c4bb be6d 23bd
00000020: 5399 b6bc ac5b 193e 5986 343e 5723 cd3d
00000030: e05a 293e 758a 613d c02c f7bd b740 1d3e
00000040: d655 733e f33d 6d3d 7d81 08bd 005c 173c
00000050: 40ac e8bc e6a0 643c 194c b3bd daad f4bd
00000060: 2b50 9bbd 83ec b3ba 15ea ca3d 1941 dfbd
00000070: 68fd a53c 266a ddbc 7c24 a63d da47 213e
00000080: 6416 083e d00c 21bd 430c b9bb befd 9b3d
00000090: 9d15 453c ea79 b7bd 235b 63bc 535e 543d
000000a0: 897b 15be be4d 093e c2e5 c3ba ad84 3f3e
000000b0: b850 21bd 027d ac3c 4533 283e 66ee 033d
000000c0: 8e68 88bd 5ad0 023c 0152 f53d 31d2 2a3e
000000d0: fe11 4a3e 2e12 8dbd 565d 1cbe 47bf 1dbd
000000e0: 7d3f c33d a11e 08ba d5b2 c63b 945d 52bd
000000f0: e6f8 23bd d91c 1d3d 5fce 023d 3473 163d
00000100: 1dd9 363c fbef 9bbd 6e47 fabb 9d5c 253e
00000110: 03ea 67bd 3922 4d3e 8d50 743c 0de2 113d
00000120: 5976 61bd 5ce2 973a 6873 a73d d865 cdbc
00000130: e359 053d 5b02 943d 8d94 1abd 12f0 153d
00000140: c5ab ae3d ba90 d2bd 7134 edbd d5e0 1bbd
00000150: 2f7d 1a3e 57b9 993d f970 df3d 4d78 373d
00000160: b1e2 053e c642 adbc 080e 153e d54b 84be
00000170: 1820 973b 5fae 64bc 9a90 803d a76c 41be
00000180: bdc8 583d cfed 54bd 517a abbd 4363 b43c
00000190: 0773 f83c dc91 5abe 90a4 a7bd b2e4 e13a
000001a0: 3ddc 213d f60e ad3c a145 3e3e f7f6 efbc
000001b0: fb09 9fbd 08d9 b2bd a7f8 65bd c9b4 bc3d
000001c0: 209b c9bc 5683 363e 239f 453d 840c a8bd
000001d0: c923 593d 17ae d0bd 5cdf 21bd cd2e a63d
000001e0: 22ce 7c3c 089e 0f3d a594 193e eab5 a0bc
000001f0: 60f6 bfbd d7a4 5b3d 8c50 27be 29d5 d43d
00000200: b886 713e ef27 bcbd 8847 a13d e8ec afbd
00000210: e432 123e 7d44 3c3d dbd4 9dbd f9f6 b33c
00000220: 20d9 afbc 216f 14be 8d94 943d 1cfb 343e
00000230: f32c 253e 9e94 d9bd aa3f b9bd 786b 863d
00000240: 35e5 013e 3928 09bc cad8 9b3d 40bf e73c
00000250: d9d2 e0bd 3aba 8b3d c796 bd3c 9445 a63d
00000260: d046 d3bd 0e9d 113d c298 a73d c275 b4bc
00000270: 9a77 483e 792a fd3c ef0a 4d3e e37a 6bbc
00000280: 5163 0b3c 8d4d b1bd d44a 743d 8136 10be
00000290: cbd2 51be 4b5a 1d3e 8a0e 163e f896 1c3d
000002a0: cec2 103d 4bfa 5c3c 9f8b 6439 13a9 f63a
000002b0: d1e0 eebd 3ea2 643d 896e e83b b6f7 ab3c
000002c0: 969a a6bc e465 313d 0ad7 9dbd 258c 243e
000002d0: 11c4 89bd 70b5 693c 3aa6 41be 122e 3cbd
000002e0: 2f01 30bd 54b3 20bd a689 133d c10b d239
000002f0: 5c75 36bc 1357 f63d 570e 0fbd 944b 24bc
00000300: 940d a7bc 39b9 42be 34ae e13d 00d4 933d
00000310: 1ab2 e33d 9ab8 20be 3b9a a3bd 3137 0cbe
00000320: 1758 45bd 461c f93d 6818 953e f7a8 bd3d
00000330: 2284 90bb 6061 febc 11d2 3c3e 5dc5 41be
00000340: 58ad 3ebd 9897 083e 4cac 6abd 98a7 7abd
00000350: edce 393e 18a5 fbbc 0b0b 713d fa9d 773d
00000360: c4dd f3bd 6182 d33d 48e8 0e3d fa0f 48bd
00000370: 31fd 15bd 383b b4bd f7e4 ecbd fa25 ed3d
00000380: 7129 04be f963 c13d d221 943d 99c0 03bc
00000390: 94fa ba3c 9896 32be a927 7b3d a946 1d3e
000003a0: 6ea9 3ebd 4baf 29bc c233 b03c 49e2 433d
000003b0: 2425 46bd 9b0e 883d 5076 ba3d 5d9a fbbd
000003c0: b102 16bd b4fb 963c c58f 2abe 3e68 0ebd
000003d0: 9ede 95bd ded6 cbbc 0f7f ba3d 669b d03c
000003e0: 9414 23bd a190 573c 6753 6a3d fb92 3abc
000003f0: 3f65 a53c 2cc2 0dbe 7f4e 0ebd c531 0e3d
-0.08120337 0.030226743 0.0760496 0.04989726 -0.184386 -0.058971662 -0.006001173 -0.03989958
-0.022289908 0.14976376 0.17629375 0.10016506 0.16538572 0.055063684 -0.12069082 0.15356718
0.23763213 0.057920408 -0.033326615 0.009238243 -0.028402448 0.013954377 -0.08754749 -0.11947222
-0.0758365 -0.0013727102 0.09907929 -0.10901088 0.020262435 -0.027028155 0.081124276 0.15750065
0.13289791 -0.03931886 -0.0056472137 0.07616757 0.012029079 -0.089588 -0.013876709 0.051847767
-0.14597906 0.13408563 -0.0014945792 0.18702956 -0.03938362 0.021055702 0.16425808 0.032209776
-0.06660567 0.007984245 0.11978532 0.16681744 0.19733426 -0.06888233 -0.1526998 -0.038512494
0.09533594 -0.00051925523 0.006063799 -0.051358774 -0.04003229 0.03835759 0.031935092 0.03673096
0.011160162 -0.07614132 -0.0076379096 0.1614861 -0.056619655 0.20032586 0.014911783 0.03561597
-0.055044506 0.0011587846 0.08176309 -0.025072977 0.032556426 0.07227012 -0.037739325 0.036605902
0.08528856 -0.10281511 -0.11582268 -0.038056213 0.15086816 0.07506054 0.1091022 0.044792462
0.13074757 -0.021150004 0.14556134 -0.25839105 0.00461198 -0.013957589 0.062775806 -0.18889104
0.052925814 -0.051984604 -0.083729394 0.022019988 0.030328287 -0.21344703 -0.08185685 0.0017234294
0.039516676 0.021125298 0.18581249 -0.029292567 -0.077655755 -0.08732802 -0.056145336 0.092141695
-0.024610102 0.17823538 0.048247468 -0.08205512 0.053012643 -0.10189455 -0.039519653 0.08114395
0.015430005 0.03506282 0.1499811 -0.019617993 -0.09373164 0.053624 -0.1633932 0.103922196
0.23586547 -0.09187304 0.07874972 -0.08590108 0.14277226 0.045963753 -0.077066146 0.021968352
-0.021465838 -0.14495517 0.07254896 0.17673916 0.16130428 -0.106240496 -0.09045346 0.06563467
0.12685092 -0.008371406 0.076097086 0.028289437 -0.10977716 0.06822629 0.023143185 0.0811874
-0.10316241 0.03555017 0.08183433 -0.022028808 0.19576874 0.030904042 0.20023702 -0.01437256
0.008507566 -0.0865737 0.059641674 -0.14083292 -0.20490567 0.15366475 0.14653984 0.038229913
0.03534203 0.013487409 0.00021795787 0.0018818699 -0.11663974 0.05581879 0.007093255 0.020992141
-0.020337384 0.04331006 -0.07707031 0.16069086 -0.0672685 0.0142644495 -0.18911067 -0.045942374
-0.04296988 -0.03923352 0.036019944 0.0004006308 -0.011136379 0.12028327 -0.034925785 -0.010027785
-0.020392217 -0.1901597 0.11019555 0.0721817 0.111179546 -0.1569542 -0.079884015 -0.13692929
-0.048179712 0.12163596 0.29120183 0.09260743 -0.0044102827 -0.031052291 0.18439509 -0.18922944
-0.046552032 0.13339078 -0.05729322 -0.061194986 0.18145342 -0.030718371 0.058848422 0.060453393
-0.11907533 0.10327602 0.03488949 -0.04884336 -0.036618415 -0.088003576 -0.11567109 0.11579509
-0.12906434 0.094428964 0.07233013 -0.008041524 0.022824563 -0.1744026 0.06131712 0.15358986
-0.0465483 -0.0103567345 0.021509055 0.047823224 -0.048375264 0.06643411 0.091045976 -0.12285302
-0.03662366 0.018430568 -0.16656406 -0.03476738 -0.073178515 -0.02488273 0.09106266 0.025464725
-0.039814547 0.013157041 0.057208445 -0.011387582 0.02018988 -0.13843602 -0.03474283 0.034715433

network_body._body_endoder.seq_layers.0.bias f4 [128]
00000000: a7f3 5a3b aae9 50bb 2189 c13a 729d 9c3b
00000010: 7526 993b ee38 c3bb 862e 183c 12b9 27bb
00000020: 17c2 34bc 2909 fb3b 3052 a63b 08f2 afbb
00000030: 117e 2a3c cee3 99bc 83cb e1ba 3097 813c
00000040: 239c 83ba 8110 7abb 4a8b 36bc 0176 1639
00000050: 9053 b63b a96a 313b 0c3e cebb 3e36 dc3b
00000060: 3b00 b33b 0801 893b e024 2e3a 74af 9c3b
00000070: 8f16 c239 3667 1e3c b6d1 28ba df37 34bb
00000080: af06 053b 4746 253a ced8 02bc db1b bf3c
00000090: 7158 bb3b 0e71 15bc 805b b7bb 8f85 b4bb
000000a0: 6be2 523b a063 95ba d757 883c 9a83 10ba
000000b0: c113 9a3b 403c 97bb 2b5e 3abc 37c6 6a3b
000000c0: 17c0 c93b aa50 af3b e31c 8dbb e476 c03b
000000d0: f8c9 9aba 98d9 463c ea06 643c 5ca1 8a3c
000000e0: d6c2 3c3b 7a66 a13b ec64 d53b 3722 28bb
000000f0: 760a bdba e1c0 7f3b ca07 27bb 86c8 2d3c
00000100: 8a2d 163c 4cf0 113c d3c1 573c 4858 3eb7
00000110: b8d4 1fbb b766 3d3b ae98 b93b 6146 fa3b
00000120: 83e9 713c 082f 093b c568 343c 86c7 1c3c
00000130: cd03 bfba 8a2b 54bc a9d3 003b 41cb 433c
00000140: b4c6 313c c30e 14bb c4e2 573c a3e2 4d3b
00000150: 43e1 a13b be97 44bc 3f0e 013b e3fb fbba
00000160: 5870 9bba d018 373c 4f2f 1f39 d100 0bbb
00000170: 231d fb3a 66c8 d03b c166 2c3c f287 053c
00000180: e3cc 71bc 1f34 21ba 6a2f f239 a51a d03b
00000190: 7e12 163c 8ed5 12bb 6831 2a3c 7ad2 123c
000001a0: 7c85 423b 93a6 b23a 2b51 123c 6e00 253c
000001b0: 2345 1b3c 6d29 653b 4f08 91bb 2219 5c3c
000001c0: 2f41 9639 c472 09bb a6db 843b 1b4d dc3b
000001d0: 92e3 fdb8 60bb f2ba a04f 2e3c 8e3f fcbb
000001e0: fca3 91ba de43 803b 0808 95bb b013 8a39
000001f0: 4c85 7f3c 0b36 963c 4ee9 c23a 6973 5b3c
0.0033409388 -0.0031877556 0.0014765599 0.004779511 0.004673774 -0.0059577143 0.009288436 -0.0025592488
-0.011032603 0.007661004 0.0050757155 -0.0053694285 0.010406033 -0.018785384 -0.0017226789 0.015819162
-0.0010041039 -0.003815681 -0.011141608 0.00014349075 0.0055641606 0.002707163 -0.0062940177 0.0067203334
0.005462674 0.004181031 0.0006643068 0.004781658 0.0003701937 0.009668162 -0.0006439941 -0.0027499122
0.0020298173 0.00063047226 -0.007986261 0.023328712 0.00571733 -0.009121193 -0.0055956244 -0.0055090855
0.0032178413 -0.0011397488 0.016643448 -0.0005512774 0.004702062 -0.0046153367 -0.01137499 0.0035823712
0.006156932 0.005350192 -0.004306422 0.005873548 -0.0011809459 0.012136839 0.013917664 0.016922645
0.0028802655 0.0049255462 0.006512275 -0.002565516 -0.0014422673 0.0039024877 -0.002548682 0.010606891
0.009166131 0.008907389 0.01316877 -1.1345437e-05 -0.0024388265 0.0028900334 0.005663953 0.0076377844
0.014765146 0.0020932574 0.011011307 0.0095690545 -0.0014573276 -0.012949834 0.001965741 0.011950315
0.010850597 -0.0022591806 0.013176624 0.0031415604 0.0049401834 -0.011999069 0.001969233 -0.0019224848
-0.0011859043 0.011175349 0.00015181045 -0.0021210203 0.0019158464 0.0063715456 0.010522545 0.008150088
-0.014758321 -0.0006149429 0.00046193163 0.0063508325 0.009159682 -0.002240512 0.010387756 0.008961314
0.0029681614 0.0013629965 0.008930485 0.010070903 0.009476933 0.0034967319 -0.0044260393 0.0134337265
0.00028658795 -0.0020972947 0.0040545044 0.006723059 -0.000121063684 -0.0018518977 0.010639101 -0.007698006
-0.0011111493 0.0039143404 -0.0045480765 0.0002633608 0.015595745 0.018336317 0.0014870556 0.013394215

network_body._body_endoder.seq_layers.2.weight f4 [128, 128]
00000000: 982c 13bc 3b78 d3bc 2aa0 773d fa2e aabd
00000010: 23c8 99bc 6dad 07be 2cff 81bc d625 3e3e
00000020: 1b7d 2abe 4da5 1fbd 508e d03d 7ef1 06be
00000030: 971d 69bd 74ca c8bb 1604 44bd 140b 0e3d
00000040: 293c 24be e8b5 af3d 4cc9 8ebd 7d9b 6fbd
00000050: 9925 2f3d f76b e73d 7d25 49be 7923 aaba
00000060: dca1 63bd e647 a0bd 9417 193d e76b f6bd
00000070: 0073 23bc 3351 9abc 9580 4fbe 26ac e7bd
00000080: 6565 98bd 00d8 21be 9bf4 53bd f0da ebbc
00000090: 936a f1bd c79d ec3b de2f 14be effa 7d3d
000000a0: 19b9 ccbd 89ea 67be 9e5a 663c 6235 e43c
000000b0: 421c 883e 14ed 01be 6526 d2bd 3b20 cfbc
000000c0: e73f b83d c507 cabc 4cda 1f3d 783f 03be
000000d0: 79a9 00bd 9c3e 363e 285d 23be 4b72 63bd
000000e0: f71c 2abd 3346 d93c 9af3 7c3d bdde 6bbc
000000f0: a25c 833d c3a6 3cbd e022 213e 8500 f7bd
00000100: c5be 24bd 58c2 f43b 43d4 b1bd 34df 69bd
00000110: 73fd 463d b4e7 cabd 8710 16bd 15ea ba3d
00000120: 157f c03c 127d 1c3e 7b20 ae3c 7bc8 813c
00000130: 0e64 193d c3f7 b2bd 704d ca3d f14d 05bd
00000140: ce2a d2bd b778 06bd 5e74 41bd b9eb 60bd
00000150: fade 303e d703 4d3d 2bd3 c0bc 8948 17bd
00000160: 80f8 85bd 7ea7 b1bd 8b89 003d 2de8 003e
00000170: 40bf 933c 8931 eebd f8d7 57bd c3d8 8fbd
00000180: 1b8f 5fbd a245 93bc edc6 37bd 18c4 14be
00000190: fd70 083d fe42 ab3d a366 643d ecc6 8d3c
000001a0: eb80 57bd 6cd1 d4bd 1f7e 743d 2ff8 bcbc
000001b0: 1e7e ab3c bd1f 22be 160f c9bd e39f 3abc
000001c0: eda9 c3bd 2212 2a3c 70fa 7c3c b1ae 613d
000001d0: 06bf adbc fe08 2cbd bbd6 7e3c d8b9 b3bc
000001e0: 3eb0 cabd ca08 c2bd 28ba 61bc 643a 893d
000001f0: 0df0 073c 9976 3a3d 18be 063e 4455 2fbd
00000200: ee40 123e c648 71bd b599 083d 2b27 31bd
00000210: 57ce 503d a86f e5bd a5ca 383e bbb2 8cbd
00000220: 19a4 843d 90c7 01be ffaa 6e3b 60bd 0ebc
00000230: 2871 08be bf45 993d 4c5f 613c 2c23 9b3d
00000240: c9fa 1ebe 2043 1e3e 4755 b13a 193b 623d
00000250: a96e 963b 0c3b ca3c ca18 21bd 53f9 553c
00000260: bbba cf3b 5d3a 78bc 932e ca3c 888f 493e
00000270: 7fcf 233d 6d45 b2bd ac23 243e d419 1b3e
00000280: 1d2c d03d 91c9 803d 5634 613c dbe1 c0bd
00000290: 7544 2ebd cc3b e6bd 467e 9abc 820e 03bd
000002a0: d6f2 38bd 7364 f63d 6cb2 6c3c fe41 47be
000002b0: e82e fe3d ab66 c13d c4a8 d13b 5bdd 1dbd
000002c0: 9432 1dbe 9d33 25be 28a6 7bbd 04fb 8a3d
000002d0: e3ed 533d e758 b53d 4e3d eebd d539 42bd
000002e0: 91ed 473d 2280 b33d d44a 82bb 80fd 98bd
000002f0: fbb3 5b3c 4a53 a23d 871a fa3d 89ae e83d
00000300: 155b 303b 63bc ea3d 07b2 eb3c 616c f63d
00000310: 29d7 29be 1070 953d 1e42 a23b 2c9b e23d
00000320: 8939 8fbd 7a3f a93c ae5c 8b3c 3de9 46be
00000330: 4aa0 28bd 5c55 73bd 90d5 10be 0ad9 8c3d
00000340: 5ef6 b2bc 6742 fcbd 8ae8 733d b06e 3c3e
00000350: ed06 4c3c 0107 e0bd 1e36 5abd 5740 6a3d
00000360: 3b2f c5bd a3e1 c4bd 2052 67bd 5458 12bc
00000370: 52f3 b2bc 513b 3dbe 3209 ce3c 97a1 87bd
00000380: 8b5e 703d 848f 8abc 7a5f b2bd 4d6f cb3d
00000390: c26e d83d f2d9 093d b73c c0bc 2527 373d
000003a0: 3b6c 493d 3739 f83b 6a1c 8abd f8b1 54bc
000003b0: d144 abbd 3558 2abe e821 893d 3c8a 16be
000003c0: 810e 873d 9ab9 bbbb edb0 95bb 86df c7bd
000003d0: be89 9f3b c1b4 ec3c ff53 bcba 3278 d9bd
000003e0: f2de 02bd 9cb7 1ebd 78f7 a0bd e3d6 c93d
000003f0: 1abb 00be 3442 33bd 1321 893c af2e dabd
-0.0089828 -0.025814166 0.06045548 -0.08309741 -0.01877219 -0.1324975 -0.015868746 0.18569121
-0.16649286 -0.038976002 0.10183394 -0.1317806 -0.056912985 -0.00612765 -0.04785546 0.034678534
-0.16038574 0.08579618 -0.06971988 -0.058497895 0.042760465 0.112998895 -0.19643207 -0.0012980542
-0.055574283 -0.078262135 0.037376 -0.120322995 -0.009976149 -0.018837547 -0.20263894 -0.113121316
-0.074412145 -0.15805054 -0.051746946 -0.028790921 -0.117879055 0.007220957 -0.14471385 0.062006887
-0.09996242 -0.22648062 0.014059691 0.027857486 0.2658406 -0.12688094 -0.102612294 -0.025283923
0.089965634 -0.024661908 0.039026543 -0.1281718 -0.03141162 0.17797321 -0.15953505 -0.05552892
-0.04153153 0.026522731 0.061755754 -0.014396367 0.06414153 -0.046057474 0.1573596 -0.12060646
-0.040220995 0.0074694566 -0.08683064 -0.05709763 0.04858155 -0.09907475 -0.036636855 0.09126679
0.023498097 0.15282086 0.021255722 0.015842667 0.037448935 -0.08738663 0.09878051 -0.032545034
-0.102620706 -0.032829966 -0.047230117 -0.054912303 0.17272559 0.05005249 -0.023538193 -0.03693441
-0.06541538 -0.08674525 0.03138117 0.12588568 0.018035531 -0.11630542 -0.0526962 -0.07023766
-0.054579835 -0.01797754 -0.044867445 -0.14527929 0.03331088 0.08362387 0.055761945 0.017306767
-0.05261318 -0.103915066 0.05969059 -0.023067562 0.02093416 -0.1583242 -0.098173305 -0.011390659
-0.09553895 0.0103803 0.015440568 0.05509824 -0.021209251 -0.042000763 0.015554125 -0.021939203
-0.09896897 -0.09474333 -0.013777293 0.0670059 0.008296979 0.04552326 0.13158453 -0.042805925
0.14282581 -0.058907293 0.03334971 -0.043250244 0.05097803 -0.11202937 0.18046053 -0.06870028
0.06476612 -0.12673783 0.003641784 -0.008712143 -0.13324416 0.07484006 0.013755631 0.07575068
-0.15525354 0.15455294 0.0013529443 0.05523214 0.0045908284 0.024686359 -0.03933028 0.013059932
0.0063393987 -0.015150634 0.024680411 0.19683659 0.039992806 -0.08704648 0.16029233 0.15146571
0.10164664 0.06288446 0.013745388 -0.094180785 -0.042545754 -0.11241874 -0.01885904 -0.031996258
-0.04515346 0.12030878 0.014446836 -0.19458768 0.124112904 0.094434105 0.0063982923 -0.03854118
-0.15351325 -0.1613297 -0.061437756 0.06786159 0.05174054 0.088548474 -0.11632787 -0.047418434
0.048810545 0.08764674 -0.0039762054 -0.07470226 0.01340961 0.079260424 0.12212091 0.11361415
0.0026909758 0.11461713 0.028771413 0.120323904 -0.16585983 0.07296765 0.0049517294 0.11064753
-0.06993396 0.02066015 0.017011967 -0.19424911 -0.04116849 -0.059407577 -0.14143968 0.068773344
-0.021845993 -0.12317353 0.05954794 0.18401599 0.012452823 -0.10938836 -0.053274266 0.057190266
-0.09628149 -0.09613349 -0.056474805 -0.008932192 -0.02184454 -0.18479659 0.025150869 -0.06622618
0.058683913 -0.016914137 -0.08709617 0.09933338 0.105680004 0.033655114 -0.023466451 0.044715066
0.049175482 0.00757518 -0.06743701 -0.012981884 -0.08362735 -0.16635211 0.0669592 -0.1470117
0.06594563 -0.0057289125 -0.0045682103 -0.097594306 0.004868715 0.028894784 -0.0014368295 -0.106186286
-0.0319509 -0.038749322 -0.07859701 0.098554395 -0.12571374 -0.043764308 0.016739404 -0.106534354

network_body._body_endoder.seq_layers.2.bias f4 [128]
00000000: e327 27bb b83a aeba f46d f83b 907e 833b
00000010: e04f e43a f110 553a 0410 213c db33 1d3c
00000020: c18c 643b 994d adb9 2f43 c6ba c821 f63b
00000030: 3178 003c 79c1 01bb 466a 0f3c 11d6 8b3b
00000040: 5574 cf3b 7d40 90ba 5216 3e3c d4d5 51ba
00000050: e75c 4c3b f8de f23b d398 e7ba 037c 923b
00000060: 9276 e1b8 4b3c 033c 92c6 653c 0a8c ebbb
00000070: 321e 093b c349 de3b d183 5c3c 1bf3 1c3c
00000080: 541e d7bb fca2 9d3b ee28 713b ed20 103b
00000090: e296 d6bb 6625 ee3a 9c62 d539 c99f 2bbb
000000a0: 6195 153a 03dc 273c eaf6 84bb dbfe 9dbb
000000b0: c65e 1bbc 8532 d53b 4a75 e4ba 46c9 073c
000000c0: a332 a7bb 5f64 f1b9 3c87 e0bb 01b1 293c
000000d0: 14d9 d43b 74da fab9 c924 2b3c a923 f4ba
000000e0: 7f2d c8b8 82da 31bb ce66 ff3b 470f d839
000000f0: 50e9 803b 1c16 893a 9236 1f3b 4fef fd3b
00000100: 4261 2dbb 6449 bf3a 38ed 51bb 775b 093c
00000110: d390 cf3b bdfd 97bb 2df0 923a dbf5 dcba
00000120: f8d9 61b9 6a6b 74bb 6157 403c e8c0 01b8
00000130: 2b3b 693b 0af8 d33a 57c5 143c 20c1 103c
00000140: d121 9fba fa15 0aba 0de5 82bb 9a80 92b9
00000150: 93ef 9ab9 5515 43bb ee11 b53b 3450 dabb
00000160: 50bc 2ebb ed81 ffba 475c 483b b7d3 153c
00000170: 484a 223c 48bb b03a 1712 0a3b 4a56 3e3b
00000180: e17d e0ba ca25 d9ba e18a b2bb 643d 123c
00000190: c7b5 fe39 f7a9 2d3a 4874 143c ab7d 5fbb
000001a0: 3303 723a f134 0a3c fb3e b03b e4e3 04bb
000001b0: e57b adba 62cb 023c d34f f039 1759 193c
000001c0: 44c4 0a3c bf40 ff38 2e37 b93a c84a 2abb
000001d0: afa9 27ba ddb2 71bb db2a d03b 2a63 feba
000001e0: f69b 17bb fddb 9c3a a4b1 5fbb 5d9f cdba
000001f0: 17e3 f3ba 3fe0 723b bda5 b53b 5171 c13b
-0.0025505952 -0.0013292646 0.007581467 0.00401289 0.0017418824 0.00081278296 0.009830479 0.009594883
0.0034873935 -0.00033054946 -0.0015126223 0.0075113513 0.007841156 -0.0019799157 0.008753365 0.004267462
0.0063310065 -0.0011005547 0.011602001 -0.000800458 0.0031183304 0.007411834 -0.0017669447 0.0044703498
-0.000107509215 0.00800998 0.014024394 -0.007188325 0.0020922539 0.0067836954 0.013459162 0.009579445
-0.0065648947 0.004810689 0.0036798078 0.0021992282 -0.0065487484 0.0018169105 0.00040699996 -0.0026187769
0.0005706158 0.010245326 -0.0040577548 -0.004821641 -0.009483045 0.0065062665 -0.0017429974 0.008287733
-0.005102472 -0.00046041884 -0.0068520587 0.010357142 0.0064956043 -0.00047846476 0.010445782 -0.001862635
-9.5452175e-05 -0.0027138297 0.0077942377 0.00041210113 0.003934063 0.001045886 0.0024294 0.007749475
-0.0026455675 0.0014594016 -0.0032032263 0.008383623 0.006334403 -0.0046384023 0.0011210494 -0.0016857939
-0.00021538872 -0.003729547 0.011739583 -3.0935655e-05 0.0035588245 0.0016171944 0.009080253 0.008835107
-0.0012140815 -0.0005267557 -0.00399459 -0.00027943106 -0.00029551666 -0.0029767354 0.005525819 -0.006662393
-0.0026662536 -0.0019493677 0.003057258 0.009144715 0.009905405 0.0013483549 0.0021067911 0.0029043132
-0.0017127359 -0.0016567048 -0.0054486846 0.0089257695 0.0004858209 0.0006624753 0.009060927 -0.0034102004
0.0009232044 0.008435474 0.0053786016 -0.0020277435 -0.0013235776 0.007983061 0.0004583584 0.00935962
0.008469645 0.000121714074 0.0014130825 -0.0025984515 -0.0006395829 -0.0036880292 0.006352765 -0.0019408215
-0.0023133731 0.0011967417 -0.0034132982 -0.0015687753 -0.0018607107 0.003705993 0.005543439 0.005903401

network_body._body_endoder.seq_layers.4.weight f4 [128, 128]
00000000: 2280 6bbd 5ee0 b93d 17fb 6abc f081 bdbb
00000010: 89bd 0a3d 848a 743d 43ba aa3d 40f7 4dbd
00000020: dffe cebd d8b5 283e db3c 683d 2155 3bbd
00000030: 1855 893d 11a9 0a3e 49fb 083d 97c4 63bd
00000040: e4c2 c63d 15f2 bcbd 5c44 e7bc 9dfd 1bbd
00000050: 3e37 d3bc 97e1 9dbd 2526 d7bd 0436 50be
00000060: fe51 a43d 47ee 413d ba9b 9c3d 17eb 543d
00000070: a198 bc3d 124c 4ebd 8d3f 4cbe 7234 0c3c
00000080: 8f7a 4b3d 1567 a93d 0eb4 b8bc 965a 02be
00000090: 523b 113d 2a0d 3ebd b457 983e c43b 023d
000000a0: bdc6 9fbd ddda 4e3c bc9c 64bc 976f a93c
000000b0: 00cf 363d 87da 21bd a9da 88bd c939 ed3d
000000c0: f975 b83c d6a1 1bbd e9c1 fd3d 4107 0bbd
000000d0: 4517 96bd 8b65 90bd 426f 64bd 8150 32bd
000000e0: 14d2 2938 f477 983d 5b1b eebd 2dc9 09be
000000f0: 3f90 e93d ab89 bd3c a98d f1bb 705f 8db7
00000100: fbc6 193e 5f82 7cbd 5ea6 0c3d 6b56 073e
00000110: f96c 5b3c 59ef 0d3e e418 f7bc 3f66 6fbd
00000120: 7ad8 55bd 1656 71bc 5a39 9f3d 021c 1dbe
00000130: 429a 063e 0b91 dc3d 2969 913d 57c8 96bd
00000140: 90c3 9abd 9c3a 77bd fa89 4ebd 44c3 473d
00000150: 1d32 6a3d 4359 04be dcfd 9c3d f52a 26bd
00000160: 0bf2 25bd d412 853d 41cc b03d 734f c23c
00000170: 7402 20bd 5a88 663d abd5 843e 4af9 da3d
00000180: be2d e03d 1492 04be f27f 39be db4f e73c
00000190: cbc7 643c 64f3 163e 9917 46bc 7834 e13c
000001a0: e4ff eb3d aa00 553c 3813 bdbd 9011 f73c
000001b0: 61cb 2f3e a1e3 523c 072e cabd cbb8 3dbd
000001c0: c9e3 9bbc ab74 88bd d549 8bbd aa23 b13c
000001d0: 4083 8a3d 4bc9 b5ba cbfc cfbc ab22 f63c
000001e0: 524d 6fbd 42dd 8cbd 86b7 cdbc 891f 71bc
000001f0: c7aa 4cbe 4774 9ebd 6a7e 0bbe 7623 8f3d
00000200: fece 01be fc67 3d3d 87f4 05be 393a 163e
00000210: 48c8 b4bc 227c 393c 20f9 b13d 1aeb 14bc
00000220: 4dcf b1bc 1b8c b6bd 7f2d d53d 4a49 73bd
00000230: a228 263d 6059 cb3c dcb4 47bd b75e 86bd
00000240: 49b5 75bb e565 1abe a182 e7bb af78 ef3d
00000250: 0baa a5bd 3437 b63d 6937 143d 8a6b f7bc
00000260: 0a47 8cbd 28aa 5b3d 392d 513d 5483 b3bd
00000270: 7ede 353c d680 26bc 687f cdbc cac6 983d
00000280: 41a2 b4bd 3875 8cba 3681 bdbc e05f 1ebe
00000290: 1936 b7bc 01d0 e43c 3133 a73d b15a dcbd
000002a0: 1a80 c33d d7d1 aa3d 5c45 613c 9be9 0ebb
000002b0: 2dc1 4ebd 9de3 28be dbe7 b2bd 8d6f 203d
000002c0: 727b 3fbd 92b2 62bd 411f 9bbd ed1a 18bd
000002d0: c1a8 4fbd 9b05 183c 79c1 f4bd d193 57bd
000002e0: 02da afbd 5818 a1bb 35b4 7d3c 2e62 e9bd
000002f0: 87f8 50bd 06ab 113e 4281 8a3c add6 61bd
00000300: dff8 05bc ddc5 2f3e 4b8a 48be f851 433d
00000310: 4bbd d3bd 4228 4f3d 630c 8d3d 7a2b ca3d
00000320: dab0 ae3c 5e82 01be 888a 903c a359 eabd
00000330: 738e 66bd cdfb bdbd 6840 313d 3dda 443d
00000340: 26d7 a1b9 891f c33a 181d b0bd ba18 d2bb
00000350: 460b e8bd a23e 42bd 1761 533d fce7 a13c
00000360: 2644 dfbc f5f1 43bc afd9 943d a53c 793d
00000370: cdb9 243c 38b7 23bd cc10 05bd ed70 c9bd
00000380: fb64 ab3c 6ad1 98bd 1fe9 bbbd 2395 983d
00000390: 75f9 133c c7e2 d9bc fe49 5dbd d8cb a23c
000003a0: 23ed 15bd 76cf 213e 90a2 a3bd 05ef 1e3e
000003b0: aa82 ff3c 8739 173c 10eb edbd dede b9bc
000003c0: 416d cd3c 0d42 8f3d c629 2a3e 9103 e8bd
000003d0: 1059 48bc eb1c 51bd 2dc6 d2bd 0408 783d
000003e0: ed32 933c dd6d c93c 09d1 243d 340f 983c
000003f0: 657b afbd 0704 043e 843b 13be cdff ef3d
-0.057495244 0.09075998 -0.014342091 -0.005783312 0.03387216 0.05970241 0.08336308 -0.050284624
-0.101072066 0.16475618 0.05669866 -0.045735482 0.067056835 0.13541056 0.03344277 -0.055607405
0.09705141 -0.09225861 -0.028230838 -0.03808366 -0.025783177 -0.077090435 -0.10505322 -0.20333105
0.08023451 0.04734638 0.0764689 0.05198201 0.09208799 -0.050365515 -0.19946118 0.008557426
0.049677428 0.082716145 -0.022546794 -0.12729868 0.035456963 -0.046399273 0.29754412 0.03179528
-0.07801578 0.012625423 -0.013953384 0.020683093 0.044631004 -0.039515045 -0.06682331 0.11583287
0.022517191 -0.037996136 0.12390501 -0.033942465 -0.07328657 -0.07050618 -0.055770166 -0.043533806
4.048839e-05 0.07444754 -0.116263114 -0.13455649 0.11404466 0.023136934 -0.0073716235 -1.6852951e-05
0.15017311 -0.06164777 0.034338348 0.1321656 0.01339268 0.13860835 -0.030163236 -0.05844712
-0.0522084 -0.014729997 0.07774611 -0.15342715 0.13144782 0.10769852 0.07100136 -0.073624305
-0.07556832 -0.06035863 -0.050424553 0.048770204 0.057176698 -0.12924676 0.07665607 -0.04056831
-0.040514033 0.06497732 0.08632708 0.023719525 -0.03906484 0.05628238 0.25944266 0.10692079
0.10946225 -0.1294635 -0.18115214 0.02823632 0.01396365 0.14741284 -0.012090587 0.02749084
0.11523417 0.013000647 -0.09232181 0.030159742 0.17167427 0.012871654 -0.0987206 -0.04631881
-0.019029515 -0.06662878 -0.06801192 0.021623451 0.06763315 -0.0013869194 -0.025389096 0.030045828
-0.058423348 -0.06878139 -0.025111925 -0.014716991 -0.19987021 -0.07737022 -0.13622442 0.069891855
-0.12676618 0.046241745 -0.13081561 0.14670648 -0.022068158 0.0113210995 0.08690095 -0.009089256
-0.021705294 -0.08913442 0.10409068 -0.059396066 0.040566094 0.02482289 -0.048756465 -0.06561034
-0.0037492088 -0.15077932 -0.0070651327 0.116929404 -0.08089074 0.08897248 0.036185656 -0.030202646
-0.06849487 0.05362907 0.05106852 -0.08765283 0.01110041 -0.010162553 -0.025085166 0.07459791
-0.0882001 -0.0010716086 -0.023132902 -0.15466261 -0.022364663 0.027931215 0.08164061 -0.107594855
0.09545918 0.08340805 0.013749447 -0.002180672 -0.050477196 -0.16493078 -0.08735629 0.039168883
-0.046748586 -0.05534608 -0.075743206 -0.037135053 -0.050698046 0.00927868 -0.119509645 -0.052631203
-0.085865036 -0.004916232 0.015484859 -0.113956794 -0.051018264 0.14225397 0.016907338 -0.05513637
-0.008177011 0.17165323 -0.19584005 0.047685593 -0.10338839 0.050575502 0.06887128 0.09871574
0.021324564 -0.12647387 0.017644182 -0.11442878 -0.056288194 -0.09276543 0.043274313 0.04805969
-0.0003086861 0.0014886718 -0.08599299 -0.006411639 -0.11330275 -0.047423013 0.051606264 0.01976394
-0.027254175 -0.0119595425 0.07268082 0.06084885 0.010054064 -0.039969653 -0.032486722 -0.09835992
0.020922175 -0.074618176 -0.09175324 0.074503206 0.009031643 -0.026597394 -0.054025643 0.01987259
-0.036603104 0.15801796 -0.07989991 0.15520866 0.031190235 0.009230024 -0.116171 -0.02268928
0.02507651 0.0699502 0.16617498 -0.11328805 -0.012228265 -0.05105297 -0.10291705 0.06055452
0.01796862 0.02458852 0.040238414 0.018561937 -0.085684575 0.12892161 -0.14378172 0.11718712

network_body._body_endoder.seq_layers.4.bias f4 [128]
00000000: 9bff 513b fed2 323b 5ca4 b53a 1d9a dd3a
00000010: f26b d5ba e14a a6ba 30fb 1cba bcf2 5cb9
00000020: 63dc d43b 25a5 5b3c 256c 25bb 98a1 bb3a
00000030: 170e 20ba 1bb6 fb3a 4f53 4e3b 0394 8b3b
00000040: 8292 8e3b 4fb5 cfba 9f2c a43b f06b 05bb
00000050: d2f2 d6ba 8287 0d3b c933 f93b bac2 e2ba
00000060: 985c 7fbb 1440 c53a 6173 3c3b 2caf 4d3c
00000070: 06a2 ae3b 5cef 0ebb b56e 1a3c 1c2c 293a
00000080: f9c9 363b 0da1 1fbb b636 02bb 8943 9c3b
00000090: 0f25 893b f0f9 a5b8 b6f7 a0bb 6be3 05bb
000000a0: a18a 243c 920e 5c3b 430b c639 30f6 1abb
000000b0: 50c1 acbb 2af1 93ba 4014 103c ce90 0dbb
000000c0: 3c0c 26bc 6d33 6c3b 5db6 f53b aab5 ccbb
000000d0: 42c4 0a3c f82d afba 77da 90ba e3b4 e4ba
000000e0: 9e0e f0ba 2289 203b b529 a53b 28c7 8b3b
000000f0: 3648 7cbb c492 5f3c be55 cabb beed 413c
00000100: 8c5d e039 f2ba 9e3a 9f64 82bb 3c09 e9bb
00000110: f37f 25bb eb1b f0bb d39c 62bb 77a8 e5bb
00000120: 2340 ff3b f8e8 af3a 474c 5aba 89b4 31ba
00000130: 7c44 0dbb c3ee 61bb 6c35 7b3b 1cef b4ba
00000140: 93a8 3c3a a317 86bb 83ef 6dbb 78c9 30bb
00000150: 3d6f 0abb 0dc6 0d3c d43f 683a 19da aa3b
00000160: 28e7 91ba e628 0e3a f0e5 75bb 9204 24bb
00000170: 89cf f7b8 d675 21bb 5633 e93b abe7 b4ba
00000180: 2ba3 f0ba cbe2 4e3b de4c 0bbb ea8e 4639
00000190: 15bb cabb 0aa3 d3ba 8253 e2b9 041b 6dbb
000001a0: 6232 94bb a092 153c cdd2 84bb 930c e7b9
000001b0: 3c91 36ba 20a5 753c 89de 773b 926b e9ba
000001c0: d917 dbbb 3a91 2ebb c488 fd3b d9c2 d4bb
000001d0: e712 04bc dffd 09bb 43d3 9abb 7cec bcba
000001e0: 9ecf 70bb 13eb 113c 1359 7539 5d40 a63b
000001f0: 480a 4e3c 74d7 83ba 07ff 4b3b 15b9 2b3b
0.0032043222 0.0027286406 0.0013858187 0.0016906891 -0.001628278 -0.001268711 -0.00059883576 -0.0002107126
0.0064959987 0.013406073 -0.002524146 0.0014315126 -0.0006105615 0.0019204052 0.0031482761 0.0042595877
0.004350961 -0.0015846881 0.005010202 -0.0020358525 -0.001639927 0.0021595662 0.00760505 -0.0017300465
-0.0038965102 0.0015049004 0.0028755295 0.012553971 0.0053293733 -0.002181015 0.009425809 0.0006453411
0.0027891381 -0.0024357468 -0.0019869036 0.004768793 0.004185326 -7.9143676e-05 -0.004912342 -0.002042974
0.010042817 0.003357802 0.00037773894 -0.0023645274 -0.005272068 -0.0011287082 0.0087938905 -0.0021601203
-0.010134753 0.0036041394 0.007498546 -0.006247242 0.008469643 -0.001336514 -0.0011051436 -0.0017448928
-0.0018314903 0.00244958 0.0050403723 0.0042656846 -0.003849519 0.0136458315 -0.006174772 0.011836467
0.00042794307 0.0012110157 -0.00397928 -0.0071116965 -0.0025253266 -0.007327547 -0.0034578338 -0.007008608
0.007789628 0.001342087 -0.0008327406 -0.0006778916 -0.0021555712 -0.0034474588 0.0038331402 -0.001380417
0.00071967504 -0.004092173 -0.003630609 -0.0026975553 -0.0021123432 0.008653176 0.0008859609 0.0052139875
-0.0011131512 0.00054229645 -0.0037521087 -0.0025027138 -0.00011816534 -0.0024636886 0.0071167154 -0.0013801953
-0.0018359175 0.0031568285 -0.0021255533 0.00018935991 -0.0061868527 -0.0016146612 -0.00043168297 -0.0036179433
-0.0045226077 0.009129196 -0.0040534497 -0.00044069122 -0.00069643906 0.014992982 0.003782185 -0.0017808548
-0.0066861925 -0.0026636855 0.007737251 -0.006492954 -0.008061147 -0.002105586 -0.0047248914 -0.001441374
-0.0036744843 0.008906144 0.00023398203 0.0050735907 0.012575693 -0.0010058717 0.003112735 0.0026202847

action_model._continuous_distribution.log_sigma f4 [1, 4]
00000000: ea65 293b 33e8 063d d809 40bc 6ea4 f2bb
0.00258481 0.032936286 -0.011721097 -0.0074048555

action_model._continuous_distribution.mu.weight f4 [4, 128]
00000000: 605a 963c 8082 333c 5569 cb3c 97a1 753c
00000010: 5b9b e0bc 8ab1 2cbd 09b8 85bd bee6 033c
00000020: c2fa b33c 39d8 033d c559 54bc e56a debc
00000030: 1f73 b83b 17fe 3b3c 7503 403c d4fb 26bc
00000040: 3a18 923c 00fe f2bc 783e 43bb 74b4 d6bc
00000050: acea 0bbd c3b2 ac3b 343b 0f3d 3318 813c
00000060: df2d 10bd 46f1 6ebd 3b55 203b 3f30 7c3d
00000070: 05b6 c13c 8c2a b6bc b952 2e3d 0e97 9b3b
00000080: c135 203c eb32 68bc eabe 4dba 18b9 4e3c
00000090: 2b01 8e3c d225 69bc 41cd fcbc d211 5dbc
000000a0: 83d0 243d 6ed1 023d 4e20 5e3c 2edb 22bd
000000b0: a7f3 0fbd 5963 42bd 8984 163d dcd8 d0bc
000000c0: 025c 88bc b4c5 943c 342a bc3c 156f b9bc
000000d0: 25c8 183d b207 bfbc f672 7b3b 604b 1dbd
000000e0: 4bd5 f4bc 8b32 a23c 1a9f 803b 707a e03c
000000f0: f18a 4fbc c4f1 953d 91b5 93bc 2c55 763d
00000100: ad96 febb a84c 38bc 6bb4 c7bc 391a edbc
00000110: 96d6 1dbd 3b7d 8ebc 2381 25bd 27c2 dfbc
00000120: 1824 0c3d 94a9 5fbb aec5 373c 4f6d 91bb
00000130: 03bf 0dbd cbf4 87bb af12 823c 173b 3dbd
00000140: bbc3 1ebd 8516 3e3c 0b42 51bd 275e 67bd
00000150: f6b8 54bc b862 2f3d d295 963c d8da bd3c
00000160: ced7 0f3c 64a4 58bd cdc6 09bb c6a7 d4bc
00000170: bbdf 40bc 5b24 4bbd 76df d43c 1c6c fb3b
00000180: 1cfc 12bb 664d d63c e7a4 ecbc 1ad2 43bd
00000190: 8987 c5bc 8394 10bd 0435 08bd 0a0d 19bd
000001a0: a1a3 11bd bc3b eb3c 8009 9cbc 21f5 24bc
000001b0: 74d2 a6bc 9fab 073d 3591 4b3c 726e 22bd
000001c0: f3ea 1cbd b99e adbb 4753 063d 2cf5 bcbc
000001d0: bc9a 31bd c3e9 983b 9239 f6bc df41 1d3c
000001e0: 8004 7bbd 3dd2 0e3d d531 70bc f6a2 73bd
000001f0: 5d1b 2e3d 7d5c 70bc 5a28 d73c f172 6ebd
00000200: 3357 d23c 38bd 28bb 3f1b 80bc 9178 373c
00000210: dc32 be3c c0fa 2ebb 60e6 653c b4ac 863c
00000220: b00a 3c3d 09d4 753c 1d5d 01bd a555 e9bc
00000230: 6438 be3c 523a 07bd 6c98 463c 28b2 853b
00000240: 58eb 54bc 3bae c9bc 68ec 4d3c c7bd 5a3c
00000250: febd eebc 37c6 6d3b ac25 c7bc c3cf 45bc
00000260: 6a6e adbc fd14 953c 4683 9d3c 41bf 743c
00000270: 95cc a0ba 65ed b83c 8442 27bb 0db3 c7bb
00000280: 7509 233d a0e0 ddbc 184a 10bc b997 0e3d
00000290: 13e7 8239 3f94 98bc 2545 34bc c8b6 fb3b
000002a0: 4f2d 053d da4d f8bc 2e35 31bb 38b8 94bc
000002b0: 4454 e93b 36f2 0abd e9e1 96ba 7ca9 f9bc
000002c0: e666 1dbc 8480 01bd e5d7 083d 7133 72bc
000002d0: 9ed5 17bc cb6f b73b 5321 9e38 279d 863c
000002e0: a3e7 abbc 2fb7 313b 9b64 d9bb c45e d7bc
000002f0: 8686 0ebd 7f4e c03a 2ab5 afbb 3c99 1b3c
00000300: 7b2e c53b d70b 7f3c 42cb e6bb 2b50 5fbc
00000310: 4cf5 a23c edf9 fcbb 183e 0cbd 400f 93bc
00000320: 5c67 3a3c d820 023c cb82 213c 02fe e6bc
00000330: 42af 9bbb 1088 9dbc 83fd 3e3d 1773 51bd
00000340: 0b73 e13c e351 723b 8ce3 d6bc 8e85 993c
00000350: 9b91 38bc ec1b 113c e37c de3b 8a8c 8ebb
00000360: 88f0 b83b c032 69bc 6a33 eb3b 435b d83b
00000370: caf4 a73b d2f6 09bc 90b6 a9bc bca3 5ebc
00000380: 24f0 12bc fc78 9fbc 7b64 caba 9f96 9fbc
00000390: 9cfd 06bd 8a00 babc ce8f 7cbc 33ea 903c
000003a0: e5fd 0bbd 326d d23c 1f1a 75bc 0b12 c83c
000003b0: 1748 bb3c 7139 233b 3f45 1c3c 9b1e 3a3c
000003c0: ebcd 0cbb 012e 423c 4730 1c3d f3b6 2f3b
000003d0: c2d7 20bc 8aae 61bc cc03 b4bc 77e0 353c
000003e0: 2db9 8dbc 3f4f 7abb 2f6a 903b 013b b23c
000003f0: 2d7b b73c c498 9bbc e9f4 2abc 3a2f 9c3b
0.018353641 0.010956407 0.0248305 0.014992139 -0.02741783 -0.042161502 -0.065292425 0.008050619
0.021970157 0.032188628 -0.012960856 -0.02715058 0.005628958 0.011474154 0.011719574 -0.010191876
0.017833818 -0.029662132 -0.0029791873 -0.026209094 -0.034159347 0.0052703335 0.03496857 0.01575861
-0.035199996 -0.058335565 0.0024464864 0.06156945 0.023646364 -0.022237085 0.04255936 0.0047482317
0.009778441 -0.014172296 -0.0007848578 0.012617372 0.017334541 -0.0142302085 -0.030859591 -0.013493018
0.040237915 0.03193801 0.013557507 -0.039759807 -0.035144474 -0.047458027 0.03674749 -0.025494032
-0.016645435 0.018160678 0.022969343 -0.022635976 0.037300248 -0.0233191 0.0038368083 -0.03840196
-0.029886862 0.019799491 0.0039252164 0.027402133 -0.012667404 0.07321504 -0.018030914 0.06013982
-0.007769427 -0.011248745 -0.024378022 -0.028943168 -0.038534723 -0.017393699 -0.040406357 -0.027314259
0.03421411 -0.0034128176 0.011216564 -0.0044380794 -0.03460599 -0.0041490546 0.01587805 -0.04619893
-0.038760882 0.011602049 -0.051088374 -0.056486275 -0.012983551 0.042818755 0.018381987 0.023175642
0.008779479 -0.05289115 -0.0021023036 -0.025958907 -0.0117720915 -0.04959522 0.02598546 0.0076727998
-0.00224281 0.026159953 -0.028887225 -0.04780779 -0.02411248 -0.03529788 -0.033253685 -0.03736595
-0.03555644 0.028715007 -0.019047499 -0.010068209 -0.020364024 0.033122655 0.012424757 -0.03965611
-0.038310003 -0.005298462 0.032794263 -0.023066126 -0.043360457 0.0046665384 -0.030056749 0.009598224
-0.06128359 0.034868468 -0.014660318 -0.059481584 0.042506564 -0.014670488 0.026264358 -0.058215085
0.025676345 -0.0025747549 -0.015637992 0.011198179 0.023217611 -0.0026699752 0.014031976 0.016439773
0.04590863 0.015004166 -0.03158294 -0.028483221 0.023220249 -0.033014603 0.012121301 0.004080076
-0.012995563 -0.024619212 0.012568571 0.0133509105 -0.02914333 0.0036281475 -0.024309956 -0.01207346
-0.021170814 0.018198485 0.019227635 0.014938177 -0.0012268001 0.022574136 -0.0025521824 -0.0060943426
0.03980394 -0.027084649 -0.008806728 0.034812663 0.00024967696 -0.018625377 -0.0110028135 0.0076817013
0.032513913 -0.03031056 -0.0027039754 -0.018154249 0.007120641 -0.033922397 -0.0011511418 -0.030476324
-0.009607052 -0.031616703 0.033409018 -0.014782772 -0.009267239 0.0055980436 7.540234e-05 0.016432358
-0.020984476 0.0027117243 -0.0066343076 -0.026290305 -0.03479626 0.0014671831 -0.0053621726 0.009496983
0.006017504 0.015566788 -0.007043273 -0.013629953 0.019892357 -0.007720223 -0.034238905 -0.017951608
0.011377182 0.007942401 0.009857844 -0.028197292 -0.004751117 -0.019229919 0.046628486 -0.05113515
0.027520677 0.0036975078 -0.02623155 0.018740442 -0.011265184 0.008856755 0.00678979 -0.0043502497
0.005643908 -0.014233291 0.00717776 0.006602676 0.0051256167 -0.008420663 -0.020716935 -0.013588842
-0.008968387 -0.01946687 -0.0015441322 -0.019481001 -0.032956704 -0.022705335 -0.015415145 0.0176898
-0.03417768 0.025686834 -0.014959841 0.024422666 0.022861524 0.0024906064 0.009537994 0.011359836
-0.0021485041 0.0118517885 0.03813198 0.0026811927 -0.009817066 -0.0137745235 -0.021974467 0.01110088
-0.017300213 -0.0038194207 0.0044071893 0.02175665 0.022397602 -0.018993743 -0.010434368 0.004766372

action_model._continuous_distribution.mu.bias f4 [4]
00000000: 6496 053c 0bfb 383b 94c0 83ba ebb6 9d3a
0.008153532 0.0028225805 -0.00100519 0.0012032663
