results/shooter2/Shooter/Shooter-499794.onnx (onnx, 201499 bytes, 9 tensors)

network_body._body_endoder.seq_layers.0.weight f4 [128, 120]
000000 e5 e9 04 3d c9 94 00 be b2 55 88 3c ef dc c9 bc
       0.03244962 -0.12556757 0.016642425 -0.024641482
000010 49 51 74 bd ad 2a b4 bd 88 1d 13 3d f0 32 89 3d
       -0.059647832 -0.08797202 0.035916835 0.06699169
000020 5b 68 a1 bd 84 b9 46 bd f5 e9 75 bd a6 82 ab bc
       -0.07881232 -0.048516765 -0.060037572 -0.020936321
000030 c5 a7 58 bd c6 c2 3e 3c 41 6d f0 bd c6 cc fc bc
       -0.052894372 0.011643117 -0.117395885 -0.030859362
000040 f2 60 b7 bc 45 b2 41 3e 26 df 7b 3d ca 11 22 3e
       -0.022385094 0.1891566 0.061492108 0.15827098
000050 e2 27 14 bd 3a f1 18 bc 2c 2a 1f bd c9 a6 b1 3d
       -0.036170848 -0.009334857 -0.038858578 0.0867439
000060 2f 5c 17 3d 56 10 32 3d 61 d0 86 bd 3a d2 9e 3d
       0.036953148 0.04347261 -0.06582714 0.07754941
000070 1a 4c b0 bd 15 9d 19 3c af d7 ae bd 99 8c ee 3d
       -0.08608265 0.00937583 -0.08537232 0.116479106
000080 8a 9a 5e bc cd d6 20 bd 57 6e 9d 3c 31 ec bd bd
       -0.01358665 -0.03926735 0.019217653 -0.092735656
000090 e4 29 7a 3d 30 0c a1 3d cc eb aa 3c c4 37 fd 3c
       0.061075106 0.07863653 0.02086439 0.03091038
0000a0 36 e6 19 bd 2f cf dc bc 54 aa 14 3d 1b 28 c7 3d
       -0.037573062 -0.026954262 0.03629525 0.097244464
0000b0 28 f2 32 3e bf f3 58 3b b7 be 25 be 94 4b e1 bc
       0.17475188 0.0033104268 -0.16186033 -0.027501859
0000c0 a2 93 75 3d 9b 5c 4b 3d 40 09 34 be 4d 5e aa 3d
       0.059955247 0.049648862 -0.17581654 0.08318768
0000d0 44 87 fe 3d 69 81 25 3b 96 60 aa 3c 28 b4 40 3c
       0.124281436 0.0025254136 0.020798009 0.011761703
0000e0 69 90 fc 3d c6 0e da 3d 68 c4 1b 3d 67 34 e2 3d
       0.123322316 0.10647349 0.038029104 0.11045151
0000f0 e7 d9 d7 3a c9 2f 72 3b 1a bd 3e 3d a5 e1 5a 3d
       0.0016468138 0.0036954752 0.04656706 0.053437848
000100 b9 23 49 bd 8a 25 4f bc ae e6 a8 3e 2a 43 02 3b
       -0.049106333 -0.012643227 0.32988495 0.0019876459
000110 24 2c cc bd c6 95 b2 bc a7 9e 74 3d 42 98 24 3d
       -0.09969357 -0.021799933 0.059721615 0.040184267
000120 86 52 e0 3b 58 2a 25 bc c8 a6 95 bd 73 9b a0 bd
       0.006845775 -0.010080896 -0.073072016 -0.078421496
000130 d1 0b 89 bd 95 c6 59 38 ce f8 9b 3d 36 93 17 bd
       -0.06691707 5.1921776e-05 0.07615815 -0.037005626
000140 4a 4e 7c bb 6f 9e 11 be bc c4 1e 3c 74 2a f0 3d
       -0.0038498812 -0.14220594 0.00969046 0.11726847
000150 0f 45 12 be 12 6f a7 bd 45 fa f9 3d 72 f4 1d 3e
       -0.14284156 -0.08175482 0.12205938 0.1542528
000160 f2 cd 12 bd 3b bc fe bc ab 8c 21 be d3 8a e9 bd
       -0.035840936 -0.031095615 -0.15776317 -0.11403432
000170 82 cf c3 3c 7e d5 c7 39 dc 28 0e 3e 68 73 7c bd
       0.023902658 0.00038115302 0.13882774 -0.061633497
000180 de 77 44 3c 97 49 01 3d 85 dc 20 3e c9 1a 1a 3e
       0.011991469 0.03156432 0.15709122 0.1504928
000190 da 3a b7 bd 77 dc 88 3d b6 5f 94 bd f5 51 ac 3c
       -0.08946772 0.06682675 -0.07244818 0.021035174
0001a0 b1 00 d1 3c 07 ba f4 3c 9e 50 5e bc 72 72 e1 3d
       0.025513025 0.029873861 -0.013569025 0.11008157
0001b0 b2 7b 0f bd af a9 7a bd c7 a8 a5 3c 34 3e bb 3b
       -0.035030074 -0.06119698 0.02022208 0.0057142023
0001c0 18 bb 6f bd 09 66 0d 3d 91 e3 d0 3d 6f 3b 79 bd
       -0.058528036 0.034521136 0.10199655 -0.060847696
0001d0 a7 f2 2c be 9c f2 2d 3e 94 d7 73 bd 4b 5e 30 bd
       -0.1688944 0.1698708 -0.059531763 -0.043058675
0001e0 6d 28 8a 3c 18 ea 74 bd 77 05 09 3d a1 97 b7 bc
       0.01686498 -0.05979356 0.033452477 -0.02241117
0001f0 27 46 06 bd b6 80 53 3d ed f9 ca 3d 9a eb ff bd
       -0.032781746 0.05163642 0.09910951 -0.12496109
000200 b1 a4 f0 bc bf 25 97 bd fd 2d ed bc c8 30 94 3c
       -0.029375406 -0.07380246 -0.028952593 0.018089667
000210 1d d7 90 bb dd f6 58 3d 66 9a 1f 3e 82 71 ec bd
       -0.0044201748 0.052969802 0.15586242 -0.115450874
000220 44 a6 91 3d f5 cd 63 3d bc 5f 85 bd f0 12 f4 3d
       0.07111791 0.055616338 -0.065124005 0.119176745
000230 05 81 d0 3d 0e 6b 53 3d 90 4d ba 3d 70 d6 0f 3e
       0.101808585 0.051615767 0.09096825 0.14046645
000240 62 5c a1 bd d1 11 62 3d 19 ca 11 3e 0a 2e 0f be
       -0.07878949 0.055192772 0.1423725 -0.13982406
000250 9a fc 76 3d 34 3f 20 be a1 58 f2 bd b0 3d 4a bd
       0.060299493 -0.1564911 -0.11833311 -0.049375236
000260 4b 50 75 bd 12 c7 0d 3e a5 c9 74 bd 2a dd aa 3d
       -0.059891026 0.1384547 -0.059762616 0.08342965
000270 0f 5a 7d 3d 55 11 66 3b 71 d2 61 bc 5c 58 6f 3d
       0.061853465 0.0035105546 -0.013783083 0.058433875
000280 9c c0 0e bc 09 db 2f bd d0 df 25 3e 08 87 a8 3d
       -0.008712914 -0.042933498 0.16198659 0.0822888
000290 8f 6c a8 bd 19 e1 80 bd 86 d3 11 be f4 2c 12 3e
       -0.08223831 -0.06292934 -0.14240846 0.14274961
0002a0 48 36 9d bc 79 4f 44 bd b5 a8 83 3c cc eb c4 bd
       -0.019190922 -0.047927354 0.016071657 -0.09615287
0002b0 30 09 e7 3d f5 f5 ce 3c 0f 3d 97 bd b2 3f 66 3d
       0.11281049 0.025263766 -0.07384693 0.05621309
0002c0 e2 94 27 3d 11 f1 4b 3d d7 05 16 bd 32 de d4 bd
       0.04091347 0.049790446 -0.036626663 -0.10393943
0002d0 8b e3 08 bd a4 7e b7 bd 04 7d 19 bd 41 1e 98 bd
       -0.033420127 -0.08959702 -0.03747274 -0.074276455
0002e0 d5 07 4e bd ee c2 20 be 58 81 1a 3e 16 bb 3d bd
       -0.050300438 -0.1569936 0.15088403 -0.046320997
0002f0 ab 3e 0d bd 06 de 2b bd 4c 15 5a bd 54 44 3b bd
       -0.034483593 -0.041959785 -0.053242967 -0.04571946
000300 b9 0c 1a be 4d 54 a9 3c 8b 09 b3 bd f3 95 36 3c
       -0.15043916 0.02067008 -0.087420546 0.011144149
000310 83 87 8a 3d 47 35 e9 3c 0a 18 b9 bc cc 61 ae bc
       0.06764128 0.028467787 -0.02259447 -0.021286868
000320 70 24 d8 3c 2c 3d 16 3e e0 75 99 3d ca 87 c9 bd
       0.026384562 0.14671773 0.07493186 -0.09840353
000330 5d b4 b1 3d 67 13 1f bd 5c b5 bd 3d 3d e2 47 bd
       0.0867698 -0.038836863 0.09263107 -0.048799742
000340 c5 18 03 3e e8 2f a8 bd 53 e2 40 bb 74 77 1f 3e
       0.12802418 -0.082122624 -0.0029431775 0.15572912
000350 7b 47 13 be 09 4f ac bd 0d 93 f8 bc 29 d4 b8 bd
       -0.14382736 -0.08413512 -0.030343557 -0.09024841
000360 4c 77 80 3d b3 11 d7 3c 64 45 c1 3d 1b c5 2e be
       0.06272754 0.026253557 0.09437063 -0.17067377
000370 33 ac a4 3c 46 53 bf bd 9f 7a 6c 3d 80 33 61 3e
       0.020101642 -0.09342055 0.057734128 0.21992302
000380 2d f9 12 bd 68 27 af 3c a9 54 cd 3d 68 6c eb 3c
       -0.035882164 0.021381095 0.10025913 0.028738216
000390 b9 a4 90 3a 8c d4 ae bd f3 f6 bf bd 97 40 91 3b
       0.0011035419 -0.08536634 -0.09373274 0.0044327485
0003a0 83 7d c1 3d 37 ee 25 be bc 01 34 bd 03 a0 11 3e
       0.094477676 -0.16204153 -0.043946967 0.14221196
0003b0 74 36 70 bd b2 99 40 be e0 cb ea 3d 96 74 83 3c
       -0.05864568 -0.1880863 0.11464667 0.016046803
0003c0 84 94 b5 3d b0 7b c5 bd e7 ff b3 3d 22 d7 3b 3d
       0.08866218 -0.09642732 0.08789044 0.045859464
0003d0 bc 68 0f bd 57 f7 c1 bd fa 25 23 bd 69 bc f6 bc
       -0.03501199 -0.094710045 -0.03983114 -0.030119138
0003e0 c9 f6 22 3d 0f 17 43 ba 50 75 eb bd b4 72 3a 3e
       0.039786134 -0.00074420957 -0.11496985 0.18207818
0003f0 4f d6 14 3e 3f 78 2b 3e 8b 2f 1b 3d 47 98 9f bd
       0.14534877 0.16745089 0.037887137 -0.077927165

network_body._body_endoder.seq_layers.0.bias f4 [128]
000000 30 bf 2e 3c 02 13 8b b9 fb 03 ae 3a a3 d8 be bb
       0.0106657 -0.00026526308 0.0013276333 -0.005824165
000010 01 c3 8c bb 93 04 9c 3a 07 da ce bb 7f 14 0d 3b
       -0.004295707 0.0011903219 -0.006312612 0.002152711
000020 1a 91 13 bb cc f2 30 bc 2c c1 b8 3a 06 91 b0 bb
       -0.0022516907 -0.010800075 0.0014095656 -0.005388382
000030 cc 00 c3 3a af 21 a1 ba 51 75 90 3b f2 03 87 bb
       0.0014877557 -0.0012293364 0.0044085165 -0.0041203434
000040 76 d8 74 bb 8a 2e cf 3b 6b cb 26 bb 46 4c 4a 3c
       -0.0037360466 0.0063226866 -0.0025450836 0.012347287
000050 77 e1 7d 3b 38 ed 7f 3b 41 72 0a 3c 90 08 0b bc
       0.0038739124 0.0039051306 0.008450092 -0.008485928
000060 dc 58 d1 3b 23 31 a0 bb ba ad 70 ba b7 eb 61 bc
       0.0063887667 -0.00488867 -0.0009181161 -0.013789109
000070 50 0c 09 bc f3 6b b5 3b f6 a1 5d bc d0 59 0e bc
       -0.008364752 0.00553655 -0.013527384 -0.008688405
000080 7f 9b 58 3c 0e b7 1c ba ef 68 20 3b 94 ac 3a 3c
       0.013220667 -0.0005978205 0.0024476608 0.011393685
000090 55 45 1e 3b 72 16 aa 3b 87 7d f5 bb 5d e1 ef ba
       0.0024150212 0.005190664 -0.0074917707 -0.0018301416
0000a0 8a 95 9a ba e9 f4 d5 ba 6b 49 b7 b8 47 47 fe bb
       -0.0011793834 -0.0016323599 -8.739795e-05 -0.0077599618
0000b0 2c 1b 1c bc 2d 48 2f 3c 94 26 e8 3b 94 96 21 b7
       -0.009527963 0.01069836 0.007084677 -9.631407e-06
0000c0 ba a2 df 3a 80 bb 4c bb 13 17 ae bb 54 14 a7 3b
       0.0017062046 -0.0031239688 -0.0053128093 0.005098859
0000d0 28 da cd bb 88 bf c6 bb 73 1a ba 3b 84 3f 30 bb
       -0.00628211 -0.006065313 0.0056794225 -0.0026893327
0000e0 dc d5 68 3b 0b 47 3e bc 75 74 24 bc 9b 47 0b 3b
       0.003552786 -0.011613618 -0.010037531 0.0021252397
0000f0 63 1b 7c 3a ce 7b 1f 3c 72 f7 cc 3b d4 fd 3d 3c
       0.0009617118 0.009734107 0.0062550837 0.011596162
000100 6a 23 ed bb 6b ed f2 3a 39 57 38 bc 1b b0 30 bc
       -0.0072368877 0.0018533891 -0.011251264 -0.010784174
000110 ee c5 42 3c 75 7c 06 ba c1 54 dd bb 32 5e 3a 3c
       0.01188801 -0.000513024 -0.006754488 0.011374997
000120 e3 87 9e 3c 72 23 59 39 09 4d a0 bb a5 a2 b8 3b
       0.019351905 0.00020707937 -0.004891996 0.005634623
000130 63 63 55 3b 9a d3 52 bc 02 d2 28 bc 62 ce 03 bc
       0.003256046 -0.012867833 -0.010303976 -0.008044811
000140 c7 8e 41 3c 30 40 a2 3b 6a 49 29 bc fd 5c 32 3b
       0.011813826 0.0049514994 -0.010332445 0.002721607
000150 e1 b1 4b bb 84 33 db 3b 6a ee f3 bb c5 e6 8d 3c
       -0.0031081366 0.0066894908 -0.0074441927 0.017321954
000160 98 06 89 3b 2b b0 61 3a 5d 5e 72 3a 84 bb 76 bc
       0.0041816942 0.000860932 0.00092456286 -0.015059356
000170 c3 0a 29 bc a0 60 97 3b 7e e7 04 bc 5d fc 3b 3c
       -0.010317507 0.004619673 -0.008111833 0.011473742
000180 92 b9 15 bc 21 87 0f 3c 99 05 c1 3b d5 d6 29 bb
       -0.009138482 0.008760245 0.00589056 -0.0025915403
000190 06 dc a3 3b 43 02 35 bc 75 35 c5 b9 ac 23 11 bc
       0.005000594 -0.0110479025 -0.00037614597 -0.0088586025
0001a0 ba ef 0b bc 91 af 3f 3b b2 1a 25 bc d2 5b 66 bb
       -0.008541042 0.0029248933 -0.010077165 -0.0035149944
0001b0 29 31 41 bc e0 78 45 3c e3 c9 94 bb 09 d4 6a bb
       -0.011791506 0.012052745 -0.0045406683 -0.003583195
0001c0 d0 bc b3 bb 5c 5c 65 bb 0f 8d 2a bb 2c 30 51 3c
       -0.0054851547 -0.0034997677 -0.002602402 0.012767833
0001d0 68 fe 03 3c 12 e8 a4 ba d0 07 6a 3b 47 f0 0d bc
       0.008056261 -0.0012581369 0.0035710223 -0.008663244
0001e0 70 8a d8 bb 6c b6 13 bc c3 1b ef 39 51 71 17 bc
       -0.0066083 -0.009015661 0.00045606316 -0.009243325
0001f0 00 80 76 ba 12 5f 8b 3b 34 9c eb 3a ed 0a 8f 3b
       -0.0009403229 0.0042532766 0.0017975629 0.004365316

network_body._body_endoder.seq_layers.2.weight f4 [128, 128]
000000 c4 10 4d 3c e0 d8 67 3d b3 10 0a be aa f9 11 bd
       0.012516204 0.056603312 -0.13482933 -0.03563849
000010 90 6a b7 3d 22 4e 0d 3d cd 59 1d 3b a5 61 a0 bd
       0.08955872 0.03449834 0.0024009824 -0.07831124
000020 e3 cc bf 3d c1 e0 a7 bd b5 df 89 3c ad 28 a1 bd
       0.09365251 -0.08197165 0.016830305 -0.078690864
000030 92 f4 9f bd 60 34 b0 bd 55 ac b7 bd 9e d0 42 3e
       -0.0781032 -0.0860374 -0.089684166 0.19024894
000040 7a ad bd 3d a2 ac 45 3d f3 1e b4 bd ae 7a 37 bc
       0.09261604 0.04826034 -0.087949656 -0.011198683
000050 50 f6 64 3d bd db 49 3d 78 46 70 3d 8f 2e bd 3c
       0.055898964 0.049281824 0.058660954 0.02309349
000060 cf b6 67 3d 96 7c 07 3e f8 bd 73 3b ba ae fc 3d
       0.056570824 0.1323112 0.0037192088 0.12338014
000070 73 15 60 bd d6 71 25 be f2 97 9a 3c 20 60 6d bc
       -0.054707956 -0.16156706 0.018871281 -0.01448825
000080 4e 34 07 bc 47 e9 15 3e 8e a1 34 3d f6 f8 f3 bc
       -0.0082522165 0.1463977 0.044099383 -0.0297818
000090 d2 fe 00 3e b8 27 47 bd 26 d0 53 bd af b9 c2 3d
       0.12597206 -0.048621863 -0.051712178 0.095080726
0000a0 b2 7f 21 3c d7 1c 0e 3e d4 cb b3 3c 36 9d b7 3c
       0.009857105 0.13878189 0.021947779 0.022413831
0000b0 01 cd c4 3c 30 62 7e bd 3b 63 e9 3d 19 52 41 bd
       0.024023535 -0.062105358 0.1139588 -0.047197435
0000c0 2d 53 96 3c 56 2b fd bc fc 92 4f bd e6 45 7a 3d
       0.018350208 -0.030904453 -0.050677285 0.061101817
0000d0 f6 63 5f bd ab 79 81 bd d9 69 6c 3d b9 ab 7d b9
       -0.05453869 -0.063220344 0.05771813 -0.00024191932
0000e0 ec ce e4 3a b1 84 70 3e c5 7a 37 3e 8d ca b1 3d
       0.0017456687 0.23488118 0.17917927 0.086812116
0000f0 93 29 21 bc cc b0 34 3b 21 4f 0e be 07 62 f6 3a
       -0.009836572 0.00275712 -0.13897373 0.0018797525
000100 f8 e5 bc 3c be 07 6d bc 14 46 db 3d ff e2 f9 ba
       0.023058876 -0.014467178 0.10706726 -0.0019064842
000110 4e 82 b5 3d 3c 5a 0a be 98 b1 37 be d0 ba 00 be
       0.08862744 -0.13510984 -0.1793884 -0.12571263
000120 ec 58 15 be 92 d0 a5 bc 89 e9 03 3c 72 0e 13 3d
       -0.14584702 -0.020241056 0.008051285 0.035902448
000130 77 3a 3e 3a 4e 0c a6 3d 88 af 45 3d d8 57 d1 3d
       0.0007256637 0.08107816 0.048263103 0.10221833
000140 0b 1b e6 3d 4c b2 2b bd 17 36 97 3d 9e 41 73 be
       0.11235627 -0.041918084 0.07383364 -0.237555
000150 2d 42 cf 3d 9b 6e 92 3d 48 14 2b 3d e1 e3 65 bd
       0.10120044 0.071500026 0.04176739 -0.056125525
000160 32 2c 0f 3e d9 70 ab bc 1c 95 f4 bc d8 81 9b bd
       0.13981703 -0.020927833 -0.029856257 -0.07593125
000170 e6 ba 0e 3d 1a b2 51 be 09 60 bc 3d d2 c5 60 bc
       0.03484621 -0.20478097 0.09198005 -0.013719039
000180 3c 5b e7 3d e9 56 db 3c d4 fd 3a bd f4 43 12 be
       0.112966985 0.02677484 -0.045652226 -0.14283735
000190 c6 d4 b2 3d ce a8 6c bd c5 9c 6c 3d 98 51 b6 3d
       0.087319896 -0.057778172 0.057766695 0.089022815
0001a0 0a 18 79 3d c2 a7 9b 3c fb 75 93 bd 1b 4e 83 3b
       0.06081394 0.019000892 -0.07200237 0.0040071136
0001b0 24 4a 9b 3d 20 a3 1b 3e f0 9c 5f 3d cc 51 b7 3d
       0.075825006 0.15198946 0.054593027 0.089511484
0001c0 0a 96 6c bd 45 1e 38 3d 34 54 84 bd e1 e5 65 bd
       -0.057760276 0.044950742 -0.06461373 -0.056127433
0001d0 6a 83 85 bd f8 bc 1c bd 12 28 3d bd b4 f2 87 bd
       -0.06519206 -0.038266152 -0.046180792 -0.06638089
0001e0 5e b0 83 3c e3 fe cd 3d 43 24 1b 3d 85 20 06 bd
       0.01607531 0.100583814 0.03787638 -0.032745857
0001f0 0d a2 b6 bb 04 47 d5 3d 74 e1 31 bd 81 c4 37 bd
       -0.005573517 0.10413936 -0.0434279 -0.044865135
000200 c9 c3 f8 bc 96 93 3e bd f4 ab 86 bd a1 e8 a3 3c
       -0.030366795 -0.046527468 -0.06575766 0.020008387
000210 70 ab 52 3d 24 b0 11 be 4d e8 28 be ab e0 fb bc
       0.051433027 -0.14227349 -0.16494866 -0.030746778
000220 cb 24 01 3c 8b 36 72 bd 8f 66 23 3d c5 a8 b8 bc
       0.007882307 -0.059134047 0.03989273 -0.022541413
000230 e9 6f 11 bd 55 ec 9f bb a6 40 cf bd 61 82 e7 bd
       -0.035507116 -0.004880468 -0.101197526 -0.11304165
000240 59 9f 00 be da 5c 2f bc 61 da 2f bc b0 76 94 bd
       -0.12560786 -0.01070329 -0.010733218 -0.072492
000250 0c b6 a7 3c 10 3d 31 be 10 6b 8e 3d 33 80 e2 3d
       0.020472549 -0.1730845 0.06954014 0.11059608
000260 b1 c4 61 be 5f c8 64 3b 88 12 6c 3d 10 65 80 3d
       -0.22047688 0.003490947 0.05763486 0.06269276
000270 1b 9f de 3c 72 85 f1 3d 97 78 59 3d 8e ab 2c 3d
       0.027175477 0.11793031 0.05309352 0.042155795
000280 d2 92 24 be 00 b6 fc bc 0c d5 8e bd d5 27 f4 3d
       -0.16071633 -0.030848503 -0.06974229 0.1192166
000290 c2 6f 87 3c 8a 81 bf 3d bc f7 d0 bd 70 2f d3 3d
       0.016532782 0.093508795 -0.102035016 0.10311782
0002a0 81 9a 14 3e d6 1c 07 3e 61 ab 0a bd 11 7d 53 3c
       0.14512064 0.13194594 -0.033854846 0.012908236
0002b0 da 5c bf 3d 98 25 8c 3d 93 02 d1 3d d5 12 21 bd
       0.09343882 0.06843108 0.10205569 -0.0393246
0002c0 b5 b0 81 3c 6e 07 20 3e de 55 43 bd 95 e5 c6 bd
       0.01583133 0.15627834 -0.04768931 -0.09711758
0002d0 60 29 a5 bc b4 f7 b5 bc 10 1f 37 3d 93 cb 3b 3d
       -0.02016133 -0.02221284 0.044707358 0.04584844
0002e0 34 07 80 be 82 85 72 bc 07 6b b6 bc c7 e6 88 3d
       -0.25005496 -0.014802339 -0.022267831 0.06684642
0002f0 ea c8 7d bd 62 f6 3a 3e 0c b3 cd 3d e4 22 e2 bd
       -0.061959185 0.1825805 0.10043916 -0.11041811
000300 44 6a 0a be 8e ea 14 3e c6 77 12 be 5a 35 8e 3c
       -0.135171 0.145426 -0.14303502 0.017359424
000310 95 33 e3 bd 7c 0a bb 3c 19 98 bf bc 44 36 1f bd
       -0.11093823 0.022832148 -0.023387956 -0.03887011
000320 8d c2 7b bb 50 bb 16 bd 47 aa ae 3d 06 da 11 bd
       -0.0038415522 -0.03679973 0.085285716 -0.035608314
000330 1c e8 85 bd 7d cd d9 3d ad 57 8b bd bc 3a 60 bd
       -0.06538412 0.10634897 -0.06803832 -0.054743513
000340 bc f4 81 3d 41 84 86 3d 49 2a 0e 3d 73 dc 86 3d
       0.063455075 0.06568194 0.034708295 0.06585016
000350 87 37 c6 bd c9 37 58 bd 97 4d 09 be 57 fc 23 be
       -0.0967856 -0.052787576 -0.13408504 -0.16014229
000360 ad 10 5b bd 45 27 cc 3d 90 b9 9b bc 13 b2 62 bd
       -0.0534827 0.099684276 -0.019009382 -0.055345606
000370 ac 60 05 bd 57 9f 0b 3e de cf 3e 3b a6 6f 15 3d
       -0.032562897 0.13635002 0.0029115598 0.03648343
000380 09 76 99 3d 2c 08 80 3d d2 b8 8b bc 1f 14 df 3d
       0.074932165 0.06251559 -0.017055903 0.1089251
000390 e4 00 8f bd ae 26 8a 3e 3f ad aa 3d 29 9b 68 bd
       -0.06982592 0.26982635 0.08333825 -0.056788597
0003a0 f5 32 d1 3d 75 b3 b0 bc 4a 1c 3b bb 9e b9 27 3d
       0.102147974 -0.021569947 -0.0028550797 0.040948503
0003b0 aa a3 77 bc ee 3e 12 bd eb 2c 90 3d 27 3a f1 bc
       -0.015114704 -0.035704546 0.070398174 -0.029446675
0003c0 8c 24 5f 3c 04 99 ce bd 01 95 48 be 07 f1 b0 bd
       0.013619553 -0.10087779 -0.1958809 -0.08639722
0003d0 3b 2a 6b bb 2b f5 17 bd af ab f4 bd 5a b3 3a bc
       -0.0035883326 -0.037099045 -0.119468085 -0.0113953
0003e0 db 0a cc 3d bd 98 4f 3d cc 87 75 3d eb f5 61 3d
       0.09963008 0.050682772 0.05994396 0.055166166
0003f0 b3 b7 be 3d d1 33 cf 3c 4a 06 90 bc d0 71 e4 bb
       0.093123816 0.025293263 -0.017581124 -0.0069715753

network_body._body_endoder.seq_layers.2.bias f4 [128]
000000 06 47 9c bb 91 16 41 ba 9d 70 ca 3b 02 7d 35 bb
       -0.004769209 -0.00073657284 0.0061779753 -0.0027692919
000010 78 77 a1 3b 21 b7 9a 3b 88 bd 9c bb d9 47 ae bb
       0.004927572 0.0047215377 -0.004783336 -0.0053186235
000020 37 9d 3c bb 94 ee 8d bb 4b 5b 94 bb 18 10 5e bb
       -0.002878023 -0.0043314192 -0.0045274845 -0.0033884104
000030 7d 6f 51 ba de 7a b6 3a 8f 3d d9 bb 43 27 30 bb
       -0.00079893303 0.0013922115 -0.006629653 -0.002687887
000040 80 8f 2d 3a 20 be ec bb b4 04 12 3c 51 2e 12 3b
       0.00066208094 -0.007224813 0.008912254 0.0022305439
000050 4f 84 1a 3b 3c 57 ff bb 23 1d dd 3b 47 18 85 bb
       0.0023577397 -0.0077923816 0.006747858 -0.004061732
000060 98 e1 0e 3b 92 21 ba ba 69 87 1d bc 17 28 ea 3b
       0.0021801945 -0.0014200679 -0.009614804 0.0071458924
000070 a9 62 5e 3b 60 09 22 bb af 5d be ba 33 4d 36 3c
       0.0033933318 -0.0024724826 -0.001452377 0.011126804
000080 fe b5 88 bb cd e8 f8 bb 08 dc f7 bb 12 9a b7 ba
       -0.004172086 -0.0075961114 -0.0075640716 -0.0014007709
000090 ce 67 2d 3b 72 da e6 bb 9d 6d f3 3b 74 f8 d5 bb
       0.0026459577 -0.0070450837 0.0074288384 -0.006529862
0000a0 a3 4d a0 bb eb 86 8f bb f3 cb bb bb 41 89 67 ba
       -0.0048920675 -0.004380097 -0.0057310998 -0.0008832403
0000b0 99 ea 01 3c c2 3a 47 bb ab 9e c7 ba 5a 00 d4 bb
       0.007929468 -0.0030400013 -0.0015229782 -0.0064697685
0000c0 81 95 f7 3b e9 6a e9 3b 5b 98 09 3c 66 4b c2 bb
       0.007555664 0.0071233404 0.008398141 -0.0059293984
0000d0 ef 84 4d 3c 1a 2d 3d 3c 16 ba 92 bb 81 6d f1 ba
       0.012543901 0.011546398 -0.0044777496 -0.0018419476
0000e0 58 56 14 bc f6 28 52 39 3d 60 94 3b 77 76 0e 3c
       -0.009053789 0.0002004242 0.004528074 0.008695236
0000f0 30 d6 ce 39 ee 8f 0b 3c 58 e5 4e 3c 48 67 f1 3a
       0.00039450964 0.008518202 0.012627922 0.0018417621
000100 ee 6e ca ba b4 50 0b bc d1 74 06 3c cc f1 89 bb
       -0.0015444437 -0.008503128 0.008206562 -0.0042097326
000110 88 c5 02 bb 9e b5 d5 3b c7 69 e6 bb 81 54 1c 3b
       -0.0019954164 0.0065218946 -0.0070316526 0.002385408
000120 ae 04 26 bc 3f d8 e1 bb 49 a6 4b b9 12 33 3b 3c
       -0.010132952 -0.0068922336 -0.00019421535 0.01142575
000130 6d 49 f5 bb a1 a8 1c bb 12 1f d5 3b 28 93 c4 3a
       -0.0074855597 -0.0023904222 0.006503948 0.0014997469
000140 4c ac ec 3a a7 03 1f bc 0b 6c f9 bb d0 c4 d0 bb
       0.001805672 -0.009705461 -0.0076117567 -0.006371118
000150 96 41 25 3c ea 8b 1b 3c eb a1 a5 3b 34 81 c2 3b
       0.010086438 0.009493807 0.0050547025 0.0059358124
000160 13 ec cf 3a 10 24 c6 3b df 09 85 3b eb a9 8f 3b
       0.0015863202 0.0060467795 0.0040600146 0.0043842695
000170 b4 7c 1f bc 8d eb d6 ba 6e 42 7e bb e3 65 64 3b
       -0.009734321 -0.0016397104 -0.003879692 0.0034850768
000180 b4 13 61 b9 33 7c e8 3b 66 5b 56 bb ad 79 b1 bb
       -0.00021465012 0.007094884 -0.0032708286 -0.005416116
000190 0c cc 37 3a 5e 0f 30 3c 1c 5e 1b 38 8f ca e8 ba
       0.00070113013 0.010745851 3.7042526e-05 -0.0017760562
0001a0 dd b8 01 3b ae 15 b0 bb 51 a8 9f 3b 55 57 bf 3b
       0.0019794025 -0.005373678 0.00487236 0.005839268
0001b0 66 82 2b 3c 39 87 14 3c 10 65 b3 bb 12 fb cb 3a
       0.010468101 0.009065443 -0.005474694 0.0015562496
0001c0 c1 dc 91 bb a6 ad 1d 3b 0f f1 e9 bb ea 18 a7 3b
       -0.0044513647 0.0024059801 -0.007139332 0.0050994055
0001d0 ca b3 4e bb e3 26 da bb 26 a9 68 3c fe f3 9e bb
       -0.0031540268 -0.0066574677 0.014200484 -0.0048508635
0001e0 44 cb ee 3a 2e cd 55 3b 63 e6 14 3b 61 12 c9 bb
       0.0018218537 0.0032623517 0.002272033 -0.006136224
0001f0 62 dc e8 bb e3 a9 07 38 b3 83 f2 3b 62 ae 2a bb
       -0.00710635 3.2344728e-05 0.0074009537 -0.0026043882

network_body._body_endoder.seq_layers.4.weight f4 [128, 128]
000000 7a d6 8a bc ae 03 56 be 18 45 fc 3d 8a cd f3 3d
       -0.016947974 -0.20899841 0.12317866 0.11904438
000010 52 1e a7 bd 7b 6d 39 bd d7 e0 61 3c 8f fb bb 3d
       -0.0816008 -0.045270424 0.013786516 0.0917884
000020 87 e7 b4 bc 1a 55 88 bd 2b 2f 0b be c6 70 23 bd
       -0.022083057 -0.06656857 -0.13592212 -0.03990247
000030 63 fa 92 bd cf bc 86 bb 89 02 16 be e2 c3 62 3c
       -0.07176664 -0.004111863 -0.14649405 0.013840647
000040 60 f9 f4 3d a0 23 bb 3c 62 88 3e 3e 9a 1d f8 bd
       0.11961627 0.022844136 0.18606713 -0.12115021
000050 13 51 1b bd bf 8f c6 3d 08 ce 9c 3d b6 3d 89 bb
       -0.037919115 0.09695386 0.07656485 -0.0041882647
000060 68 d3 3b 3e 3b 6d 1d bd b9 33 83 bd 9f 16 0f bd
       0.18342364 -0.03843425 -0.0640635 -0.034933683
000070 88 7b 47 3d 70 c0 af 3c 2d f8 a2 3d 71 b6 b3 3b
       0.048701793 0.021454066 0.07957492 0.005484395
000080 20 6c e8 bd ff 7b 89 3d c9 1c fe bd 0a e1 cd 3d
       -0.11348748 0.067131035 -0.12407834 0.100526884
000090 d5 80 95 bc 6a 9e d2 3d fe dd 21 bd de 20 e7 3c
       -0.018249908 0.10284121 -0.03951835 0.028213914
0000a0 bb 73 b3 3c 3e 34 17 3c 5b e1 22 bd 99 d9 cb 3c
       0.02190577 0.009228764 -0.039765697 0.024884032
0000b0 2a 86 4f bd f5 9c f9 3d fc 23 d7 3d 09 ce 2a 3d
       -0.05066506 0.1218814 0.1050491 0.041700397
0000c0 45 46 e6 bd 55 b4 54 3a e5 7c 42 bd ae a3 af 3d
       -0.112438716 0.000811403 -0.04748239 0.08576141
0000d0 ef fe 60 3d 60 0a 61 bb 67 61 c3 bd a0 ef a5 bd
       0.054930624 -0.003433846 -0.095400624 -0.081023455
0000e0 3d 93 5b bd 99 cf e2 bd 01 60 d0 bd ba 6a 0e 3d
       -0.053607214 -0.11074752 -0.10174561 0.03476975
0000f0 c3 bd 9a bd c1 73 9b 3d 8b d7 8a bd 48 c8 8c 3d
       -0.075557254 0.07590438 -0.06779393 0.06874138
000100 9a 6d cb 3c 13 91 5f 3d cc 6b d3 bc 8b e0 95 3d
       0.024832536 0.054581713 -0.025808237 0.07318219
000110 b8 1a 2d 3e 7d bc 1b bc f4 b7 72 3b a6 d3 79 be
       0.16904724 -0.009505388 0.0037035914 -0.24397144
000120 37 d4 57 bc 1b 2b db bd 08 b7 70 3d 31 05 c4 bd
       -0.013173155 -0.10701581 0.058768302 -0.09571303
000130 78 fa 13 3d 61 a3 51 bd 97 01 9b bd 8b 49 18 be
       0.036127537 -0.0511812 -0.075686626 -0.14871804
000140 d5 41 a9 3c 55 67 c0 bb db d1 3b bd 2d 1d 6e bd
       0.020661274 -0.005871693 -0.04585443 -0.058133293
000150 d0 6d 3f 3d 76 2a c5 bd 7b a7 1d be e2 b2 fc 3a
       0.046735585 -0.096272394 -0.1539592 0.0019279385
000160 f3 10 85 bd 86 bf b0 bd d9 e4 90 bc ca 1e 82 3c
       -0.064973734 -0.0863028 -0.017687248 0.015883822
000170 07 bc 41 3e fa 24 0d 3d a7 9e 0a 3e 35 6d 14 bb
       0.18919383 0.03445909 0.13537084 -0.00226481
000180 03 b7 36 be aa f3 c7 bc 76 c8 fc 3c 04 b2 26 3c
       -0.17843251 -0.02440818 0.030857306 0.010174278
000190 ac 30 28 bd 46 cd dd bd 97 56 de bd 9a 16 00 bb
       -0.041062042 -0.108301684 -0.108563595 -0.0019544722
0001a0 91 c9 eb 3d 54 d2 d7 3c 3b 62 f9 bc 0c 83 26 3b
       0.11513055 0.02634541 -0.030442348 0.00254077
0001b0 f8 ed e4 bb b1 ac bf bb 01 3e cf 3d ff 87 d8 3d
       -0.006986376 -0.005849444 0.10119248 0.10572814
0001c0 74 5c 9f bd 33 90 12 be 42 7e 87 3d 2f 36 2f be
       -0.07781306 -0.1431282 0.06615879 -0.17110513
0001d0 f7 16 ea bb b0 1e 9a bd ea ef 8f bd 3f a9 20 3d
       -0.007143851 -0.075253844 -0.07028182 0.039223906
0001e0 c8 60 7b bd 20 e1 5e 3b 87 4d 89 3d bb 8b ef 3c
       -0.061371595 0.0034008697 0.0670424 0.029241433
0001f0 46 56 c6 3c 3e 67 c0 3d 98 16 fd bc 84 22 01 3d
       0.02421106 0.09394692 -0.030894563 0.031527057
000200 56 b9 13 bc 63 3c 3e bd 85 69 c1 ba 1d 6d 33 be
       -0.0090163555 -0.046444308 -0.0014756179 -0.17522092
000210 aa 8c 55 bd 9d 1a a1 bd 7f 26 06 3e 48 7a 08 3e
       -0.0521361 -0.07866404 0.13100623 0.13327897
000220 11 eb de 3d 2c c8 d9 bd 29 2c 70 bc 63 f0 13 be
       0.10884679 -0.10633883 -0.014658966 -0.14447169
000230 1d 02 fc 3d 85 51 b5 3d 52 22 c7 3d 42 78 14 be
       0.123050906 0.08853439 0.09723343 -0.14499
000240 de 78 35 be 6f 62 91 bb 63 80 47 bd 49 b6 df bb
       -0.17721888 -0.004436783 -0.048706423 -0.00682715
000250 67 7e 85 bd a1 24 d1 bc 11 cc d7 3d e9 95 4a 3d
       -0.0651825 -0.025530161 0.105369695 0.04945937
000260 a0 71 0a bd 6f 8e 5c bd 1d 02 ad 3d d3 93 89 3d
       -0.033799767 -0.053846773 0.08447669 0.06717648
000270 dc 9e 6c 3c cc 39 40 bd fc ac 4a 3e e9 e1 43 bb
       0.014442172 -0.04693012 0.19792551 -0.0029889292
000280 64 4e 44 bd 22 7a 93 3c ca 51 36 bd ca bc 18 3d
       -0.04792632 0.018002573 -0.044511594 0.03728942
000290 03 ed 89 bd f4 69 e0 3d fd 7f e8 bd 91 02 fc bd
       -0.067346595 0.10957709 -0.11352537 -0.12305177
0002a0 ec be 0d bc 6d 0f 09 be c1 3e 3b 3b 96 dc 94 bd
       -0.008651476 -0.1338479 0.002857134 -0.07268636
0002b0 59 12 eb bd f6 b8 82 3d 3a 71 90 bd 65 57 0e bc
       -0.11478109 0.06382935 -0.07052846 -0.008687829
0002c0 c3 ef bc 3d 99 af 83 bd 60 ec b0 bd fd fc 23 3e
       0.092254184 -0.06429977 -0.08638835 0.16014476
0002d0 c8 ef 6d 3c 43 25 1b 3d 28 4b e0 bb 30 4e ff bc
       0.0145225 0.037877332 -0.006844897 -0.031165212
0002e0 c2 7b 0c 3e ba 65 ed 3c 8b 54 77 3c 2b b2 94 3d
       0.13719085 0.028979171 0.01509584 0.07260545
0002f0 5e f8 ad bd 6c 92 92 3d 20 0b b9 bd d6 9f 53 bb
       -0.08494638 0.07156834 -0.09035325 -0.0032291315
000300 79 85 83 bc 29 79 00 bc dd f3 0c be 6e 24 d9 bd
       -0.016054856 -0.007841387 -0.13764901 -0.106026515
000310 d2 f9 45 bd 4c 5f f3 bc e6 9c b7 bc 61 b6 b9 3c
       -0.04833395 -0.029708527 -0.022413682 0.022669973
000320 38 3e 01 bd 0f 7b 9d bd f4 de 02 3e 0f fb a8 bd
       -0.031553477 -0.07689487 0.12780362 -0.082510106
000330 3c 76 05 3e e4 da b8 bd 99 ef 9f bd 93 89 45 bd
       0.13033384 -0.09026125 -0.078093715 -0.048226904
000340 c4 1d cc bd d4 e9 99 bd cd 48 9e bd 63 48 93 bd
       -0.09966615 -0.07515302 -0.077287294 -0.07191541
000350 f3 08 19 be 79 81 dd bd 78 d5 c6 3b f3 1d e2 3d
       -0.1494482 -0.108157106 0.006067928 0.110408686
000360 f0 4c e3 bd 09 e9 61 3e 92 93 45 be 2c 96 99 bd
       -0.11098659 0.22061552 -0.19294575 -0.07499346
000370 48 68 7a 3d 9a 2e 7c 3d 0b 20 ba 3d 54 58 68 be
       0.061134607 0.06156788 0.09088143 -0.22689945
000380 4a e9 d0 3d 87 87 c3 3d 07 25 71 3d d1 5d ff 3c
       0.10200746 0.09547334 0.058873203 0.031172665
000390 cb cb 90 ba 5b 14 8b 3d 4c 44 6e bd dc fd 2a bc
       -0.0011047063 0.06790992 -0.0581706 -0.010436501
0003a0 c9 0d ac bd 9a a1 19 3d 53 02 7c bc b9 40 20 3e
       -0.08401067 0.03750763 -0.0153814135 0.1564969
0003b0 bd 26 67 3d ed e6 51 bb 40 90 b0 3d b5 cc 8b 3d
       0.056433428 -0.0032028512 0.086212635 0.06826154
0003c0 57 c8 aa bd 29 98 50 3d f3 40 a6 bd 56 77 db 3c
       -0.08338993 0.05092636 -0.08117857 0.026790302
0003d0 4c 70 10 bd 01 f6 dc 3c a5 9d 8b 3d fa 01 9a bd
       -0.035263345 0.026972773 0.06817178 -0.07519908
0003e0 c0 ce e9 bd bc 2f d6 3d c3 7a b5 bd fc db cd bc
       -0.114163876 0.10458323 -0.088613056 -0.02512931
0003f0 d3 e5 84 3d 50 e2 4b bc 78 96 a2 3d 6a 92 e0 3b
       0.06489148 -0.012444094 0.07938856 0.0068533914

network_body._body_endoder.seq_layers.4.bias f4 [128]
000000 d2 1b 27 bc 5f 1d 9b 3b c1 dc ac bb 14 44 6d bb
       -0.010199504 0.004733726 -0.0052753394 -0.0036203908
000010 06 c5 bc 38 6e c6 1a 3c 91 e4 05 bc 64 99 27 3c
       9.001237e-05 0.009446723 -0.00817217 0.010229442
000020 74 9b ad bb 32 9d b5 3b 61 ec 1d bc c3 a6 69 bb
       -0.0052980725 0.005542421 -0.009638877 -0.0035652376
000030 71 17 36 3b b5 5f f2 bb 1f 72 14 3c ec ac 35 3c
       0.0027784968 -0.007396663 0.009060412 0.011088591
000040 7e a9 aa bb 65 b7 37 bb 73 8a 18 bc 96 18 0e 3c
       -0.0052081933 -0.0028032896 -0.009310353 0.008672854
000050 99 06 62 bb ff 5f 95 3a 35 37 73 bb 87 fd e3 3b
       -0.0034488796 0.0011396407 -0.0037111763 0.006957713
000060 3e 62 33 bb a4 dd 8a b9 57 25 c4 bb da d7 f9 3b
       -0.002737179 -0.00026486546 -0.0059858966 0.0076246085
000070 e6 8d e5 b9 4e a8 9b bb 2f 9f e5 3b c1 06 73 3b
       -0.00043784006 -0.004750288 0.0070075016 0.0037082883
000080 db 97 ed ba 92 d4 fb bb df 7b 04 3b a4 3e fa 3b
       -0.0018126921 -0.0076852525 0.0020215434 0.007636862
000090 47 f4 b3 bb ef 7a 15 3c b7 41 a9 bb a5 cc ab 3b
       -0.0054917666 0.009123548 -0.0051653045 0.0052429014
0000a0 b0 15 0e 3c 12 86 38 3c 14 73 9f 3b c7 b8 a6 39
       0.008672163 0.011262434 0.0048660133 0.00031799657
0000b0 da 80 08 bc 27 b5 01 3b 71 ef a1 ba b7 f3 9e bb
       -0.008331502 0.0019791813 -0.0012354684 -0.0048508304
0000c0 a1 8a 89 bb 0a ba 06 bb e2 88 17 3c e2 d5 d8 bb
       -0.004197434 -0.0020557665 0.009248944 -0.0066172937
0000d0 74 d9 66 3b a7 83 31 3b d9 ec d6 ba 66 85 86 ba
       0.0035224827 0.0027086528 -0.001639749 -0.0010263145
0000e0 dc 5d 90 3b 44 d1 87 bb 34 b9 b8 3b 2f d1 11 3c
       0.00440572 -0.0041448195 0.0056373123 0.008899971
0000f0 18 eb 11 bb ae a2 12 3b 5e 6e 0e bc c7 b9 c3 3b
       -0.002226537 0.0022374797 -0.008693306 0.005973074
000100 0b c2 11 bb 55 fc f6 bb c5 7a 0e 3a a6 0b fe 3b
       -0.0022240903 -0.0075374045 0.0005435164 0.0077528534
000110 9b ab 23 bb a8 73 f2 bb 4d 14 02 bc f4 52 c8 bb
       -0.002497411 -0.007399041 -0.00793941 -0.0061134044
000120 58 0b 32 3b 2d a9 85 bb 64 12 8b 3b 97 b7 9a b8
       0.0027167406 -0.004079005 0.0042441357 -7.3774885e-05
000130 09 89 d4 bb 8f 26 7e 3b bc 89 e0 3a be dd 2e bb
       -0.0064860624 0.0038780307 0.0017130892 -0.0026682462
000140 ab f3 1b 3c 2a 8d 52 3c 40 b0 85 3b 66 00 30 3c
       0.009518544 0.012851039 0.0040798485 0.0107422825
000150 65 d7 0d bb 43 1b cc ba fc b2 bb bb 82 9e 34 3c
       -0.0021643278 -0.001557209 -0.0057281237 0.011024119
000160 a6 62 d9 3a ad 69 46 ba c1 1a 80 3b f9 84 07 3b
       0.0016585186 -0.00075688475 0.0039094393 0.0020678623
000170 74 ea a6 3b 79 ee 46 3c 73 d0 ac 3b 67 b7 28 bb
       0.005093867 0.012141817 0.0052738725 -0.0025744082
000180 07 a5 32 bb c9 20 c2 bb da 33 6a bb 19 fe 72 bb
       -0.0027259008 -0.0059243185 -0.0035736472 -0.0037077724
000190 e3 5b ff bb 79 3a dc 3b a1 26 f4 ba 04 8c e5 bb
       -0.007792936 0.0067208377 -0.0018627235 -0.0070052166
0001a0 5d a0 10 3c 95 5f 19 3a 28 db 0b 3b d0 d3 91 3b
       0.008827296 0.00058507296 0.0021340344 0.004450299
0001b0 b1 14 06 3c c9 fa d3 bb e2 6f 2d bc 28 41 27 3c
       0.008183644 -0.006469105 -0.010585757 0.010208406
0001c0 c0 4c 88 bb 7a 20 23 3c ee 33 e5 3b 2e 80 1b bb
       -0.00415954 0.0099564735 0.006994716 -0.0023727524
0001d0 8a 60 0e bc e4 e5 1e ba c9 af 34 3c 61 11 13 3a
       -0.008690009 -0.0006061478 0.011028239 0.00056101946
0001e0 8f f5 03 3c ac 06 e4 b8 13 06 17 3b 62 da 47 ba
       0.008054151 -0.0001087313 0.0023044392 -0.0007623789
0001f0 a2 15 98 bb 7b d6 cb ba 1f 5e 1b 3c ad c4 31 3a
       -0.0046412507 -0.0015551591 0.009482889 0.0006781321

action_model._continuous_distribution.log_sigma f4 [1, 4]
000000 9d 37 20 bc af 56 f5 3c 9c 8f c5 3c 4e b3 11 3d
       -0.009778884 0.02994856 0.02411633 0.03557139

action_model._continuous_distribution.mu.weight f4 [4, 128]
000000 08 7b 1a 3d ad 79 f2 bb f0 8d 68 3c c9 24 a3 3c
       0.037714988 -0.007399759 0.014193997 0.019915001
000010 59 57 d5 ba 90 0b fd bc c7 3b 09 3d 67 14 1f bd
       -0.0016276642 -0.030889302 0.033504274 -0.038837817
000020 cb 38 65 3a 33 a4 83 bb 71 e7 13 3d be 2e 6a 3c
       0.00087441196 -0.004017377 0.03610939 0.014293371
000030 b9 94 ba bc 26 6d f3 3c d7 87 f6 bc ce 35 ad bc
       -0.022775995 0.029715132 -0.03009407 -0.02114382
000040 70 34 fc 3b ab 0b 17 bc ab ba 5b 3d f7 01 69 bb
       0.0076966807 -0.00921909 0.053644817 -0.003555415
000050 6b 2c c5 3c 77 74 95 bb 39 aa af 3c 0f 6e 7f bc
       0.024069032 -0.004561003 0.021443473 -0.015590205
000060 12 0e 25 3d 5e db 69 bc 3a de 37 3d f8 35 18 bc
       0.04029662 -0.014273493 0.044889666 -0.009290211
000070 b8 f0 84 3c f7 75 54 3c dd 54 30 bd fe 61 c5 bb
       0.016228065 0.012967578 -0.043049682 -0.0060236445
000080 0b a7 91 3c 04 3a dc 3c 51 e0 2d bc b9 9d 06 bb
       0.017779848 0.026883133 -0.010612563 -0.0020540787
000090 74 d1 13 3d 9e d0 25 bd 23 f6 60 3c 49 b3 f1 bc
       0.036088422 -0.040482156 0.013730559 -0.029504435
0000a0 94 8c 17 bd 5f c3 46 bd 35 c1 c5 bc 17 b3 6b 3c
       -0.0369993 -0.048526164 -0.02413998 0.01438596
0000b0 05 f9 32 3d 97 d9 af 3b db 87 6b bc 71 be 2c 3d
       0.043694515 0.005366515 -0.014375652 0.042173807
0000c0 64 c6 07 3d 1c f8 bb 3b e3 ec f3 bc 6c 6b 91 3c
       0.033148184 0.005736364 -0.029776042 0.017751418
0000d0 69 57 18 bb 25 c8 ea bb 50 8d a9 3c 8c fc db bb
       -0.002324546 -0.0071649724 0.020697266 -0.0067134555
0000e0 eb 2c 62 3c c4 28 93 3c 2a 88 30 bc 99 58 be bc
       0.013804655 0.017963775 -0.010774652 -0.023235606
0000f0 39 0d c5 3c fd c9 10 bc 7a e3 d1 3c e9 e5 06 bd
       0.024054157 -0.00883722 0.025621165 -0.032934103
000100 2a f2 cd ba 49 b2 13 3d 0c fa 37 bc 0a c7 00 bd
       -0.0015712429 0.036058698 -0.011229049 -0.03143982
000110 0b 8a 19 3c 13 01 ca 3c 18 1d 66 3d 97 27 47 bb
       0.009371291 0.024658715 0.05618009 -0.0030388588
000120 e9 b0 b7 bc c2 35 af 3c aa 1f b5 bc 56 70 2d bc
       -0.022423225 0.021387938 -0.022109825 -0.010585865
000130 e8 30 75 3c 65 d0 f9 bc 8b a6 ad bb e5 03 12 3d
       0.014965273 -0.030494878 -0.0052993945 0.035648245
000140 55 e9 98 bc 0e 55 39 bd 7d bd d8 bc eb f4 d5 bc
       -0.018665949 -0.04524713 -0.026457543 -0.026117763
000150 d5 c3 ac b9 a7 24 a8 3c 34 96 d6 3c e1 82 54 bd
       -0.00032952303 0.02052529 0.02619467 -0.05188263
000160 ac 12 c8 bc ca 1a 6a ba f3 b0 d5 bc 88 bc 3e bc
       -0.024422966 -0.00089303835 -0.026085353 -0.011641629
000170 24 5f 3a bc 1b f0 3a bd 39 bb be bc ec d2 db 3b
       -0.011375222 -0.04563914 -0.023282634 0.0067084935
000180 56 9a 2b bc b2 a3 01 3d 15 a9 7e 3c dd f7 37 3c
       -0.010473808 0.031650253 0.015543242 0.011228529
000190 ed fe e2 3c a0 14 01 bd 28 83 d1 3c 3e 53 26 3c
       0.027709449 -0.03151381 0.025575235 0.010151682
0001a0 ac eb 7c bd 15 4e d9 bb 69 7b 3a bc 25 14 20 bc
       -0.06174819 -0.0066316226 -0.011381962 -0.009770428
0001b0 34 f1 3a bd 06 0e 55 3d 5c 2d 2f 3d c4 b7 4a bd
       -0.045640185 0.052015327 0.042767867 -0.04949166
0001c0 8c 3c f8 3c 4b f3 38 bd 2b 34 cc bc f8 3d 26 3a
       0.030302308 -0.045153897 -0.02492722 0.00063416315
0001d0 d8 89 f3 3c 91 3f ac bc cc 6c 27 bd 99 c5 64 3c
       0.029728815 -0.021026405 -0.04087524 0.013963127
0001e0 9a eb 24 bd 8c 28 45 3c 3e 8c de bb e4 41 71 bc
       -0.04026375 0.012033593 -0.0067916205 -0.014725182
0001f0 f2 77 ab 3c 1c 79 3d bc bb 22 9a bc a4 21 61 3a
       0.020931218 -0.011564519 -0.018815389 0.00085880817
000200 a4 8b 53 bc 26 de 92 b9 46 98 0b bd e2 c4 93 3b
       -0.012911711 -0.00028012804 -0.034080766 0.0045095542
000210 2c 82 cf 3c a2 82 fb 3c 40 ce 6d bc 24 cf 9a 3b
       0.025330625 0.030701939 -0.014514506 0.0047244
000220 77 af ab bc 20 2d 44 bc 92 32 62 3b ce 08 85 bc
       -0.020957692 -0.011973649 0.0034515006 -0.01623955
000230 44 54 07 bd b1 06 d2 bc ea 21 30 3b 43 94 31 bc
       -0.033039346 -0.025637956 0.0026875683 -0.010838571
000240 39 df bb bc 91 d4 97 3c 96 1a 01 bc a1 96 a7 b7
       -0.02293359 0.018533977 -0.007879874 -1.9978093e-05
000250 83 18 a9 3c 69 e8 41 3c a0 34 09 bd 53 9f 12 3d
       0.02064157 0.011835196 -0.033497453 0.035796475
000260 48 46 a5 bc 58 2e ba bc 2c 4a 29 bb d4 55 f8 3a
       -0.020175114 -0.022727177 -0.0025831563 0.0018946477
000270 54 e4 ce 3c f8 63 48 bc be 62 e0 3c 8a 48 da 3c
       0.02525536 -0.012230866 0.027390834 0.026645917
000280 45 d5 e6 3c a2 74 40 bd 92 51 9e 3a 00 45 fd 3c
       0.028177867 -0.04698623 0.0012078753 0.03091669
000290 77 fd 3e bc f5 0a cf bb ce 78 f9 3b 88 12 86 bc
       -0.01165711 -0.006318445 0.007613278 -0.016366258
0002a0 7e dc 80 bb 44 10 d5 3c 7e 07 18 3d 9f f2 54 3b
       -0.0039325347 0.026008733 0.03711652 0.0032493246
0002b0 8a d1 f1 ba df 3e 0b 3c b8 8d 8a bc e3 b9 bd bb
       -0.0018449288 0.008498876 -0.01691328 -0.0057899817
0002c0 77 ad b7 bc 67 01 ea bc 09 89 35 3c 46 01 25 bc
       -0.022421582 -0.028565122 0.011080035 -0.010071104
0002d0 fa 2f 10 3c 0d 7e e1 3c 53 68 cf 3c 31 6e 43 3c
       0.008800501 0.027525926 0.0253183 0.011928127
0002e0 56 f1 85 3c 85 f5 f3 bb 53 80 86 bc ae 73 35 3c
       0.01635043 -0.0074450397 -0.016418612 0.0110749435
0002f0 24 8e 88 3c c4 b4 75 39 0e 0a cf bc 12 d7 93 b9
       0.01666934 0.00023432361 -0.02527335 -0.00028198265
000300 21 cc 80 bc 3b 63 3d bc de 23 e3 bc 47 8b e0 3b
       -0.015722336 -0.011559303 -0.027727064 0.0068525407
000310 ca cc 8f 3c ce 33 46 3c e2 cf b4 bc 8f 65 2e bc
       0.017553706 0.012097312 -0.022071782 -0.010644331
000320 d3 e0 e1 ba b7 aa b3 3b c8 35 f9 ba e6 87 97 3c
       -0.001723314 0.0054829973 -0.001901322 0.018497419
000330 e9 00 df bb 9e c2 52 bc 06 6d 0a 3d 13 ca f3 3b
       -0.0068055284 -0.012863783 0.03379538 0.0074398606
000340 af 51 db b8 50 41 53 bb 76 b2 6f bc 48 fe 44 bb
       -0.000104579485 -0.0032234974 -0.014629951 -0.003005879
000350 87 91 e3 bc a1 d4 82 3c fa cf b0 3b 47 4e a9 bb
       -0.027779354 0.01597053 0.0053958865 -0.005166802
000360 e4 55 10 bd 6d 95 69 3c d7 71 b4 bb 63 9e 96 3b
       -0.03523816 0.014256817 -0.005506735 0.004596518
000370 1d 5e fd 3b 72 ee 45 3c 6e 0e 72 b7 f5 29 57 3c
       0.0077321664 0.012080776 -1.4427684e-05 0.013132562
000380 ef 81 cd bc 31 c4 52 bc 17 d7 2f bc 1e 82 15 bd
       -0.025086371 -0.0128641585 -0.010732434 -0.036501043
000390 41 74 b1 bc 36 57 8b b9 67 28 16 3c b8 20 04 3c
       -0.02166188 -0.00026577123 0.009164906 0.008064441
0003a0 7b 03 e5 3b 19 90 4d 3b 12 a7 c3 3c eb 74 99 3c
       0.0069889403 0.0031366406 0.023883376 0.018732509
0003b0 09 90 9d 3b b0 67 64 bc b3 a2 20 bc 34 86 19 3d
       0.00480843 -0.013940737 -0.0098044155 0.0374815
0003c0 53 74 03 3c 64 b2 3e 3d 6c cd 9a 3b 04 0f bc bc
       0.008023339 0.046556845 0.004724195 -0.022956379
0003d0 e6 4a ea bb b9 fa 1b bd 12 36 99 3c 84 39 9d 3c
       -0.007150042 -0.038080905 0.01870254 0.019192465
0003e0 f6 cb a0 38 ae 20 a2 bc 77 d4 79 3c c3 7d 0f bb
       7.667385e-05 -0.019790974 0.0152484095 -0.0021895028
0003f0 dd ca fa 3c 5a c5 60 bc 91 3d 3a 3c 88 1e a9 39
       0.03061431 -0.013718927 0.011367218 0.0003225694

action_model._continuous_distribution.mu.bias f4 [4]
000000 ae 81 4b bc ae 2f 53 3b a6 d8 2c bb a0 b3 49 ba
       -0.012421055 0.0032224464 -0.002637425 -0.0007694308
