results/shooter2/Shooter/Shooter-999319.onnx (onnx, 201499 bytes, 9 tensors)

network_body._body_endoder.seq_layers.0.weight f4 [128, 120]
0.037245203 -0.123115785 0.016642425 0.0057486147 -0.054697044 -0.08471051 0.035916835 0.096902296
-0.08301661 -0.043224283 -0.060037572 0.007695718 -0.060351234 0.018280292 -0.117395885 0.0007810493
-0.015048555 0.19171266 0.061492108 0.184917 -0.030395638 -0.0056066224 -0.038858578 0.11419776
0.040596444 0.04699481 -0.06582714 0.099545226 -0.08072708 0.012593541 -0.08537232 0.1376813
-0.006360375 -0.036962464 0.019217653 -0.07277443 0.077342935 0.07908702 0.02086439 0.048522796
-0.027938182 -0.025010984 0.03629525 0.11474635 0.1824577 0.0060618157 -0.16186033 -0.011946456
0.054158576 0.055413537 -0.17581654 0.09784331 0.1287303 0.0073724804 0.020798009 0.023567703
0.120752685 0.11136883 0.038029104 0.12471007 -0.0018491306 0.010771532 0.04656706 0.062746525
-0.055070236 -0.007319918 0.32988495 0.01475431 -0.094898 -0.019348133 0.059721615 0.07057437
0.022692949 -0.009739523 -0.073072016 -0.060683146 -0.05879953 0.0024070623 0.07615815 -0.019366654
-0.0023870291 -0.13668072 0.00969046 0.12092659 -0.13404875 -0.07894026 0.12205938 0.1588794
-0.026189715 -0.02790493 -0.15776317 -0.11933369 0.026263423 0.0043158405 0.13882774 -0.06560357
0.015037327 0.035608575 0.15709122 0.14576183 -0.094128534 0.07143183 -0.07244818 0.017542947
0.030162355 0.033372927 -0.013569025 0.12233122 -0.042076357 -0.056170885 0.02022208 0.01811283
-0.05485538 0.037465073 0.10199655 -0.034558553 -0.19812901 0.17720217 -0.059531763 -0.013863592
0.017082406 -0.056844056 0.033452477 -0.03289548 -0.032191135 0.053823654 0.09910951 -0.13846335
-0.02202976 -0.072961085 -0.028952593 0.012180867 0.003414087 0.052866295 0.15586242 -0.13359123
0.074808985 0.057448216 -0.065124005 0.11511842 0.105057575 0.052537143 0.09096825 0.12205196
-0.07209451 0.05614263 0.1423725 -0.14015476 0.06488217 -0.15589878 -0.11833311 -0.06767137
-0.058011774 0.14055178 -0.059762616 0.085713476 0.05504645 0.007771877 -0.013783083 0.043574374
-0.0035494347 -0.041412514 0.16198659 0.08786592 -0.080613695 -0.061488204 -0.14240846 0.12624496
-0.009305767 -0.047876943 0.016071657 -0.08658092 0.118651904 0.024831466 -0.07384693 0.038751293
0.046440076 0.051130313 -0.036626663 -0.09381541 -0.025727006 -0.090591304 -0.03747274 -0.09149188
-0.050163474 -0.15429494 0.15088403 -0.033470146 -0.03426613 -0.039010294 -0.053242967 -0.056203768
-0.15725632 0.024970284 -0.087420546 -0.003656028 0.072770454 0.029945262 -0.02259447 -0.015729703
0.033263568 0.14634502 0.07493186 -0.11483522 0.08430278 -0.035584364 0.09263107 -0.027714174
0.13128205 -0.0814464 -0.0029431775 0.14538465 -0.14354746 -0.0818933 -0.030343557 -0.06435807
0.06453734 0.028324533 0.09437063 -0.17607518 0.029299652 -0.09240443 0.057734128 0.23596685
-0.041093644 0.025206724 0.10025913 0.02254351 0.0110502625 -0.08417783 -0.09373274 0.006532951
0.10400715 -0.1599229 -0.043946967 0.13523126 -0.04099308 -0.18886021 0.11464667 0.009539995
0.094794564 -0.096758716 0.08789044 0.09566873 -0.016387781 -0.09700427 -0.03983114 0.020046147
0.04250005 0.0005868931 -0.11496985 0.22849284 0.15803158 0.16662371 0.037887137 -0.024506899
00000000: 6d8e 183d 2124 fcbd b255 883c e05e bc3b
00000010: 020a 60bd b47c adbd 881d 133d b674 c63d
00000020: 9d04 aabd f20b 31bd f5e9 75bd 5d2c fc3b
00000030: db32 77bd 8dc0 953c 416d f0bd 55bf 4c3a
00000040: 378e 76bc 5350 443e 26df 7b3d e25a 3d3e
00000050: 4600 f9bc c2b7 b7bb 2c2a 1fbd 84e0 e93d
00000060: 7548 263d a17d 403d 61d0 86bd 5ede cb3d
00000070: 3d54 a5bd 2455 4e3c afd7 aebd 54fc 0c3e
00000080: b16a d0bb f465 17bd 576e 9d3c c30a 95bd
00000090: f965 9e3d 60f8 a13d cceb aa3c d7bf 463d
000000a0: 9dde e4bc d6e3 ccbc 54aa 143d 2200 eb3d
000000b0: 31d6 3a3e 32a2 c63b b7be 25be 11bb 43bc
000000c0: 62d5 5d3d 4ef9 623d 4009 34be 1362 c83d
000000d0: e0d1 033e d994 f13b 9660 aa3c 0e11 c13c
000000e0: 2f4d f73d 5715 e43d 68c4 1b3d fe67 ff3d
000000f0: 875e f2ba 147b 303c 1abd 3e3d 4081 803d
00000100: 5491 61bd ecdb efbb aee6 a83e 10bc 713c
00000110: e259 c2bd fa7f 9ebc a79e 743d 4c89 903d
00000120: 90e6 b93c 8592 1fbc c8a6 95bd e48e 78bd
00000130: c7d7 70bd cebf 1d3b cef8 9b3d d1a6 9ebc
00000140: b46f 1cbb 08f6 0bbe bcc4 1e3c 5ca8 f73d
00000150: 1344 09be 6eab a1bd 45fa f93d 48b1 223e
00000160: d08b d6bc e198 e4bc ab8c 21be 3965 f4bd
00000170: 6426 d73c e56b 8d3b dc28 0e3e 2a5b 86bd
00000180: 1f5f 763c 4cda 113d 85dc 203e 9742 153e
00000190: 76c6 c0bd da4a 923d b65f 94bd 3ab6 8f3c
000001a0: 0b17 f73c 0db2 083d 9e50 5ebc ca88 fa3d
000001b0: 4258 2cbd 7113 66bd c7a8 a53c 5c61 943c
000001c0: 09b0 60bd fa74 193d 91e3 d03d 458d 0dbd
000001d0: 55e2 4abe 7c74 353e 94d7 73bd 1f24 63bc
000001e0: 67f0 8b3c 50d5 68bd 7705 093d 69bd 06bd
000001f0: dada 03bd 3176 5c3d edf9 ca3d 56c9 0dbe
00000200: c177 b4bc 9f6c 95bd fd2d edbc 4292 473c
00000210: e0be 5f3b 548a 583d 669a 1f3e 24cc 08be
00000220: 7435 993d d24e 6b3d bc5f 85bd 35c3 eb3d
00000230: 6d28 d73d 3031 573d 904d ba3d 61f6 f93d
00000240: 49a6 93bd d0f5 653d 19ca 113e bb84 0fbe
00000250: f1e0 843d eea3 1fbe a158 f2bd 4a97 8abd
00000260: c19d 6dbd ceec 0f3e a5c9 74bd 8c8a af3d
00000270: 6378 613d 3bab fe3b 71d2 61bc 0b7b 323d
00000280: a29d 68bb 2ba0 29bd d0df 253e 0cf3 b33d
00000290: cb18 a5bd 0edb 7bbd 86d3 11be 5c46 013e
000002a0: 3777 18bc 9d1a 44bd b5a8 833c 5651 b1bd
000002b0: c5ff f23d 5c6b cb3c 0f3d 97bd adb9 1e3d
000002c0: f337 3e3d 056e 513d d705 16bd 4b22 c0bd
000002d0: 71c1 d2bc ef87 b9bd 047d 19bd 1860 bbbd
000002e0: 3778 4dbd 7eff 1dbe 5881 1a3e fe17 09bd
000002f0: a45a 0cbd 42c9 1fbd 4c15 5abd ec35 66bd
00000300: cd07 21be 7b8e cc3c 8b09 b3bd f999 6fbb
00000310: ad08 953d c44f f53c 0a18 b9bc 94db 80bc
00000320: 613f 083d 78db 153e e075 993d ba2e ebbd
00000330: f0a6 ac3d e9c0 11bd 5cb5 bd3d d608 e3bc
00000340: cd6e 063e 5fcd a6bd 53e2 40bb b7df 143e
00000350: 1bfe 12be adb7 a7bd 0d93 f8bc 2ace 83bd
00000360: 272c 843d da08 e83c 6445 c13d 0d4d 34be
00000370: d305 f03c 893e bdbd 9f7a 6c3d 4ba1 713e
00000380: cf51 28bd 557e ce3c a954 cd3d 2bad b83c
00000390: 290c 353c 6d65 acbd f3f6 bfbd 5d12 d63b
000003a0: b301 d53d d4c2 23be bc01 34bd 107a 0a3e
000003b0: 5ce8 27bd 9264 41be e0cb ea3d a44d 1c3c
000003c0: a723 c23d 6f29 c6bd e7ff b33d f8ed c33d
000003d0: ab3f 86bc 2daa c6bd fa25 23bd d137 a43c
000003e0: 8814 2e3d bbd9 193a 5075 ebbd 07fa 693e
000003f0: 08d3 213e 689f 2a3e 8b2f 1b3d b1c2 c8bc

network_body._body_endoder.seq_layers.0.bias f4 [128]
0.014809323 0.0022693055 0.002548362 -0.0018137491 0.0036890795 0.0034928443 -0.00054829963 0.0033338377
0.023584891 -0.010236618 0.0015163185 -0.001493267 0.0026675642 0.0070146285 0.0047183256 0.0029617727
0.0078403745 0.020180298 -0.0057630315 0.015209671 0.005157873 0.004828574 0.00955732 -0.008489697
0.005308966 0.0029853547 -0.0021022577 -0.009603014 -0.0042407294 0.008120547 -0.015249916 0.0008045792
0.019837793 0.015482365 0.00302391 0.0118105635 0.0022389125 0.007235468 -0.006777829 -0.00020682407
0.0028091269 -0.001417015 0.004002284 -0.0057820803 -0.009180256 0.0135433795 0.0068791546 0.0016090483
0.015937012 -0.0024279996 -0.0064278455 0.006955413 0.00047432224 -0.004896026 0.008403442 0.0002678059
0.0011764214 -0.01242474 -0.008884887 0.018995728 0.014788196 0.014925207 0.007929303 0.028522724
0.0014328242 0.0022632233 0.0009845371 -0.016471911 0.012407833 0.0075792447 -0.0014798833 0.014227421
0.009785683 -0.005907952 -0.0103167305 0.009993393 0.005474395 -0.018465715 -0.003471722 -0.005892344
0.013616135 0.0049151247 -0.014145986 0.004660735 -0.0025609909 0.009465147 -0.009808971 0.020355538
0.00080431695 0.0014559444 -0.0026417233 -0.003982958 -0.009620339 0.008382122 0.01648242 0.012169001
-0.016551102 0.019658122 0.011718386 -0.0034537688 0.016082373 -0.009744001 0.0043967166 -0.0049614403
-0.007571143 0.007946876 -0.0075523797 -0.0037580263 -0.011395625 0.029916845 -0.0016991145 -0.009186082
-0.0040483186 -0.007848481 -0.0006656278 0.011266689 0.00667603 -0.009672734 -0.0011257252 -0.0057815937
-0.014423474 0.0036564544 0.012559122 -0.009946363 0.0017507302 0.010656146 0.0009412379 0.0042215977
00000000: cda2 723c a1b8 143b 6b02 273b 52bb edba
00000010: 7cc4 713b 34e8 643b c4bb 0fba 847c 5a3b
00000020: 1a35 c13c 7db7 27bc 35bf c63a bab9 c3ba
00000030: 4dd2 2e3b f8da e53b 2f9c 9a3b 4d1a 423b
00000040: ea74 003c 2751 a53c d0d7 bcbb fc31 793c
00000050: 6003 a93b 0439 9e3b 4e96 1c3c 5f18 0bbc
00000060: d6f6 ad3b f1a5 433b 08c6 09bb f655 1dbc
00000070: d1f5 8abb 0b0c 053c c9da 79bc 65ea 523a
00000080: de82 a23c bfa9 7d3c cb2c 463b 1881 413c
00000090: b8ba 123b 8117 ed3b 8d18 debb eade 58b9
000000a0: 5419 383b 22bb b9ba 9725 833b 9b77 bdbb
000000b0: c968 16bc 0de5 5d3c 886a e13b b4e6 d23a
000000c0: 568e 823c 131f 1fbb ada0 d2bb 3cea e33b
000000d0: 74ae f839 d86e a0bb 97ae 093c 4d68 8c39
000000e0: 2732 9a3a 2391 4bbc eb91 11bc ee9c 9b3c
000000f0: 314a 723c db88 743c e8e9 013c 7da8 e93c
00000100: 9acd bb3a 9652 143b 950b 813a 1af0 86bc
00000110: 394a 4b3c 505b f83b a5f8 c1ba 211a 693c
00000120: 2154 203c 7e97 c1bb 8107 29bc 54bb 233c
00000130: 8e62 b33b 6945 97bc d485 63bb 9014 c1bb
00000140: 3616 5f3c 0e0f a13b 91c4 67bc 14b9 983b
00000150: 4cd6 27bb b413 1b3c ceb5 20bc a8c0 a63c
00000160: ccd8 523a 63d5 be3a c320 2dbb 7983 82bb
00000170: a09e 1dbc 2b55 093c 2406 873c 7d60 473c
00000180: 2d96 87bc 120a a13c 79fe 3f3c a058 62bb
00000190: 2ebf 833c 4da5 1fbc 5512 903b 9493 a2bb
000001a0: 5a17 f8bb 9d33 023c f479 f7bb 3849 76bb
000001b0: b7b4 3abc 2c14 f53c d2b4 deba 3881 16bc
000001c0: c2a7 84bb ea96 00bc 877d 2eba eb97 383c
000001d0: 99c2 da3b 637a 1ebc 128d 93ba 8673 bdbb
000001e0: 6f50 6cbc 20a1 6f3b c7c4 4d3c 12f6 22bc
000001f0: c278 e53a 1e97 2e3c 68bd 763a 5455 8a3b

network_body._body_endoder.seq_layers.2.weight f4 [128, 128]
-0.0003365194 0.048453577 -0.14151011 -0.05208146 0.065104865 0.04637946 -0.021561384 -0.09540839
0.14769505 -0.09241884 0.01688848 -0.05454481 -0.051225923 -0.056430534 -0.08115452 0.17701186
0.12783699 0.0015232672 -0.10195005 -0.02369209 0.035489723 0.06940152 0.053778775 0.04863067
0.052886073 0.15592727 0.010064393 0.11474174 -0.047459528 -0.14797822 0.007942859 0.02951913
-0.02963959 0.15025452 0.053262502 -0.033785798 0.11810723 -0.037241306 -0.037892055 0.11179359
0.019811748 0.12698182 0.05247322 0.0124625275 0.03827245 -0.056743596 0.134263 -0.079276316
0.041968536 -0.04156611 -0.08697675 0.072427586 -0.066317625 -0.06948895 0.066906616 0.013113913
-0.009617724 0.23690376 0.18588181 0.12462348 0.0047875773 0.024540301 -0.12881917 -0.04221799
-0.0009267688 -0.0142240655 0.13379946 -0.01171704 0.09659259 -0.14912562 -0.18226504 -0.10856253
-0.1519895 -0.004623351 -0.003775558 0.040586684 -0.003564406 0.096615404 0.065304175 0.088537656
0.10329419 -0.055585068 0.085724466 -0.24289888 0.09597334 0.081582345 0.03601593 -0.06893937
0.14901589 -0.02602973 -0.03389848 -0.08425601 0.043582227 -0.2223112 0.14263308 -0.020243514
0.11260534 0.0133752925 -0.047088433 -0.1482542 0.07841226 -0.065097675 0.04400082 0.0853936
0.04948788 0.0073383087 -0.08095215 0.016063785 0.054988004 0.18574533 0.06234017 0.08225034
-0.07386541 0.03770252 -0.044154152 -0.032520298 -0.090226844 -0.051934913 -0.05134782 -0.07066882
0.006054639 0.104528 -0.0010841589 -0.024292963 -0.014311727 0.12750836 -0.041187663 -0.03845853
-0.014835196 -0.050236 -0.047674827 0.030794613 0.059807036 -0.14476158 -0.16246063 -0.023801463
-0.031147387 -0.0602633 0.068365954 -0.027494432 -0.037271112 -0.011586308 -0.095712766 -0.118217625
-0.14317724 0.0458872 -0.010873133 -0.03601002 0.022451306 -0.17660575 0.06375039 0.107975855
-0.20499332 -0.011617876 0.06697553 0.05864591 0.030314647 0.111907154 0.051011603 0.026627522
-0.12945399 -0.035077218 -0.06463801 0.13949862 0.030792864 0.09667546 -0.097631946 0.09432029
0.15636376 0.12965466 -0.05669257 0.008914856 0.08976752 0.08154826 0.09757328 -0.019976806
-0.015920682 0.1577559 -0.04762262 -0.093849115 -0.020953238 -0.030065292 0.038572725 0.037197914
-0.25617456 -0.020391585 -0.04309464 0.04244103 -0.07298813 0.18854895 0.11252134 -0.10377564
-0.11364284 0.14536102 -0.14889173 0.0139949005 -0.10737384 0.020322584 -0.026891114 -0.029884346
-0.0010188918 -0.029378561 0.084661536 -0.03550932 -0.080962054 0.116602965 -0.07738843 -0.05844556
0.062044743 0.08014362 0.034026258 0.08325907 -0.104794465 -0.040596563 -0.14559281 -0.12876287
-0.06244381 0.11908886 -0.035353273 -0.05882516 -0.03493379 0.14961691 -0.029788122 0.038506452
0.0689876 0.07036238 -0.010685489 0.11837004 -0.071624786 0.26351547 0.113946386 -0.06376697
0.100467466 -0.018486232 -0.004876251 0.026312536 -0.017314656 -0.054028742 0.047463823 -0.03430429
0.007903231 -0.10054744 -0.19597813 -0.084480405 0.02314218 -0.013719298 -0.104835525 -0.016165897
0.096212626 0.05533139 0.08310935 0.055364683 0.08965854 0.031239789 -0.012269226 0.011180912
00000000: df6e b0b9 4277 463d 07e8 10be 5e53 55bd
00000010: b355 853d 63f8 3d3d 80a1 b0bc 7965 c3bd
00000020: 5f3d 173e 1746 bdbd b659 8a3c 616a 5fbd
00000030: 46d2 51bd b423 67bd 5734 a6bd 9942 353e
00000040: b3e7 023e 5ea8 c73a 30cb d0bd ea15 c2bc
00000050: ac5d 113d 6222 8e3d 2247 5c3d f430 473d
00000060: 119f 583d 66ab 1f3e 20e5 243c b8fd ea3d
00000070: ec64 42bd 9a87 17be c422 023c 1ad2 f13c
00000080: bace f2bc 52dc 193e c829 5a3d fa62 0abd
00000090: 34e2 f13d 578a 18bd b334 1bbd 0af4 e43d
000000a0: 3f4c a23c 8607 023e 29ee 563d a12f 4c3c
000000b0: 93c3 1c3d f96b 68bd 3d7c 093e 9f5b a2bd
000000c0: 33e7 2b3d 3a41 2abd de20 b2bd ea54 943d
000000d0: 89d1 87bd 3950 8ebd 5606 893d bddb 563c
000000e0: a993 1dbc e696 723e cd57 3e3e 983a ff3d
000000f0: 1ce1 9c3b be08 c93c 2ce9 03be c5ec 2cbd
00000100: 67f2 72ba 0e0c 69bc ba02 093e d4f8 3fbc
00000110: 56d2 c53d 63b4 18be b0a3 3abe 0856 debd
00000120: 23a3 1bbe 7b7f 97bb 5a6f 77bb 393e 263d
00000130: cf98 69bb 4cde c53d 32be 853d 3b53 b53d
00000140: e78b d33d 2bad 63bd 4f90 af3d 7cba 78be
00000150: ac8d c43d a514 a73d 7185 133d 1630 8dbd
00000160: 9f97 183e 4d3c d5bc 22d9 0abd 6a8e acbd
00000170: 4783 323d 8ca5 63be 680e 123e bad5 a5bc
00000180: a19d e63d 0b24 5b3c cddf 40bd f3cf 17be
00000190: 9b96 a03d ee51 85bd 343a 343d d7e2 ae3d
000001a0: ceb3 4a3d 3276 f03b 3eca a5bd 3398 833c
000001b0: 1a3b 613d 0634 3e3e 6858 7f3d de72 a83d
000001c0: c046 97bd f56d 1a3d fcda 34bd 0134 05bd
000001d0: dac8 b8bd b4b9 54bd 1752 52bd d0ba 90bd
000001e0: fe65 c63b c712 d63d 561a 8eba 0902 c7bc
000001f0: bc7b 6abc 8d91 023e 65b4 28bd b186 1dbd
00000200: 520f 73bc 44c4 4dbd ae46 43bd fc44 fc3c
00000210: 39f8 743d 613c 14be 145c 26be 49fb c2bc
00000220: ce28 ffbc a6d6 76bd 7303 8c3d 013c e1bc
00000230: 98a9 18bd 7fd4 3dbc 0e05 c4bd 151c f2bd
00000240: 0e9d 12be 37f4 3b3d 3a25 32bc 3e7f 13bd
00000250: cdeb b73c 23d8 34be 918f 823d 7222 dd3d
00000260: c5e9 51be e758 3ebc 772a 893d b236 703d
00000270: 6c56 f83c 942f e53d 8bf1 503d f621 da3c
00000280: 968f 04be 21ad 0fbd ef60 84bd bad8 0e3e
00000290: 5141 fc3c c9fd c53d 42f3 c7bd ff2a c13d
000002a0: d21d 203e 31c4 043e 7836 68bd 9e0f 123c
000002b0: 09d8 b73d c602 a73d 80d4 c73d 66a6 a3bc
000002c0: 176c 82bc c38a 213e f00f 43bd f733 c0bd
000002d0: 20a6 abbc 7d4b f6bc 6ffe 1d3d d75c 183d
000002e0: 5029 83be 410c a7bc 0184 30bd a5d6 2d3d
000002f0: cd7a 95bd fa12 413e 9771 e63d 5388 d4bd
00000300: 94bd e8bd 85d9 143e 1377 18be de4a 653c
00000310: d1e6 dbbd 8c7b a63c c14a dcbc 04d0 f4bc
00000320: 568c 85ba 4fab f0bc 0763 ad3d 3972 11bd
00000330: 6fcf a5bd 89cd ee3d d37d 9ebd 9d64 6fbd
00000340: a122 7e3d 5722 a43d 1e5f 0b3d bb83 aa3d
00000350: 7b9e d6bd 9548 26bd 4816 15be 6ada 03be
00000360: 15c5 7fbd dce4 f33d 98ce 10bd a7f2 70bd
00000370: bc16 0fbd 2d35 193e 3806 f4bc f1b8 1d3d
00000380: 5f49 8d3d 271a 903d 3012 2fbc fe6b f23d
00000390: 04b0 92bd 80eb 863e b95c e93d 4298 82bd
000003a0: e3c1 cd3d 7070 97bc f5c8 9fbb 638d d73c
000003b0: 77d7 8dbc 3e4d 5dbd 6d69 423d a882 0cbd
000003c0: 8e7c 013c d1eb cdbd 7eae 48be 1004 adbd
000003d0: ab94 bd3c e8c6 60bc 02b4 d6bd 586e 84bc
000003e0: 200b c53d 2ba3 623d 3c35 aa3d 14c6 623d
000003f0: e69e b73d 96ea ff3c dd04 49bc 2530 373c

network_body._body_endoder.seq_layers.2.bias f4 [128]
0.003882946 0.0027283092 0.007008152 0.002163525 0.0020826315 0.0029707311 -0.0015716859 0.008251094
0.01317587 0.0042388896 -0.009924031 -0.0069148624 0.008897555 0.0011242839 -0.0060549863 -0.0038960825
-0.0007714264 -0.0055830902 0.011869177 0.017958125 0.011268731 -0.006804008 0.0075556436 0.008665764
0.008439272 0.000822194 -0.0008092731 0.009572712 0.0024802862 -0.0017206537 0.006219702 0.012065028
0.0020832187 -0.0054309485 -0.0056030536 -0.0041560507 0.0055229818 -0.003166932 0.009410015 0.0005867341
-0.0050901473 -0.003070898 -0.001137963 0.005355734 0.009618079 -0.0040069623 -0.004517964 -0.0031756735
0.013892313 0.0086777685 0.016624946 -0.010155122 0.009372717 0.012482314 0.005378834 0.00032190265
-0.010128668 0.0054947315 0.0061001945 0.014069116 0.004342699 0.009688877 0.006669145 0.011909862
0.0035995261 -0.009711725 0.028047755 -0.0023952532 0.0017220243 0.005223418 -0.013481821 0.0076411595
-0.0176166 -0.008144733 -0.0006011733 0.014215225 -0.0077206506 -0.0021750326 0.0077243065 0.0014282693
-0.005615735 -0.013210174 -0.005419467 -0.004474579 0.010094366 0.012062575 0.006883777 0.005711426
0.0065539866 0.00725369 0.0118906 0.00781495 -0.007479539 -0.0024857474 0.003226072 0.0024362595
-0.0019094624 0.004419524 -0.0054819463 -0.007077495 0.0074933106 0.011268537 0.005570413 -0.004319565
0.0053439545 -0.00070119917 0.0048328186 0.00934206 0.01757489 0.010240937 -0.0001711804 0.0034238102
0.010767821 0.001421276 -0.009031545 0.0073210862 -0.0038021891 -0.005018894 0.016374927 -0.00073158485
0.0035261244 0.0087552 -9.534483e-05 -0.005775081 -0.004845493 0.008229116 0.008855886 -0.0020846375
00000000: 0679 7e3b 6fcd 323b a4a4 e53b edc9 0d3b
00000010: c27c 083b 99b0 423b 0701 ceba 992f 073c
00000020: 9bdf 573c 62e6 8a3b 6798 22bc 1296 e2bb
00000030: 0dc7 113c b55c 933a e868 c6bb 6b55 7fbb
00000040: 8d39 4aba 5bf2 b6bb f076 423c eb1c 933c
00000050: 7ca0 383c 28f4 debb 5595 f73b d9fa 0d3c
00000060: df44 0a3c 8188 573a 6625 54ba ddd6 1c3c
00000070: 4c8c 223b 8f87 e1ba a4ce cb3b 65ac 453c
00000080: 9c86 083b 19f6 b1bb d299 b7bb 7b2f 88bb
00000090: 21fa b43b 4d8c 4fbb 772c 1a3c 0fcf 193a
000000a0: 40cb a6bb 1e41 49bb b427 95ba 277f af3b
000000b0: 2695 1d3c d64c 83bb 6e0b 94bb f61e 50bb
000000c0: 969c 633c 332d 0e3c 0a31 883c ab61 26bc
000000d0: 0690 193c 9f82 4c3c ee40 b03b 0bc5 a839
000000e0: b6f2 25bc 260d b43b 24e4 c73b 2682 663c
000000f0: 334d 8e3b 18be 1e3c d888 da3b 9521 433c
00000100: 07e6 6b3b ed1d 1fbc 68c4 e53c aef9 1cbb
00000110: 8cb5 e13a 3529 ab3b dbe2 5cbc b162 fa3b
00000120: b050 90bc 7c71 05bc 0f98 1dba fae6 683c
00000130: 83fd fcbb fe8a 0ebb 2e1c fd3b c434 bb3a
00000140: 3304 b8bb 7c6f 58bc c995 b1bb 7d9f 92bb
00000150: d762 253c 1ba2 453c 4f91 e13b ea26 bb3b
00000160: d3c2 d63b 5db0 ed3b cbd0 423c 470a 003c
00000170: ec16 f5bb ece7 22bb 826c 533b a7a9 1f3b
00000180: ed46 faba a8d1 903b e6a1 b3bb 55ea e7bb
00000190: 728a f53b ab9f 383c 0388 b63b 238b 8dbb
000001a0: 571c af3b aed0 37ba 9f5c 9e3b 710f 193c
000001b0: 37f9 8f3c 9ac9 273c e47e 33b9 0162 603b
000001c0: 846b 303c 1c4a ba3a 0cf9 13bc b9e5 ef3b
000001d0: 262e 79bb 8975 a4bb b624 863c d4c7 3fba
000001e0: 8d16 673b f871 0f3c def3 c7b8 e43c bdbb
000001f0: f1c6 9ebb 6ad3 063c 4718 113c 6a9e 08bb

network_body._body_endoder.seq_layers.4.weight f4 [128, 128]
-0.03441512 -0.20634234 0.12435361 0.11723032 -0.08503682 -0.04352453 0.01436066 0.09465776
-0.024626357 -0.07397963 -0.13493119 -0.037693314 -0.06582223 -0.006162778 -0.14999849 0.0068682083
0.12740593 0.024913516 0.185867 -0.11673443 -0.026184313 0.09755313 0.074647635 -0.013905446
0.17489687 -0.03978224 -0.07223733 -0.03525231 0.04804356 0.02143115 0.08542477 0.0042573544
-0.10451243 0.062889375 -0.12585506 0.10105467 -0.018083002 0.10654224 -0.03227887 0.0268267
0.023227226 0.009954308 -0.03961923 0.029374419 -0.05934488 0.12365417 0.10900762 0.048941743
-0.11702621 0.0050361357 -0.047582995 0.08420783 0.04975458 -0.0006540394 -0.10674901 -0.08437023
-0.051956665 -0.09901137 -0.10331083 0.02303424 -0.07287332 0.07097334 -0.06413878 0.06789274
0.027251981 0.05606325 -0.037808523 0.07381218 0.17201345 -0.0126181785 0.007001907 -0.2482442
-0.011702591 -0.106292896 0.061343458 -0.09697901 0.038368393 -0.050161935 -0.07359155 -0.14625902
0.020792693 -0.0057131434 -0.053645264 -0.06240952 0.045476515 -0.09123861 -0.15330291 -0.0018754997
-0.05980091 -0.08787992 -0.012782042 0.013223154 0.18940228 0.034448143 0.14873134 0.0076385434
-0.17753185 -0.022000613 0.037821993 0.011358812 -0.048596565 -0.10661547 -0.105214015 -0.014038119
0.11633033 0.022148812 -0.026745735 0.0072801798 -0.0040783314 -0.009062705 0.10225949 0.10790493
-0.09189648 -0.1438146 0.0678391 -0.17288017 -0.0039066477 -0.07992554 -0.07328563 0.041061882
-0.059377316 0.003586718 0.063145004 0.031497117 0.025780773 0.08077672 -0.031778444 0.029730653
-0.044731557 -0.043827843 0.012232329 -0.19425192 -0.058830604 -0.06730909 0.12560008 0.13846922
0.09749279 -0.12399218 -0.021435186 -0.14610507 0.13851449 0.09667591 0.081765875 -0.16097422
-0.17637977 -0.008441342 -0.030188683 -0.00912607 -0.04142928 -0.033331636 0.10834384 0.014852549
-0.055232346 -0.059526846 0.06380473 0.08033147 0.019042656 -0.054333605 0.22192489 0.008810028
-0.04581094 0.0013300803 -0.04698457 0.033693124 -0.06451938 0.10948627 -0.0974313 -0.14554287
-0.011103712 -0.14029425 -0.009951841 -0.06464471 -0.14322807 0.060380466 -0.08016835 0.002278094
0.080655195 -0.04347703 -0.11396753 0.1567342 0.0048859986 0.051213294 -0.028598825 -0.041696582
0.13371843 0.029912667 0.011613971 0.061456803 -0.067399755 0.07361446 -0.0990559 -0.016227975
-0.014393224 -0.010246572 -0.17215918 -0.11097396 -0.047317985 -0.028590208 -0.01312595 -0.0030034787
-0.027930435 -0.0821864 0.14271861 -0.07780952 0.12900329 -0.09934927 -0.07628051 -0.051415898
-0.09970347 -0.07987879 -0.090739906 -0.06966692 -0.1448862 -0.10234265 0.017140172 0.107242644
-0.09138445 0.19448456 -0.18561982 -0.07611171 0.049204282 0.04397762 0.12824625 -0.21476927
0.109061934 0.103119425 0.068428285 0.03134341 -0.01902164 0.08290998 -0.044507857 -0.028302647
-0.087814644 0.01848683 -0.009032796 0.15151024 0.05326783 -0.0009400346 0.073437735 0.06347609
-0.11581397 0.05149622 -0.08462368 0.032966208 -0.03457565 0.018857213 0.070485294 -0.07727445
-0.1156697 0.09616114 -0.07746771 -0.029472364 0.06098664 -0.04260598 0.08174238 -0.00080473156
00000000: def6 0cbd 684b 53be 1bad fe3d 7316 f03d
00000010: c927 aebd c746 32bd f948 6b3c eddb c13d
00000020: 37bd c9bc a282 97bd 672b 0abe 4e64 1abd
00000030: cecd 86bd 21f1 c9bb 3499 19be b50e e13b
00000040: b376 023e 6e17 cc3c eb53 3e3e 7612 efbd
00000050: 7c80 d6bc efc9 c73d dce0 983d abd3 63bc
00000060: 2a18 333e b4f2 22bd 2af1 93bd ba64 10bd
00000070: 53c9 443d 6190 af3c 2ff3 ae3d 4781 8b3b
00000080: 9d0a d6bd 25cc 803d 26e0 00be c0f5 ce3d
00000090: ce22 94bc d132 da3d d936 04bd abc3 db3c
000000a0: 0647 be3c 6517 233c c647 22bd 9fa2 f03c
000000b0: 9e13 73bd 663e fd3d 633f df3d 2377 483d
000000c0: 70ab efbd 2b06 a53b 63e6 42bd 2875 ac3d
000000d0: 75cb 4b3d d773 2bba 3a9f dabd 4dca acbd
000000e0: 83d0 54bd 79c6 cabd a194 d3bd 4db2 bc3c
000000f0: 9b3e 95bd 785a 913d 315b 83bd 590b 8b3d
00000100: 8c3f df3c 94a2 653d 1cdd 1abd d72a 973d
00000110: 4b24 303e 7abc 4ebc 4170 e53b ba33 7ebe
00000120: 39bc 3fbc 17b0 d9bd 4743 7b3d ee9c c6bd
00000130: 2d28 1d3d 9a76 4dbd 2bb7 96bd edc4 15be
00000140: 7055 aa3c 5235 bbbb 23bb 5bbd 20a1 7fbd
00000150: 9545 3a3d 4fdb babd 70fb 1cbe 54d3 f5ba
00000160: cdf1 74bd 63fa b3bd c56b 51bc eda5 583c
00000170: acf2 413e 7f19 0d3d 074d 183e bf4c fa3b
00000180: e9ca 35be a13a b4bc 3ceb 1a3d 501a 3a3c
00000190: 310d 47bd 3659 dabd 727a d7bd 2400 66bc
000001a0: 993e ee3d 6d71 b53c df19 dbbc 938e ee3b
000001b0: 86a3 85bb bd7b 14bc 6c6d d13d 43fd dc3d
000001c0: 3934 bcbd 2244 13be 3aef 8a3d 8007 31be
000001d0: 5603 80bb 00b0 a3bd c716 96bd 8130 283d
000001e0: a135 73bd 250f 6b3b 2b52 813d 1f03 013d
000001f0: 3332 d33c 446e a53d 1d2a 02bd b38d f33c
00000200: 7038 37bd d384 33bd 1b6a 483c fae9 46be
00000210: 5cf8 70bd 59d9 89bd 4f9d 003e e0ca 0d3e
00000220: 4daa c73d 9def fdbd d898 afbc 919c 15be
00000230: bed6 0d3e 05fe c53d de74 a73d 6dd6 24be
00000240: e69c 34be 8e4d 0abc 424e f7bc 8385 15bc
00000250: c0b1 29bd c186 08bd 60e3 dd3d 1b58 733c
00000260: 503b 62bd 6cd2 73bd 0eac 823d d384 a43d
00000270: 58ff 9b3c ea8c 5ebd 4740 633e f057 103c
00000280: 41a4 3bbd 1756 ae3a e472 40bd cd01 0a3d
00000290: bd22 84bd 563a e03d 108a c7bd 3109 15be
000002a0: 58ec 35bc 4ca9 0fbe 0c0d 23bc 7264 84bd
000002b0: 61aa 12be 8251 773d 4e2f a4bd 134c 153b
000002c0: 8d2e a53d f814 32bd cf67 e9bd ee7e 203e
000002d0: ba1a a03b 08c5 513d 1548 eabc 09ca 2abd
000002e0: 7ced 083e 690b f53c 8648 3e3c 21ba 7b3d
000002f0: e208 8abd 2ec3 963d d2dd cabd 88f0 84bc
00000300: 8fd1 6bbc 3de1 27bc 7f4a 30be 5146 e3bd
00000310: 81d0 41bd 0336 eabc 390e 57bc 03d6 44bb
00000320: 5ece e4bc 5851 a8bd d424 123e 995a 9fbd
00000330: 7019 043e a177 cbbd f538 9cbd 7a99 52bd
00000340: 5531 ccbd 7e97 a3bd d8d5 b9bd 88ad 8ebd
00000350: 0c5d 14be 0699 d1bd 8c69 8c3c 08a2 db3d
00000360: c527 bbbd f626 473e 1f13 3ebe 75e0 9bbd
00000370: 6e8a 493d e021 343d fc52 033e 7aec 5bbe
00000380: dd5b df3d 4730 d33d 2124 8c3d f361 003d
00000390: 45d3 9bbc b5cc a93d df4d 36bd f4da e7bc
000003a0: 2ad8 b3bd b171 973c 4bfe 13bc 8025 1b3e
000003b0: 5e2f 5a3d a76c 76ba 8666 963d c1ff 813d
000003c0: e02f edbd b3ed 523d 2e4f adbd 9307 073d
000003d0: 329f 0dbd 717a 9a3c 985a 903d 1142 9ebd
000003e0: 3ce4 ecbd 22f0 c43d 64a7 9ebd 0770 f1bc
000003f0: 21cd 793d 9c83 2ebd 8d68 a73d 9ff4 52ba

network_body._body_endoder.seq_layers.4.bias f4 [128]
-0.011437823 0.0070612147 -0.00081531575 -0.0033538612 0.00080895843 0.008287783 -0.00830417 0.011367391
0.0013912856 0.009971978 -0.01060098 0.00079971604 0.0065461216 -0.0007350027 0.013436432 0.012104667
-0.002508983 -0.0033469864 -0.011100466 0.020092718 0.0043100896 0.0029325974 -0.0012593733 0.0037874563
-0.00276326 0.0005233199 -0.0068105115 0.01814634 0.00047518048 -0.0013309867 0.0063464856 0.0029606821
-0.0036263948 -0.008175609 0.005846925 0.011316376 -0.0069190734 0.012413511 -0.0065781074 0.007909385
0.010679733 0.012551959 0.00757759 0.0018468011 -0.010549862 0.0017960402 0.00031232205 -0.0058235875
-0.007165215 0.00087696343 0.012640754 -0.0060946634 0.00082758453 0.0049545406 -0.003657343 -0.002549424
0.0034629176 -0.0035280574 0.0073593864 0.009992167 -0.0023850123 0.0020161925 -0.007096761 0.0075660753
-0.0010688766 -0.007377805 -0.0003407938 0.0059171384 -0.005224844 0.0009449407 -0.008317723 -0.005361374
0.0037456194 -0.005293486 0.011043621 0.0003533338 -0.007856144 0.006128568 -0.0021270593 -0.0043291063
0.009594062 0.013978034 0.004965341 0.013940552 0.003106914 7.904831e-06 -0.005848043 0.011703509
0.004701339 -0.0044471906 0.004450688 0.008505162 0.0061089424 0.01303411 0.008526001 0.0052969074
-4.073861e-05 -0.003179062 -0.0022750944 0.003599842 -0.008807958 0.009271538 -0.0032798632 -0.001479063
0.008083914 0.0028804867 0.0023961172 0.005244966 0.009286577 -0.003057124 -0.01100694 0.010261444
-0.0066791642 0.008284718 0.006116752 -0.0029191647 -0.008447812 0.0051029925 0.01157482 -0.002076429
0.009519602 0.0032261133 0.0106729325 0.0027916522 -0.0070825852 -9.197596e-05 0.010669966 0.00409511
00000000: b565 3bbc c361 e73b eaba 55ba 74cc 5bbb
00000010: 4810 543a 7bc9 073c 370e 08bc 4b3e 3a3c
00000020: cc5b b63a 8261 233c bcaf 2dbc 09a4 513a
00000030: d980 d63b 32ad 40ba 7b24 5c3c a752 463c
00000040: c06d 24bb 1d59 5bbb bbde 35bc 7c99 a43c
00000050: a73b 8d3b d230 403b 8e11 a5ba f936 783b
00000060: cf17 35bb 672f 093a b62a dfbb a2a7 943c
00000070: a521 f939 8174 aeba 2ef6 cf3b 0108 423b
00000080: cfa8 6dbb fdf2 05bc 9097 bf3b 5268 393c
00000090: 65b9 e2bb 0a62 4b3c 2a8d d7bb 5d96 013c
000000a0: 0cfa 2e3c bba6 4d3c 6f4d f83b 5d10 f23a
000000b0: 54d9 2cbc 1c69 eb3a 28bf a339 cbd3 bebb
000000c0: 2eca eabb 05e4 653a 2a1b 4f3c beb5 c7bb
000000d0: 42f2 583a b359 a23b 09b0 6fbb 3d14 27bb
000000e0: 1ef2 623b fb36 67bb 0227 f13b 30b6 233c
000000f0: de4d 1cbb 1922 043b f28b e8bb d7ec f73b
00000100: 8c19 8cba 84c1 f1bb 92ac b2b9 8ee4 c13b
00000110: 2b35 abbb e6b5 773a 0f47 08bc 77ae afbb
00000120: 1179 753b fb74 adbb 4ef0 343c a93f b939
00000130: 0eb7 00bc 28d2 c83b 2266 0bbb 2ddb 8dbb
00000140: 6a30 1d3c 2004 653c 4db4 a23b ea66 643c
00000150: 5e9d 4b3b fe9e 0437 f1a0 bfbb 13c0 3f3c
00000160: b10d 9a3b bdb9 91bb 14d7 913b 3c59 0b3c
00000170: 862d c83b 058d 553c a4b0 0b3c ae91 ad3b
00000180: c0de 2ab8 cf57 50bb c019 15bb 54eb 6b3b
00000190: 414f 10bc a6e7 173c f9f2 56bb 1edd c1ba
000001a0: 6572 043c 8cc6 3c3b 2d08 1d3b f7dd ab3b
000001b0: ba26 183c 085a 48bb 7456 34bc 9e1f 283c
000001c0: e4dc dabb a0bc 073c 096f c83b 754f 3fbb
000001d0: b168 0abc 0137 a73b 50a4 3d3c b314 08bb
000001e0: 1bf8 1b3c 336d 533b 86dd 2e3c 27f4 363b
000001f0: 0815 e8bb 38e3 c0b8 15d1 2e3c 4630 863b

action_model._continuous_distribution.log_sigma f4 [1, 4]
-0.015587904 0.06334453 0.13981615 0.15537705
00000000: 6864 7fbc c7ba 813d f72b 0f3e 291b 1f3e

action_model._continuous_distribution.mu.weight f4 [4, 128]
0.03990361 -0.008263771 0.0068720467 0.021150107 -0.0051803486 -0.03360205 0.036552873 -0.03851897
0.00020937677 -0.013316421 0.039936144 0.013352714 -0.028506197 0.027878739 -0.036064003 -0.024978846
0.011028569 -0.0096653 0.056343827 -0.010707815 0.04210002 0.00785714 0.02416551 -0.0096121505
0.042018197 -0.011798578 0.047485486 -0.0100378925 0.021629985 0.015571669 -0.04235191 -0.0005568434
0.020822145 0.025911244 -0.017871216 0.007017642 0.038246796 -0.040840574 0.011524079 -0.03193171
-0.038362585 -0.047646973 -0.020799097 0.016375642 0.04648893 0.0060394625 -0.01423602 0.04153531
0.03422417 0.0011732064 -0.035921242 0.018800939 0.0006703229 -0.0017704866 0.026054587 -0.0036063935
0.018512497 0.021293685 -0.01717258 -0.025643121 0.026390603 -0.0105799865 0.023774521 -0.03454007
-0.0003826394 0.03900892 -0.012228906 -0.028490573 0.014099289 0.035948142 0.05933231 0.003996263
-0.025039734 0.022492759 -0.02112193 -0.007402835 0.016919177 -0.034489915 -0.004602828 0.03796513
-0.014920117 -0.04676339 -0.028104533 -0.021686163 -0.0049329475 0.023710823 0.0307079 -0.053348117
-0.029497255 0.002163646 -0.028049786 -0.0022487147 -0.011828851 -0.045545153 -0.016290337 0.019771831
-0.0022390722 0.033381786 0.019255219 0.0046954164 0.031332575 -0.031173516 0.02825853 0.016197404
-0.063496076 -0.00048494706 -0.007345975 -0.0051891445 -0.0475009 0.05406468 0.046464715 -0.05043061
0.032952555 -0.043132808 -0.029025294 -0.0029977632 0.03193589 -0.027603159 -0.04019632 0.018156357
-0.041230753 0.010481604 0.0071396115 -0.010210801 0.020951424 -0.013165199 -0.020270845 0.009021518
-0.009067469 -0.005141931 -0.03731555 0.009128375 0.028564319 0.028131587 -0.010332384 -0.000562437
-0.025688626 -0.008684645 0.0072946926 -0.008989026 -0.036777355 -0.02040534 0.002837117 -0.012550813
-0.019203719 0.012422149 -0.0038477143 0.0055216006 0.013324208 0.009971005 -0.02906516 0.034982134
-0.016592277 -0.022656476 0.0017210518 0.0035806783 0.028442707 -0.008000853 0.02291051 0.025973216
0.030856008 -0.04067046 0.0050129024 0.023705468 -0.0077692005 -0.011818588 0.0119082285 -0.021477079
-0.008416115 0.020819657 0.030476747 0.00668398 0.0026111556 0.015121878 -0.017512564 -7.0794085e-05
-0.017054617 -0.029317632 0.010347265 -0.0025752825 0.011661865 0.0234564 0.030645326 0.00524934
0.019886885 -0.0033337926 -0.01660654 0.0063695177 0.018411666 0.0018861599 -0.020272696 -0.004181934
-0.016564349 -0.007550375 -0.022054385 0.0021286223 0.019207787 0.0034481268 -0.018136377 -0.008941963
-0.0055397344 0.00960773 -0.009065903 0.01280985 -0.0029932207 -0.015753545 0.031968318 0.011773823
-0.004157339 -0.005282421 -0.017560259 -0.011154623 -0.027442604 0.019043325 0.009876354 -0.008744247
-0.034688782 0.008547603 -0.01012426 -0.0012839331 0.0007084409 0.0076964023 -0.0074734986 0.009677887
-0.019922119 -0.009705205 -0.006721089 -0.031500813 -0.015919385 -0.0061888127 0.014341937 0.0051309583
0.003171182 0.0075004166 0.01767295 0.0110199265 0.002638819 -0.009855963 -0.0051893294 0.03254155
0.013242254 0.04045711 0.0028669941 -0.022152469 -0.0025906963 -0.035904326 0.012932554 0.027520955
-0.0041205226 -0.015266737 0.01098671 -0.00931889 0.033171892 -0.016540375 0.0113467 -0.0007038034
00000000: f871 233d c564 07bc e82e e13b fd42 ad3c
00000010: eabf a9bb 4ea2 09bd 77b8 153d 11c6 1dbd
00000020: 268c 5b39 1e2d 5abc 1594 233d 57c5 5a3c
00000030: d485 e9bc f461 e43c d9b7 13bd 70a0 ccbc
00000040: 2cb1 343c 355b 1ebc c9c8 663d d56f 2fbc
00000050: 1271 2c3d 3cbb 003c bff6 c53c 487c 1dbc
00000060: 461b 2c3d d34e 41bc 2480 423d f975 24bc
00000070: 5e31 b13c 5020 7f3c 3279 2dbd 21f9 11ba
00000080: 3493 aa3c d143 d43c a866 92bc 3ff4 e53b
00000090: aca8 1c3d 7248 27bd 7ecf 3c3c d3ca 02bd
000000a0: 1622 1dbd 7929 43bd de62 aabc 3626 863c
000000b0: 2d6b 3e3d afe6 c53b 323e 69bc ee20 2a3d
000000c0: a52e 0c3d 46c6 993a 2722 13bd 6d04 9a3c
000000d0: 9cb8 2f3a ac0f e8ba 6e70 d53c 3e59 6cbb
000000e0: 85a7 973c 1870 ae3c 83ad 8cbc 8611 d2bc
000000f0: 1b31 d83c ae57 2dbc c9c2 c23c e379 0dbd
00000100: fe9c c8b9 d1c7 1f3d c05b 48bc 1065 e9bc
00000110: b400 673c 5c3e 133d 7006 733d 15f3 823b
00000120: 2120 cdbc bc42 b83c e607 adbc 7b93 f2bb
00000130: 169a 8a3c 4c45 0dbd 52d3 96bb 5381 1b3d
00000140: 8273 74bc f88a 3fbd 7a3b e6bc 2ea7 b1bc
00000150: 90a4 a1bb 333d c23c 228f fb3c 8e83 5abd
00000160: 3aa4 f1bc f5cb 0d3b aac8 e5bc 2c5f 13bb
00000170: cccd 41bc 8e8d 3abd 5073 85bc 89f8 a13c
00000180: 66bd 12bb 57bb 083d 1fbd 9d3c 02dc 993b
00000190: 9656 003d 9a5f ffbc 6f7e e73c 6bb0 843c
000001a0: 3b0a 82bd 7e40 feb9 81b6 f0bb b309 aabb
000001b0: 4e90 42bd ed72 5d3d c951 3e3d 5490 4ebd
000001c0: 42f9 063d 07ac 30bd 74c6 edbc 1f76 44bb
000001d0: 35cf 023d 0520 e2bc e5a4 24bd a4bc 943c
000001e0: 94e1 28bd 09bb 2b3c 67f3 e93b 344b 27bc
000001f0: 52a2 ab3c d9b2 57bc 0b0f a6bc fdce 133c
00000200: b98f 14bc a57d a8bb 31d8 18bd 2e8f 153c
00000210: b8ff e93c 3774 e63c 2949 29bc 8270 13ba
00000220: f470 d2bc 0b4a 0ebc 5108 ef3b b546 13bc
00000230: daa3 16bd 1929 a7bc edee 393b eda1 4dbc
00000240: 1e51 9dbc 4586 4b3c ef29 7cbb 8bee b43b
00000250: c74d 5a3c 6d5d 233c 0f1a eebc 6d49 0f3d
00000260: 87ec 87bc 139a b9bc ea94 e13a d0a9 6a3b
00000270: ae00 e93c 0216 03bc d2ae bb3c c8c5 d43c
00000280: bdc5 fc3c 1196 26bd 4643 a43b f831 c23c
00000290: c794 febb c0a2 41bc bb1a 433c b3f0 afbc
000002a0: bfe3 09bc fc8d aa3c 5faa f93c 4a05 db3b
000002b0: ec1f 2b3b c1c1 773c 8276 8fbc 4977 94b8
000002c0: 20b6 8bbc 882b f0bc 9387 293c 12c6 28bb
000002d0: 6811 3f3c a327 c03c e80b fb3c a802 ac3b
000002e0: d2e9 a23c c27b 5abb 700a 88bc 63b7 d03b
000002f0: 10d4 963c 0639 f73a ed12 a6bc 9b08 89bb
00000300: f5b1 87bc 2369 f7bb 66ab b4bc 5b80 0b3b
00000310: a659 9d3c f8f9 613b bd92 94bc 5081 12bc
00000320: a986 b5bb be69 1d3c 2789 14bc 68e0 513c
00000330: e929 44bb 940d 81bc 36f1 023d fee6 403c
00000340: 4a3a 88bb 2918 adbb 88da 8fbc e1c1 36bc
00000350: 50cf e0bc bf00 9c3c 6ed0 213c 0844 0fbc
00000360: d315 0ebd 3f0b 0c3c 39e0 25bc a549 a8ba
00000370: aab6 393a 1a32 fc3b 40e4 f4bb 0090 1e3c
00000380: b633 a3bc 9502 1fbc 953c dcbb ff06 01bd
00000390: 5f69 82bc 86cb cabb 72fa 6a3c 9921 a83b
000003a0: 9bd3 4f3b 0ec6 f53b ddc6 903c ec8c 343c
000003b0: 09f0 2c3b e87a 21bc 400b aabb 4a4a 053d
000003c0: 0af6 583c 5bb6 253d 2ee4 3b3b 1879 b5bc
000003d0: acc8 29bb 6a10 13bd 10e3 533c a073 e13c
000003e0: 7305 87bb 5621 7abc 9a01 343c 42ae 18bc
000003f0: 40df 073d ae7f 87bc 82e7 393c 727f 38ba

action_model._continuous_distribution.mu.bias f4 [4]
-0.014647134 0.000905484 -4.7387966e-05 -0.0020532494
00000000: 88fa 6fbc 015e 6d3a 71c2 46b8 cf8f 06bb
