Assets/Brains/Shooter.onnx (onnx, 201499 bytes, 9 tensors)

network_body._body_endoder.seq_layers.0.weight f4 [128, 120]
0.063450634 -0.09138676 0.0686231 -0.102536775 0.07508998 -0.028963003 0.13691317 0.0032745264
-0.0084491 0.09820977 0.037251044 0.05163398 0.120626874 0.1114912 -0.14214434 -0.15537976
0.23186147 0.019607974 0.09152204 0.061341908 0.10725361 0.09591967 0.09010582 0.010497519
0.1578406 -0.12052945 -0.09757676 -0.018781591 0.052640684 -0.042646505 0.07157758 -0.00488396
-0.11524569 -0.034283064 -0.021096908 -0.008286511 0.004638803 -0.027194655 0.14028788 -0.19053242
-0.10666607 -0.026134524 -0.034496676 0.09340242 -0.009746441 -0.12278806 0.04978743 0.027476756
0.12640291 -0.0194956 -0.082023986 -0.23473813 0.055556487 0.17344601 0.16368026 -0.029276121
0.038155604 0.07671472 0.054342587 0.12880845 0.08086512 0.012397785 -0.012309625 0.14139615
0.07503216 -0.05430771 -0.015626758 0.035714526 0.1441468 -0.048420683 0.028472861 -0.01418973
0.019617517 0.015902001 0.03249506 0.17377923 0.115355894 0.049278818 -0.016397284 -0.16033171
-0.16926299 -0.039457817 -0.0382086 -0.009276464 -0.03711439 -0.003817242 0.13964786 0.050799534
-0.023060044 -0.0534834 -0.10420883 0.09437255 -0.07092974 -0.055867355 0.020379947 0.017944383
-0.09717198 -0.12565026 0.091297954 -0.10606575 0.056861818 -0.003859929 -0.022190562 0.11962198
-0.086507276 0.08278821 -0.084699936 -0.0028565612 0.15861775 0.14749157 0.042537767 -0.211264
-0.18925928 -0.04288999 0.10803806 -0.12614848 -0.005984305 0.116954476 -0.114943504 0.015227811
0.019008052 -0.016904445 0.045426536 -0.008584504 -0.015030033 0.06804525 0.07388736 -0.19608605
0.08140808 -0.1777533 -0.09469225 -0.07424673 0.04306416 -0.0056909043 0.032139905 0.12409992
0.02139432 0.030864479 0.15325715 0.09510956 -0.19831659 0.09656761 0.023667412 0.011050097
0.19764706 -0.072958015 0.0476631 0.0006477749 -0.04609295 0.09054886 0.02528047 -0.04326147
-0.09043081 0.0010413384 -0.11681063 0.021080913 -0.02441025 -0.021681048 0.06933983 -0.06935018
0.10135044 0.13929652 0.016087258 0.069074325 0.18092084 0.054042842 -0.017710816 -0.039595686
-0.0816464 -0.08820027 -0.09315029 -0.019145323 -0.087295234 0.000631962 0.09149344 -0.022813037
0.037815765 0.102226086 -0.058226068 -0.045981307 0.048436034 -0.0486491 0.18664674 0.14033645
-0.011484709 0.19782758 -0.17950708 -0.17174676 -0.034128547 0.06852777 -0.08494716 -0.11773819
-0.06948838 0.13345538 0.084253274 -0.0011397675 0.10901431 0.07696571 -0.06967844 0.101499625
-0.06531214 -0.04559671 -0.027236367 -0.039979864 -0.014378842 0.067380056 0.024820179 0.031423856
-0.11291588 -0.094846345 0.021172134 0.034166932 -0.0014318232 0.0143920425 0.07773998 -0.011162363
0.0050622392 0.0024585256 0.003143053 -0.22722867 0.030522149 0.019529851 -0.057507526 0.16885239
-0.017244315 0.007794456 0.03274048 0.014301744 0.13459243 -0.1878841 0.027604887 -0.027867006
-0.28042918 0.10400432 -0.13613419 -0.052090902 -0.021833844 0.014022927 -0.1987083 0.101508714
0.18766628 -0.12614766 0.045000754 0.05330989 -0.122981995 0.09516367 0.049203243 0.08164063
-0.10552062 -0.18178536 -0.07020476 0.049771212 -0.059368093 0.055291463 -0.008457467 0.114320114
00000000: 68f2 813d fb28 bbbd 458a 8c3d cdfe d1bd
00000010: c7c8 993d d243 edbc f732 0c3e 7099 563b
00000020: 186e 0abc 3422 c93d 8d94 183d 277e 533d
00000030: 390b f73d 8055 e43d 498e 11be df1b 1fbe
00000040: 186d 6d3e e7a0 a03c e86f bb3d a741 7b3d
00000050: c8a7 db3d 8871 c43d 6689 b83d c9fd 2b3c
00000060: f7a0 213e 25d8 f6bd 53d6 c7bd dadb 99bc
00000070: c29d 573d 1aae 2ebd 4497 923d a009 a0bb
00000080: ef05 ecbd 666c 0cbd 6cd3 acbc 25c4 07bc
00000090: 1a01 983b 53c7 debc a0a7 0f3e ee1a 43be
000000a0: be73 dabd 1218 d6bc 634c 0dbd c549 bf3d
000000b0: 89af 1fbc 4e78 fbbd e7ed 4b3d ef16 e13c
000000c0: c46f 013e 3db5 9fbc 31fc a7bd 315f 70be
000000d0: 338f 633d d59b 313e cc9b 273e 7ad4 efbc
000000e0: 0d49 1c3d 9b1c 9d3d 5596 5e3d 5de6 033e
000000f0: 9d9c a53d 1420 4b3c 4fae 49bc 27ca 103e
00000100: 76aa 993d c371 5ebd b003 80bc 6549 123d
00000110: 389b 133e c454 46bd eb3f e93c 0b7c 68bc
00000120: eab4 a03c ea44 823c 8a19 053d 2ff3 313e
00000130: b63f ec3d 96d8 493d 9953 86bc ff2d 24be
00000140: 4753 2dbe 859e 21bd 9f80 1cbd 4ffc 17bc
00000150: 4205 18bd b22a 7abb d9ff 0e3e 2c13 503d
00000160: 6be8 bcbc 6911 5bbd 706b d5bd 6546 c13d
00000170: 9d43 91bd 2bd5 64bd d9f3 a63c 1900 933c
00000180: 1a02 c7bd 76aa 00be 6cfa ba3d 0039 d9bd
00000190: f0e7 683d ddf6 7cbb fbc8 b5bc 5efc f43d
000001a0: ba2a b1bd dd8c a93d 2977 adbd 2535 3bbb
000001b0: b16c 223e 0808 173e 153c 2e3d 9755 58be
000001c0: 2fcd 41be 6aad 2fbd 0f43 dd3d 112d 01be
000001d0: fd17 c4bb d485 ef3d 8067 ebbd 127e 793c
000001e0: c6b6 9b3c 317b 8abc 2d11 3a3d 05a6 0cbc
000001f0: 8740 76bc 4f5b 8b3d 4252 973d c8ca 48be
00000200: 48b9 a63d f604 36be 03ee c1bd ab0e 98bd
00000210: 0b64 303d c47a babb 22a5 033d 1928 fe3d
00000220: 2443 af3c 81d7 fc3c 71ef 1c3e cdc8 c23d
00000230: 8113 4bbe 3dc5 c53d 29e2 c13c 770b 353c
00000240: fe63 4a3e 036b 95bd 623a 433d 70cf 293a
00000250: f6cb 3cbd ae71 b93d fd18 cf3c f032 31bd
00000260: ca33 b9bd 857d 883a 693a efbd e1b1 ac3c
00000270: 01f8 c7bc 749c b1bc 0a02 8e3d 7807 8ebd
00000280: d290 cf3d bfa3 0e3e 6dc9 833c d776 8d3d
00000290: 5043 393e 075c 5d3d 4616 91bc 162f 22bd
000002a0: 3a36 a7bd 58a2 b4bd 94c5 bebd a7d6 9cbc
000002b0: d8c7 b2bd 40aa 253a ea60 bb3d 68e2 babc
000002c0: b4e4 1a3d e95b d13d 757e 6ebd e556 3cbd
000002d0: dd64 463d 4744 47bd 5320 3f3e 5cb4 0f3e
000002e0: 5c2a 3cbc 5093 4a3e b4d0 37be 62de 2fbe
000002f0: 60ca 0bbd 4a58 8c3d c7f8 adbd b820 f1bd
00000300: ec4f 8ebd 87a8 083e fb8c ac3d 4064 95ba
00000310: e542 df3d 33a0 9d3d 92b3 8ebd 09df cf3d
00000320: 5fc2 85bd 9ec3 3abd cd1e dfbc edc1 23bd
00000330: 3c95 6bbc 8efe 893d b053 cb3c 4db6 003d
00000340: 7140 e7bd cd3e c2bd 2f71 ad3c a0f2 0b3d
00000350: 04ac bbba 9acc 6b3c 2336 9f3d 58e2 36bc
00000360: 24e1 a53b 371f 213b aefb 4d3b a2ae 68be
00000370: 9609 fa3c 11fd 9f3c 038d 6bbd a4e7 2c3e
00000380: f343 8dbc a368 ff3b e21a 063d dd51 6a3c
00000390: 99d2 093e b164 40be a523 e23c 5949 e4bc
000003a0: 6a94 8fbe 3800 d53d c366 0bbe 455d 55bd
000003b0: e4dc b2bc 6bc0 653c 307a 4bbe cde3 cf3d
000003c0: 972b 403e da2c 01be b652 383d 795b 5a3d
000003d0: fcdd fbbd 2ce5 c23d 5789 493d 3433 a73d
000003e0: 321b d8bd f125 3abe 83c7 8fbd e6dc 4b3d
000003f0: f52b 73bd 4d79 623d 3091 0abc aa20 ea3d

network_body._body_endoder.seq_layers.0.bias f4 [128]
0.004342388 0.0042689512 0.0062926332 0.017538777 0.0140162865 -0.008401858 -0.001571574 0.0039346614
0.004088087 0.008549775 -0.004134701 -0.0036659036 0.008227379 0.010934692 0.0029749598 0.023914067
0.0108403675 0.006745357 -0.0010306465 0.006270332 -0.0054873265 0.00025406416 0.0041226153 0.0026855804
0.007741176 -0.0021457674 0.008793301 0.001801724 -0.0067821164 0.006512486 -0.010066236 0.0042447187
-0.0068234704 0.0093493285 0.018072473 -0.008569441 -0.0015890546 0.0014315939 0.00036337104 0.01036604
-0.0012900034 0.008310067 0.0016975881 0.001459419 -0.0059115407 0.010809095 0.005705286 -0.0021708468
-0.021068908 -0.0004933518 -0.0017293171 -0.011929083 -0.00077122904 0.009049832 0.0021775935 0.010765757
0.006235893 0.008402769 0.010669324 0.005451113 -0.013790594 0.026886625 0.00555436 -0.0034432514
0.011769443 0.0077327495 -0.00087201025 -0.0020827048 -0.006523023 0.0033321832 -0.00067716045 0.003359754
0.0009497283 0.00830838 0.016478319 0.010250567 -0.0028786147 0.007405279 0.020153878 0.009878414
0.0036942787 0.013120073 -0.0035017037 0.0018235415 0.014745929 -0.00052574923 -0.010303151 -0.016137721
0.010803552 -0.004751196 0.0138567 0.0134289665 -0.0055132536 0.006591092 0.0005593264 0.015954444
0.016574215 0.0016147193 0.013467774 -0.010811419 0.0074901744 0.00815846 0.00948335 0.011258399
-0.0018566393 0.010875757 0.005931557 0.01558454 0.0044008815 0.014455835 -0.0022757356 0.00024206248
0.021023832 0.020978672 0.0064703613 0.011212538 0.006853358 0.0019804512 -0.0038588068 0.010112577
0.0003533632 -0.00050690223 0.017000666 0.007978485 -0.010046341 0.012116258 -0.0049734917 0.012255569
00000000: 974a 8e3b 8fe2 8b3b 6f32 ce3b 7bad 8f3c
00000010: 91a4 653c f2a7 09bc 46fd cdba 55ee 803b
00000020: 5cf5 853b 5b14 0c3c 637c 87bb a83f 70bb
00000030: 21cc 063c 6c27 333c 8bf7 423b 6fe7 c33c
00000040: cc9b 313c 2808 dd3b c216 87ba 5b77 cd3b
00000050: 08cf b3bb ea33 8539 0117 873b 9000 303b
00000060: b1a9 fd3b 01a0 0cbb c711 103c d327 ec3a
00000070: 843c debb b166 d53b dbec 24bc 4817 8b3b
00000080: 6b97 dfbb ed2d 193c b90c 943c d766 0cbc
00000090: d347 d0ba 52a4 bb3a d682 be39 53d6 293c
000000a0: 5515 a9ba f226 083c 9b81 de3a fa49 bf3a
000000b0: 99b5 c1bb a118 313c 68f3 ba3b c444 0ebb
000000c0: b498 acbc 4754 01ba 41aa e2ba 3372 43bc
000000d0: 4e2c 4aba bf45 143c f5b5 0e3b dc62 303c
000000e0: 7656 cc3b c5ab 093c 63ce 2e3c 409f b23b
000000f0: f2f1 61bc 5741 dc3c 5901 b63b 2ca8 61bb
00000100: 9fd4 403c 0163 fd3b 9e97 64ba fd7d 08bb
00000110: 15bf d5bb c260 5a3b 7883 31ba 522f 5c3b
00000120: 30f7 783a df1f 083c 8afd 863c fff1 273c
00000130: 24a7 3cbb fca7 f23b bf19 a53c 12d9 213c
00000140: b61b 723b 93f5 563c d77c 65bb e603 ef3a
00000150: e998 713c 6fd2 09ba 8cce 28bc 4133 84bc
00000160: 6201 313c ecaf 9bbb 3607 633c 2b05 5c3c
00000170: 86a8 b4bb 16fa d73b c29f 123a e5b2 823c
00000180: a6c6 873c fda4 d33a f0a7 5c3c 6122 31bc
00000190: 2370 f53b 10ab 053c 0e60 1b3c 2675 383c
000001a0: 7a5a f3ba 3b30 323c 825d c23b 4c56 7f3c
000001b0: 4535 903b 2bd8 6c3c 8224 15bb 27d2 7d39
000001c0: 2c3a ac3c 77db ab3c 5305 d43b cbb4 373c
000001d0: 2292 e03b 75ca 013b 09e4 7cbb 39af 253c
000001e0: 9b43 b939 a2e1 04ba fb44 8b3c 31b8 023c
000001f0: 6999 24bc 4583 463c acf8 a2bb 95cb 483c

network_body._body_endoder.seq_layers.2.weight f4 [128, 128]
-0.08934158 -0.011707893 0.13010585 0.08279135 0.060845602 0.032417927 -0.08418324 -0.00674686
0.15487815 0.0032127763 -0.018623704 -0.04883798 0.045265015 -0.1646866 0.01425567 -0.02227623
-0.0016262208 -0.087273955 0.098092474 -0.08058165 0.078385316 -0.07428554 0.029723179 0.07287799
-0.12065812 -0.19363022 -0.08824244 0.13334097 -0.013894505 -0.1273513 0.033649426 -0.12169562
-0.07491445 -0.026742041 0.009640799 0.0070939576 -0.048023894 0.12413145 -0.027106628 -0.14175993
0.079147816 -0.008178834 -0.08547894 -0.017215407 0.13673784 -0.049667288 0.12247432 0.10986823
-0.004563897 0.16896178 0.08459601 -0.19885013 -0.064056106 -0.12987716 0.10548157 -0.10157133
0.0475397 -0.054138344 0.1099895 0.018320449 -0.04529067 -0.14478849 0.058760192 -0.024593662
-0.021829214 0.025315994 0.018845351 -0.025010621 0.035546925 0.15769808 -0.1406622 0.008373341
-0.088129096 -0.008792139 0.009931215 -0.051850703 0.08219101 0.11438726 -0.06823705 0.12826511
0.061188992 -0.0066183023 0.0050203702 0.1279985 -0.07274685 0.061697986 0.016703753 0.099991255
0.06500315 0.008892096 -0.075926885 -0.06818031 -0.079960965 0.11648649 0.054477222 0.014551344
-0.059008103 0.068263166 -0.07261194 -0.045275375 -0.076521255 -0.032484386 -0.021753814 0.102995194
-0.036284573 0.08755824 -0.01838838 -0.03824583 -0.0010760791 0.06526028 0.0067918343 0.061006017
-0.07740321 0.07454488 0.08731563 0.042122535 -0.015970584 0.040441852 -0.05212483 -0.025625225
0.047246926 0.0020850368 -0.19556561 -0.08430991 0.10205871 0.15553956 0.007491012 -0.09136837
0.077746175 -0.0147883035 0.09188184 -0.06433483 -0.08014054 -0.1781928 -0.0397947 0.05027386
0.13063788 -0.13045028 -0.22536439 -0.007826142 0.052130867 0.07796683 0.013531733 -0.019862277
0.02097081 0.05727759 -0.20126392 0.00816512 -0.04727584 -0.05729005 -0.0591572 0.1265231
0.059855506 -0.07806461 0.014621069 0.07307144 -0.09054964 -0.08121555 -0.0058178883 -0.119427
-0.06987684 0.026304798 -0.06491781 -0.002497493 -0.08090722 0.1934946 -0.118758924 0.03256061
-0.08594385 -0.02772713 -0.09519268 -0.16975833 -0.015397044 0.102664866 0.12765801 0.12744705
0.03229629 0.035460457 0.02378746 -0.17972726 -0.07074693 0.09295193 -0.2468325 0.005569502
-0.060900126 0.04174368 -0.016119497 -0.059613317 0.026696557 0.021488361 -0.06288909 -0.090727635
-0.11615842 0.048180073 -0.099527 0.013926622 0.07736855 0.03349447 0.14057912 -0.011910393
0.02442639 0.21655649 0.0065816366 -0.024682334 -0.0029415847 0.028133871 0.055803396 -0.02220038
-0.18687934 0.008294539 0.00836501 -0.06945534 0.04907672 -0.046874955 0.12949477 0.0820716
-0.051687315 0.048477393 0.02261903 0.067759566 -0.018458372 0.1419566 -0.05960919 0.032065347
0.048945654 0.07501717 0.038400795 -0.066123575 -0.03822244 0.1102924 0.04070977 -0.0691084
0.038401157 -0.06252875 -0.10911071 0.03766635 0.08642581 -0.0675228 0.08965287 -0.18222429
0.1977325 0.050468408 -0.010270751 -0.04577888 -0.007254835 0.12895802 -0.049401224 -0.04041028
-0.05210856 0.06173811 0.09003182 -0.10907444 -0.058877368 0.07845669 -0.15747242 0.037380684
00000000: b8f8 b6bd 76d2 3fbc 783a 053e 838e a93d
00000010: 3d39 793d a9c8 043d 4368 acbd c414 ddbb
00000020: 6198 1e3e 718d 523b bd90 98bc 550a 48bd
00000030: cf67 393d 9ba3 28be 9d90 693c a47c b6bc
00000040: ea26 d5ba b0bc b2bd b5e4 c83d fe07 a5bd
00000050: 7b88 a03d 0423 98bd 067e f33c 0e41 953d
00000060: 9b1b f7bd 0047 46be 74b8 b4bd 898a 083e
00000070: c7a5 63bc 6168 02be fbd3 093d 8e3b f9bd
00000080: bf6c 99bd 2012 dbbc 71f4 1d3c 6e74 e83b
00000090: b4b4 44bd a138 fe3d b80e debc 8429 11be
000000a0: 4018 a23d 8400 06bc 950f afbd 5307 8dbc
000000b0: 0105 0c3e ed6f 4bbd d1d3 fa3d 9802 e13d
000000c0: be8c 95bb 5104 2d3e ac40 ad3d 5e9f 4bbe
000000d0: d92f 83bd 85fe 04be b906 d83d a104 d0bd
000000e0: fdb8 423d 2bc0 5dbd 2d42 e13d c414 963c
000000f0: b682 39bd 6f43 14be 87ae 703d a678 c9bc
00000100: 2ed3 b2bc 7d63 cf3c 9161 9a3c 13e3 ccbc
00000110: a799 113d 9b7b 213e c009 10be 5630 093c
00000120: 077d b4bd e70c 10bc 89b6 223c 6761 54bd
00000130: c353 a83d de43 ea3d debf 8bbd ee57 033e
00000140: 4fa1 7a3d 58de d8bb eb81 a43b 0a12 033e
00000150: 4dfc 94bd 07b7 7c3d 4fd6 883c 37c8 cc3d
00000160: 5f20 853d 27b0 113c 8e7f 9bbd 1ea2 8bbd
00000170: 93c2 a3bd 7890 ee3d 8223 5f3d c368 6e3c
00000180: 7bb2 71bd 8fcd 8b3d 92b5 94bd ac72 39bd
00000190: 2db7 9cbd 590e 05bd 0e35 b2bc 25ef d23d
000001a0: 229f 14bd bc51 b33d 3aa3 96bc a9a7 1cbd
000001b0: 390b 8dba 2fa7 853d 098e de3b 72e1 793d
000001c0: 9385 9ebd fcaa 983d 89d2 b23d ae88 2c3d
000001d0: bed4 82bc 5ba6 253d d980 55bd feeb d1bc
000001e0: fe85 413d 1da5 083b 5a42 48be adaa acbd
000001f0: 2804 d13d c345 1f3e 2a77 f53b 571f bbbd
00000200: 6339 9f3d a44a 72bc 8c2c bc3d fbc1 83bd
00000210: b920 a4bd 2c78 36be c4ff 22bd f7eb 4d3d
00000220: f0c5 053e c294 05be ecc5 66be 3839 00bc
00000230: 2d87 553d 13ad 9f3d 34b4 5d3c 37b6 a2bc
00000240: faca ab3c e89b 6a3d 2118 4ebe ffc6 053c
00000250: 50a4 41bd f9a8 6abd d24e 72bd 468f 013e
00000260: 0c2b 753d 57e0 9fbd 358d 6f3c 7ba6 953d
00000270: 1772 b9bd 5754 a6bd fca3 bebb 2596 f4bd
00000280: 971b 8fbd 297d d73c a1f3 84bd fbac 23bb
00000290: afb2 a5bd 7323 463e e137 f3bd 465e 053d
000002a0: 5403 b0bd 0224 e3bc 61f4 c2bd 21d5 2dbe
000002b0: e243 7cbc f541 d23d c8b8 023e 7b81 023e
000002c0: 1d49 043d fc3e 113d ebdd c23c 6c0a 38be
000002d0: c4e3 90bd 955d be3d a9c1 7cbe 5e80 b63b
000002e0: 6972 79bd 6cfb 2a3d 090d 84bc 182d 74bd
000002f0: bdb2 da3c 5c08 b03c ffcb 80bd 69cf b9bd
00000300: 77e4 edbd 7858 453d d0d4 cbbd 7d2c 643c
00000310: 6773 9e3d 7f31 093d f9f3 0f3e cf23 43bc
00000320: da19 c83c fcc0 5d3e c5aa d73b 9b32 cabc
00000330: 9ac7 40bb 0179 e63c 1a92 643d 92dd b5bc
00000340: 4c5d 3fbe d1e5 073c 650d 093c 9a3e 8ebd
00000350: ac04 493d f4ff 3fbd 479a 043e 2815 a83d
00000360: 14b6 53bd 3b90 463d 8b4b b93c 87c5 8a3d
00000370: 0336 97bc 125d 113e c428 74bd f456 033d
00000380: 3d7b 483d 9aa2 993d 274a 1d3d cc6b 87bd
00000390: 228f 1cbd fbe0 e13d 4abf 263d b488 8dbd
000003a0: 884a 1d3d 130f 80bd 7075 dfbd 0848 1a3d
000003b0: 0400 b13d 6549 8abd ed9b b73d 0199 3abe
000003c0: 637a 4a3e f6b7 4e3d a746 28bc a382 3bbd
000003d0: f8b9 edbb 920d 043e f058 4abd 4085 25bd
000003e0: c96f 55bd 1ae1 7c3d 9a62 b83d 6c62 dfbd
000003f0: 6529 71bd e7ad a03d 7340 21be 7d1c 193d

network_body._body_endoder.seq_layers.2.bias f4 [128]
-0.0012608756 -0.008996714 -0.002393236 0.0060196654 0.0049908077 0.017301425 0.0075867614 0.008266353
-0.0080504045 0.014124634 0.012237036 -0.004453408 0.004866998 0.0060655246 0.0043362267 0.0030802535
0.009096835 0.010000846 0.004691419 0.005292471 0.0046224897 -0.00028921646 -0.0010193333 -0.0030047626
0.0016768202 0.012824601 -0.0016077823 -0.0044261827 -0.0040126713 -0.0015684196 1.6328906e-05 0.0018912187
-0.0005310344 0.015276559 -0.006421474 -0.007766098 -0.00020122051 0.009908686 0.001303869 0.016454061
0.004442954 -0.0073859193 0.0039371313 0.016759375 0.0035085755 0.006802353 0.0062663956 -0.0039804867
0.01016309 0.0029064592 -0.0026351784 0.009506195 0.0014233324 0.007191963 0.006595187 -0.015038365
0.007969867 0.019407488 0.0038432896 -0.00843038 -3.1508476e-05 -0.0010800718 -0.0023846456 0.005364438
-0.011961878 0.0030181748 -0.012280638 -0.004710209 0.0065384186 0.013625753 -0.0013368662 0.008446337
0.009090929 0.00798824 0.015636425 0.010210909 0.016028985 0.0021150243 0.004524022 -0.009528884
0.01506805 0.011638676 -0.008900732 0.012696843 -0.0019906955 -0.0047273985 7.918435e-05 0.0015804761
-0.0018179427 -0.003980128 -0.006429609 0.0005662484 0.014608262 0.006658283 0.0019496698 0.005977283
0.0051686694 -0.007811637 -0.013345395 0.010373287 0.010197671 0.006218719 -0.009188532 -0.0016573989
0.01859799 0.010234895 -0.0041670315 -0.011268639 0.01116498 -0.0033447822 -0.006687848 0.006813358
0.00043808043 0.0066807684 -0.00718175 0.0044472935 0.010831395 -0.0041564214 -0.003941664 0.012934769
-0.0066254637 0.01506514 -0.0025464904 0.012123689 -0.015202992 0.0045272945 0.01561255 0.0049849385
00000000: f743 a5ba f466 13bc d6d7 1cbb 9d40 c53b
00000010: ee89 a33b b8bb 8d3c 5e9a f83b 996f 073c
00000020: d8e5 03bc 026b 673c d97d 483c e5ed 91bb
00000030: 577b 9f3b 4fc1 c63b e816 8e3b 14de 493b
00000040: e40a 153c 97da 233c 7aba 993b 776c ad3b
00000050: 4178 973b faa1 97b9 269b 85ba 8deb 44bb
00000060: c0c8 db3a 461e 523c 39bc d2ba 8309 91bb
00000070: ba7c 83bb 6e93 cdba 0ffa 8837 c5e2 f73a
00000080: 1e35 0bba 884a 7a3c 3a6b d2bb c07a febb
00000090: b8fe 52b9 0b58 223c 95e6 aa3a abca 863c
000000a0: 3396 913b 9505 f2bb 0d03 813b f54a 893c
000000b0: 21f0 653b 46e6 de3b 5656 cd3b be6e 82bb
000000c0: 1783 263c 4b7a 3e3b f5b2 2cbb dfbf 1b3c
000000d0: 1c8f ba3a 8faa eb3b 701c d83b 7963 76bc
000000e0: 0c94 023c 74fc 9e3c b3df 7b3b 941f 0abc
000000f0: f827 04b8 3291 8dba b747 1cbb 2bc8 af3b
00000100: c1fb 43bc 92cc 453b bb34 49bc 1958 9abb
00000110: 3b40 d63b 8d3e 5f3c c939 afba 8162 0a3c
00000120: 1ff2 143c 1be1 023c f617 803c a84b 273c
00000130: 384f 833c 389c 0a3b 3f3e 943b 091f 1cbc
00000140: fbdf 763c 25b0 3e3c 60d4 11bc 6b06 503c
00000150: 5476 02bb 4be8 9abb c60f a638 fa27 cf3a
00000160: 0948 eeba bc6b 82bb 78af d2bb 4970 143a
00000170: 7e57 6f3c ba2d da3b 108c ff3a 16dd c33b
00000180: f15d a93b c3f8 ffbb a5a6 5abc b8f4 293c
00000190: 2214 273c 65c6 cb3b 7f8b 16bc 143d d9ba
000001a0: d05a 983c 43b0 273c 988b 88bb 19a0 38bc
000001b0: 52ed 363c 2234 5bbb bc25 dbbb 9742 df3b
000001c0: 29ae e539 59ea da3b e354 ebbb 9aba 913b
000001d0: 2a76 313c 9732 88bb 1329 81bb 5aec 533c
000001e0: 6b1a d9bb c7d3 763c 05e3 26bb 70a2 463c
000001f0: f815 79bc b359 943b c8cb 7f3c b258 a33b

network_body._body_endoder.seq_layers.4.weight f4 [128, 128]
0.11625569 -0.0003546546 0.10063514 0.0027303288 0.012099961 -0.027929194 -0.13844901 0.0012853394
-0.021607462 -0.011006176 -0.035390634 0.20928195 0.024907464 -0.041609146 0.12030033 0.21333282
-0.01398644 0.052802518 0.07420672 0.026101602 -0.08333653 -0.048217684 0.111043505 -0.05951673
-0.028445728 0.051900692 0.006596231 -0.034512985 0.10391412 -0.017941179 -0.070872694 -0.009215886
0.06451067 -0.07401477 0.025439654 0.097827435 -0.039765663 0.021651631 0.24306703 0.003715136
0.045306753 0.113323316 0.1249476 -0.10047656 -0.010746817 0.0874175 0.03507267 -0.19276589
0.07907582 0.005367233 -0.055755425 0.08963397 0.06431435 -0.01611219 -0.060656685 0.042178746
-0.037845157 0.02767136 -0.14948589 0.08893299 0.027614463 -0.05276166 -0.17594677 0.029952923
-0.11461522 -0.034606744 0.10026389 -0.038074758 -0.15921381 -0.01820408 -0.14415607 -0.12757437
0.1630948 -0.056195427 -0.14260545 0.057049755 -0.13130799 -0.11918645 0.0060768332 -7.680795e-05
0.061537843 0.1653415 -0.10385167 0.24280638 -0.0638489 -0.103044026 -0.16388339 -0.0020417501
0.10858333 0.025816452 -0.13878967 0.09180217 -0.09266108 0.01690807 -0.050125435 -0.17651738
-0.0021041771 -0.01349422 0.088784136 -0.048601728 -0.017052338 0.11933328 0.0870765 0.0053157504
0.07404535 0.105185926 0.10483934 -0.029744735 0.024347492 -0.05592318 -0.026662946 0.101601295
-0.20198025 -0.07482742 0.124549694 -0.06667365 -0.016647829 0.0085414415 -0.022708438 0.030021103
0.17947209 0.00748121 -0.064202 -0.11133022 -0.028303215 -0.13360003 0.049719777 -0.017024072
0.07806527 -0.031539533 -0.001877835 -0.040397685 -0.108985946 0.13083461 0.0031815176 0.031533003
0.00954413 -0.16555457 -0.04857189 -0.13832337 0.03193099 -0.11095955 -0.06263901 0.09581346
0.07946625 -0.06858827 0.1226521 0.0032139707 -0.030401338 0.00705337 0.0403212 0.008454204
-0.027522016 -0.02624155 0.12951614 -0.07877605 -0.02480106 -0.04143613 0.120659515 -0.07649487
0.010537316 0.034000147 -0.0075090094 0.02847485 -0.059328265 0.0034445159 0.009568444 -0.13369778
0.019822141 0.005726541 -0.063655876 0.09059938 -0.029789014 -0.07412914 0.1295758 0.09255705
-0.09290229 -0.055726398 -0.06304626 -0.11382972 -0.031709284 -0.006723548 -0.03882176 -0.12887199
-0.12504189 -0.04184893 0.037952892 0.070391074 -0.00027221875 0.14899838 -0.15281972 0.062466197
-0.039124656 0.06282912 0.0020490244 -0.024212975 0.06990589 0.08506755 0.029295532 -0.10699772
0.0027737275 -0.06187065 -0.02192054 -0.0005202065 -0.06202955 -0.009912938 0.05925967 0.031909265
0.072446555 -0.008458882 0.10845557 -0.106852755 -0.052482024 -0.048732854 0.064356096 0.02591447
-0.083174236 0.017719774 0.0445875 0.030428423 -0.069684856 0.021882443 -0.072313465 0.037281282
0.038429797 -0.03185707 0.028084606 0.03209421 0.17145465 -0.07997429 -0.16721986 -0.01573552
-0.010268367 -0.04304731 -0.10938425 0.21514651 0.17854781 0.023075124 0.028041577 0.009009778
-0.039364487 -0.07733723 -0.007833812 -0.0010322903 -0.0028055757 0.14403217 0.011873774 -0.052948896
0.014627862 -0.056681093 -0.04675755 0.160424 -0.051730473 0.13177979 -0.049117822 -0.05865369
00000000: 7717 ee3d eff0 b9b9 cc19 ce3d 51ef 323b
00000010: ea3e 463c c4cb e4bc 94c5 0dbe d578 a83a
00000020: 2202 b1bc 3f53 34bc c5f5 10bd 024e 563e
00000030: bd0a cc3c 5a6e 2abd 0560 f63d eb73 5a3e
00000040: 6227 65bc 7447 583d b1f9 973d 07d3 d53c
00000050: 58ac aabd e87f 45bd c76a e33d d1c7 73bd
00000060: 0407 e9bc d295 543d 3225 d83b 7d5d 0dbd
00000070: edd0 d43d 61f9 92bc b425 91bd 3afe 16bc
00000080: 2c1e 843d 0e95 97bd d266 d03c c059 c83d
00000090: 52e1 22bd c35e b13c 90e6 783e a479 733b
000000a0: 9393 393d 0e16 e83d 87e4 ff3d a8c6 cdbd
000000b0: 6b13 30bc f207 b33d 5ca8 0f3d 6c64 45be
000000c0: 81f2 a13d 9ddf af3b cd5f 64bd 0492 b73d
000000d0: 3eb7 833d b6fd 83bc 2573 78bd 9fc3 2c3d
000000e0: 8603 1bbd 0caf e23c d412 19be 8022 b63d
000000f0: ba37 e23c 9c1c 58bd 642b 34be d55f f53c
00000100: 62bb eabd cdbf 0dbd 2857 cd3d 47f4 1bbd
00000110: f208 23be b920 95bc a69d 13be dba2 02be
00000120: 5302 273e 2d2d 66bd 2a07 12be 01ad 693d
00000130: 9a75 06be 0718 f4bd 2c20 c73b f413 a1b8
00000140: 1b0f 7c3d 484f 293e 2fb0 d4bd 3ca2 783e
00000150: 36c3 82bd bf08 d3bd 0cd1 27be e2ce 05bb
00000160: f060 de3d 067d d33c e11e 0ebe c702 bc3d
00000170: 18c5 bdbd cb82 8a3c 5450 4dbd f9c0 34be
00000180: 3ce6 09bb dc16 5dbc 75d4 b53d 9b12 47bd
00000190: 58b1 8bbc 0265 f43d 2a55 b23d bf2f ae3b
000001a0: 17a5 973d b86b d73d 02b6 d63d 3bab f3bc
000001b0: 6474 c73c b40f 65bd 406c dabc 5714 d03d
000001c0: e9d3 4ebe 1e3f 99bd e913 ff3d 328c 88bd
000001d0: 0761 88bc 67f1 0b3c 0c07 babc d1ee f53c
000001e0: 88c7 373e f024 f53b 577c 83bd 1901 e4bd
000001f0: 25dc e7bc 72ce 08be f7a6 4b3d 1176 8bbc
00000200: afe0 9f3d 992f 01bd b021 f6ba 0b78 25bd
00000210: 0634 dfbd 82f9 053e 0281 503b c028 013d
00000220: fc5e 1c3c 2387 29be 51f3 46bd a4a4 0dbe
00000230: 12ca 023d c33e e3bd e248 80bd d939 c43d
00000240: 34bf a23d 0278 8cbd 0631 fb3d 7ba1 523b
00000250: 3a0c f9bc f51f e73b d827 253d 8083 0a3c
00000260: da75 e1bc 85f8 d6bc e19f 043e 5655 a1bd
00000270: 982b cbbc eeb8 29bd 561c f73d 58a9 9cbd
00000280: b5a4 2c3c bd43 0b3d 230e f6bb 1744 e93c
00000290: 3202 73bd 63bd 613b f7c4 1c3c 12e8 08be
000002a0: 0b62 a23c b5a5 bb3b 035e 82bd 2b8c b93d
000002b0: 1708 f4bc 05d1 97bd 85af 043e 8d8e bd3d
000002c0: 8e43 bebd 5d41 64bd 661e 81bd 8e1f e9bd
000002d0: 98e1 01bd 3551 dcbb 9103 1fbd 05f7 03be
000002e0: fb0a 00be c969 2bbd 7e74 1b3d 3229 903d
000002f0: 95b8 8eb9 0893 183e c67c 1cbe 8edc 7f3d
00000300: 2d41 20bd 8eac 803d ed48 063b 4a5a c6bc
00000310: d22a 8f3d e537 ae3d 2ffd ef3c 9f21 dbbd
00000320: 6dc7 353b 146c 7dbd b492 b3bc 785e 08ba
00000330: b312 7ebd e069 22bc 45ba 723d 4ab3 023d
00000340: dc5e 943d 1f97 0abc f41d de3d 9ed5 dabd
00000350: 64f7 56bd 1a9c 47bd 21cd 833d 954a d43c
00000360: 4157 aabd 0f29 913c 62a1 363d 0745 f93c
00000370: efb6 8ebd cf42 b33c 1519 94bd 42b4 183d
00000380: 9068 1d3d 8f7c 02bd b011 e63c 3875 033d
00000390: cf91 2f3e 90c9 a3bd af3b 2bbe c7e7 80bc
000003a0: a73c 28bc 6052 30bd da04 e0bd 5e4f 5c3e
000003b0: 3dd5 363e 0b08 bd3c 73b7 e53c bf9d 133c
000003c0: a83c 21bd fb62 9ebd 6459 00bc ea4d 87ba
000003d0: c0dd 37bb 2b7d 133e 388a 423c f1e0 58bd
000003e0: b3a9 6f3c 6f2a 68bd d884 3fbd 3046 243e
000003f0: 55e3 53bd 48f1 063e c52f 49bd da3e 70bd

network_body._body_endoder.seq_layers.4.bias f4 [128]
-0.004237749 -0.0075710476 0.0015464099 0.010876425 0.012164817 -0.0018371241 0.00813575 0.0004237053
-0.00038673606 -0.0063331593 0.0058316267 0.009851817 -0.009416271 0.015642509 0.011268533 -0.0040202886
0.0051748957 0.0150574315 -0.0021812557 0.0062930794 0.012255633 -0.011707232 -0.006271123 -0.0018677214
0.004371341 -0.00827373 0.0038749014 -0.010530182 0.002467403 0.008165844 -0.0007278524 -0.00033875136
0.013379122 0.013879271 -0.0038087922 0.010684359 0.005391082 -0.011613843 -0.0011470679 0.00030552145
0.00787062 -0.010747461 0.007805439 0.0030826842 0.002051779 0.0049716285 -0.0025000202 -0.0135474475
-0.011284695 -0.0018047716 0.011095454 0.008727131 8.841776e-06 0.010306013 0.01016982 -0.004569697
0.013615801 -0.0028006518 -0.0025602456 -0.0052341516 0.0140193645 -0.0007507537 0.009945165 -0.0013390643
0.012013752 0.014608561 -0.0030245336 -0.003970627 0.01146969 0.0063075363 -0.0056524295 0.002416013
0.008652121 -0.008588335 -0.0030940517 0.0061292825 -0.0050043776 0.009628452 0.00053916493 0.013831937
0.009513995 -0.00317354 0.0060734493 0.0073120743 0.00196893 0.0063379253 0.01244567 0.003944758
0.010421085 0.0046767066 0.0056543723 0.010788609 0.0005269304 0.009346578 0.010966776 0.003811146
-0.00051567436 0.0017427404 0.0039877235 0.01106278 -0.011932779 -0.0038613768 0.0076660435 -0.0029307515
0.0133128995 0.007848631 0.0006633221 0.0018581054 0.005268652 0.010758774 0.010058887 0.0075585986
-0.003240155 0.0051287394 0.0026330322 0.009313296 0.00020006654 0.012114751 0.014415253 0.0038924713
-0.0045340443 0.0012305315 0.00049865845 0.013346742 -0.009077178 0.0036278304 0.0058627473 -0.0023280736
00000000: d1dc 8abb 8d16 f8bb e8b0 ca3a 0833 323c
00000010: f14e 473c a8cb f0ba cf4b 053c c324 de39
00000020: d6c2 cab9 6486 cfbb 3b17 bf3b 8469 213c
00000030: b446 1abc b824 803c a79f 383c a0bc 83bb
00000040: 2c92 a93b 72b3 763c 66f3 0ebb 2d36 ce3b
00000050: dacb 483c b1cf 3fbc fe7d cdbb 55ce f4ba
00000060: 773d 8f3b 8a8e 07bc 0ff2 7d3b c986 2cbc
00000070: 27b4 213b 08ca 053c 59cd 3eba 709a b1b9
00000080: 1b34 5b3c e265 633c ee9c 79bb 730d 2f3c
00000090: aca7 b03b fd47 3ebc 3659 96ba 652e a039
000000a0: c6f3 003c 1e16 30bc c5c4 ff3b dc06 4a3b
000000b0: 2477 063b 0be9 a23b 61d7 23bb 1df6 5dbc
000000c0: 71e3 38bc 168e ecba b5c9 353c 3efc 0e3c
000000d0: 2457 1437 8dda 283c 519f 263c 66bd 95bb
000000e0: cf14 5f3c 248b 37bb cbc9 27bb 3f83 abbb
000000f0: 7ab1 653c 3ace 44ba 0cf1 223c 8b83 afba
00000100: 54d5 443c bf58 6f3c 4137 46bb 091c 82bb
00000110: 5eeb 3b3c 73af ce3b 0438 b9bb f955 1e3b
00000120: a0c1 0d3c 16b6 0cbc 93c5 4abb 26d8 c83b
00000130: c3fb a3bb a8c0 1d3c bf56 0d3a 599f 623c
00000140: 96e0 1b3c 2bfb 4fbb c903 c73b 209a ef3b
00000150: 2a09 013b 5fae cf3b ece8 4b3c 0743 813b
00000160: 33bd 2a3c 0f3f 993b 5048 b93b b5c2 303c
00000170: b321 0a3a 6422 193c fead 333c 6bc4 793b
00000180: 522e 07ba aa6c e43a 73ab 823b aa40 353c
00000190: b481 43bc 270f 7dbb 6f33 fb3b da11 40bb
000001a0: 591e 5a3c 8b97 003c cbe2 2d3a ac8b f33a
000001b0: a8a4 ac3b 9245 303c 08ce 243c 1fae f73b
000001c0: c858 54bb fc0e a83b f38e 2c3b cb96 183c
000001d0: f4c8 5139 f37c 463c f42d 6c3c d518 7f3b
000001e0: 5292 94bb c949 a13a 67b8 023a 4bac 5a3c
000001f0: 72b8 14bc e5c0 6d3b 4a1c c03b 9892 18bb

action_model._continuous_distribution.log_sigma f4 [1, 4]
0.010518391 0.05795822 0.045604512 0.03398736
00000000: 5455 2c3c 9965 6d3d cccb 3a3d 5436 0b3d

action_model._continuous_distribution.mu.weight f4 [4, 128]
-0.014453194 0.010826574 0.046341103 -0.056299224 0.01440069 -0.002964069 0.0571119 0.040585093
0.03287996 -0.008161232 -0.006284966 0.032098014 -0.04535559 0.054617263 0.06139964 -0.039725613
-0.031189242 0.05664248 0.03377546 0.05481638 0.09092583 -0.008405767 -0.060746856 -0.04297502
-0.071645975 0.0013532104 -0.042848792 -0.021446535 -0.062251266 0.05316414 -0.04340129 0.047856335
0.021124985 0.08470898 -0.049517356 0.057454187 0.00064697355 -0.0037937954 -0.03989052 -0.050836906
0.038099203 -0.0339582 -0.041783966 -0.040797208 -0.04068343 -0.041857436 0.008795192 0.005184699
-0.009250666 -0.03968939 0.06676678 0.08250591 -0.038359724 -0.03383209 -0.03525916 0.018081363
0.041318346 -0.05506298 -0.044430826 -0.037850004 0.0045565693 -0.048171952 0.08375393 0.008558799
0.05039859 0.021689733 0.033155948 -0.03485457 0.01846328 -0.05233768 0.032907564 -0.03924577
0.02634017 0.016985353 -0.038815122 -0.04682608 -0.04318912 0.04918972 -0.022701263 0.02573524
0.030869707 0.0351778 0.04997816 0.025813295 -0.00591537 0.012503367 0.036511343 0.03777771
-0.02939332 0.043678317 0.051360402 0.021705367 -0.042729378 -0.043931033 0.033340342 0.051325224
0.0075731096 -0.022262627 -0.039027903 0.05336595 -0.028439283 -0.03612244 -0.0034927316 -0.06039711
0.07352749 0.050133355 -0.070097834 -0.048521206 -0.030504636 0.06747033 0.036262028 0.02941179
0.035496276 0.058273632 -0.040549926 0.06736711 0.03198449 0.08687759 0.057408992 -0.032038063
-0.035173003 0.048704974 0.03822697 -0.019048922 -0.015964521 0.054055024 -0.032340195 -0.01801592
0.014565494 0.0030709812 0.015948288 -0.0045090937 -0.013535951 0.020889869 -0.008219254 0.004741316
-0.0034464519 0.003954838 -0.013560537 -0.022653619 0.017243987 -0.020676427 -0.033626784 0.026658507
-0.021181703 -0.026836464 0.023731519 0.0050470443 -0.00800256 0.03599641 0.022404267 0.0084188115
-0.020745466 0.01092948 0.0013854349 0.022847509 0.013130495 0.0021162087 0.008723525 0.0030412055
-0.03858619 0.008154564 0.02042948 -0.0112231225 -0.010768937 0.03942011 0.0082868375 0.0015538025
-0.020336324 0.0142579 0.019242873 -0.01425003 -0.01522708 0.014618842 -0.003183789 -0.00039921317
0.05432178 0.025295364 0.0018259801 0.006227358 -0.008681964 -0.00010555132 -0.027863914 0.005893357
-0.0013265929 0.043521717 0.0040881536 -0.00066750403 -0.010736744 0.0051646614 0.0037388478 0.0020551619
-0.008126814 -0.01818805 0.0105451 0.0053247637 -0.018874036 -0.008222922 0.017458582 0.00011059793
-0.0047826637 0.01205474 0.014679625 0.006079251 0.0037035828 -0.026191594 -0.0039985897 -0.033194985
-0.02083526 0.011997017 -0.0008064174 0.004053868 0.016677866 -0.02156143 -0.009392481 -0.010597019
-0.026353015 -0.0019743764 0.016188372 -0.015852282 -0.012638322 -0.019496316 -0.014131599 -0.037879776
-0.028306266 -0.023067066 0.01723804 -0.006101038 0.008333491 0.0057259244 -0.027060317 -0.0028606553
-0.0041937623 -0.008384703 0.010016988 -0.009741292 -0.0038080928 -0.013185981 -0.01686554 -0.020954408
-0.0018410485 -0.0003797088 0.011315325 -0.0016229863 -0.013541047 -0.027125008 -0.0120211365 -0.007954109
-0.006610834 0.0021448485 0.021859258 -0.03744446 0.0019542063 0.018507363 0.004345984 0.009255371
00000000: 17cd 6cbc f161 313c 2bd0 3d3d 049a 66bd
00000010: dff0 6b3c d340 42bb 2bee 693d 8e3c 263d
00000020: 23ad 063d b0b6 05bc 1ef2 cdbb 3579 033d
00000030: c8c6 39bd 5ab6 5f3d 307e 7b3d 53b7 22bd
00000040: 9580 ffbc f201 683d 2358 0a3d 2487 603d
00000050: 5237 ba3d 58b8 09bc b2d1 78bd 9306 30bd
00000060: 20bb 92bd 355e b13a 3782 2fbd a5b0 afbc
00000070: 2ffb 7ebd a4c2 593d 8dc5 31bd 0105 443d
00000080: 4e0e ad3c e77b ad3d b6d2 4abd 1555 6b3d
00000090: a999 293a 53a1 78bb 3e64 23bd 5c3a 50bd
000000a0: e90d 1c3d c117 0bbd aa25 2bbd f91a 27bd
000000b0: aba3 26bd b472 2bbd b619 103c 68e4 a93b
000000c0: 1b90 17bc 5891 22bd 06bd 883d dcf8 a83d
000000d0: 161f 1dbd 8593 0abd e96b 10bd 5e1f 943c
000000e0: 6d3d 293d b889 61bd 19fd 35bd 9b08 1bbd
000000f0: 464f 953b f44f 45bd 2e87 ab3d 343a 0c3c
00000100: c06e 4e3d abae b13c 88ce 073d aac3 0ebd
00000110: 4e40 973c 0960 56bd 15ca 063d 2cc0 20bd
00000120: 57c7 d73c de24 8b3c 9bfc 1ebd b4cc 3fbd
00000130: 13e7 30bd 297b 493d 00f8 b9bc b6d2 d23c
00000140: 78e2 fc3c 9916 103d e6b5 4c3d 6776 d33c
00000150: b8d5 c1bb ecda 4c3c eb8c 153d cdbc 1a3d
00000160: 43ca f0bc 09e8 323d 495f 523d 74cf b13c
00000170: 0005 2fbd 07f1 33bd e28f 083d 663a 523d
00000180: d927 f83b 1d60 b6bc b9db 1fbd 4196 5a3d
00000190: 80f9 e8bc 20f5 13bd 50e6 64bb f662 77bd
000001a0: 9595 963d a258 4d3d 748f 8fbd 2cbe 46bd
000001b0: dce4 f9bc e22d 8a3d 7e87 143d fff0 f03c
000001c0: 8b64 113d 55b0 6e3d ae17 26bd c4f7 893d
000001d0: 2b02 033d e1ec b13d b125 6b3d 583a 03bd
000001e0: 9111 10bd de7e 473d e293 1c3d 7c0c 9cbc
000001f0: 07c8 82bc cd68 5d3d 2777 04bd 1f96 93bc
00000200: 1ca4 6e3c 8442 493b fca5 823c 05c1 93bb
00000210: e5c5 5dbc 3b21 ab3c 0daa 06bc 0b5d 9b3b
00000220: dedd 61bb 9697 813b 042d 5ebc 1594 b9bc
00000230: 4343 8d3c 9c61 a9bc 3dbc 09bd f162 da3c
00000240: 4085 adbc 25d8 dbbc 9a68 c23c ad61 a53b
00000250: 2b1d 03bc f970 133d 2789 b73c 0eef 093c
00000260: 65f2 a9bc 9011 333c 7b97 b53a b32a bb3c
00000270: 4a21 573c 17b0 0a3b 1eed 0e3c f64e 473b
00000280: 8e0c 1ebd b89a 053c ba5b a73c 30e1 37bc
00000290: 3270 30bc fb76 213d 84c5 073c f6a8 cb3a
000002a0: 5d98 a6bc f899 693c 3ba3 9d3c f578 69bc
000002b0: 017b 79bc de83 6f3c 1ea7 50bb 7c4d d1b9
000002c0: 8480 5e3d 3938 cf3c ba55 ef3a dd0e cc3b
000002d0: cc3e 0ebc 6f5b ddb8 dd42 e4bc 101d c13b
000002e0: 12e1 adba d443 323d ebf5 853b 70fb 2eba
000002f0: 2be9 2fbc 523c a93b 7507 753b e5af 063b
00000300: 5426 05bc 1bff 94bc 5bc5 2c3c 5b7b ae3b
00000310: b99d 9abc 6fb9 06bc 4d05 8f3c d0f0 e738
00000320: e4b7 9cbb 3f81 453c cf82 703c 7434 c73b
00000330: cfb7 723b c18f d6bc 9a06 83bb 77f7 07bd
00000340: b5ae aabc 238f 443c c165 53ba 4fd6 843b
00000350: 05a0 883c 99a1 b0bc ece2 19bc 1f9f 2dbc
00000360: 47e2 d7bc 8a64 01bb 7a9d 843c a5dc 81bc
00000370: f710 4fbc bdb6 9fbc 3988 67bc d327 1bbd
00000380: 8be2 e7bc 25f7 bcbc ca36 8d3c 37eb c7bb
00000390: 3289 083c 89a0 bb3b 99ad ddbc d579 3bbb
000003a0: d46b 89bb fe5f 09bc 4b1e 243c f199 1fbc
000003b0: 3291 79bb 030a 58bc 9a29 8abc 94a8 abbc
000003c0: 564f f1ba a713 c7b9 ea63 393c 62ba d4ba
000003d0: 45db 5dbc 4435 debc 4df4 44bc f451 02bc
000003e0: b29f d8bb 9690 0c3b 3012 b33c 5d5f 19bd
000003f0: 2412 003b c19c 973c c268 8e3b d7a3 173c

action_model._continuous_distribution.mu.bias f4 [4]
0.005016437 -0.011416501 0.010051794 0.0060285446
00000000: ec60 a43b 470c 3bbc 48b0 243c 198b c53b
