Assets/Brains/Shooter-499399.onnx (onnx, 201499 bytes, 9 tensors)

network_body._body_endoder.seq_layers.0.weight f4 [128, 120]
00000000: 7cb7 25bd 7bf9 95bc e7f1 acbd cb46 19bd
00000010: 8652 8abd e04c 86bd 7780 90bd 6742 7e3e
00000020: 7382 51be c765 3fbe ac8d 1c3d c8bb 2d3d
00000030: 0e83 b83d 2147 26bc e3c0 c53d 0e12 a83d
00000040: ec75 f73d ebd8 f7bc f084 a0bd 9974 a63d
00000050: 7ce9 d9bc cd23 07bd e3b4 67bd 6c33 6bbc
00000060: 6fdb 43bc 4b7d aa3b b2ff 5bbc c29a 713d
00000070: 86b5 7d3c 2916 e23c 47e7 483d d773 1fbd
00000080: fc4c 0d3e a119 703d d51d 7dbd feba a1bd
00000090: 7d1c aa3d 6c04 bfbc 97d9 103d 311f 803d
000000a0: c5bc a63d 6f94 543d 1dcf f23c 7b82 f43b
000000b0: 04e1 6ebd 8edf aebd f07d 483c fd14 943b
000000c0: 715c 083e 022b bebd 6fda 5b3d 8830 92bd
000000d0: 11ed dbbc 27b0 563e b2c0 823d 1680 bfbd
000000e0: d0db e0bd a8b4 f4bc 6368 99bc feb0 9fbd
000000f0: c923 9b3a c304 1bbb 61ec 3fbd 3b32 7b3d
00000100: c233 1b3e f127 e3bd e30c 6cbd 99d5 793e
00000110: 28a9 203e 430c 0bbe 5737 08be 4438 60be
00000120: 72d6 12be 7e81 cfbc 5d2c 13be 38af 023b
00000130: e5d0 e8bd 99da d43c 41fe 463c 780a b93c
00000140: f0e8 d0bd 2b77 c7bd 8b01 1c3c 13de 01be
00000150: 953e b9bc 44c6 073c 64f0 983b 2e3b ce3d
00000160: 9ce9 f23b c1a8 83bd b3f8 2c3d 8efc 7a3e
00000170: 1d20 4fbd 2581 1abe 2fec e23d 55ea f93b
00000180: 8909 8ebd 2c94 053e 3db9 e03a 6ccb ecbd
00000190: 60aa f4bc 5241 a4bc 1341 fcbd 7dae 32bd
000001a0: 2986 773e 2857 d53d 2adc a23d f2e1 8f3d
000001b0: f6d9 a1bd 2ed0 5d3e 6159 8b3d 6617 3c3c
000001c0: dfa5 643d 14dd 0c3e e32b 36bd e2da 33be
000001d0: fe0b 173d 7c7c 983c da3e 0cbd 4ee9 48be
000001e0: e533 9e3d 005f 773d cf55 4fbe b272 d9bc
000001f0: 6a27 f73d 3649 153e 2039 833d 12ef e2bc
00000200: 9c8e bc3b 54d0 3a3d a714 fdbc 0eda 39bc
00000210: 62d7 7dbd 95dc 543d ea14 94bd 4945 f0bb
00000220: d280 a23d 6af1 323d f182 393e 05d7 553c
00000230: 4265 eebc afa8 f63c 91d3 d1bc d87c 42bd
00000240: c8a0 183e de29 e53c 04dc f9bd 2504 453d
00000250: c1ab e83b ba89 d53c e2ca adbd 4a4a 593c
00000260: 8744 58bd 6a7a 563d 6e48 e3bc 74d1 cfbd
00000270: 3c56 893d edf5 ebbd 605b 3d3d cab9 b5bd
00000280: b460 633d 9c90 c0bd 38b9 18be 6cc0 c13d
00000290: a019 863c 75f8 f5bd d94c e53d 26ea c5bd
000002a0: ceab 8e3d 61a1 98bc a686 02be a049 17be
000002b0: d5de 81bd dd9b 9abd 69de e2bd 48e4 36bd
000002c0: a476 403d c59a 96bd c362 3f3d e73b ce3c
000002d0: 1b11 63bd 6083 d0bd 2131 62bd d05d e5bc
000002e0: f687 88bd a582 b93c baec 873d 5b2f e33c
000002f0: f0fc d93c 35f0 02be ee28 c3bb 8638 a53c
00000300: f6cf 3b3d 67df 573e 8018 30be 175c f63d
00000310: 370d d43c a5e1 0a3d 044a c9bd 51bd 8d3d
00000320: 17a8 fe3d 00f0 f9bc 4041 2f3c 15e6 643c
00000330: 5847 6ebd 4003 583d 0afa 0abe 3fee 7fbc
00000340: 0fe8 4fbd ea6a 2abd 5673 b5bc 4f08 103d
00000350: 28ab 1c3e 68d3 813d 5f3b ea3d 8a56 3c3e
00000360: fa73 27be f874 a93d bd1c 6ebd 61f5 5dbe
00000370: 9dc1 25be 59c7 3abc b028 90bd 32cf 513d
00000380: 1b9c 92bd 9826 09be 6577 2e3e cea6 0cbe
00000390: 1af0 41be 2678 3bbe c25c f8bc 6e78 e03d
000003a0: 3d51 4c3d 0fa4 0abd 601d 79bd 9c3b ea3d
000003b0: 574d 31be 9fa7 1a3d 408f a93c 9740 96bd
000003c0: 713d 2f3e ba40 02bd fc80 8dbc 06f7 14be
000003d0: 3fb9 103b b939 b83d 54e0 11be d190 1d3e
000003e0: d3b1 b93d 3097 77bd fdad 5bbd b3c6 83bd
000003f0: 1700 74bd 92b1 bc3b 0c7e 093c a4a5 f53c
-0.040458187 -0.018307438 -0.08444577 -0.03742103 -0.06754021 -0.065576315 -0.07055753 0.24830018
-0.20459919 -0.18691169 0.038221046 0.04241541 0.09009372 -0.010148794 0.09655931 0.08206569
0.12083039 -0.030254802 -0.07837856 0.08127708 -0.026600592 -0.032993127 -0.05656899 -0.014355522
-0.0119541725 0.0052029244 -0.013427662 0.05898548 0.015485173 0.027598457 0.04904869 -0.038928833
0.13798898 0.05861819 -0.06179603 -0.07896994 0.08306215 -0.023317538 0.03536376 0.06255949
0.08141474 0.05189937 0.029639775 0.0074618435 -0.05832006 -0.085387334 0.012237057 0.0045191036
0.13316514 -0.09285547 0.05367511 -0.07138163 -0.02684644 0.20965634 0.0638441 -0.09350602
-0.10979426 -0.0298713 -0.018726533 -0.077974305 0.0011836226 -0.0023653961 -0.046856288 0.0613272
0.15156463 -0.110916026 -0.057629477 0.24397887 0.15689528 -0.13578896 -0.1330236 -0.21896464
-0.14339617 -0.025330301 -0.14372392 0.0019940864 -0.113679685 0.025983142 0.01214558 0.022588
-0.10200679 -0.09739526 0.009521852 -0.12682371 -0.02261285 0.008287016 0.0046673287 0.100698814
0.0074131023 -0.06428672 0.042229366 0.24510404 -0.050567735 -0.15088327 0.11080205 0.0076268115
-0.069354124 0.13044804 0.0017145049 -0.11562237 -0.029866397 -0.020050678 -0.123170994 -0.043623436
0.24172272 0.10417014 0.07952149 0.070255175 -0.07902901 0.21661445 0.06804157 0.011480188
0.05582225 0.1375621 -0.044475447 -0.17563966 0.03687667 0.018614046 -0.034239627 -0.19620249
0.07724742 0.060393333 -0.20247577 -0.026543949 0.120680645 0.14578709 0.0640738 -0.027701888
0.005754305 0.045608833 -0.030893637 -0.011343492 -0.061972983 0.051968176 -0.072305515 -0.007332478
0.07934727 0.04368726 0.18116356 0.013051753 -0.029101018 0.030109731 -0.025613578 -0.04748234
0.14905083 0.027974065 -0.12200168 0.048099656 0.007100553 0.02606665 -0.084859625 0.013262341
-0.052799728 0.052362837 -0.027744498 -0.10147372 0.06705901 -0.11521516 0.04622972 -0.08873327
0.055512145 -0.09402582 -0.14914405 0.0946053 0.01636964 -0.1201028 0.11196298 -0.09663801
0.06966363 -0.018631639 -0.12746677 -0.1477418 -0.0634133 -0.0754926 -0.110775776 -0.0446513
0.046988145 -0.07353739 0.046725046 0.025175048 -0.055436235 -0.10181308 -0.055222634 -0.027998835
-0.066665575 0.022645304 0.06636949 0.027732542 0.026609868 -0.12786944 -0.005955807 0.020168554
0.045852624 0.21081315 -0.17196846 0.120292835 0.025885208 0.033906598 -0.098285705 0.06920875
0.12434404 -0.030509949 0.010696709 0.013970871 -0.058173507 0.052737474 -0.13571945 -0.015620767
-0.050758418 -0.041605867 -0.022149723 0.035164174 0.15299666 0.06339151 0.114371054 0.18392387
-0.16352835 0.08274263 -0.058132876 -0.21675636 -0.16187139 -0.011400067 -0.070390105 0.051222987
-0.07158681 -0.13393629 0.17037733 -0.13735506 -0.18939248 -0.18307552 -0.030317668 0.1096047
0.049882162 -0.033847865 -0.06081903 0.11437151 -0.17314659 0.037757512 0.02069819 -0.07336538
0.17113282 -0.03180001 -0.017273419 -0.14547357 0.0022083072 0.08995385 -0.1424573 0.15387274
0.090671204 -0.060446918 -0.053632725 -0.06434383 -0.0595704 0.0057584727 0.008391868 0.02998621

network_body._body_endoder.seq_layers.0.bias f4 [128]
00000000: dab8 0fbb e9d1 543b 6ca5 c13a 6a13 083b
00000010: 69c0 c33b 80eb f8bb 6189 7b39 e716 4c3b
00000020: 2f39 d33a 3bed 873b c861 00bc 00ed a9bb
00000030: 5b38 223c 6f64 463a 08a6 4539 84b5 f13b
00000040: d97a 18b9 cbf2 d13b 20c7 5e3b 8324 873b
00000050: 78e9 df3b 2a9e a53b 2c67 053c 9872 e73a
00000060: d74e 443b 289c 4f3b 2a44 0cba 8d59 433b
00000070: be71 ffbb 573e 3cbc abd7 473a 8c40 2db9
00000080: d8c5 4f3b a541 9e3b 7285 9739 d03e 993c
00000090: 4d69 233c f204 243b b84a 9fbb f16f ac3b
000000a0: dc00 1cb9 36ad 8f3b d505 12bc aae2 b53b
000000b0: 73c1 e23a 1b6f a63b be8a 473b a1f0 533b
000000c0: 514f 873b 5a89 7fbb 1843 82bb 5b74 2ebb
000000d0: 52dd ba3b 69fb 903b 8e1f 763c 537f 4bbb
000000e0: 73e1 adbb 42a4 5a3c f1a2 f7b9 de55 993b
000000f0: fade bebb a459 debb 8b42 b63a 8ce1 53bb
00000100: a2c3 833b a439 7abb 2b18 49bb 27f7 963a
00000110: e7f8 b03b eb88 d13b 30c9 e83b 339c 2dbb
00000120: 79ef a5ba cad6 25ba 902b 2e3b 3b50 b3b9
00000130: 8188 be3a dabe 133a 761d 703b 4ba2 373b
00000140: ba61 0ebb bc1d 80bb 9dca 473c c677 433b
00000150: 06f9 743b 8208 78ba c751 de3b cfb8 9b3b
00000160: 55f3 203b 5c78 8ebb 52be 133c 710d 57bb
00000170: 2215 193c 1275 08bb 8b82 e63a e605 66bb
00000180: 4cca a8ba 5cab 83bb 2cf1 133a 3436 9abb
00000190: d1dd 5a3b 0aea 533a bec8 2dbb 4eba d23b
000001a0: 5efc d03b 787a 9f3b 987f 2b3a 12c2 273b
000001b0: fa93 93bb 5fc8 833a 0e68 a23b 8732 5a3a
000001c0: 9166 b8bb 3ee0 30bb fe34 a33b 9282 d73b
000001d0: d2f9 2dbb de9e 62bb 7a38 74ba 1a89 5b3a
000001e0: d4c6 6f3c b120 a1ba 3706 9c3b b165 f63b
000001f0: 509f 4aba d5ad e33b 9a93 f83a 6bf4 353b
-0.0021930248 0.003247375 0.0014774031 0.0020763525 0.005973865 -0.007596433 0.00023988403 0.003114158
0.0016115064 0.004148153 -0.007835813 -0.0051857233 0.0099011315 0.00075680664 0.00018849235 0.0073763747
-0.00014541614 0.006407117 0.00339932 0.0041242256 0.0068332516 0.005054255 0.008142274 0.0017658053
0.0029954219 0.003167877 -0.00053507334 0.0029808015 -0.0077955415 -0.011489472 0.00076233846 -0.00016522611
0.0031703617 0.004829603 0.0002890039 0.01870671 0.009973836 0.0025027362 -0.004861202 0.005262368
-0.0001487764 0.004384662 -0.008912523 0.005550702 0.0017300084 0.005079163 0.0030447687 0.003233947
0.0041293283 -0.003899178 -0.0039752834 -0.0026619646 0.005702653 0.0044245017 0.015022172 -0.0031051233
-0.0053064167 0.013344826 -0.00047232912 0.0046794256 -0.0058249207 -0.0067855883 0.0013905329 -0.0032330481
0.004021124 -0.003818133 -0.0030684571 0.0011517749 0.005400765 0.0063944957 0.0071040615 -0.0026490807
-0.0012659869 -0.00063262566 0.0026576258 -0.00034201317 0.0014536531 0.0005636044 0.0036638654 0.0028020318
-0.002172573 -0.0039097946 0.012194303 0.002982603 0.0037379875 -0.0009461717 0.006784651 0.0047522555
0.00245591 -0.004347844 0.009017544 -0.0032814408 0.009343417 -0.0020821732 0.0017586512 -0.003509873
-0.0012877672 -0.0040182304 0.00056435424 -0.0047061685 0.0033396373 0.0008083886 -0.0026517357 0.0064309007
0.0063777408 0.0048668943 0.0006542145 0.0025597853 -0.004503724 0.0010054222 0.004956252 0.0008323569
-0.0056274612 -0.0026989128 0.0049806824 0.0065768445 -0.002654661 -0.0034579556 -0.0009316277 0.0008374617
0.014634807 -0.0012293068 0.004761483 0.007519447 -0.0007729428 0.0069482126 0.0018964887 0.0027764093

network_body._body_endoder.seq_layers.2.weight f4 [128, 128]
00000000: f493 d63d 3ea9 8abb f877 953c 25bc 0d3e
00000010: 5d60 b43d 292c 243d bbdb 8b3c 8455 e8bc
00000020: 8513 023d fe27 493c 9607 f8bd a700 0abe
00000030: d5b3 933b 0faa ee3d f4ca 2fbe 53f7 0a3d
00000040: 6bfe 6a3d 7e41 ac3d f0f3 3abd 6c01 863d
00000050: 9dd7 fa3d 652c 273d eb88 80bd 50e4 093d
00000060: 497d afbc a65f 653c 1a8b cc3d 941e 16bd
00000070: f0a4 59be f16f d3bc dbbc 933d 0d03 12be
00000080: f7bb 43bd 5f3a 243e 8c2a 9cbd 2f48 e73c
00000090: 9850 6abe 3ab4 ebbd cd72 3fbd 6ded 4ebb
000000a0: 9988 13bd c949 db3d 6ca8 5abd 7193 5b3d
000000b0: 2f5f c23d 1245 6cbd 097a 573e 73ea 3a3d
000000c0: 9e3d 673d 0273 e0ba 3a28 90bd 09e6 9e3b
000000d0: a109 513e c450 1a3e abc1 81be 347d 2dbd
000000e0: 60a2 213e 9b36 29bd 1a10 ba3c 144b ef3d
000000f0: 4acf 663d 9d95 72bd 467a 18be 7604 2cbd
00000100: 959f c93a 7f78 f63c bd11 06be 378a d73d
00000110: b913 283e 0816 bf3c 0db7 3e3d 87be de3c
00000120: 5c0d ea3d 7e93 a9bd 3d3c fd3b 35d6 213d
00000130: cff9 123e 49a6 cbbc 95f8 f4bd 4f89 fd3d
00000140: b471 1a3e 8ed2 7bbd 96ee b23d a284 8fbd
00000150: 0ba6 443d f439 72bd 0bd3 38bd 5319 38bd
00000160: a959 9e3b dee6 cc3c 1791 b43c c643 d33d
00000170: ea6b a73d ef19 ab3d 6495 893c f007 27bd
00000180: ab37 b8bc 3ac6 b8bc fb1c 793e 42d4 05be
00000190: b047 6cbd 6128 c6bc 8d63 8f3c ca1e 33bd
000001a0: 94b6 7f3d 29a1 263e 083b bd3d c39a cfbd
000001b0: 51b3 64bd f5ac 8e3d 9d93 e43d f994 01be
000001c0: 3283 64bc fe62 75bd b1c2 b8bd 1398 ebbd
000001d0: 320e 34bd 472c 95bd 794e 4d3e 52d3 98bc
000001e0: 4e8f 043e 873e ad3d f5af 853d ba3b a63d
000001f0: eb87 0bbc 836d db3b f9c3 7a3d 0d1a 443e
00000200: f6ed d43d c10b a73c 462c fb3d c822 b33c
00000210: 7283 a0bc 0c9e eb3d 34d4 463d c2a8 f03d
00000220: 3bbe f43d b8a8 99bc 648b 283d 9330 3bbd
00000230: bb8b d0bd 71d3 c6bd faf6 6ebd ccf4 0838
00000240: 9e13 4ebd 06a0 6d3d 482b 7fbd 7f5e 033e
00000250: c27e b6bd e055 da3c 9970 013c 2213 923c
00000260: f177 1abe e4e8 4dbe f735 f63c edb2 3d3e
00000270: 3552 f7bd 9430 813e 7a82 0cbd c118 e8bd
00000280: ca1b e43d 8074 ffbd e24f 5ab9 891b a3bd
00000290: f085 b1bd e98c 643d 3b0a db3d e0aa e0bd
000002a0: c209 61bc 7f40 07be 2060 623c 58b5 b63d
000002b0: 3d0f 10be a82e 72bb 1e0b 9fbd 0b71 053e
000002c0: af7a c0bd ea6d e8bd 34fd 2cbe ac9a 48bd
000002d0: 4ae5 4abd b95d 333c ec03 2abb fd0f 02be
000002e0: cf89 a2bd a856 15bd 5670 823d 758e 9abd
000002f0: 2492 4b3e a323 ce3d bb98 8f3d b2f6 ddbd
00000300: 8973 9f3c 7647 2e3e c2ca e73d 0172 143c
00000310: 4e06 40bd 136b b9bb 0add 5abd 3280 083e
00000320: c834 a43d 834a 093e e092 783c 5a58 553b
00000330: 75f1 913d 97ef 70bd 18e8 0f3e 3792 babc
00000340: 6c36 43bd 3640 54bd b16b 92bd 5e2d 343b
00000350: 6d11 263d 4db5 56be f6b9 233d 7c7f 9bbd
00000360: 898f 10be ba36 323b 616b 8ebd bfc0 e03b
00000370: 7498 213d eca3 97bd a6a1 cabd 1990 303d
00000380: e3ab fb3b b44c 21bd 3ba4 cabd f221 7ebc
00000390: 22a2 293e 4be6 c4bc ad25 f53d 16d7 973c
000003a0: d881 f53d 0c9e bd3c 1d13 683c 88df 70bc
000003b0: 5252 263d 7c0e d33d af1e 70be 8a34 febc
000003c0: 6d09 f93d bb3c adbd 0e37 2cbc 0080 cdbd
000003d0: 314f e33c ced5 86bc 3cf8 adbd 1f7b c1bc
000003e0: d9d0 a0bd 96cb 36bd cbb5 7c3d 025a 4abc
000003f0: 3ac2 ebbd 6366 063e 6494 01be 5c2d 47bd
0.104774386 -0.004231601 0.018245682 0.13841303 0.08807442 0.040081177 0.01707255 -0.02836109
0.031756897 0.012277601 -0.12110822 -0.13476811 0.0045075216 0.1165353 -0.17167264 0.033927273
0.057371538 0.08410929 -0.045642793 0.0654324 0.12248156 0.040813822 -0.06276115 0.033665
-0.021422045 0.013999855 0.09987469 -0.036650255 -0.21254325 -0.025810214 0.07213756 -0.14258976
-0.04778668 0.16037892 -0.07625303 0.028232662 -0.22882307 -0.11508985 -0.046740342 -0.0031574622
-0.03601894 0.10707433 -0.053383276 0.053607408 0.09490811 -0.057683058 0.21042646 0.045633744
0.056455247 -0.0017124119 -0.070389226 0.0048491997 0.2041383 0.15069872 -0.2534307 -0.04235573
0.15784597 -0.04131184 0.022712756 0.11684242 0.05635003 -0.059224714 -0.14890394 -0.04199644
0.0015382642 0.030086754 -0.13092704 0.10524409 0.16413774 0.023325935 0.04656129 0.02719046
0.11428329 -0.08280085 0.007728128 0.039510924 0.14353107 -0.024859564 -0.11961476 0.12379705
0.15082437 -0.061480097 0.08736913 -0.070077196 0.048009913 -0.0591373 -0.04512314 -0.044946026
0.0048324657 0.02501243 0.02204184 0.10315661 0.0817488 0.08354556 0.016794868 -0.040779054
-0.022487482 -0.02255546 0.24327461 -0.13069251 -0.057685554 -0.024189176 0.017503524 -0.043730535
0.06242998 0.16272415 0.09239775 -0.1013694 -0.055835072 0.06966583 0.111609675 -0.12654485
-0.013947295 -0.05990886 -0.090215094 -0.11503615 -0.04395885 -0.07283836 0.20049466 -0.018655453
0.12945291 0.08459192 0.06527702 0.08116861 -0.008516292 0.0066964044 0.06122205 0.19150563
0.1039695 0.020391347 0.12264304 0.02186717 -0.019593928 0.115047544 0.048542216 0.11750938
0.11950346 -0.01875721 0.04114856 -0.04570062 -0.101829015 -0.09708298 -0.058341004 3.265291e-05
-0.050311677 0.05801394 -0.062297136 0.12829016 -0.08910896 0.026652277 0.0079003805 0.017831389
-0.15084817 -0.20108372 0.03005503 0.18525286 -0.120762266 0.25232375 -0.03430412 -0.113328464
0.11138113 -0.124733925 -0.00020819859 -0.07964236 -0.08668125 0.055798445 0.10695311 -0.10970092
-0.013735237 -0.13208197 0.013816863 0.08921307 -0.14068313 -0.0036954079 -0.07765792 0.13031404
-0.093984 -0.113490894 -0.16893464 -0.04897563 -0.049535073 0.010947638 -0.002594228 -0.12701412
-0.07936441 -0.036459595 0.06369083 -0.07546703 0.19879967 0.10065391 0.07011553 -0.10838069
0.019464271 0.17019448 0.1131797 0.009060384 -0.046881013 -0.005658516 -0.053433456 0.13330153
0.0801788 0.1340733 0.0151717365 0.0032553882 0.071261324 -0.05882224 0.1405338 -0.022774799
-0.047659323 -0.05181905 -0.07149447 0.0027492861 0.040543962 -0.20967598 0.039972268 -0.07592675
-0.14117254 0.0027193264 -0.06954075 0.0068589146 0.03945203 -0.074043125 -0.09894113 0.043106172
0.0076804026 -0.03937979 -0.09894606 -0.015511023 0.16565755 -0.024035593 0.11970077 0.018535178
0.11987656 0.023146652 0.014164713 -0.0147017315 0.04060585 0.10305497 -0.23449205 -0.031030912
0.12160001 -0.08458849 -0.010511173 -0.1003418 0.027747722 -0.016459372 -0.084946126 -0.023618279
-0.078523345 -0.04462775 0.06169681 -0.012350561 -0.11511655 0.13124995 -0.12654263 -0.048627242

network_body._body_endoder.seq_layers.2.bias f4 [128]
00000000: 32b9 d93b ec7c fb3a 00fc 543b 5ce6 e13a
00000010: 465a 51bb a940 39ba b153 5e39 c97d 8cba
00000020: 6d41 48bb 8b20 dc3b 0879 cb3a 9a21 78bb
00000030: 87e7 ebbb 9e02 c7bb 2c9f f63b adfb 793b
00000040: 286f 47b9 2043 1c3b f138 2a3b 962c d9ba
00000050: 0621 aebb 0c58 afbb bbc2 d9bb a4a4 34bb
00000060: 0078 dbba 0b8c 253b ec84 7d3a caca 1ebb
00000070: b594 94bb 9ac9 15ba eeb7 34bb 0584 bbba
00000080: 1d7c 87ba 68fb e7b7 f00e a93a b2e1 ba3b
00000090: ca0c 20b9 4789 a73a 623f 5db9 1abd 6fbb
000000a0: 97ae 98ba 8d00 883b fdf1 8c3b bd64 d23b
000000b0: da88 0fbb 16ef 803a b34d 8e3b efbe e73a
000000c0: d827 fa3b 287f 433c f918 d33a a6cc 793a
000000d0: ee2b 8dbb 5af7 813b 226c ef39 de6c 0a3b
000000e0: 4f6a 2dbb 073a 013b c6f4 c4bb 7f54 38ba
000000f0: 2291 f0b9 8944 923a 7f23 153b c200 92bb
00000100: 4ec5 353b 34a9 3a3b b60d ff3a 91aa b7bb
00000110: d7c6 123b e469 763b 50fa 223c c8ed 65b9
00000120: 1f58 b8bb 50bf 0a3b 1134 403b 8b6a 85ba
00000130: 0f10 833b e649 d63b 1919 903a c050 e9ba
00000140: c6a5 3e3c adca b13b c77f d1b9 51bb eeb9
00000150: ef2d e33b 2770 493b ced7 253a ff05 363b
00000160: cb6c b13a 6dd3 003b cda6 9f3b 9171 e23b
00000170: af03 0ebb d173 e63b 4269 3dbb c71a 5b3b
00000180: 07b0 29bb eaac 28bb 4849 c63b 6903 d0b8
00000190: f3e2 3f3b 700a 533b 3967 b73b 0d14 963b
000001a0: 40c6 edb5 9261 8dbb 5d56 4a3b 8793 daba
000001b0: 8cf0 a239 ca63 d139 0f78 113c f48d beba
000001c0: b800 0b3c 03c1 f23b 2931 3839 4217 fc39
000001d0: 2fc2 dfba 180f 133b c3b6 983a d52b 203b
000001e0: 3ac4 bebb b5ac a23b 8b24 743b c6b0 a7ba
000001f0: 642f 7f3a 4a60 c8b9 e54c f1b9 1c8b 52bb
0.0066443915 0.001918701 0.0032498837 0.001723479 -0.0031944676 -0.0007066825 0.00021202747 -0.0010718639
-0.0030556575 0.0067177466 0.0015523741 -0.0037861825 -0.007199231 -0.00607331 0.007526299 0.0038144395
-0.00019019528 0.002384372 0.002597388 -0.0016569074 -0.0053139953 -0.005351072 -0.006645528 -0.0027563954
-0.0016744137 0.0025260474 0.0009670991 -0.0024229758 -0.004534329 -0.000571394 -0.002757545 -0.0014306313
-0.0010336671 -2.7654416e-05 0.0012898128 0.0057031745 -0.00015263553 0.0012782001 -0.00021099814 -0.003658122
-0.0011648712 0.0041504563 0.004301308 0.0064207003 -0.0021901638 0.0009836878 0.0043427586 0.0017680804
0.0076341443 0.011932172 0.0016105465 0.0009529091 -0.0043082153 0.003966254 0.00045666198 0.0021122019
-0.002646107 0.0019718425 -0.0060106246 -0.0007031634 -0.000458845 0.0011159341 0.0022756753 -0.0044556567
0.002773601 0.00284822 0.0019459042 -0.00560505 0.002239635 0.0037599737 0.009947374 -0.00021927722
-0.005625739 0.002117116 0.002932791 -0.0010178847 0.003999717 0.006539571 0.0010993808 -0.0017800555
0.011636203 0.005425772 -0.00039958788 -0.0004553446 0.006932966 0.0030737014 0.0006326408 0.002777457
0.0013536451 0.001965727 0.004872179 0.006910511 -0.0021669676 0.0070328494 -0.002890185 0.0033432709
-0.0025892274 -0.002573783 0.0060512163 -9.918848e-05 0.002927956 0.0032202266 0.005597022 0.004580027
-1.7715574e-06 -0.00431461 0.003087423 -0.0016676047 0.0003107827 0.00039937935 0.008878722 -0.0014538155
0.008484058 0.0074082627 0.00017565921 0.00048082514 -0.0017071421 0.0022439416 0.0011651147 0.0024440188
-0.005821732 0.004964436 0.0037253227 -0.0012793771 0.000973454 -0.00038218714 -0.00046024393 -0.0032126373

network_body._body_endoder.seq_layers.4.weight f4 [128, 128]
00000000: 408f 88bd b6f4 d0bd dc5a 8bbc b95e 683d
00000010: 014f f0bd df8b 20be 874a 2f3d c88b c93d
00000020: a953 60ba 0c67 473e 1b2b 23be 2c08 653d
00000030: dd02 babc 378d b2bd 294e d93c 06ae c6bc
00000040: 3267 0cbd e7f9 aa3d 1531 6abe b4cf 033e
00000050: 3f67 92bd 4cc7 4b3d f591 70bd 7a9a 0a3e
00000060: cdb4 52bc ae7c 3e3e 045a 083d 4312 a63c
00000070: 1116 57be 4b81 46bd b7aa a13d b454 e33c
00000080: cd6a 37be f8ab 293d c9cb 11bd 5232 093e
00000090: b8df 9f3d fdca bfbd fdcc 9dbc d702 84bd
000000a0: 1d33 02bd fb41 463d 1840 28be 3ee0 bb3d
000000b0: 645b 7a3d 7e42 113e e759 86bd 51a5 1e3c
000000c0: 6e55 003e 7d85 76be 3aae 7f3d bcde 273e
000000d0: 9024 eebd 848b a0bd c464 46bd 066d b6bd
000000e0: 4766 28bd 5bd0 313d 489c 08bd 401b 2cbc
000000f0: 63ec 96bd 69a8 23bc 47d2 493e dede f53d
00000100: 2df4 2e3e 646d bd3d 93aa 32bd 81d9 b8bd
00000110: e28e 893d e34d b6bd fd17 563c ebde 7cbd
00000120: e188 b7bd 3f37 0c3c a462 e1bd e00c 7dbd
00000130: ed09 adbd 29d3 a1bc 909c 193e b4f5 25bd
00000140: 4253 fd3b 7a97 503d 616a b0bd 8a36 84bd
00000150: db7c 1ebd 772d b43c 9ba9 24be 6a17 133c
00000160: 57ff cebb 0ebe 763c c660 c6bc 69ac c8bd
00000170: 6c2c e6bd 1fa8 a0bd 4318 01bd 9281 8d3d
00000180: b79e 623d 352c c0bd 44bc e23d 582b bcbd
00000190: f091 b6bd 63cd 4d3c 337e 163d 18b7 47bd
000001a0: 4740 02be c7e6 f03c 20eb 8e3c 450b e03c
000001b0: eaa8 b33d 8d0a 203c 7c52 7bbd 39a0 49bd
000001c0: 09f2 e93d 04a9 a13d 3e41 01be 1de0 39bc
000001d0: 185c a93d 2ffe 59bd 7db6 30bd 3913 64bd
000001e0: afa2 5c3d 99e1 3fbe c216 513c 021e bc3c
000001f0: e604 b33d a31a 943d 9e7a 2e3d e416 34bd
00000200: 26f1 9ebd 8eaa 9a3d db83 95bd a903 4b3c
00000210: 7233 503c ec2a 8a3d 6f9d 053d d718 bf3d
00000220: b3af 61bd f105 2bbe 7032 13bc f9fa 32bd
00000230: 5aea d5bd 715a 8bbd cc50 abbd 231e df3c
00000240: cab4 8c3e 1e4e f5bd 1b2b 723d 4349 2dbd
00000250: 0d0c 02be 4ba2 60bd 001a ab3d e31b 013e
00000260: b08b e8bd c2ae ae3d 8571 10be 8086 40be
00000270: 137c f1ba 293a 7fbd 6cfe d4bc 2a40 efbd
00000280: c8f9 c0bc 9850 26bd 62d3 033c db8b 7b3e
00000290: 3a46 5c3d 9264 053d 72eb af3d 8b07 97bb
000002a0: 4b01 673e 3461 3ebd 5a35 f7bd ca49 5d3d
000002b0: 5d26 cbbc 8fd4 ae3c 1af9 0a3e e581 043c
000002c0: cb57 3f3e d95b 53be d9f9 a1bd e204 5d3a
000002d0: e91b aabd 9363 613d 54d2 a03d f689 143e
000002e0: 4a28 cd3a 0280 103e 1a62 13be a867 833d
000002f0: e0e5 183e e44c 3cbd a2f5 ae3d 6847 793c
00000300: 3f89 4c39 79dc 21be 00ae 003d 4dc5 b9bd
00000310: 60c3 72bd 16ac 313e 2f59 d43c c77e 16bd
00000320: 50c3 e3bd 1764 a53b 26f4 9bba aca2 32be
00000330: edee 2f3e ae76 983c 65f0 43bd fc82 cbbd
00000340: d9a9 94bd faf3 9c3d df70 e0bb 4693 983c
00000350: 909d 78bd 5cf5 053d 2c78 0b3e f0c8 3fbc
00000360: 3150 cb3b 01ad ac3d 6eb9 ecbc d90f b1bc
00000370: ebf3 4abd 1e75 663d 5495 853c 5689 2d3e
00000380: fc28 f83c 37cd 48bd 88f1 903d 7f7f 4f3c
00000390: 618a 96bc ccf3 023e 7655 453e 1609 753d
000003a0: 12c6 243e 8257 02be 1f6a 173e f6cd 37bc
000003b0: 1687 993c d539 2b3e 83dc 193d 5a42 0cbc
000003c0: 5807 0e3e 558d 81bd 60cb a2bd 3960 ab3d
000003d0: 8e3d 37bd 76f1 8f3d 7b6b 82bd 3101 b8bd
000003e0: 6b9f 4c3c 0c12 dd3d d690 bebc 7aee 273e
000003f0: 4083 943d 4ef2 213a 02c8 3e3d e4dc 11bd
-0.06667948 -0.10202925 -0.017011099 0.05673096 -0.11733819 -0.15678357 0.042795684 0.09841114
-0.0008557388 0.19472903 -0.15934412 0.055915996 -0.022706443 -0.08718341 0.026526527 -0.024252903
-0.034278102 0.08348446 -0.22870286 0.12872201 -0.07148599 0.04975061 -0.058732945 0.1353549
-0.012860489 0.18602249 0.03328897 0.02027238 -0.21004511 -0.048463147 0.078938894 0.02775035
-0.17911835 0.041423768 -0.035594735 0.13398102 0.07806343 -0.09364889 -0.019262785 -0.06445854
-0.031787027 0.048402768 -0.164307 0.0917363 0.061122313 0.14185521 -0.06560116 0.009682969
0.12532589 -0.24074359 0.062422015 0.1639356 -0.116280675 -0.078391105 -0.04843594 -0.08907513
-0.041113164 0.043411594 -0.033352166 -0.010504544 -0.07369306 -0.009988883 0.1970912 0.12005399
0.17085333 0.0924938 -0.043619704 -0.090258606 0.06716706 -0.089015745 0.013067243 -0.06173603
-0.089616545 0.008558094 -0.11005142 -0.061779857 -0.08449159 -0.01975401 0.1500113 -0.040517524
0.0077308724 0.05092571 -0.0861404 -0.06455715 -0.03869329 0.021994336 -0.16080324 0.00897775
-0.00631706 0.015059961 -0.024216067 -0.0979851 -0.112389416 -0.078445666 -0.03151728 0.06909479
0.055327144 -0.09383432 0.11071065 -0.09187955 -0.08914554 0.012561175 0.036741447 -0.048758596
-0.12719832 0.029406918 0.0174461 0.027349124 0.08772452 0.0097681405 -0.06135796 -0.049225066
0.11423118 0.07893565 -0.12622544 -0.011344937 0.082695186 -0.053220924 -0.043142784 -0.055682395
0.053866085 -0.18738402 0.012761774 0.022963528 0.08741169 0.07231643 0.042597406 -0.043967143
-0.07760839 0.07552062 -0.0730054 0.012391009 0.012707578 0.06746468 0.032620843 0.0933091
-0.0550992 -0.16701485 -0.008984193 -0.043696377 -0.1044509 -0.0680436 -0.0836502 0.02723605
0.2748168 -0.1197779 0.05912314 -0.042306196 -0.1269991 -0.054842275 0.083545685 0.12608294
-0.11354768 0.08529426 -0.14105804 -0.18801308 -0.0018423818 -0.062311325 -0.026000224 -0.1168216
-0.023556605 -0.040604204 0.008046003 0.2456507 0.05377791 0.032566614 0.085898295 -0.0046090535
0.22559087 -0.04647942 -0.12070723 0.05402545 -0.024798566 0.02134159 0.13571587 0.00808761
0.18685834 -0.20640506 -0.07908983 0.00084312086 -0.08306105 0.055026602 0.07852617 0.14505753
0.0015652266 0.14111331 -0.14392892 0.06416255 0.1493144 -0.045971766 0.085429445 0.0152147785
0.00019506084 -0.1580676 0.03141594 -0.09070835 -0.059268355 0.17350802 0.025921432 -0.036741998
-0.11121237 0.005047332 -0.0011898323 -0.17444867 0.17180987 0.018611278 -0.04783668 -0.09937093
-0.07258958 0.07663722 -0.006849393 0.018624913 -0.06069714 0.032704696 0.1362006 -0.011705622
0.006204628 0.084314354 -0.028897014 -0.021614002 -0.049549025 0.056264035 0.016306557 0.16946921
0.03029298 -0.049023833 0.070773184 0.012664675 -0.018376531 0.12788314 0.19270882 0.05982312
0.16091183 -0.12728694 0.14786576 -0.0112185385 0.018741172 0.1672128 0.037563812 -0.008560741
0.13869989 -0.06325785 -0.07948947 0.083679624 -0.044736437 0.07028477 -0.063681565 -0.08984602
0.01248918 0.10794458 -0.023262423 0.16399565 0.072515965 0.0006177769 0.04657746 -0.03561105

network_body._body_endoder.seq_layers.4.bias f4 [128]
00000000: 111e 20b9 9cbd f43b 980d d23b 33e3 c3b9
00000010: 1d77 763b 12a2 17ba f495 9cb9 ccd9 ad3b
00000020: 650c a4b9 5c42 ca3a fe8c 79bb 5943 5c3b
00000030: 9f1b 093b 7722 a9ba 2cc9 21b8 6d80 8638
00000040: 6b65 033b b3d0 f03a 4719 363b 05fc fd3b
00000050: 56e8 30bb 3254 f9ba dc7a 983b e1c7 be3b
00000060: 4e5d a83a 91d8 183b 9173 f53a 24d0 98ba
00000070: 6bb3 0ebb d8b6 ac39 8a2a f3ba aebd 8d3b
00000080: cd2a 223b 756a f8ba 0f63 b4bb 39a2 25bb
00000090: b2e5 7dba 9089 203b 126c 77b7 f643 2cbb
000000a0: 3c43 043b b4e3 553b 8092 fab8 a3dc d0bb
000000b0: cfff 033c 052a 343b a73a 8e3b 7ae9 27bb
000000c0: e8cc 963b d763 9238 5d79 9ebb 43e0 57bb
000000d0: 1679 88bb 8773 2d3b f2c7 5539 078b c2ba
000000e0: 6ef3 daba 3850 8d3b e809 38b7 d2c0 92ba
000000f0: 66cc ad3b 4bdb c6ba a946 553b b8f9 bfbb
00000100: beb4 243b 8167 653b 37ab ab3a 2e20 0e3c
00000110: f559 bb3a fb8b 213b cf85 39bb 99df ef3b
00000120: abed a7ba 1864 acbb 6fe9 823a c49e b3bb
00000130: ef9b 57bb 34ec a5bb f4c2 973a 2021 353b
00000140: 0574 1e3b d8fe 6638 2725 a73a dcb5 8bba
00000150: eba4 8e3a a71b 003b 690a 573b 68ae d53b
00000160: 7db9 b93b f45a 9bbb 8372 633b 5093 ae3b
00000170: ed92 4aba acdd 923b 76cd 503b d922 553b
00000180: edb0 2539 1277 ae3a 2ac6 61bb 2fa2 2ebb
00000190: 4685 ca3b 2e9a 3dbb 522f 98bb ce99 84bb
000001a0: b721 87bb d4a2 d238 d64e 143c 856e c0ba
000001b0: cec5 7738 f1ac 53bb 2d5b ae3b 5a55 e73a
000001c0: 6d9d 7c3a 34cf 813b e15f 40bb f40d 803b
000001d0: e53b c53a b158 91bb 8e4a 953b e883 863b
000001e0: cbc6 eaba 91f6 80bb a837 2abb a013 a13a
000001f0: 92e2 a9ba 7df2 763b 9b61 06bc b9e5 713a
-0.0001526999 0.0074688923 0.006410312 -0.00037362575 0.0037607618 -0.0005784343 -0.00029866362 0.0053055044
-0.00031289752 0.0015431154 -0.0038078423 0.0033609478 0.0020921004 -0.0012903948 -3.8572747e-05 6.413539e-05
0.0020049463 0.0018372744 0.0027786063 0.0077509903 -0.0026993952 -0.0019022285 0.004653318 0.0058221673
0.001284519 0.0023322443 0.0018726458 -0.001165871 -0.0021774422 0.00032942626 -0.0018552106 0.00432559
0.002474475 -0.0018952625 -0.0055049728 -0.0025273694 -0.00096854114 0.0024496056 -1.4747509e-05 -0.0026285625
0.0020181676 0.0032636942 -0.00011948217 -0.006373958 0.008056595 0.0027490866 0.004340488 -0.002562134
0.0046020634 6.980419e-05 -0.004836245 -0.0032940067 -0.004164825 0.0026466565 0.00020387748 -0.0014842459
-0.0016704628 0.0043125413 -1.0969561e-05 -0.0011196381 0.005303907 -0.0015171556 0.0032543337 -0.005858626
0.0025132145 0.003500432 0.0013097291 0.008674664 0.0014293777 0.0024650085 -0.0028308516 0.007320356
-0.001281192 -0.0052609555 0.0009987782 -0.005481573 -0.003289934 -0.005063558 0.0011578486 0.0027638152
0.002417804 5.5073615e-05 0.0012752161 -0.0010659057 0.001088289 0.0019547732 0.0032812601 0.006521035
0.005667864 -0.004741067 0.0034705705 0.0053276196 -0.0007727582 0.0044819918 0.0031860746 0.0032521992
0.00015801536 0.0013310632 -0.003445039 -0.0026646962 0.006180438 -0.002893101 -0.004644313 -0.0040466553
-0.004123892 0.000100439094 0.009051999 -0.0014681375 5.907361e-05 -0.0032299126 0.0053209276 0.0017649338
0.00096364954 0.003961468 -0.0029354023 0.0039079133 0.0015047757 -0.0044356217 0.0045560068 0.00410508
-0.0017912028 -0.003935643 -0.0025973115 0.0012289174 -0.00129612 0.0037681155 -0.008201982 0.0009227652

action_model._continuous_distribution.log_sigma f4 [1, 4]
00000000: 322d 57bb b264 103d 2338 0e3d 6b11 103d
-0.0032833335 0.03525228 0.034721505 0.03517286

action_model._continuous_distribution.mu.weight f4 [4, 128]
00000000: cb93 73bb 7541 36bd 5839 d6bc 4033 92bc
00000010: dd64 14bc e55a f83c 1f41 8fbb 8da6 c1bc
00000020: 8e34 013d 1ec5 913b 86c7 e0bb 4e78 ac3c
00000030: 2116 5d3c 6c29 c9bc 3ddb 2c3b 2a6f 17bd
00000040: a52d febb 722d 9b3b 007d 45bd aa4f 623c
00000050: fa09 553d 32cc a5ba e51f b43c b85f b4bc
00000060: f9c4 d2bc 5a72 0a3d 39ff 223c d688 243d
00000070: b21d 93bb a7c9 ad3c 8818 b3bb 8904 a03d
00000080: 81c3 ba3c 6997 d73a 769b 95bb 7bfb db3c
00000090: 22de c93c 80d7 2e3d 2e9c d9bc 9da8 f03b
000000a0: 572a 96bc 54f6 94bc 4473 853b 618a a33c
000000b0: 7ebe 05bd ff62 fdbc b8b1 7c3c 9d0c 3aba
000000c0: e12c 46bb 306a 373c 45e0 9a3c a212 de3c
000000d0: 8093 8e3c f2f4 cb3c caa8 173d 244e aa3b
000000e0: ffe9 d2bb 9b47 c1bc 3dd3 90ba f17b 59bc
000000f0: f853 6dbb 02ed 1c3d 0cc2 b63c 403b bb3b
00000100: 5483 373c 7677 c4bc faff 403d cd10 11bd
00000110: c6a6 253c ae5b b53c 1895 c53c 1023 7aba
00000120: 459d 3b3d e9ae 93bb e383 153c 4c1c 803c
00000130: b01f 25bb 39af cf3c 463f ddbc 6d10 cdbc
00000140: 1294 393d 7cdb 993c 568f 38bd ef12 a83b
00000150: 5bae 413c 9e8a 05bd 51ef 08bc 383b 32bc
00000160: 3797 cfbc 6563 2f3c 7c38 193d 9651 aebc
00000170: d967 27bc 9d8e 50bd 8456 dfb9 75a5 48bd
00000180: c207 2f3c dafe 1dbd 1597 463d 8361 863c
00000190: f9bf 2cbd ad82 53bb ccc3 08bb a957 c03c
000001a0: 05d6 283b 1f01 00bd 74b6 17bd e107 543b
000001b0: 2d0b 883a 81dd b83b 05fe e4bc 039c f23b
000001c0: 3852 203c 2d95 12bd 7719 493d 53d1 5fbc
000001d0: 1160 02bd ac07 093c 5e64 613d 3a48 95bb
000001e0: 5a0a 213d 3b01 e13c a315 c43c 9a98 d83c
000001f0: 14f6 9abc 3aa0 e639 ddb3 3139 cbec ee3c
00000200: 76cc f13c 2ed7 0c3d e56b 453c 1b23 4c3c
00000210: e200 b93c b75e 513c 1287 c53c e7be a73c
00000220: 3242 86bc 6074 a8bb dc4b f8bc 3b38 213a
00000230: 239e cc3c a3d2 49bc ba1b 2c3c d737 ebbc
00000240: e730 68bc a62f 1b3d a3fe 92bc 5553 163c
00000250: a6b8 c3bc 68af 093c 7de0 af3a e2a4 8f3c
00000260: 56aa 243b cde4 353b 85d3 8bbc 8c18 f7bc
00000270: 43d9 0abc b885 05bd 0ee5 82bc 1597 a7bc
00000280: 5602 993c 63e4 97bb 56ed b63b dfd8 26bb
00000290: c91c aa3c c7f8 a53c 643d 963b 198e 70bc
000002a0: 3455 cc3c ced0 693c 265f 8b3c 16b1 38bd
000002b0: 9956 223d 81b4 4dbc 13bb 7a3c 198d 40bb
000002c0: f284 393d 7628 05bc 81f3 ce39 4561 5bbc
000002d0: 4b82 a8bb 44cb e5bb fb10 c0bc 904f 11bb
000002e0: 1802 87ba d276 9b3b af33 24bd ea63 433c
000002f0: 4afd ea3c 444d a1bc a730 813c 9602 01bd
00000300: 4ac3 533c 6e53 d6bb d3e2 ec3b 3c5f cd3c
00000310: 4b9c a1bc 7ea0 edbb 38e1 3d3c 8b79 21bc
00000320: db6c 27bc f01b bf3b 9956 113c 3097 cabc
00000330: cacc a5ba 7c78 99bc 549f b3bc 44dd 7b3b
00000340: e46c 1bbc 02a6 a33c 4ef5 d5bc 5a5a d5bc
00000350: 5a84 2c3d a32f 4b3b 11b0 4d3d 8c92 0b3d
00000360: 4d6e e63c 9a0e 4c3c 86f2 c13c 4663 253c
00000370: dd01 bbbc b8e4 8dbb 69bd 173d a144 69bc
00000380: d49d aabb fb26 06bc 00d5 95ba 0ccf 673c
00000390: 00be 183c 127d b33b b8f3 92bc 40fe 2fbc
000003a0: 33f8 803c 64f3 89ba 27d8 1d3d 1897 bfbc
000003b0: bf8c 8abc 3235 ee3b c473 a23c 4521 a0bc
000003c0: 728b 3abc 3c71 493a 2f55 80bb b3af eb3c
000003d0: dcfd 95bc 4d62 46bc 97d5 6fbc 890a 1cbc
000003e0: 9109 373a a46a 8dbd ddfb f7bb 1e56 8cbc
000003f0: 9947 d3bb ac6d e53c 0edf 5bbb aee4 9e3c
-0.003716695 -0.04449602 -0.02615039 -0.017846704 -0.009057251 0.03031678 -0.0043717767 -0.023638988
0.03154426 0.004448547 -0.0068597225 0.02105346 0.0134940455 -0.024555884 0.0026375793 -0.03697125
-0.007756906 0.004735642 -0.048214912 0.013812939 0.052011468 -0.0012649356 0.021987865 -0.022018299
-0.02572869 0.03380046 0.009948545 0.04016956 -0.004489624 0.02121432 -0.005465571 0.07813365
0.022798302 0.0016448322 -0.0045656515 0.026853314 0.024642054 0.042685986 -0.02656373 0.007344319
-0.018330736 -0.018183865 0.0040725786 0.019963445 -0.03265237 -0.030930994 0.015423231 -0.00070972164
-0.0030239152 0.011194751 0.018905768 0.027108494 0.017404318 0.024897072 0.037026204 0.0051973034
-0.006436586 -0.023593714 -0.0011049282 -0.013274179 -0.003621338 0.038311966 0.022309326 0.0057138503
0.011200745 -0.023982745 0.04711912 -0.035416413 0.010110563 0.022138443 0.024118945 -0.0009541968
0.04580428 -0.004506935 0.0091256825 0.015638493 -0.002519589 0.025352107 -0.02700771 -0.025032246
0.045307226 0.018781416 -0.04505857 0.00512921 0.011821355 -0.0326029 -0.008357839 -0.010878377
-0.02534066 0.01070485 0.037407383 -0.021279138 -0.01021763 -0.050917257 -0.00042598334 -0.048985917
0.010683002 -0.038573124 0.048483927 0.01640392 -0.042175267 -0.0032273934 -0.0020868657 0.0234793
0.0025762331 -0.03125107 -0.037039235 0.003235333 0.0010379307 0.0056416397 -0.027953157 0.007403852
0.0097852275 -0.035786796 0.04909655 -0.013660747 -0.031829897 0.0083636455 0.05502736 -0.004555729
0.039316513 0.027466407 0.023936098 0.026439954 -0.018916167 0.00043988397 0.0001694704 0.029165646
0.02951644 0.0343849 0.01204965 0.012459542 0.022583429 0.012778929 0.024112258 0.020476772
-0.016388986 -0.005140826 -0.03030961 0.00061500416 0.02497775 -0.012318286 0.010504657 -0.02871315
-0.0141718155 0.037887238 -0.017943686 0.009175141 -0.023891758 0.0084036365 0.0013418343 0.017534677
0.0025125942 0.0027754784 -0.017068634 -0.030163072 -0.008474651 -0.032598227 -0.015978362 -0.020457784
0.018677872 -0.00463538 0.005582492 -0.0025458855 0.020765679 0.020260228 0.004584955 -0.014682316
0.024942972 0.014270974 0.017013144 -0.045090757 0.039633367 -0.0125552425 0.015303391 -0.0029380976
0.045292802 -0.008127322 0.00039472806 -0.01338989 -0.0051424853 -0.0070127565 -0.023445597 -0.0022172667
-0.0010300307 0.004744389 -0.04008835 0.011925677 0.02868523 -0.019690163 0.01577027 -0.031496607
0.0129249785 -0.0065407073 0.007229188 0.025069825 -0.019727847 -0.007251798 0.011589341 -0.009855638
-0.010218824 0.005832188 0.008870744 -0.024730295 -0.0012649533 -0.01873421 -0.02192656 0.0038431445
-0.009486411 0.01997662 -0.026117947 -0.02604406 0.042118408 0.0031003735 0.050216738 0.034075305
0.028128767 0.012454653 0.023675214 0.010094469 -0.022828037 -0.004330244 0.03704587 -0.014237554
-0.005206803 -0.008188005 -0.0011431277 0.014148485 0.009322643 0.005477556 -0.01793848 -0.01074177
0.01574335 -0.0010524807 0.038536217 -0.023387477 -0.016912816 0.007269525 0.019830592 -0.019547114
-0.011385785 0.0007684415 -0.0039164047 0.028770303 -0.018309526 -0.012108398 -0.014638326 -0.009523996
0.00069823215 -0.06905106 -0.0075678662 -0.017130908 -0.006447744 0.028006397 -0.00335497 0.019396152

action_model._continuous_distribution.mu.bias f4 [4]
00000000: f58a 8abb 3d06 a83b eb3e 1a3b f793 153b
-0.0042279908 0.005127697 0.0023536037 0.002282379
