results/sacnight/Shooter/Shooter-1999000.onnx (onnx, 666224 bytes, 14 tensors)

network_body.observation_encoder.processors.0.normalizer.running_mean f4 [68]
0	0x3c1efce8	0.009703852
1	0x3f7d8408	0.9902959
2	0x00000000	0.0
3	0x3e146c99	0.14494552
4	0x3c1d726f	0.009609803
5	0x3f7d8a2c	0.9903896
6	0x00000000	0.0
7	0x3e14aca4	0.14518982
8	0x3c1b9846	0.009496754
9	0x3f7d919f	0.99050325
10	0x00000000	0.0
11	0x3e14b328	0.14521468
12	0x3c23378b	0.009961973
13	0x3f7d731f	0.99003786
14	0x00000000	0.0
15	0x3e156531	0.14589383
16	0x3c1e2096	0.009651324
17	0x3f7d8778	0.99034834
18	0x00000000	0.0
19	0x3e158638	0.14601982
20	0x3c1fb153	0.009746867
21	0x3f7d8134	0.99025273
22	0x00000000	0.0
23	0x3e16ad87	0.14714633
24	0x3c2054f9	0.009785884
25	0x3f7d7ea1	0.99021345
26	0x00000000	0.0
27	0x3e16f2c5	0.14741047
28	0x3c2265c5	0.009911959
29	0x3f7d7658	0.99008703
30	0x00000000	0.0
31	0x3e1884dd	0.14894433
32	0x3c21a4b9	0.009865933
33	0x3f7d7965	0.9901336
34	0x00000000	0.0
35	0x3e18f061	0.14935447
36	0x3c27d90e	0.010244621
37	0x3f7d6092	0.9897548
38	0x00000000	0.0
39	0x3e1b06ec	0.15139359
40	0x3c264c71	0.010150061
41	0x3f7d66bb	0.9898488
42	0x00000000	0.0
43	0x3e1b7fbd	0.15185447
44	0x3c2c786c	0.010526758
45	0x3f7d4e18	0.98947287
46	0x00000000	0.0
47	0x3e1e4ba9	0.1545855
48	0x3c2f30ff	0.010692834
49	0x3f7d4342	0.9893075
50	0x00000000	0.0
51	0x3e1eb0d8	0.15497148
52	0x3c319e13	0.0108409105
53	0x3f7d399c	0.9891603
54	0x00000000	0.0
55	0x3e2273a3	0.15864424
56	0x3c342cbe	0.0109969955
57	0x3f7d2f46	0.9890026
58	0x00000000	0.0
59	0x3e22877d	0.15871997
60	0x3c3873fb	0.011258121
61	0x3f7d1e19	0.9887405
62	0x00000000	0.0
63	0x3e2749c8	0.16336739
64	0x3c3c06d5	0.011476238
65	0x3f7d0fe2	0.9885236
66	0x00000000	0.0
67	0x3e26e40c	0.1629793

network_body.observation_encoder.processors.1.normalizer.running_mean f4 [52]
0	0x3c1efce8	0.009703852
1	0x3f7d8408	0.9902959
2	0x00000000	0.0
3	0x3e146c99	0.14494552
4	0x3c27f230	0.010250613
5	0x3f7d6022	0.9897481
6	0x00000000	0.0
7	0x3e1b0c45	0.15141399
8	0x3c267236	0.010159066
9	0x3f7d662e	0.9898404
10	0x00000000	0.0
11	0x3e1b8545	0.15187557
12	0x3c4b23e5	0.012398695
13	0x3f7cd36a	0.9876009
14	0x00000000	0.0
15	0x3e3329c8	0.17496407
16	0x3c4e6b1e	0.012598781
17	0x3f7cc64f	0.98740095
18	0x00000000	0.0
19	0x3e316cf5	0.1732672
20	0x3c8242ad	0.015900934
21	0x3f7bede5	0.98409873
22	0x00000000	0.0
23	0x3e6203f4	0.2207182
24	0x3c86969a	0.016429234
25	0x3f7bcb40	0.9835701
26	0x00000000	0.0
27	0x3e5a9bf1	0.2134855
28	0x3cadade9	0.02120109
29	0x3f7a9287	0.97879833
30	0x00000000	0.0
31	0x3e964c2a	0.29354984
32	0x3caef424	0.02135665
33	0x3f7a8855	0.97864276
34	0x00000000	0.0
35	0x3e8e7b86	0.27828616
36	0x3ce8139a	0.02832966
37	0x3f78bf5c	0.9716699
38	0x00000000	0.0
39	0x3ec45e60	0.38353252
40	0x3cdbfbb8	0.026853427
41	0x3f792023	0.9731466
42	0x00000000	0.0
43	0x3ebba587	0.36649725
44	0x3ce38c56	0.027776878
45	0x3f78e390	0.9722223
46	0x00000000	0.0
47	0x3edd20e1	0.43189147
48	0x3cdffb9b	0.027341655
49	0x3f790017	0.9726576
50	0x00000000	0.0
51	0x3ed9c08f	0.42529723

network_body._body_endoder.seq_layers.0.weight f4 [256, 120]
0	0xbd9514b9	-0.07279343
1	0xbd9365a5	-0.071971215
2	0xbc79a70c	-0.015237581
3	0x3db81beb	0.089897
4	0x3d6d91c0	0.058000326
5	0xbc5671e9	-0.013088682
6	0x3d8f2d55	0.06991068
7	0x3e03a9db	0.12857763
8	0x3ce04a73	0.02737925
9	0xbdb8402b	-0.08996614
10	0x3dbaea0f	0.091266744
11	0x3dace20e	0.08441554
12	0xbdeea894	-0.116532475
13	0x3d0c3710	0.0342322
14	0x3d35308e	0.04423576
15	0x3d99fc73	0.07518854
16	0xbd98ae7c	-0.07455155
17	0xbdc0e39a	-0.094184116
18	0x3d84bf9b	0.06481858
19	0x3e21ae8a	0.15789238
20	0x3dcbb0e8	0.099458516
21	0xbe3ca8b3	-0.18423729
22	0x3d808e53	0.06277146
23	0xbda570c2	-0.080781475
24	0x3cc67dda	0.024229933
25	0x3d8f2d57	0.0699107
26	0x3def9987	0.11699205
27	0xbcbd075d	-0.0230748
28	0xbe113617	-0.1418079
29	0x3d43163b	0.047628623
30	0x3d2bf725	0.041983742
31	0x3e090205	0.13379677
32	0x3d0fb09a	0.03508053
33	0x3d0954f1	0.033528272
34	0x3e085d02	0.1331673
35	0xbe0c0ffe	-0.13677976
36	0x3e06badc	0.13157219
37	0xbdddd804	-0.10832217
38	0x3d58f08d	0.052963782
39	0xbd8b6a5b	-0.06807395
40	0x3e311043	0.1729136
41	0xbd8fcc86	-0.070214316
42	0xbd11b0bf	-0.03556895
43	0xbe13676f	-0.14394926
44	0xbd762278	-0.060091466
45	0x3ba7de13	0.005122909
46	0x3ace853c	0.001575626
47	0x3cdd23ec	0.026994668
48	0xbcc146a3	-0.023593253
49	0x3cc7276b	0.024310788
50	0x3cf1710a	0.029472847
51	0xbe87cb56	-0.2652232
52	0xbb9797c2	-0.0046262452
53	0xbd4f9258	-0.050676674
54	0xbd6fd6d5	-0.05855449
55	0x3db1f520	0.08689332
56	0x3d4d3d28	0.05010715
57	0xbdab66f3	-0.083692454
58	0x3d62bd2d	0.055356193
59	0x3dee63a3	0.11640098
60	0xbd0de643	-0.034643423
61	0xbc48a197	-0.012245557
62	0x3c7b75a3	0.015347871
63	0xbe64708c	-0.22308558
64	0x3b23ab40	0.00249739
65	0x3de4b9d9	0.1116826
66	0x3dd00cb8	0.10158676
67	0x3bc465c6	0.0059935777
68	0xbd3e0128	-0.04638782
69	0x3d92e379	0.07172293
70	0x3b73b899	0.0037188886
71	0x3d11dd60	0.03561151
72	0x3e470f84	0.19439512
73	0xbcc92224	-0.024552412
74	0xbdbb2279	-0.091374345
75	0x3dea543e	0.11441849
76	0xbba06d7f	-0.0048958655
77	0xbe1ca1bf	-0.15296076
78	0xbe09d0d5	-0.1345857
79	0x3c96c695	0.018405238
80	0x3cedbff2	0.02902219
81	0x3dd5cae9	0.10439093
82	0xbd8eaaee	-0.06966196
83	0xbe01e0a2	-0.12683347
84	0xbe16077f	-0.14651297
85	0x3da0002b	0.07812532
86	0xbdeb32f2	-0.114843264
87	0x3d8e04c6	0.06934504
88	0x3e080299	0.13282241
89	0xbdef1685	-0.11674217
90	0x3e13607a	0.14392272
91	0xbe0aebf1	-0.13566567
92	0x3d37c115	0.04486187
93	0x3c88a843	0.016681796
94	0x3d25c88d	0.040474463
95	0xbd9f7136	-0.07785265
96	0x3ddf4c5d	0.10903237
97	0xbda31f5c	-0.07964966
98	0xbdebdbb2	-0.11516513
99	0xbe960e2d	-0.2930769
100	0x3cab9063	0.020942872
101	0x39b3e942	0.0003431533
102	0xbdbcfbd0	-0.09227717
103	0x3d1dd073	0.03852887
104	0x3c58d1ec	0.013233643
105	0x3dc3b025	0.09555081
106	0xbe330d7f	-0.17485617
107	0x3e58788b	0.21139733
108	0x3d089047	0.03334072
109	0x3deea53d	0.116526105
110	0xbdadd963	-0.08488729
111	0x3dc140b6	0.09436171
112	0xbe06a83f	-0.13150118
113	0xbdc62c50	-0.09676421
114	0xbc36a147	-0.01114685
115	0xbdab37dd	-0.083602645
116	0x3dcaa9b5	0.0989565
117	0xbe006bc3	-0.12541108
118	0xbdd1c217	-0.10242098
119	0xbd8d12c1	-0.06888343
120	0x3daaf212	0.083469525
121	0x3ca577d7	0.020198746
122	0xbb077fe8	-0.0020675603
123	0xbcb84189	-0.022492187
124	0xbccad617	-0.02476029
125	0xbc8de33a	-0.017320264
126	0xbd46838a	-0.04846529
127	0xbcf66812	-0.030078921
128	0xbe24f0a1	-0.16107418
129	0x3e3481d4	0.1762765
130	0x3e0dfa87	0.138651
131	0xbb6e6535	-0.0036376242
132	0xbdb53c7b	-0.08849426
133	0x3e0107ba	0.12600604
134	0x3d28ccd4	0.041210964
135	0x3ddacab5	0.106831945
136	0xbe1bb494	-0.15205604
137	0x3cef4719	0.029208707
138	0xbddf5694	-0.10905185
139	0xbdc68805	-0.096939124
140	0xbdd55d12	-0.104181424
141	0x3d3c444b	0.045963567
142	0x3dfd5a2c	0.123707145
143	0x3e5add32	0.21373442
144	0xbda99bb9	-0.08281655
145	0x3df2e5c4	0.118602306
146	0x3be3ac1d	0.0069480077
147	0xbe08340b	-0.13301103
148	0xbe12a019	-0.14318885
149	0xbd5871d8	-0.052842945
150	0x3d12645c	0.03574024
151	0x3ce78ee1	0.028266372
152	0x3da20e6a	0.079129055
153	0x3db1cf86	0.0868216
154	0xbd4cd631	-0.050008956
155	0x3d1ea927	0.038735535
156	0xbe7853ff	-0.24250792
157	0x3ddc3edd	0.10754178
158	0xbd44907f	-0.047989365
159	0xbe2479a9	-0.16062035
160	0xbd1e3156	-0.03862127
161	0xbdccb04d	-0.09994564
162	0x3d4d1aba	0.050074317
163	0xbcdb9914	-0.026806392
164	0xbd134cf9	-0.03596208
165	0x3ca3aead	0.019980753
166	0x3db38404	0.08765414
167	0x3ca4e8eb	0.020130595
168	0x3cee17aa	0.029064018
169	0xbd6b072d	-0.05737989
170	0xbdc62073	-0.09674158
171	0xbda430e0	-0.08017135
172	0xbd42daa0	-0.04757178
173	0x3da7d5a9	0.08195049
174	0xb91f83bf	-0.00015212501
175	0x3df080e7	0.11743336
176	0x3dd58749	0.10426194
177	0xbc48a838	-0.012247138
178	0xbde6d483	-0.11271002
179	0x3946f03d	0.00018972247
180	0x3d7ce4f8	0.0617418
181	0xbe3c0f6e	-0.18365261
182	0x3c367e91	0.011138574
183	0x3c439a74	0.01193868
184	0x3cf89d0a	0.03034832
185	0x3d9c6424	0.07636288
186	0x3d9b6e18	0.07589358
187	0xbc760924	-0.015016828
188	0xbdb06e22	-0.08614756
189	0x3d102e05	0.035200138
190	0xbcd81866	-0.026378822
191	0xbd8e6789	-0.069533415
192	0x3e268b14	0.16263992
193	0x3df88f52	0.12136711
194	0xbdd60f52	-0.10452141
195	0x3e0ba73c	0.13638014
196	0xbd036e95	-0.03208788
197	0xbdb68401	-0.089118965
198	0xbd91ec7b	-0.07125183
199	0x3d6c71ad	0.057725597
200	0x3e1c8c70	0.15287948
201	0xbdf43043	-0.11923268
202	0xbe0f2a0b	-0.13980882
203	0xbe0e0b08	-0.13871396
204	0x3d22f2fe	0.039782517
205	0xbdc891e9	-0.09793455
206	0xbd336dd0	-0.043805897
207	0x3e8598a7	0.26093027
208	0xbda74a0a	-0.08168419
209	0x3e751669	0.2393433
210	0xbd8a4014	-0.06750503
211	0xbd0aac0d	-0.033855487
212	0x3e18ae12	0.14910153
213	0xbdcdb440	-0.100441456
214	0xbccb96aa	-0.024852116
215	0x3eb5da8f	0.3551831
216	0xbd936a47	-0.07198005
217	0x3e777772	0.24166659
218	0xbcaf7710	-0.021419078
219	0x3e502d8a	0.20329872
220	0xbd0c2b8e	-0.034221224
221	0x3d0f4884	0.034981266
222	0x3d4949ed	0.049142767
223	0xbc934900	-0.017979145
224	0x3dc91f48	0.098204195
225	0xbc6dc901	-0.014513255
226	0xbdf30a39	-0.11867184
227	0x3e020ab9	0.12699403
228	0xbd8b4ab7	-0.0680136
229	0xbd42b88e	-0.047539286
230	0xbd5d65c4	-0.05405213
231	0x3de36f17	0.11105173
232	0x3dc2d218	0.095127285
233	0xbcb065c1	-0.021532895
234	0x3e008126	0.12549266
235	0x3bb83d01	0.0056225066
236	0xbbac8ee0	-0.0052660555
237	0x3d1d4b0a	0.03840164
238	0xbad4e9dd	-0.0016244013
239	0x3e20fc33	0.15721206
240	0x3c632183	0.01386297
241	0xbd1d58ad	-0.038414646
242	0xbc17b455	-0.009259303
243	0xbdb633f5	-0.08896629
244	0x3cd29101	0.025703909
245	0x3d4bcc49	0.04975537
246	0xbd21ce12	-0.039503165
247	0x3e5c01f4	0.2148512
248	0xbdeed1ad	-0.11661086
249	0x3e26baa4	0.16282135
250	0x3dcc24c4	0.0996795
251	0x3e49e183	0.19714932
252	0x3e9c4508	0.30521417
253	0x3e7f6c3e	0.24943635
254	0x3da191e9	0.07889158
255	0x3e1b2255	0.15149815

network_body._body_endoder.seq_layers.0.bias f4 [256]
0	0xbd9d281f	-0.07673668
1	0x3c2cdc22	0.010550531
2	0xbc2d22b2	-0.010567354
3	0xbd0036e6	-0.031302355
4	0x3b99260d	0.0046737255
5	0xbc1fafc5	-0.009746497
6	0xbd3aa26c	-0.045565054
7	0xbb09100a	-0.00209141
8	0xbdf77cc4	-0.12084344
9	0xbd3916b7	-0.04518768
10	0xbd70b29a	-0.058764078
11	0xbc8182a7	-0.01580937
12	0x3ca75ad0	0.020429045
13	0xbdbde582	-0.09272291
14	0x3d0aaa8f	0.033854064
15	0xbd0ebfec	-0.034851
16	0xbd89ff89	-0.067381926
17	0xbd3fe1f1	-0.046846334
18	0xbd6275b7	-0.055288043
19	0xbd924211	-0.071415074
20	0xbd83ab2c	-0.06429133
21	0xbd0ab68b	-0.033865493
22	0xbd4bd49a	-0.0497633
23	0xbcc199fa	-0.023632992
24	0xbd36b43d	-0.044605482
25	0xbd9d3bd9	-0.07677431
26	0xbd79c703	-0.060980808
27	0xbd8a2388	-0.06745058
28	0xbd964f06	-0.07339291
29	0xbd6576bf	-0.05602145
30	0xbd908b63	-0.07057836
31	0xbc87488d	-0.016514087
32	0xbc8d289c	-0.017231278
33	0xbc966ecb	-0.018363377
34	0x3cd08a8d	0.025456691
35	0xbd20b09f	-0.03923094
36	0xbd8c4f72	-0.068510905
37	0x3d92aeea	0.071622685
38	0x3c6261ad	0.013817233
39	0x3b51f0f8	0.0032034498
40	0xbd982e41	-0.07430697
41	0xbcee9419	-0.029123353
42	0xbd8158dc	-0.06315777
43	0xbcbbe20a	-0.022934932
44	0xbd9766a4	-0.07392624
45	0xbb3f4d96	-0.0029190532
46	0x3c5ecc1c	0.013598468
47	0x3c8f6d76	0.01750825
48	0x3d06d9b6	0.03292247
49	0x3c8f629c	0.017503075
50	0xbdd778a5	-0.10521058
51	0x3d24975a	0.040183403
52	0xbda4765e	-0.08030389
53	0xbcd3e14e	-0.02586427
54	0x3b2c3ff7	0.0026283243
55	0x3cc80fea	0.02442165
56	0xbd1d5730	-0.038413227
57	0xbd2ceda9	-0.042218838
58	0xbcf90061	-0.030395688
59	0xbd9f5fcc	-0.07781944
60	0xbd06d1f2	-0.032915063
61	0x3c1fa787	0.0097445315
62	0xbdc52a77	-0.0962724
63	0x3c3870bd	0.011257348
64	0xbd2c38ca	-0.042046346
65	0xbd32b03f	-0.043625113
66	0xbdcaa15a	-0.098940566
67	0xbda00ec8	-0.07815319
68	0xbdc2557b	-0.0948896
69	0xbdbd1cd6	-0.09234016
70	0xbd870737	-0.06593173
71	0xbc8a0301	-0.016847135
72	0xbcb9d478	-0.02268432
73	0x3c99a40b	0.01875498
74	0xbd130ac5	-0.035898943
75	0xbd8e704f	-0.06955015
76	0xbd2a10a6	-0.041519783
77	0xbbaef2ab	-0.005338987
78	0x3d7b4b76	0.061351262
79	0x3d14c075	0.036316354
80	0xbd1312f1	-0.035906736
81	0xbcc26eb7	-0.023734434
82	0x3d348ca4	0.044079438
83	0xbc7c95a0	-0.015416533
84	0xbcbe944e	-0.023264077
85	0xbdaf6e40	-0.085659504
86	0x3da7f813	0.08201613
87	0xbd539257	-0.051653232
88	0xbd0cf60d	-0.03441434
89	0x3d246817	0.04013833
90	0xbb7ccfd0	-0.0038576014
91	0xbd218ce3	-0.039441
92	0xbceb150f	-0.028696565
93	0x3d40594b	0.046960156
94	0xbdcd7a48	-0.10033089
95	0x3ddd05a9	0.10792095
96	0xbd857d68	-0.0651806
97	0x3cc55e46	0.024092805
98	0xbcf48fdd	-0.029853756
99	0x3c31bfa5	0.010848914
100	0xbd83d5f6	-0.06437294
101	0x3d25ecb6	0.04050895
102	0xbe1c5f93	-0.15270834
103	0xbd341bc5	-0.043971796
104	0xbbe7bdb0	-0.007072173
105	0xbd09e8dd	-0.03366934
106	0x3d045ff7	0.03231808
107	0xbddda318	-0.10822123
108	0xbd53cc50	-0.05170852
109	0xbca85dd3	-0.020552551
110	0x3b922fa3	0.004461245
111	0x3bc50e76	0.006013687
112	0xbc707686	-0.014676696
113	0xbd7974c0	-0.060902357
114	0xbd443a7d	-0.04790734
115	0x3b346cf8	0.002753077
116	0xbb120afe	-0.0022284384
117	0x3cac33a6	0.021020722
118	0xbc838d45	-0.016058573
119	0xbd0187a0	-0.031623483
120	0xbdbf7e42	-0.09350254
121	0xbd4dda3e	-0.05025696
122	0xbd74d792	-0.059775896
123	0x3c6d58f6	0.014486542
124	0xbd1eb924	-0.038750783
125	0xbc204eb8	-0.009784393
126	0xbd46468a	-0.048407115
127	0x3b875331	0.0041297902
128	0x3cbc009b	0.022949507
129	0xbc99c54d	-0.018770838
130	0xbdb0b8ac	-0.08628973
131	0x3cf690a1	0.030098261
132	0xbd88a856	-0.066727325
133	0xbe05a530	-0.13051295
134	0xbbba9e1c	-0.0056951176
135	0xbda4efc0	-0.08053541
136	0xbca3a454	-0.019975819
137	0xbd1a0990	-0.037606776
138	0xbd5ae30e	-0.053439192
139	0xbd8e3fc3	-0.06945755
140	0xbd8d000c	-0.068847746
141	0xbd22ab50	-0.039714158
142	0xbc16138a	-0.009159932
143	0x3b2459a3	0.0025077842
144	0xbce1ab70	-0.027547568
145	0xbdaf1af3	-0.08550062
146	0xbc790ec5	-0.015201275
147	0xbd9c6ee9	-0.07638342
148	0xbdf2664e	-0.11835919
149	0xbdad0eea	-0.0845011
150	0x3d519ff6	0.05117794
151	0xbd767621	-0.06017125
152	0xbc22e2db	-0.009941782
153	0x3d5c2a9f	0.053751584
154	0xbd62a66e	-0.0553345
155	0xbd44c2c9	-0.048037324
156	0xbd7e72f2	-0.06212134
157	0xbe06b779	-0.13155927
158	0xbdb439a9	-0.0880006
159	0x3d04896a	0.03235761
160	0xbcac887d	-0.021061176
161	0xbc6e0f04	-0.014529947
162	0xbc4ca3f4	-0.012490261
163	0xbd6dd78c	-0.05806689
164	0xbd8fc9d2	-0.07020916
165	0xbdb50f5e	-0.08840822
166	0x3ca0af19	0.019614743
167	0xbd14bb47	-0.036311414
168	0xbd86eb63	-0.06587865
169	0xbd76d0e3	-0.060257804
170	0xbdd9a996	-0.10628049
171	0x3d7e96bb	0.062155467
172	0xbdd5bde9	-0.10436613
173	0xbd894016	-0.067016765
174	0x3b5b6eec	0.0033482863
175	0x3c2c7347	0.010525531
176	0xbd302251	-0.043001477
177	0x3c9e6ff4	0.019340493
178	0xbdf31eeb	-0.118711315
179	0x3d49d94d	0.0492795
180	0xbd9bda18	-0.076099575
181	0xbdd88cc7	-0.10573726
182	0x3cca2ee8	0.02468057
183	0x3d8b1484	0.067910224
184	0xbdca5d2d	-0.09881053
185	0xbc8ce480	-0.017198801
186	0xbd1d2a89	-0.038370643
187	0xbddba908	-0.107255995
188	0xbda73191	-0.08163751
189	0xbdb9470b	-0.090467535
190	0x3d3fd2be	0.04683184
191	0xbd6e4c17	-0.058178034
192	0xbb6f5872	-0.0036521223
193	0xbd85f47f	-0.065407746
194	0xbcd08b0e	-0.025456931
195	0xbd56344f	-0.05229598
196	0xbdae807f	-0.085206024
197	0xbdd7d24b	-0.10538157
198	0xbe0c7f58	-0.13720453
199	0xba98223e	-0.0011606885
200	0xbc7615f2	-0.015019881
201	0xbda8c515	-0.082407154
202	0xbdf77f4f	-0.12084829
203	0xbc278ab4	-0.0102259405
204	0x3ce0bab1	0.027432771
205	0xbe04fad4	-0.12986308
206	0xbc8e6211	-0.017380746
207	0xbd3790ec	-0.044815943
208	0xbd3afd0f	-0.04565149
209	0x3d09072c	0.033454105
210	0xbd5bc7a9	-0.053657208
211	0xbdbde0fb	-0.09271427
212	0xbd009eab	-0.031401318
213	0xbd828f3a	-0.063749745
214	0xbd720068	-0.05908242
215	0xba38d085	-0.0007050115
216	0xbdbd3e01	-0.09240342
217	0xbd6036a3	-0.054739606
218	0xbc847808	-0.016170517
219	0x3c095f06	0.008384472
220	0xbccde5b8	-0.025133952
221	0x3ccb5ef6	0.024825554
222	0x3bf557a8	0.007487256
223	0xbc289c98	-0.010291241
224	0x3b3173a7	0.002707699
225	0xbd89e011	-0.067321904
226	0xbd59bf5d	-0.053161014
227	0xbd859c20	-0.06523919
228	0xbc36a4db	-0.011147703
229	0xba2cdf18	-0.0006594523
230	0x3c5104a7	0.012757457
231	0xbd2fcd8e	-0.04292064
232	0xbd0d9300	-0.03456402
233	0xbdca7756	-0.09886043
234	0xbc7bae46	-0.015361374
235	0xbda0a8d6	-0.07844703
236	0xbde33ca1	-0.110955484
237	0xbd18e143	-0.0373242
238	0xbd8e1c0d	-0.06938944
239	0xbc8b1209	-0.016976373
240	0xbc8323fd	-0.016008371
241	0x3bf5c16a	0.0074998634
242	0xbcf50677	-0.02991031
243	0xbd491b13	-0.049098086
244	0xbd6b89e0	-0.057504535
245	0x3cefcbc5	0.02927197
246	0xbbbe1ef1	-0.0058020283
247	0xbd055967	-0.032555964
248	0xbcb1bbb8	-0.021695957
249	0x3d56cc59	0.052440975
250	0xbdb490fa	-0.088167146
251	0xbdb48147	-0.0881372
252	0xbd9cd939	-0.076586194
253	0xbcab46c0	-0.02090776
254	0xbd84ee6c	-0.06490788
255	0x3c635756	0.013875803

network_body._body_endoder.seq_layers.2.weight f4 [256, 256]
0	0x3dae3b3a	0.0850739
1	0xbd073595	-0.033010084
2	0x3d096795	0.03354605
3	0xbdbd9511	-0.09256948
4	0x3d57527c	0.052568898
5	0xbe16c8e6	-0.14725074
6	0x3e0a7270	0.13520217
7	0xbda92fa1	-0.082610376
8	0xbd3b0185	-0.045655746
9	0xbddf62bc	-0.10907504
10	0x3c4e9fc2	0.012611331
11	0x3c0208bc	0.007936653
12	0xbdfa8241	-0.12231875
13	0xbd8a07e6	-0.06739788
14	0xbc4d4232	-0.012527989
15	0x3dc4aee8	0.09603673
16	0x3d292bce	0.04130154
17	0x3db422bc	0.087956876
18	0x3da35796	0.0797569
19	0x3d6c850e	0.05774408
20	0xbd97cc04	-0.0741196
21	0xbddc6a8b	-0.10762509
22	0x3d89aeab	0.067227684
23	0x3d450956	0.048104607
24	0xbd157041	-0.036484007
25	0xbd6cfaaa	-0.05785624
26	0xbd8e4595	-0.069468655
27	0x3dbd68da	0.092485145
28	0x3d520393	0.05127294
29	0x3ded5e45	0.11590246
30	0xbdbfbb03	-0.093618415
31	0x3d0d7297	0.03453311
32	0x3d2b35f3	0.041799497
33	0x3c325b6f	0.010886057
34	0x3d4b4b68	0.04963246
35	0xbde2f5db	-0.110820495
36	0x3d2e339f	0.0425297
37	0x3c11589e	0.008871226
38	0x3cda0a43	0.026616221
39	0x3ba9cd07	0.005181912
40	0x3a587962	0.00082578335
41	0x3bc2fdc5	0.005950662
42	0x3d75963d	0.05995773
43	0x3e4b0f4a	0.19830051
44	0xbd18ad10	-0.03727442
45	0x385abe78	5.2152638e-05
46	0x3dc3a40d	0.095527746
47	0x3c673e71	0.014114008
48	0x3d3eede0	0.046613574
49	0x3a4b92dc	0.0007765719
50	0x3bab4eab	0.005227884
51	0xbdab7c27	-0.083732896
52	0x3d2b0dd2	0.041761227
53	0xbd616b1d	-0.05503379
54	0x3e13ee37	0.1444634
55	0x3d7c4fbd	0.06159948
56	0xbd95ca85	-0.07314018
57	0xbd7a29d7	-0.061075058
58	0xbc905445	-0.017618308
59	0x3dc310ae	0.09524666
60	0x3d75ba9a	0.05999241
61	0x3c8ff590	0.017573148
62	0x3ca605dd	0.020266468
63	0xbdd9743d	-0.10617874
64	0xbc90a3e8	-0.017656282
65	0xbcbd4da3	-0.02310831
66	0xbe1079c2	-0.14108947
67	0x3b8b5e74	0.004253203
68	0x3d9dd094	0.07705799
69	0xbd521828	-0.05129257
70	0xbc2c1f8e	-0.01050557
71	0x3c5f6f1b	0.013637329
72	0xbdd599ba	-0.10429712
73	0x3d64b36f	0.055835184
74	0xbd58d9aa	-0.052941956
75	0xbd0fb1f1	-0.035081808
76	0xbd383168	-0.044968992
77	0xbde4ec08	-0.11177832
78	0x3d9ff842	0.07811023
79	0xbd5413e5	-0.051776785
80	0xbd3abbb2	-0.045589156
81	0xbdd43cde	-0.10363172
82	0xbcb2dd36	-0.021833997
83	0xbc486799	-0.012231731
84	0xbbb63cdf	-0.0055614556
85	0x3cf02531	0.02931461
86	0xbb0d4286	-0.0021554544
87	0xbd5d2d12	-0.05399806
88	0x3cae1637	0.021250827
89	0x3cf8f707	0.03039123
90	0xbdfc374f	-0.12315237
91	0x3cbcbbfc	0.023038857
92	0xbb83b0a8	-0.004018862
93	0xbd2ef051	-0.042709652
94	0x3ca2aa80	0.019856691
95	0x3db3566e	0.087567195
96	0xbcc26ab6	-0.023732524
97	0x3d8668dc	0.06562969
98	0x3d2a5f0c	0.04159455
99	0x3dde8a8d	0.1086627
100	0xbd5a0c65	-0.053234477
101	0x3cf785ea	0.030215222
102	0xbc979fc9	-0.018508809
103	0xbbb052ce	-0.005380965
104	0xbd8dbbe5	-0.06920604
105	0x3db0bdf0	0.08629978
106	0xbe3a18d7	-0.18173538
107	0x3d3cdb7a	0.046107747
108	0x3dcf372d	0.10117946
109	0x3e1ce289	0.15320791
110	0x3d1691a0	0.036759973
111	0x3d0eac2e	0.034832172
112	0xbd8054f2	-0.06266202
113	0x3d06342e	0.032764606
114	0xbb020713	-0.0019840642
115	0xbda8094a	-0.08204897
116	0x3d1f0af6	0.038828813
117	0x3dcfbaeb	0.10143074
118	0x3c88ffdf	0.016723571
119	0x3d3bbee0	0.04583633
120	0x3d2d53f9	0.04231641
121	0xbdf11467	-0.117714696
122	0xbdfe6be7	-0.124229245
123	0x3c8ce2bc	0.01719796
124	0x3b360213	0.0027772232
125	0xbc853640	-0.01626122
126	0xbc34319e	-0.010998158
127	0x3e29e840	0.16592503
128	0x3e062cb9	0.13102998
129	0x3e399fbe	0.18127343
130	0x3cb7056c	0.022341453
131	0x3bc000f0	0.0058594868
132	0x3d4f6aa7	0.05063882
133	0xbc82b4c1	-0.01595533
134	0x3c8676ac	0.016414009
135	0x3d163c4e	0.036678605
136	0xbdecc470	-0.11560905
137	0x3dc26611	0.09492124
138	0x3dd32468	0.10309678
139	0xbbac17c0	-0.0052518547
140	0xbdfcdefc	-0.123472184
141	0x3c0004cc	0.007813644
142	0x3e0ecb05	0.13944633
143	0xbd84df79	-0.064879365
144	0x3da55fc7	0.08074909
145	0x3d507a10	0.050897658
146	0x3ceb1b7b	0.028699627
147	0x3d92eab5	0.07173673
148	0x3dc8b4aa	0.09800084
149	0xbd988a13	-0.074482106
150	0x3e4cd00b	0.20001237
151	0xbd015ef4	-0.031584695
152	0x3abcc985	0.0014403319
153	0x3e0e1cca	0.1387817
154	0x3d888b14	0.06667152
155	0x3dbb0a3e	0.09132813
156	0xbc1eeb83	-0.009699705
157	0xbc43c840	-0.011949599
158	0x3be0b924	0.006858008
159	0xbd0b811c	-0.034058675
160	0x3d595e01	0.053068165
161	0xbd7c5b0f	-0.061610278
162	0xbcefaa04	-0.029255874
163	0x3de9d0aa	0.11416753
164	0xbce76a0b	-0.028248807
165	0xbce4657f	-0.027880428
166	0x3c9880f4	0.018616177
167	0xbe2d4047	-0.16919051
168	0x3d893601	0.066997536
169	0xbd0b182a	-0.03395859
170	0xbe349a4e	-0.17636988
171	0xbd68640d	-0.05673604
172	0xbe8e86ef	-0.2783732
173	0xbe0c3af8	-0.1369437
174	0xbdb3d161	-0.0878017
175	0x3cd157d7	0.02555458
176	0xbd80bbbf	-0.0628581
177	0x3dc6a937	0.09700244
178	0xbd3b63e2	-0.045749553
179	0xbda8b180	-0.082369804
180	0xbd32c983	-0.043649208
181	0x3cd86fc2	0.026420478
182	0x3d1e80f8	0.038697213
183	0x3dbd0e8f	0.092312925
184	0xbe053c26	-0.13011226
185	0x3e4861a6	0.195685
186	0xbdf84fed	-0.1212462
187	0xbd203df6	-0.03912159
188	0xbd613077	-0.05497786
189	0x3d45320e	0.04814344
190	0xbcf83d1c	-0.030302577
191	0xb9d42a56	-0.00040467334
192	0x3bf6034b	0.007507717
193	0xbc145e84	-0.009055737
194	0x3d547d26	0.051877163
195	0xbdcbf444	-0.09958699
196	0x3d636489	0.0555158
197	0xbd294471	-0.041325036
198	0xbdadb01b	-0.08480855
199	0xbcc627a7	-0.02418883
200	0x3e040d36	0.12895665
201	0xbd47d7f3	-0.04878993
202	0x3e1ba320	0.15198946
203	0x3dc82744	0.09773114
204	0x3dde8dc5	0.10866884
205	0xbe60c162	-0.2194877
206	0xbb591980	-0.0033126771
207	0xbcf19e5e	-0.02949446
208	0x3cb02fa8	0.0215071
209	0x3d830c2d	0.06398807
210	0x3d861c3f	0.06548356
211	0x3d142b8b	0.03617434
212	0xbce3f22e	-0.027825441
213	0x3da664f4	0.08124724
214	0xbd82fb11	-0.06395543
215	0xbe0f0a72	-0.13968828
216	0x3d8516b3	0.0649847
217	0xbd9546f3	-0.07288923
218	0xbdaac71b	-0.083387576
219	0x3be8a1e3	0.0070993765
220	0xbc8ea1b8	-0.017411098
221	0x3e299a10	0.16562676
222	0xbe414315	-0.18873246
223	0xbd797c37	-0.060909476
224	0x3950ed80	0.00019924901
225	0xbdf3aac7	-0.118978076
226	0x3d9a441b	0.07532521
227	0x3c58e528	0.013238229
228	0x3c9ca6bc	0.019122474
229	0xbcaf1511	-0.02137235
230	0x3d59992b	0.053124588
231	0xbe197615	-0.14986451
232	0x3cdf0840	0.027225614
233	0x3d32fd15	0.04369839
234	0xbc5e8628	-0.01358179
235	0x3b85cbbf	0.0040831263
236	0x3bbad6dd	0.005701883
237	0x3d917818	0.07102984
238	0x3d42eb75	0.04758783
239	0x3c497974	0.012297023
240	0xbb764683	-0.003757865
241	0xbd8b9a84	-0.06816581
242	0xbd323262	-0.04350508
243	0x3d47a300	0.048739433
244	0xbb39cb7c	-0.0028350046
245	0x3db7536c	0.08951458
246	0x3d81017a	0.0629911
247	0x3df48abf	0.11940526
248	0xbad2800c	-0.001605989
249	0x3da07777	0.07835286
250	0xbdbbdf9f	-0.09173512
251	0xbd18bdae	-0.037290268
252	0xbdd3509b	-0.10318109
253	0xbddf3036	-0.108978674
254	0x3ba852de	0.0051368317
255	0xbb17bcc3	-0.0023153282

network_body._body_endoder.seq_layers.2.bias f4 [256]
0	0x3c12e8c1	0.008966626
1	0xbd83c87d	-0.064347245
2	0xbc970e5b	-0.018439462
3	0xbcf9dfd8	-0.030502245
4	0x3a4b4e56	0.00077555084
5	0x3d655f5b	0.05599914
6	0x3c0defff	0.008663177
7	0x3b80b68b	0.003928011
8	0x3ce462f4	0.027879216
9	0xbd4daff2	-0.050216623
10	0xbd8c1f5f	-0.06841921
11	0xbd107b88	-0.03527406
12	0xbc4d3796	-0.01252546
13	0x3b7c4407	0.0038492696
14	0xbcaa33eb	-0.02077671
15	0x3cd4fa21	0.025998177
16	0x3b1472b8	0.0022651386
17	0xbda81077	-0.082062654
18	0x3c52b7a4	0.012861166
19	0xbd1c76f1	-0.03819937
20	0x3a1545d0	0.0005694302
21	0x3a0e0999	0.00054183
22	0x3c933741	0.017970683
23	0xbcc136c9	-0.023585694
24	0x3b18863e	0.0023273374
25	0xbd8059ec	-0.06267151
26	0xbbf25395	-0.0073952177
27	0x3d3dbc84	0.04632236
28	0xbd2a5066	-0.04158058
29	0xbc222d03	-0.009898427
30	0xbd4b8695	-0.049688894
31	0x3bdaf5a5	0.006682115
32	0x3d54054f	0.051762875
33	0x3d86b213	0.06576934
34	0x3bacfc69	0.005279113
35	0xbc9a0bbb	-0.018804422
36	0xbbf1c7d1	-0.0073785563
37	0xbc8b0f2c	-0.016975008
38	0xbc0a4d73	-0.008441317
39	0xbc4a650c	-0.012353193
40	0xbd8817bf	-0.06645154
41	0xbcda4b67	-0.026647283
42	0xbd8ec097	-0.06970327
43	0x3c724832	0.0147877205
44	0xbce349b5	-0.027745107
45	0x3d249301	0.040179256
46	0xbb8668f5	-0.0041018673
47	0x3cdf54a1	0.027262034
48	0x3d5806ce	0.052740864
49	0xbc820973	-0.015873646
50	0xbcfc1def	-0.030775992
51	0xbba11b0f	-0.0049165557
52	0xbce72e76	-0.028220396
53	0x3d74294f	0.059609707
54	0xbc2fd3cf	-0.010731651
55	0x3c4aa61b	0.012368704
56	0xbcaa91de	-0.020821508
57	0x3bd205e7	0.006409395
58	0x3d1bd3e6	0.03804388
59	0xbc2691a2	-0.0101665575
60	0xbc795321	-0.015217573
61	0x3cf6367e	0.03005528
62	0xbb74aa56	-0.0037332973
63	0xbd073fe3	-0.03301991
64	0xbd0690bc	-0.032852873
65	0xbd73b670	-0.059500158
66	0x3b2480ea	0.0025101253
67	0x3d942d09	0.07235152
68	0x3ccfe1d1	0.025376232
69	0x3b86f978	0.0041190945
70	0xbd1cb367	-0.03825703
71	0xbc855210	-0.016274482
72	0x3bbcbdd2	0.005759933
73	0xbd7eef32	-0.062239833
74	0x3c85a5df	0.016314445
75	0x3c03a38d	0.008034599
76	0xbd2b2d66	-0.041791342
77	0xbc43a68b	-0.011941562
78	0xbc09562e	-0.008382363
79	0xbcdab9e9	-0.026699977
80	0xbd34ceb3	-0.044142436
81	0xbd4c2eae	-0.049849205
82	0xbc52bc63	-0.012862298
83	0xbd88bceb	-0.06676658
84	0xbdb0e713	-0.08637824
85	0xbca770cb	-0.020439526
86	0xbd74f98f	-0.05980831
87	0xbd80cd5f	-0.062891714
88	0xbcb0c604	-0.021578796
89	0x3d1616d3	0.03664286
90	0x3a52bd69	0.00080390886
91	0xbc3328ee	-0.010935051
92	0xbd6aeb74	-0.05735345
93	0x3d0ecdf9	0.0348644
94	0xbd0409da	-0.032235958
95	0x3d4c7fca	0.049926557
96	0x3c5f5c4b	0.013632844
97	0xbd053e4e	-0.03253012
98	0x3cd52564	0.026018806
99	0xbd6748eb	-0.056466024
100	0xbcd7299d	-0.02626496
101	0x3ca72947	0.020405425
102	0x3bedcf37	0.007257368
103	0xbd12dbc5	-0.03585412
104	0xbd94fd1e	-0.07274841
105	0x3d862e42	0.06551792
106	0xbdcb64f8	-0.09931368
107	0xbd1b2f10	-0.03788668
108	0xbd0eb36e	-0.034839086
109	0xbd130cd2	-0.0359009
110	0x3a9725b3	0.0011531621
111	0xbd735040	-0.059402704
112	0xbc81ff29	-0.01586874
113	0x3c482651	0.012216167
114	0x3d524c48	0.05134228
115	0x3cadd76b	0.021220883
116	0x3d061174	0.03273149
117	0xbcfc79c8	-0.030819789
118	0xba84dfe5	-0.0010137527
119	0x3a65f6df	0.00087724434
120	0xbd649c33	-0.055813026
121	0x3d8cde42	0.0687833
122	0x3d8aa355	0.06769434
123	0xbd41b622	-0.047292836
124	0xbc88b229	-0.016686516
125	0x3b5e393b	0.0033908624
126	0xbc7ab64f	-0.015302255
127	0xbd36de98	-0.044645876
128	0xbcef54be	-0.029215213
129	0xbccc4307	-0.024934305
130	0xbcda24f5	-0.02662895
131	0x3d0670e1	0.032822493
132	0xbd50b77f	-0.050956246
133	0x3c259b7e	0.010107873
134	0x3c1233d0	0.008923486
135	0xbc4c8d9c	-0.012484934
136	0xbd1fe1ad	-0.03903358
137	0x3ab7e701	0.0014030637
138	0xbd2328f2	-0.03983397
139	0x3cb5b31a	0.022180129
140	0x3d220b6f	0.039561685
141	0x3cfdc454	0.030977406
142	0x3cb7172d	0.022349918
143	0xbcbfd9a2	-0.023419205
144	0x3c042e04	0.008067612
145	0xbbb553c7	-0.0055336687
146	0xbd97a9e9	-0.07405455
147	0x3cc7d697	0.024394317
148	0x3c40f0a1	0.01177612
149	0x3cd44b3f	0.025914786
150	0x3d2f80bb	0.042847376
151	0x3d736bc1	0.059428934
152	0xbd97422e	-0.0738567
153	0x3d2a48e3	0.041573416
154	0xbcc677dc	-0.024227075
155	0xbd83546f	-0.06412589
156	0x3d73c017	0.059509363
157	0xbccacd5e	-0.02475613
158	0xbd244c0b	-0.040111583
159	0xbc91f130	-0.017815202
160	0xbcdeab84	-0.027181394
161	0x3c263124	0.010143552
162	0xbc65e954	-0.014032681
163	0xbdab6af8	-0.08370012
164	0xbd206273	-0.03915639
165	0xbc488199	-0.01223793
166	0xbcabc5d3	-0.020968353
167	0x3d547cc0	0.051876783
168	0xbd5e6997	-0.054299917
169	0xbd0dad0d	-0.034588862
170	0xbd118e25	-0.03553595
171	0x3b74b511	0.003733937
172	0x3b04324a	0.0020171576
173	0x3d4747da	0.048652507
174	0x3ca0e1ff	0.019639013
175	0x3bcc6222	0.0062372843
176	0xba730249	-0.0009270055
177	0x3d61adba	0.05509732
178	0xbc57f7d4	-0.013181645
179	0x3c510b03	0.012758973
180	0x3b0856bc	0.002080365
181	0x3c979499	0.018503474
182	0x3b8473b3	0.0040421127
183	0xbd16f004	-0.03684999
184	0xbc146e78	-0.009059541
185	0x3d3c1f24	0.045928136
186	0xbd8db177	-0.06918614
187	0x3d6a558f	0.0572105
188	0xbd9b42b1	-0.0758108
189	0xbcd053a3	-0.025430506
190	0xbd0471fa	-0.03233526
191	0xbbc87722	-0.0061177174
192	0xbc45f3ab	-0.012082021
193	0xbd0c8f88	-0.03431657
194	0xbc293949	-0.010328599
195	0xbcf49245	-0.029854903
196	0xbdb96b7d	-0.09053705
197	0x3cdcc86f	0.026951043
198	0xbd8262e0	-0.06366515
199	0xbc812e39	-0.015769111
200	0xbd41a07a	-0.047272183
201	0xbd246eb5	-0.04014464
202	0x3c1a9bfd	0.009436605
203	0xbd19a9ea	-0.03751556
204	0x3bc50776	0.0060128523
205	0xbc92baa5	-0.017911265
206	0xbd81993c	-0.06328055
207	0xbce79ed8	-0.028273985
208	0xbd227bc3	-0.03966881
209	0x3ce77ba0	0.028257191
210	0xbd08768f	-0.03331619
211	0xbc032a60	-0.008005708
212	0xbd471757	-0.048606243
213	0xbddfed32	-0.10933913
214	0xbd89be8d	-0.06725798
215	0x3cff6e51	0.031180533
216	0x3c014b15	0.007891436
217	0x3ca223d8	0.019792482
218	0xbca99781	-0.020702126
219	0xbda33c8f	-0.07970535
220	0xbd8c723b	-0.06857725
221	0x3a6d0fea	0.0009043204
222	0x3b3e8898	0.0029073115
223	0x3cb04064	0.021515079
224	0xbd568dfc	-0.0523815
225	0xbd2e8613	-0.042608332
226	0x3b821b97	0.003970574
227	0xbc6f1346	-0.0145919975
228	0x3da1c3b4	0.078986555
229	0xbc5cc552	-0.013474779
230	0xbd3294fb	-0.04359911
231	0x3d56dead	0.052458454
232	0xbd21d661	-0.03951109
233	0xbdc38bf2	-0.09548177
234	0x3d107a55	0.035272915
235	0xbd1f3680	-0.038870335
236	0x3d07b05e	0.03312718
237	0x3d009ccd	0.031399537
238	0x3cead445	0.028665671
239	0x3c834d03	0.016027933
240	0xbdbfd594	-0.09366909
241	0xbc870c04	-0.016485222
242	0xbcf82ba1	-0.030294241
243	0xbc9d1028	-0.019172743
244	0xbcd0144d	-0.025400305
245	0xbd33d623	-0.04390539
246	0xbc5e5410	-0.013569847
247	0xbd2be87b	-0.041969758
248	0x3c3bc706	0.011461025
249	0xbd51d6cc	-0.051230237
250	0xbd11f0ac	-0.035629913
251	0x3d98b381	0.07456113
252	0x3d944d5e	0.07241319
253	0xbd8fa175	-0.07013217
254	0xbdc53462	-0.09629132
255	0x3bd999a0	0.006640628

network_body._body_endoder.seq_layers.4.weight f4 [256, 256]
0	0xbdd11ad3	-0.102101944
1	0x3dc724e0	0.0972383
2	0xbe1a8d33	-0.15092926
3	0x3d2e39f1	0.042535726
4	0x3d51fbbb	0.05126546
5	0xbe382bf4	-0.17985517
6	0xbd825be5	-0.06365184
7	0xbc27dc51	-0.010245399
8	0xbde1a1c3	-0.11017182
9	0xbcc79909	-0.024364965
10	0xbdf2bf33	-0.118528746
11	0xbd3edb87	-0.046596076
12	0x3d7296db	0.0592259
13	0xbe2c411a	-0.1682171
14	0xbcbb71ee	-0.022881474
15	0x3c574d40	0.013140976
16	0xbd6cbe09	-0.05779842
17	0xbdb0d5f2	-0.08634557
18	0x3d44d406	0.048053764
19	0xbd901d9b	-0.07036897
20	0xbd3e29b4	-0.04642649
21	0x3deb772e	0.11497341
22	0x3e210ee9	0.15728344
23	0xbd980e1f	-0.074245684
24	0x3ce62251	0.028092535
25	0x3c656a31	0.014002369
26	0x3e1643b8	0.1467427
27	0xbdec6f0d	-0.11544619
28	0xbd99022f	-0.074711196
29	0x3c1ef0a2	0.009700926
30	0x3d9c7f98	0.07641524
31	0x3a1ad99d	0.00059070607
32	0xbddeeb1c	-0.10884687
33	0xbdb03440	-0.08603716
34	0xbd824d8e	-0.06362449
35	0x3d43fe6f	0.04785007
36	0xbda2edf2	-0.07955541
37	0xbdcc6421	-0.099800356
38	0xbdac07f6	-0.08399956
39	0x3c012e37	0.007884554
40	0xbcb2b098	-0.021812722
41	0x3c2c08f2	0.01050018
42	0x3aec0235	0.0018006029
43	0xbb8cef84	-0.0043010134
44	0xbcd0f4a1	-0.025507273
45	0xbcc440c6	-0.023956668
46	0xbe65a516	-0.22426257
47	0x3d94ba58	0.07262105
48	0xbdb1d587	-0.08683305
49	0x3c4f4975	0.012651791
50	0x3d0741a0	0.03302157
51	0xbdd2d40f	-0.10294353
52	0xbdd08547	-0.10181671
53	0xbd0fafef	-0.035079893
54	0x3e14cac8	0.1453048
55	0xbd2ff3d0	-0.042957127
56	0x3d3ef437	0.04661962
57	0x3d046f1b	0.03233252
58	0xbdb92b10	-0.09041417
59	0xbd8b8789	-0.06812961
60	0xbd185fa8	-0.0372006
61	0x3a8337d4	0.0010011145
62	0xbd6ac58d	-0.057317305
63	0xbbce8f03	-0.0063036694
64	0xbb996a19	-0.0046818373
65	0x3d1e5402	0.038654335
66	0xbd83b2f6	-0.064306185
67	0x3e62e6a3	0.22158293
68	0xbd6bcf08	-0.057570487
69	0x3d96f584	0.07371047
70	0xbc302456	-0.010750851
71	0xbdd4be9a	-0.10387917
72	0x3b996cc1	0.004682154
73	0x3ca6a758	0.020343468
74	0x3cdd5cd1	0.027021797
75	0x3d8f4b32	0.06996764
76	0x3d6d3486	0.05791142
77	0x3e1f9e8d	0.15587826
78	0x3d15ebb3	0.036601733
79	0xbe5474e7	-0.2074772
80	0xbdf21813	-0.11820998
81	0x3d744f90	0.05964619
82	0x3c382785	0.011239891
83	0xbda4fb82	-0.08055784
84	0x3d391ff5	0.045196492
85	0xbdc723d5	-0.09723631
86	0x3dde7f8b	0.10864171
87	0x3e62239f	0.22083901
88	0x3aeb512a	0.0017953266
89	0x3c23ffd6	0.0100097265
90	0xbe61d72f	-0.22054742
91	0xbd0f64d8	-0.03500828
92	0xbd787cab	-0.060665768
93	0xbe23a1bd	-0.15979667
94	0x3ddc826b	0.10767063
95	0xbd21edf4	-0.03953357
96	0x3c933125	0.01796777
97	0x3d10d413	0.0353585
98	0x3d8ff30e	0.07028781
99	0x3caa7d5e	0.020811733
100	0x3da4daa7	0.08049517
101	0x3b863aff	0.0040963884
102	0x3c937b43	0.018003112
103	0x3d827c94	0.06371418
104	0xbc923c89	-0.017851131
105	0xbcabd748	-0.020976678
106	0x3d9efe58	0.07763356
107	0xbd1f1944	-0.038842455
108	0x3d96c0b5	0.07360975
109	0x3df52e3b	0.119717084
110	0x3ceebfb7	0.029144151
111	0x3d8a28bb	0.0674605
112	0xbdbe2452	-0.09284271
113	0x3da0fd4e	0.07860814
114	0x3e085153	0.13312273
115	0xbd77245a	-0.060337402
116	0xbccf08fb	-0.025272837
117	0xbcf62b87	-0.030050052
118	0xbe18b81f	-0.14913987
119	0x3e359e48	0.17736161
120	0xbd81fd49	-0.063471384
121	0xbd8674bb	-0.06565233
122	0xbe1de5d8	-0.1541971
123	0x3beaab48	0.0071615316
124	0x3e14066c	0.14455575
125	0x3d2a579e	0.041587465
126	0x3a2ea0ff	0.00066615635
127	0x3daf5a16	0.085621044
128	0xbcab6686	-0.02092291
129	0x3debf1df	0.115207426
130	0x3cc9c15f	0.02462834
131	0xbcb4fd0e	-0.022093322
132	0x3b92ead3	0.0044835596
133	0xbddd3437	-0.10800975
134	0x3de5389f	0.1119244
135	0xbd2dc3a4	-0.042422906
136	0x3d4aef13	0.049544405
137	0xbd06dc26	-0.032924794
138	0x3d95f81b	0.07322713
139	0xbe097ca0	-0.13426447
140	0xbd1f0fe5	-0.038833518
141	0xbd2f0c6d	-0.04273646
142	0xbe4cb240	-0.19989872
143	0x3caa232b	0.020768723
144	0x3d148275	0.036257226
145	0xbd1121af	-0.035432514
146	0x3dab848a	0.08374889
147	0xbd4f2c81	-0.05057955
148	0xbddb7576	-0.10715763
149	0xbd9d5a43	-0.07683232
150	0xbd5ac7dd	-0.05341326
151	0x3bae644f	0.0053220163
152	0xbdfba34d	-0.122870065
153	0x3e3b6101	0.18298723
154	0xbd9e0b68	-0.07717019
155	0x3d9c792d	0.076403
156	0xbe00f676	-0.12594017
157	0xbe442765	-0.19155653
158	0x3d4a84ce	0.04944306
159	0x3cd9005e	0.026489433
160	0x3e5a17fc	0.21298212
161	0xbda090e2	-0.07840134
162	0x3d0c0c73	0.03419156
163	0xbb9f3e20	-0.004859701
164	0xbd8cb944	-0.06871274
165	0x3e152d51	0.14568068
166	0xbdd655df	-0.10465597
167	0x3dfd141d	0.12357352
168	0x3d718afb	0.058970433
169	0xbc400c5d	-0.011721698
170	0xbbed081f	-0.007233634
171	0xbdbb2fd6	-0.09139983
172	0xbd8be472	-0.06830682
173	0xbd2caa77	-0.042154755
174	0xbd01390c	-0.031548545
175	0xbde07e0c	-0.109615415
176	0x3d865cd1	0.06560672
177	0x3d028e1e	0.031873815
178	0x3c895675	0.016764859
179	0xbc6a88cd	-0.014314842
180	0x3decf717	0.11570566
181	0xbe26bb9a	-0.16282502
182	0x3d067101	0.032822613
183	0xbe314ea3	-0.17315154
184	0x3d526877	0.051369157
185	0x3d46e65b	0.048559528
186	0x3d24f8f3	0.04027648
187	0x3cf5615e	0.029953655
188	0x3e4aa3f1	0.19789101
189	0xbca2175d	-0.019786531
190	0xbd3dad7e	-0.046308033
191	0x3c6aede4	0.014338944
192	0xbccc6f7e	-0.024955507
193	0x3c80692e	0.015675154
194	0xbbf26cf8	-0.007398244
195	0xbdccc6df	-0.09998869
196	0x3bde5484	0.0067849774
197	0xbda06d95	-0.07833401
198	0xbdd316e6	-0.10307102
199	0x3c9f7992	0.019467149
200	0xbd8cdff6	-0.06878655
201	0x3db565d5	0.088573135
202	0x3d9a504f	0.07534849
203	0x3db1000f	0.08642589
204	0xbddb81a2	-0.10718085
205	0xbe32503f	-0.17413424
206	0xbdcffb8f	-0.10155403
207	0xbdae1526	-0.085001275
208	0xbd252730	-0.040320575
209	0xbd97aa0d	-0.074054815
210	0x3bba4d25	0.005685466
211	0xbc086f1c	-0.008327272
212	0xbc315567	-0.010823584
213	0xbd737398	-0.05943641
214	0x3d9041bc	0.07043788
215	0xbd28337a	-0.041064717
216	0xbce468fd	-0.027882094
217	0x3d16c197	0.036805715
218	0x3cfd919a	0.030953217
219	0x3d49919a	0.049211122
220	0xbdc41629	-0.09574539
221	0xbc85b530	-0.016321748
222	0xbd786ba4	-0.06064953
223	0xbe07baae	-0.13254806
224	0xbe273ae0	-0.16331053
225	0x3cc5072a	0.024051268
226	0x3e203806	0.15646371
227	0xbe57ee5a	-0.21087018
228	0xbe2a1015	-0.16607697
229	0xbd6526c7	-0.055945184
230	0xbd2eb3c1	-0.042651895
231	0xbcb64c2a	-0.022253115
232	0x3cdc3040	0.026878476
233	0x3c8e2728	0.017352656
234	0x3e525a3b	0.20542233
235	0x3d02bc67	0.031917956
236	0xbdd79874	-0.10527125
237	0x3df0d957	0.11760204
238	0x3d91c535	0.071176924
239	0xbd08d44c	-0.033405587
240	0xbe3407fe	-0.17581174
241	0x3d67f3f0	0.05662912
242	0xbd963e6b	-0.07336124
243	0x3d080cbd	0.033215273
244	0xbdfb6377	-0.12274831
245	0x3d27b2f3	0.040942144
246	0x3df5f8ab	0.1201032
247	0xbd877191	-0.06613458
248	0xbe2a5ed5	-0.16637738
249	0x3d3d3d00	0.046200752
250	0x3b9b1cac	0.0047336426
251	0xbc250a6e	-0.010073287
252	0xbdf82fc0	-0.121184826
253	0x3d4ade33	0.049528312
254	0xbd7498f7	-0.05971619
255	0xbde059e5	-0.10954646

network_body._body_endoder.seq_layers.4.bias f4 [256]
0	0xbd552cd2	-0.052044697
1	0x3d3b7147	0.045762327
2	0x3d1ba08a	0.0379949
3	0x3d1ac026	0.037780903
4	0xbe34abcc	-0.1764366
5	0x3d95b6fc	0.07310292
6	0x3c221e4f	0.009894921
7	0xbd423318	-0.047412008
8	0xbc458c98	-0.012057446
9	0x3d8d987e	0.06913851
10	0xbd902e3f	-0.07040071
11	0x3cf0487d	0.02933144
12	0xbba0f7fd	-0.004912375
13	0xbdc28d8c	-0.09499654
14	0x3d913abc	0.07091281
15	0xbd6e8a37	-0.05823728
16	0x3d318640	0.04334092
17	0x3cb5dda3	0.022200411
18	0xbc3bd7e1	-0.011465044
19	0xbd800d3f	-0.062525265
20	0xbd96171a	-0.07328625
21	0x3d1cf90b	0.038323443
22	0xbd0a9ef7	-0.033843007
23	0xbdaf14d3	-0.08548894
24	0x3b5b48cc	0.0033460138
25	0xbd41e699	-0.047339056
26	0x3ca3fbe3	0.02001757
27	0x3da8db0e	0.08244906
28	0x3bc9c763	0.006157802
29	0xbce51aff	-0.027966974
30	0xbd43900d	-0.0477448
31	0xbaca184e	-0.001541862
32	0xbd291973	-0.041284036
33	0xbb415800	-0.0029501915
34	0xbe00e64a	-0.12587848
35	0xbd5b5d65	-0.053555865
36	0x3db39b37	0.08769839
37	0xbb7109a7	-0.0036779435
38	0x3d2c615d	0.04208504
39	0x3d8bc579	0.06824774
40	0xbdbc2c69	-0.09188158
41	0xbd92f04c	-0.07174739
42	0xbe2fc6ad	-0.17165633
43	0x3dabe66e	0.0839356
44	0x3d81e7e1	0.063430555
45	0xbceb8057	-0.02874772
46	0xbc70242c	-0.014657062
47	0xbca1c185	-0.019745598
48	0xbdb5f260	-0.0888412
49	0xbd2c0459	-0.041996334
50	0xbcc8f961	-0.024532976
51	0x3dc839a3	0.09776618
52	0x3d6af00f	0.057357844
53	0x3d7123b2	0.058871932
54	0xbd02070d	-0.031745005
55	0x3c148904	0.00906587
56	0xbd95b59e	-0.07310031
57	0x3d554a51	0.052072827
58	0x3d227eab	0.03967158
59	0xbca180e8	-0.019714788
60	0x3b0d02f6	0.0021516657
61	0xbd938f42	-0.07205059
62	0xbc070f34	-0.008243371
63	0x3ceb49b2	0.028721664
64	0x3d3bd960	0.0458616
65	0xbc33c5c2	-0.010972442
66	0xbdc032a3	-0.09384658
67	0xbd538c8f	-0.05164772
68	0xbd72bc2e	-0.059261493
69	0x3d666c97	0.056255903
70	0x3d03ee04	0.03220941
71	0xbccdfcf4	-0.025145032
72	0x3ca4f0c4	0.020134337
73	0x3ced559a	0.028971482
74	0x3b86a269	0.0041087163
75	0xbe5df615	-0.21675904
76	0xbcfa55a6	-0.030558418
77	0x3cfc6514	0.030809917
78	0x3d379e24	0.04482855
79	0xbdfe12ab	-0.124059044
80	0xbdaa1872	-0.08305444
81	0x3d448eb4	0.047987655
82	0xbd4b0b3a	-0.049571253
83	0x3caface0	0.021444738
84	0xbcc7a533	-0.024370765
85	0xbd0892b9	-0.03334305
86	0xbd4cc409	-0.04999164
87	0x3c04a42d	0.008095783
88	0x3c32c5b5	0.010911395
89	0xbd931835	-0.071823515
90	0xbd8ddd99	-0.06927032
91	0xbbc92d79	-0.006139454
92	0xbc3a798a	-0.011381516
93	0x3deb66df	0.114942305
94	0x3cea9540	0.028635621
95	0xbb55f4c9	-0.0032647124
96	0xbbe2408e	-0.006904668
97	0x3c651b70	0.013983592
98	0x3c10edaf	0.008845731
99	0xbda400dc	-0.080079764
100	0xbe2b83a5	-0.16749437
101	0xbd14ad92	-0.036298342
102	0x3c24c976	0.010057798
103	0x3d3d7fad	0.04626434
104	0xbaa8fab3	-0.0012892097
105	0x3c526478	0.012841336
106	0xbda62ba2	-0.08113791
107	0xb9f50dd4	-0.00046740344
108	0x3d66a5af	0.056310352
109	0x3bfd1b14	0.007724175
110	0xbd77082c	-0.060310528
111	0x3dc011dc	0.093784064
112	0x3d0e59fd	0.03475379
113	0x3bb0acb7	0.005391683
114	0xbdded266	-0.10879974
115	0xbdbb232c	-0.09137568
116	0xbdaa96e9	-0.08329565
117	0xbbe85aae	-0.007090888
118	0x3afbced6	0.0019211422
119	0x3d43ee83	0.047834884
120	0xbd99b8ee	-0.07505976
121	0x3ca247ab	0.019809565
122	0x3c850b5d	0.01624077
123	0xbc6394bf	-0.013890444
124	0xbe06c33d	-0.13160415
125	0xbbff4d0d	-0.0077911676
126	0x3d450e94	0.048109606
127	0xba5f32da	-0.00085143524
128	0x3d44edf3	0.04807849
129	0x3c5ce098	0.013481282
130	0x3d39b0f9	0.04533479
131	0x3c566994	0.013086695
132	0xbd67bbfc	-0.05657576
133	0xbbeec8be	-0.007287114
134	0x382923e2	4.032616e-05
135	0xbd44dae7	-0.048060324
136	0xbcece11e	-0.028915938
137	0x3c4a275d	0.0123384865
138	0xbe16b16a	-0.14716116
139	0xbd223e3d	-0.039610136
140	0xbccde4db	-0.02513354
141	0x3dd8c999	0.10585327
142	0x3c791985	0.015203838
143	0xbcd08282	-0.025452856
144	0xbd43bb58	-0.047786087
145	0xbd36df43	-0.044646513
146	0xbd82fa35	-0.063953795
147	0x3ce44d43	0.027868873
148	0x3cc176ee	0.02361628
149	0xbabb77a8	-0.0014302628
150	0x3dbf424a	0.093388155
151	0xbb9b2c40	-0.0047354996
152	0xbd1aec82	-0.037823208
153	0xba285a1f	-0.00064221205
154	0xbe436792	-0.19082478
155	0x3d9817cd	0.07426415
156	0xbce06916	-0.027393859
157	0x3c2e2940	0.010629952
158	0x3c97861d	0.018496567
159	0xbd06c592	-0.03290326
160	0x3ca1d2dc	0.019753866
161	0x3da04dc6	0.07827334
162	0x3d1f4514	0.038884237
163	0xbc5d9288	-0.013523705
164	0xbd5cbda9	-0.05389181
165	0x3d7f44ce	0.062321477
166	0xbd2a3506	-0.041554473
167	0x3d25643d	0.040378798
168	0x3d4aed56	0.049542747
169	0x3cc8507d	0.024452442
170	0x3ceeee2c	0.029166304
171	0x3ceb47c0	0.028720737
172	0xbd8437f3	-0.06455984
173	0x3cd89430	0.026437849
174	0xbe067597	-0.13130794
175	0x3ab85272	0.0014062657
176	0x3d7691dc	0.060197696
177	0xbc9e8fa7	-0.019355608
178	0xbd99dbe3	-0.07512643
179	0x3d9806e8	0.07423192
180	0x3d02f4bc	0.03197168
181	0xbce32f66	-0.027732562
182	0xbdaab1e6	-0.08334713
183	0x3bef1e21	0.007297293
184	0xbde96e1f	-0.11397957
185	0xbccb4732	-0.024814222
186	0xbd05015b	-0.032471996
187	0xbd164edd	-0.036696304
188	0xbdd19368	-0.10233194
189	0xbd4e02c5	-0.05029561
190	0xbdc09134	-0.09402695
191	0xbd80e8f5	-0.06294433
192	0x3cdd36e8	0.02700372
193	0xbc169b66	-0.009192323
194	0xbdb78104	-0.08960155
195	0xbdb27458	-0.08713597
196	0x3d12a88f	0.03580528
197	0x3cc57d3d	0.02410757
198	0xbc7d4313	-0.015457886
199	0xbdd04bf7	-0.10170739
200	0xbda9a338	-0.08283085
201	0xbc1f0547	-0.009705848
202	0x3cf67ddf	0.030089317
203	0x3ca03e84	0.01956106
204	0xbceaf961	-0.028683366
205	0x3d9dd8df	0.077073805
206	0xbda63270	-0.08115089
207	0xbdc5ad2b	-0.0965217
208	0x3d665253	0.056230854
209	0x3bf1a82e	0.007374785
210	0xbdc8bfa5	-0.09802178
211	0x3d45ed43	0.048321974
212	0xbcc70002	-0.024291996
213	0x3d332eef	0.04374593
214	0x3d85eb87	0.06539064
215	0xbd8efbaf	-0.069815986
216	0xbd7e043f	-0.06201577
217	0xbc165dd8	-0.0091776475
218	0xbd240b1b	-0.040049654
219	0xbe156be0	-0.14591932
220	0xbdf30ce1	-0.11867691
221	0xbd621f4f	-0.05520564
222	0x3d9260f6	0.071474
223	0xbba7affc	-0.0051174145
224	0x3d1400aa	0.036133446
225	0x3d642feb	0.05570976
226	0x3d23898e	0.039926104
227	0x3b7733f4	0.0037720175
228	0x3d4abe76	0.049498044
229	0x3cb69d2d	0.022291744
230	0xba8cc9c7	-0.0010741287
231	0xbd5efdae	-0.054441147
232	0x3d788db3	0.06068201
233	0x3b0c23a0	0.002138354
234	0xbdd63701	-0.1045971
235	0xbe261d92	-0.16222218
236	0xbd177361	-0.03697527
237	0xbd41e75a	-0.047339775
238	0x3cbbf6b7	0.022944791
239	0xbd18943a	-0.037250735
240	0x3c95a09a	0.018265057
241	0xbbda37d2	-0.0066594863
242	0xbd44f855	-0.04808839
243	0xbe5fcded	-0.21855898
244	0xbccdb61d	-0.025111252
245	0x3da4ef94	0.080535084
246	0xbd64666f	-0.05576175
247	0xbcfe7728	-0.031062678
248	0x3d10b56f	0.03532928
249	0x3d03b115	0.0321513
250	0x3d76c274	0.06024404
251	0xbd930ad3	-0.07179799
252	0xbe1afcdf	-0.15135525
253	0x3c99a8a8	0.01875718
254	0xbd95b045	-0.07309011
255	0xbdae38ea	-0.08506949
