results/sacnight/Shooter/Shooter-499000.onnx (onnx, 666224 bytes, 14 tensors)

network_body.observation_encoder.processors.0.normalizer.running_mean f4 [68]
000000 b6 b9 5d 3c f8 88 7c 3f 00 00 00 00 80 3e 44 3e
       0.0135330465 0.986465 0.0 0.19164467
000010 14 e6 58 3c 44 9c 7c 3f 00 00 00 00 80 6c 44 3e
       0.013238449 0.9867594 0.0 0.19182014
000020 d1 7e 5d 3c e4 89 7c 3f 00 00 00 00 0e 83 44 3e
       0.013519005 0.98647904 0.0 0.19190618
000030 3a d1 64 3c 9c 6c 7c 3f 00 00 00 00 db 02 45 3e
       0.013965899 0.98603225 0.0 0.1923937
000040 c5 85 59 3c c4 99 7c 3f 00 00 00 00 1b 75 45 3e
       0.013276522 0.9867213 0.0 0.19282953
000050 84 93 5c 3c 91 8d 7c 3f 00 00 00 00 5d 27 46 3e
       0.013462905 0.98653513 0.0 0.19350953
000060 46 8d 62 3c a9 75 7c 3f 00 00 00 00 7f f9 46 3e
       0.0138276275 0.98617035 0.0 0.19431113
000070 4f 18 64 3c 7b 6f 7c 3f 00 00 00 00 d0 e2 47 3e
       0.013921811 0.98607606 0.0 0.19520116
000080 0a 81 63 3c d8 71 7c 3f 00 00 00 00 48 f3 48 3e
       0.013885746 0.9861121 0.0 0.19624054
000090 e2 1c 65 3c 6d 6b 7c 3f 00 00 00 00 48 5a 4a 3e
       0.013983937 0.9860142 0.0 0.19761002
0000a0 4e f4 68 3c 0d 5c 7c 3f 00 00 00 00 02 94 4b 3e
       0.014218403 0.9857796 0.0 0.19880679
0000b0 72 c6 69 3c c9 58 7c 3f 00 00 00 00 62 81 4d 3e
       0.014268504 0.98572975 0.0 0.20068887
0000c0 17 fb 6f 3c f3 3f 7c 3f 00 00 00 00 32 e3 4e 3e
       0.014647267 0.9853508 0.0 0.20203856
0000d0 c6 be 6b 3c e6 50 7c 3f 00 00 00 00 b1 4d 51 3e
       0.014388746 0.9856094 0.0 0.20439793
0000e0 ff 21 73 3c 59 33 7c 3f 00 00 00 00 0a e9 52 3e
       0.014839648 0.9851585 0.0 0.2059671
0000f0 85 40 76 3c d9 26 7c 3f 00 00 00 00 3e a5 55 3e
       0.015030031 0.98496777 0.0 0.20863816
000100 35 e0 76 3c 5a 24 7c 3f 00 00 00 00 30 70 57 3e
       0.015068104 0.9849297 0.0 0.2103889

network_body.observation_encoder.processors.1.normalizer.running_mean f4 [52]
000000 b6 b9 5d 3c f8 88 7c 3f 00 00 00 00 80 3e 44 3e
       0.0135330465 0.986465 0.0 0.19164467
000010 8b 68 65 3c 39 6a 7c 3f 00 00 00 00 1a 5f 4a 3e
       0.014001976 0.9859958 0.0 0.19762841
000020 2a 2f 69 3c 24 5b 7c 3f 00 00 00 00 c8 99 4b 3e
       0.014232436 0.9857657 0.0 0.19882882
000030 44 1e 81 3c ec f6 7b 3f 00 00 00 00 8d c2 5f 3e
       0.015761502 0.9842365 0.0 0.21851559
000040 48 94 82 3c 32 eb 7b 3f 00 00 00 00 44 ee 61 3e
       0.015939847 0.98405755 0.0 0.22063547
000050 9c 35 93 3c 33 66 7b 3f 00 00 00 00 2a 7f 81 3e
       0.017969899 0.9820282 0.0 0.2529233
000060 c2 88 9c 3c 9e 1b 7b 3f 00 00 00 00 58 dd 82 3e
       0.01910818 0.98089015 0.0 0.25559497
000070 10 37 ae 3c 2b 8e 7a 3f 00 00 00 00 31 6c 98 3e
       0.02126649 0.9787318 0.0 0.29770043
000080 35 9f b7 3c e6 42 7a 3f 00 00 00 00 b2 26 9a 3e
       0.022414783 0.9775833 0.0 0.30107647
000090 30 31 cc 3c 57 9e 79 3f 00 00 00 00 f9 be b0 3e
       0.024925798 0.9750723 0.0 0.345207
0000a0 c3 59 c8 3c 11 bd 79 3f 00 00 00 00 14 2b b2 3e
       0.024456864 0.9755412 0.0 0.3479849
0000b0 27 e3 d0 3c c0 78 79 3f 00 00 00 00 a9 ed be 3e
       0.02549894 0.97449875 0.0 0.37290695
0000c0 7f 05 d3 3c b2 67 79 3f 00 00 00 00 ef 46 bf 3e
       0.025759457 0.9742385 0.0 0.37358806

network_body._body_endoder.seq_layers.0.weight f4 [256, 120]
000000 a9 98 13 bd ce ad de bd 0c a7 79 bc 64 96 4f 3d
       -0.03603426 -0.10872994 -0.015237581 0.050680533
000010 a5 df 23 3d 66 b3 a0 3b 55 2d 8f 3d 96 c5 af 3d
       0.040008206 0.0049041985 0.06991068 0.085826084
000020 8e ad 97 ba 2e 9d 7b bd 0f ea ba 3d 98 70 6c 3d
       -0.0011572109 -0.061429195 0.091266744 0.057724565
000030 87 36 b1 bd d9 97 8a 3b 8e 30 35 3d df b1 16 3d
       -0.086529784 0.0042295274 0.04423576 0.036790725
000040 f0 18 b0 bd 93 78 a9 bd 9b bf 84 3d 72 c3 05 3e
       -0.085985065 -0.08274951 0.06481858 0.13062838
000050 92 46 d8 3d cd f3 42 be 53 8e 80 3d 4d 89 96 bd
       0.10560335 -0.19038315 0.06277146 -0.07350407
000060 6c 2f 00 3d 7b b5 80 3d 87 99 ef 3d 8f 02 1f bd
       0.031295225 0.06284615 0.11699205 -0.0388208
000070 02 78 03 be 9a 21 0c 3d 25 f7 2b 3d ae 27 0e 3e
       -0.12838748 0.034211732 0.041983742 0.13882324
000080 cf 59 8f bc 83 59 b0 3d 02 5d 08 3e dd 83 f6 bd
       -0.017498879 0.08610823 0.1331673 -0.1203687
000090 2d 4d a1 3d aa 5e 63 bd 8d f0 58 3d 7b 66 40 bd
       0.07876048 -0.0555102 0.052963782 -0.046972733
0000a0 38 4f 13 3e a8 96 28 bd bf b0 11 bd 6a e9 b3 bd
       0.14385688 -0.041159302 -0.03556895 -0.087847546
0000b0 31 11 ce bd b8 fc 3a 3d 3c 85 ce 3a 1a 2b 81 3d
       -0.10061873 0.045651168 0.001575626 0.06307049
0000c0 0a 59 21 bd 6f 49 24 3d 0a 71 f1 3c 5c cd 5a be
       -0.039391555 0.040109094 0.029472847 -0.21367401
0000d0 57 bf fe 3c 2c f3 b0 bd d5 d6 6f bd fc 28 09 3e
       0.031097097 -0.08640131 -0.05855449 0.1339454
0000e0 37 76 0f 3d ec 82 8c bd 2d bd 62 3d 0b de 1f 3e
       0.035024848 -0.06860909 0.055356193 0.15612046
0000f0 40 a9 37 bd de 46 06 bb a3 75 7b 3c 35 64 1d be
       -0.044839144 -0.0020489017 0.015347871 -0.15370257
000100 d7 ec b8 3b 82 48 de 3d b8 0c d0 3d 39 94 1d 3d
       0.005643468 0.108536735 0.10158676 0.038471434
000110 8c c0 1d bc d4 35 0f 3d 99 b8 73 3b d0 47 6c bb
       -0.009628426 0.034963444 0.0037188886 -0.0036053546
000120 60 f6 10 3e d2 a7 e7 3c 79 22 bb bd 4a 84 0a 3e
       0.14156485 0.028278265 -0.091374345 0.13527027
000130 16 a4 d4 bc 7a 10 07 be d5 d0 09 be b7 e6 97 3d
       -0.025957149 -0.13189879 -0.1345857 0.07417052
000140 f8 1f 79 3c 01 18 f2 3d ee aa 8e bd 7a 2b ad bd
       0.015205376 0.11820985 -0.06966196 -0.08455558
000150 6a 45 58 bd 95 64 7f bc f2 32 eb bd d0 a7 84 3d
       -0.052800573 -0.0155879455 -0.114843264 0.0647732
000160 60 29 a6 3d 7e 3a 85 bd 7a 60 13 3e 1a a0 e8 bd
       0.081133604 -0.06505297 0.14392272 -0.11358662
000170 6d 5a 3a bb 47 dd 83 3d 8d c8 25 3d 9f 69 1d bd
       -0.0028435246 0.0643869 0.040474463 -0.038430806
000180 38 42 2b 3e 38 2b 0d be b2 db eb bd f9 df 1b be
       0.16724479 -0.13786018 -0.11516513 -0.15222158
000190 81 23 73 3d 72 f3 1b bd d0 fb bc bd 4e bb dd 3c
       0.05936003 -0.038073964 -0.09227717 0.027066853
0001a0 0e 66 25 3d c8 17 8c 3d 7f 0d 33 be 74 71 14 3e
       0.04038053 0.068404734 -0.17485617 0.14496404
0001b0 db 5c fa 3d 09 43 e2 3c 63 d9 ad bd f2 05 be 3d
       0.12224742 0.027619855 -0.08488729 0.09278478
0001c0 cc 86 2e be 9e de 6c bd 47 a1 36 bc 76 8f 9a bc
       -0.17043608 -0.05782949 -0.01114685 -0.018867236
0001d0 3d 04 ec 3a ec 74 e7 bc 17 c2 d1 bd 76 cc a2 bd
       0.0018006634 -0.028253995 -0.10242098 -0.07949154
0001e0 cf 56 90 3d 68 f1 07 3d e8 7f 07 bb 26 cb ce bc
       0.070478074 0.033189207 -0.0020675603 -0.025243353
0001f0 dc c7 eb bb af e4 0e bd 8a 83 46 bd 3c 89 30 bd
       -0.007195456 -0.03488606 -0.04846529 -0.043099627
000200 25 90 a6 bd 6e b3 c5 3d 87 fa 0d 3e 4f 07 95 3c
       -0.08132962 0.09653364 0.138651 0.018191962
000210 68 43 23 3c 17 ac e1 3c d4 cc 28 3d 57 c6 af 3d
       0.009964801 0.02754788 0.041210964 0.08582752
000220 9c 87 23 be 01 f0 16 3d 94 56 df bd 9f 80 57 bd
       -0.159697 0.03684998 -0.10905185 -0.052612897
000230 de 00 a1 bd 6f 19 a7 3c 2c 5a fd 3d a0 44 4c 3e
       -0.078614935 0.02039787 0.123707145 0.19948053
000240 23 ce 16 bd 08 b1 94 3d 1d ac e3 3b fa 1a de bd
       -0.03681768 0.072603285 0.0069480077 -0.10844989
000250 80 e9 23 be 43 4e 13 bd 5c 64 12 3d 97 f9 c8 bb
       -0.16007042 -0.035963308 0.03574024 -0.006133269
000260 3c e7 69 3d e5 e9 de 3d 31 d6 4c bd 49 ac 5c 3d
       0.057105288 0.108844556 -0.050008956 0.05387524
000270 ae a8 4c be b3 e9 84 3d 7f 90 44 bd 53 ec 3f be
       -0.19986221 0.06489887 -0.047989365 -0.18742494
000280 6d 52 a5 bd 7f eb 6c bd ba 1a 4d 3d 25 64 55 3c
       -0.08072362 -0.057841774 0.050074317 0.013024365
000290 3e f0 05 3c 03 e3 c5 bc 04 84 b3 3d fd 26 dc bc
       0.008174954 -0.0241561 0.08765414 -0.02687406
0002a0 e8 cb 22 3d 4b 63 8b bd 73 20 c6 bd be 82 84 bd
       0.03974524 -0.06806048 -0.09674158 -0.064702496
0002b0 89 d3 23 bd 39 53 98 3d bf 83 1f b9 66 b6 5a 3d
       -0.039996658 0.074377485 -0.00015212501 0.053396605
0002c0 0c 1b d6 3d a2 48 4d bc 83 d4 e6 bd 84 56 67 3c
       0.104543775 -0.012529524 -0.11271002 0.014119748
0002d0 af 7a 91 3c f6 05 0f be 91 7e 36 3c 18 f1 84 bc
       0.017758695 -0.13967118 0.011138574 -0.016228244
0002e0 35 7b 4d 3d b7 9b 67 3d 18 6e 9b 3d 89 88 0f 3a
       0.050166328 0.056544986 0.07589358 0.00054753624
0002f0 79 09 cb bd 68 63 45 3d 66 18 d8 bc bc 09 94 bd
       -0.09913916 0.048190504 -0.026378822 -0.07228419
000300 1e e4 03 3e 0d ee 1e 3e 52 0f d6 bd 36 e6 e3 3d
       0.12879989 0.15520497 -0.10452141 0.111278936
000310 6e d3 55 bd 66 51 8d bd 7b ec 91 bd dc 89 c5 3d
       -0.05220359 -0.06900291 -0.07125183 0.09645435
000320 6e a3 a0 3c dc fa 65 3c 0b 2a 0f be 88 60 0b be
       0.01960918 0.01403686 -0.13980882 -0.13611042
000330 3c ef dc ba b4 48 67 bd d0 6d 33 bd fb d7 2a 3e
       -0.0016855965 -0.05646582 -0.043805897 0.16683953
000340 0b 75 6c bc 7f 38 30 3e 14 40 8a bd de 14 d8 bc
       -0.014432202 0.17209052 -0.06750503 -0.026377138
000350 0c f6 c1 3d 91 9e 3c bd aa 96 cb bc af 11 6c 3e
       0.09470758 -0.04604966 -0.024852116 0.23053621
000360 42 7a f0 bc c7 d1 4b 3e 10 77 af bc 58 5c aa 3d
       -0.029355172 0.19904242 -0.021419078 0.083183944
000370 22 3b 51 bc d8 ae 5d 3c ed 49 49 3d 98 32 8e 3c
       -0.012770446 0.0135304555 0.049142767 0.01735811
000380 c7 8d dc 3c 37 84 68 3d 39 0a f3 bd ee 5b 79 3d
       0.026923073 0.056766715 -0.11867184 0.060878687
000390 b6 28 a0 bd 4e fb 18 bd c4 65 5d bd fa 5e bf 3d
       -0.07820265 -0.037349038 -0.05405213 0.09344287
0003a0 2b 89 98 3d 49 2e 68 ba 26 81 00 3e 02 41 88 bd
       0.07448038 -0.00088569947 0.12549266 -0.06653024
0003b0 e1 d9 da 38 d9 4b 07 3d dd e9 d4 ba cd 3a 2e 3e
       0.00010435633 0.03303132 -0.0016244013 0.17014618
0003c0 18 31 53 bd 9a 40 dd 3c 55 b4 17 bc 1e 14 ee bd
       -0.05156049 0.027008343 -0.009259303 -0.11624931
0003d0 c9 3f 48 3d 90 aa d9 3c 12 ce 21 bd 51 8d 29 3e
       0.048888955 0.026570588 -0.039503165 0.16557814
0003e0 0f 1f ee bd 6f 61 26 3e c4 24 cc 3d b2 07 24 3e
       -0.11627018 0.16248105 0.0996795 0.1601856
0003f0 91 f2 85 3e be 08 96 3e e9 91 a1 3d b0 25 b8 3d
       0.26161626 0.29303545 0.07889158 0.08991563

network_body._body_endoder.seq_layers.0.bias f4 [256]
000000 be af 4c bc 2c cf 3e 3c a7 c1 92 3b e6 82 b1 bb
       -0.012493072 0.011646073 0.0044786516 -0.0054172156
000010 6d 5f 25 bd 6b 6c 09 bd 56 a3 ac bb 66 7a e6 bc
       -0.04037421 -0.03355066 -0.0052684946 -0.028134536
000020 bc 2a 8c 3c c8 85 30 3b 83 29 29 bc 61 c1 cc bc
       0.017110221 0.0026935209 -0.010324839 -0.024994554
000030 77 7b 28 bc 2f bd 05 3c 27 c4 a8 3c ee 0d fa b8
       -0.010283343 0.008162781 0.020601345 -0.000119235236
000040 eb 68 4f 3c 7e 7d 35 3c 0c 3b 6d 3c 52 cf 65 3c
       0.012659292 0.011077283 0.01447941 0.01402648
000050 cd 2d a7 bc d5 9c da 3c 84 c2 fe 3a c7 c0 0f 3c
       -0.020407582 0.026686111 0.0019436632 0.008773989
000060 ad 76 6b 3c 81 b5 f6 bc 9a 09 3e bc 05 7f f9 3b
       0.014371556 -0.030115845 -0.011598969 0.007614019
000070 0c 36 58 3c dc 85 c8 bb 2b 1f b5 3b 57 4e 0a 3c
       0.0131964795 -0.006119473 0.005527397 0.008441529
000080 94 3f 28 3c 1d 7f 13 bd 88 91 6b 3c 92 44 e1 3b
       0.010269064 -0.036009897 0.014377959 0.0068746293
000090 05 c5 40 3c eb 30 06 3d aa a8 72 bc 41 2d 03 bb
       0.011765723 0.032761496 -0.01481072 -0.0020015987
0000a0 20 ab 00 3c 14 0d 8b bc 90 4e c7 bc 5d 7f fb bc
       0.007853299 -0.01697401 -0.024329454 -0.03070038
0000b0 64 fd 45 3c 0c 4f a0 bc ff 11 a3 3c 64 f3 4d bc
       0.012084339 -0.019568942 0.019906042 -0.012570236
0000c0 07 b5 2e bc c5 54 0d 3c 4e 27 ea bc e0 ca 68 3c
       -0.0106632775 0.008626168 -0.028583195 0.014208525
0000d0 97 c3 01 bd 83 50 b3 bb 9d 31 d1 3b eb 30 05 bc
       -0.03168067 -0.005472244 0.006384088 -0.008129339
0000e0 56 ea 47 3c 01 98 0d 3c e8 f1 25 bd 11 33 a0 bb
       0.012201866 0.008642198 -0.040513903 -0.0048889
0000f0 35 83 23 3b 30 2e 17 3c 98 1e 15 bb bd c9 22 bc
       0.0024950032 0.009227321 -0.002275383 -0.0099357935
000100 00 8b 27 3a d0 50 28 bc 4a a7 c7 bc c6 81 ae bb
       0.0006391257 -0.010273173 -0.024371762 -0.005325529
000110 5d 60 4c 3c e9 49 c6 bb a1 ff 05 3c f6 1d 63 3c
       0.012474147 -0.0060512912 0.008178622 0.013862124
000120 9b 21 76 bc 27 c9 be bb c2 1b 08 3c 15 fc cd bb
       -0.015022661 -0.005822319 0.008307399 -0.006286154
000130 49 68 7e bc 03 7c 1f 3c 73 6a cf bc 44 07 e0 bb
       -0.015527793 0.009734157 -0.025319314 -0.0068368036
000140 9a 74 77 bc 27 03 04 3c b4 07 86 bb bb ec 56 3c
       -0.015103484 0.008057392 -0.0040902738 0.013117964
000150 3e 6b a3 ba 8b 0b 95 bc d0 9c 11 bb 77 10 a6 bc
       -0.0012467874 -0.01819398 -0.0022218712 -0.020271523
000160 f6 61 9a 3c 41 35 3e 3c c7 10 c4 3b 2e bc b5 bb
       0.01884554 0.011609376 0.0059834453 -0.0055461144
000170 63 25 4c bc 70 73 c7 3b a3 b1 15 bd 39 d8 b9 3a
       -0.012460086 0.0060867593 -0.03654636 0.0014178819
000180 a2 e1 a5 bc 94 d6 1e bc e4 35 36 bc 6a df 41 bc
       -0.020249192 -0.009694714 -0.011121247 -0.011833051
000190 a4 4b bd bb 07 3a 8d bb fe 13 b0 bc 78 ea d5 3b
       -0.0057768393 -0.004309896 -0.021493908 0.006528195
0001a0 0e d4 33 3c 4e 37 42 bc c8 5a f4 3b 80 e3 8f bc
       0.010975851 -0.011854006 0.007457111 -0.017564535
0001b0 7e 90 1b bc 86 e6 0c bd ea 0f f6 ba d3 6a 99 bb
       -0.009494899 -0.03439953 -0.0018773053 -0.004681924
0001c0 b8 bb ee bb e1 e7 29 3c 54 0f 72 3b 9e 13 19 bd
       -0.0072855614 0.010370226 0.0036935406 -0.037372224
0001d0 b6 08 c4 bc 0f a0 06 3d 4e 51 8b bb cb 18 13 b9
       -0.023929935 0.032867488 -0.0042516356 -0.00014028249
0001e0 8b 8f 57 bc f8 a4 dd 3a 84 3c 9d 3b a7 e5 14 3c
       -0.013156782 0.0016910126 0.004798474 0.0090879565
0001f0 79 be 01 bc 35 4d 71 3c d5 94 b9 3c 72 55 bc bb
       -0.007918947 0.01472788 0.022653976 -0.0057474906
000200 e0 f9 a6 3b 02 e5 47 bc 37 cc b1 3c 46 93 70 3c
       0.0050957054 -0.012200596 0.021703823 0.01468355
000210 c8 00 91 bc ce 11 6b ba ea 38 b1 bc dd 98 15 bc
       -0.017700568 -0.00089671917 -0.021633584 -0.009130684
000220 91 7e 1b bb 9d 4c 5b 3c f6 e0 d8 3a 68 1a 31 bb
       -0.0023726563 0.013384965 0.0016546536 -0.0027023796
000230 2e f8 e4 bb c5 a1 d4 bc e0 e9 45 bd 8e f7 ad 3b
       -0.006987593 -0.025956044 -0.048318744 0.005309052
000240 cc 61 4b bc 24 38 95 3b 7a b7 a9 bc d4 21 6e bc
       -0.012413453 0.0045538116 -0.020717371 -0.014534432
000250 28 54 16 bc 0f 30 d5 3b 8b 01 de 3b 3b 47 89 bc
       -0.009175338 0.006505973 0.0067750863 -0.016757598
000260 b0 72 70 3b a1 fc 9c bc 00 29 34 3c 0e 81 7a 3c
       0.0036689453 -0.019163432 0.010996103 0.015289558
000270 4a 00 67 ba 17 2a ed bb 4b fe c1 bb 4a e4 48 3c
       -0.0008811994 -0.0072376835 -0.0059202067 0.01226146
000280 bc 9d bc bb d3 95 90 bb 84 a2 df bc 24 2d 3d 3a
       -0.005756108 -0.0044123917 -0.027299173 0.00072165043
000290 44 41 8f bc cc a4 3f 3b 40 9f 49 3b 6d 5b 01 bd
       -0.017487176 0.0029242514 0.0030765086 -0.03158133
0002a0 c9 b8 cb 3b 20 fb fb bb be e2 f5 3b 97 17 0c bc
       0.0062170965 -0.0076898485 0.0075038364 -0.008550546
0002b0 f0 f9 ed bb 66 99 df 3b 7a ea d1 3b 69 57 14 bc
       -0.007262461 0.0068237064 0.0064061256 -0.009054043
0002c0 e0 62 76 bb 72 89 38 bc 16 e7 3e 3c 39 4f f5 3b
       -0.0037595555 -0.011263238 0.011651775 0.0074862507
0002d0 02 7d 0b bd a4 c1 3e 3b 2e 46 10 bc 97 36 a0 3c
       -0.034054764 0.0029107118 -0.008805795 0.01955728
0002e0 1e ce 10 bd bf 46 da 3a a5 72 2a bc 8a 5e e8 bc
       -0.03535282 0.0016653164 -0.01040331 -0.028365392
0002f0 08 7a 3a bc 2e b9 e1 3a ea b5 a9 bc a6 cc e2 bb
       -0.011381634 0.0017221326 -0.020716626 -0.0069213687
000300 e4 72 fa bb 48 a2 44 bc f7 19 83 3c 04 88 91 bc
       -0.0076430906 -0.0120015815 0.016003592 -0.017765053
000310 b5 56 a4 bc 85 b1 da bc 23 ca f5 bb ab 5c 26 3c
       -0.020060876 -0.026695976 -0.007500903 0.01015393
000320 b6 44 c4 bc 52 ef fa 3c 0d 30 29 bd a9 34 a4 ba
       -0.023958545 0.030631695 -0.04130559 -0.0012527901
000330 ab da 31 bd 64 ef 08 bd 9d ca 59 bc 90 ed a9 3b
       -0.04342143 -0.033431426 -0.013292936 0.0051857904
000340 70 06 5a bc 7f 16 32 3b 59 3a c5 bb f9 5c eb bc
       -0.013307199 0.0027174053 -0.0060189185 -0.028730856
000350 c9 4b 80 3c f8 86 84 bc 91 2b 72 3c dd 6d 53 3c
       0.015661137 -0.01617764 0.014780895 0.012904611
000360 32 d7 a8 3a 61 56 36 3c a1 d0 1e bb 60 65 c0 bc
       0.0012881516 0.011128993 -0.002423324 -0.02348584
000370 a6 16 e5 3a a7 62 1c bb 71 80 93 3c 05 38 cb bc
       0.0017478063 -0.0023862512 0.018005582 -0.024806986
000380 71 13 ff 3c e9 ab a6 3b 5d cd c3 bc c7 38 ed 3c
       0.0311372 0.0050864113 -0.023901636 0.028957738
000390 ca 87 83 3c 21 52 2a bc fd e8 54 3c 61 86 4f 3c
       0.01605596 -0.010395558 0.012995002 0.012666316
0003a0 46 aa 74 b9 92 12 62 bc 18 75 1b bd c8 4a d8 bc
       -0.00023333085 -0.013798373 -0.037953466 -0.026402846
0003b0 e0 9d b9 bc b2 e1 40 bb ce d8 f8 bc 17 ea 48 3c
       -0.022658288 -0.00294314 -0.030376818 0.012262843
0003c0 ce 9b 50 bc 7c 2a 79 3c 67 dd 4a 3c 52 07 02 3c
       -0.012732459 0.015207883 0.012381888 0.007936316
0003d0 fb 09 f1 bc f6 e2 72 3c fb 10 eb bb b0 97 dd bc
       -0.029423704 0.0148246195 -0.007173655 -0.02704987
0003e0 09 74 30 bc 5b 1a b2 3c 39 9e 4e 3c 65 8c 01 3c
       -0.010769852 0.021741083 0.012610965 0.007907008
0003f0 d3 38 b0 bc 11 6a 45 b9 b0 fd cd ba 85 e0 bd bc
       -0.02151147 -0.00018826897 -0.0015715864 -0.023178348

network_body._body_endoder.seq_layers.2.weight f4 [256, 256]
000000 70 63 14 3d 56 44 31 bd 80 ec 6f 3b 28 88 eb bc
       0.036227643 -0.04327806 0.003660947 -0.028751448
000010 1b a8 c6 3c 32 67 ef bd 9e 83 98 3d ad 8f 55 bd
       0.02425008 -0.11689605 0.07446979 -0.052138973
000020 8b 37 92 bd 4e 75 a6 bd e4 8b 16 bd 05 d0 3d 3d
       -0.071395 -0.08127843 -0.036754504 0.04634096
000030 de 14 9d bd 43 64 8e bd 2f 14 71 bc 60 83 d0 3d
       -0.07669996 -0.06952717 -0.014714285 0.10181308
000040 2a c9 80 3a f6 ad 95 3d 9b 8f af 3d 97 da 5a 3d
       0.0009825577 0.07308571 0.085723124 0.05343112
000050 bf cf a7 bd f1 cb 3d bd 6c c7 85 3d 73 ba 50 3d
       -0.08193921 -0.04633707 0.06532177 0.05095906
000060 1e ed f1 bc e7 e1 93 bd 2c 00 59 bd eb 27 4c 3d
       -0.029532012 -0.07220822 -0.05297868 0.049842756
000070 e0 2a 85 3d 26 a9 da 3d af 06 00 be 49 7e 54 3d
       0.065023184 0.10676794 -0.1250255 0.051878247
000080 33 4c 07 bd 0e 3b 73 3a 65 f1 e8 3c 63 92 ab bc
       -0.033031654 0.0009278514 0.028435418 -0.020943826
000090 f3 9d 05 3d 89 db 95 3b 6f 11 66 bd b7 6d 8a bc
       0.032621335 0.00457329 -0.05616897 -0.01689802
0000a0 d5 5d ba 3c a7 63 a4 bc 31 52 27 3d 58 cb e6 3d
       0.02274982 -0.02006705 0.04084987 0.112692535
0000b0 cc c7 ac bd 99 00 96 3b 08 a3 a9 3d 8f 2f 29 3d
       -0.08436546 0.004577708 0.08283049 0.04130512
0000c0 81 15 43 3c a5 d2 10 bd 2e 2c 64 3c e9 f2 cd bd
       0.011906982 -0.035357136 0.013926549 -0.10056097
0000d0 9b 7a 93 3a b9 19 f4 bc 79 25 7a 3d 0a 6b c0 3c
       0.0011251749 -0.029797422 0.061070893 0.02348854
0000e0 dc f6 2e bd 83 a3 35 bc e3 57 01 bb 2e f3 2b 3d
       -0.042715892 -0.0110863475 -0.0019736222 0.04197996
0000f0 bd 41 41 3d f3 ac 1b 3d 3e d0 2e bc f3 8b d5 bd
       0.047181834 0.038006734 -0.010669766 -0.10427084
000100 0d 55 03 bd 04 29 48 bc e7 a5 d5 bd 41 d8 1a bc
       -0.032063533 -0.01221681 -0.10432034 -0.009450973
000110 cb 5d 16 3d 6d 36 84 bd ea f4 07 3d c6 62 30 bd
       0.03671054 -0.064556934 0.033192553 -0.043062948
000120 fe 63 9c bd 54 36 b6 3c 2d e8 6d bd 0e 8e 5f bc
       -0.076362595 0.022242703 -0.05808275 -0.013644708
000130 dd a5 b8 3c f7 bd eb bd 1f a9 de 3d a6 49 80 bc
       0.022540027 -0.11510842 0.10872101 -0.015660118
000140 8d 0b 63 bd 81 71 0a bd b6 95 ef bb f9 53 c2 bc
       -0.055430938 -0.033799652 -0.007311548 -0.023721682
000150 4a ec e6 bc 1b ad 12 bd 61 39 15 3c cb 0f e6 bc
       -0.028188843 -0.035809617 0.0091079185 -0.028083703
000160 3b b7 3d bc 97 5f d1 3c 02 31 a9 bd cc 0b db 3c
       -0.01157933 0.025558276 -0.082613006 0.026739024
000170 1b f3 5c bb be eb 03 bd 8a 17 08 3d c6 5e 7a 3d
       -0.0033714238 -0.032207243 0.033225574 0.06112554
000180 59 bf d4 3b 4a 8d d7 3c 13 11 0f 3d 67 4b 9c 3d
       0.006492537 0.026312489 0.034928393 0.07631569
000190 1d ef be bc bc b1 3a 3d 6c 26 27 bd 9f 0b 69 bd
       -0.023307377 0.045579657 -0.040808126 -0.05689585
0001a0 a6 8f 7c bd f7 84 8f 3d ef f8 32 be da 91 93 3d
       -0.06166043 0.07007783 -0.17477773 0.07205553
0001b0 33 a1 56 3d df 6d ba 3d 4b e0 86 bc 76 05 1e bd
       0.052399825 0.091029875 -0.016464373 -0.038579427
0001c0 35 a9 ef bc 5a 29 c9 3c 48 65 01 3c 00 60 94 bd
       -0.029255489 0.02455585 0.0078976825 -0.07244873
0001d0 61 4f 48 3d 7a 04 ac 3d d9 31 21 3d 95 d8 56 3d
       0.048903827 0.08399291 0.03935418 0.052452642
0001e0 8a e7 e3 3b 87 b3 5b bd a7 58 48 bd cf c1 bc bc
       0.006955092 -0.053638007 -0.04891267 -0.023041634
0001f0 6b f9 01 3c ed ab cf bc df fa 28 3c d0 80 12 3e
       0.007933001 -0.025350535 0.010313719 0.1430695
000200 84 77 a4 3d 23 56 0d 3e 32 ed 1e bc 0e 0d 94 3b
       0.08030608 0.1380239 -0.009700106 0.004518158
000210 7a 7c 46 3d 58 94 d4 bb 4b f7 92 bc 6f 98 ac 3d
       0.048458554 -0.0064874105 -0.017940184 0.08427512
000220 91 5c c5 bd 2f af 11 bc 2d eb 40 3d d4 71 38 bc
       -0.09636796 -0.008891865 0.04709928 -0.0112576075
000230 97 f9 d3 bd 15 84 06 bd 94 82 94 3d a6 e7 f4 bc
       -0.1035034 -0.032840807 0.07251468 -0.029895615
000240 54 8b 72 3d 01 f7 9c 3d 43 5d 3f bd 45 8c 88 3d
       0.059214905 0.076643 -0.0467198 0.06667379
000250 66 a7 d0 3d a2 02 5c 3d ed d7 13 3d 6e 3e 38 bc
       0.10188179 0.05371345 0.036094595 -0.011245353
000260 41 cf cb ba d8 e9 1d bc 6c 38 38 3d 28 67 59 3d
       -0.0015549437 -0.009638272 0.044975683 0.053076893
000270 71 b7 33 bd 7b f5 88 bc 93 07 c4 ba 2f d7 85 bd
       -0.043876115 -0.016718617 -0.001495587 -0.06535184
000280 a0 e6 47 3c a9 0b 97 bd 67 ef 27 bd cb b9 b5 3d
       0.012200981 -0.07375271 -0.040999796 0.08873328
000290 da b7 36 bd 80 61 83 bc f8 e2 b4 ba 96 3c 28 be
       -0.04460893 -0.016037703 -0.0013800552 -0.16429362
0002a0 da 23 00 3d 2b 24 5d bd 5e 46 16 be 2e f1 bf bd
       0.03128419 -0.05398957 -0.1467528 -0.09372173
0002b0 f1 46 53 be 0d f2 ae bd 6b c8 11 bd a5 14 a4 3b
       -0.20632531 -0.08542261 -0.035591524 0.005007344
0002c0 70 14 aa bd 63 d8 30 3d 34 84 d8 bc 27 90 fd bc
       -0.083046794 0.043175112 -0.026430227 -0.030952526
0002d0 e1 d5 65 bd 7c 54 ff bc aa 0b e0 3c 2e 9c f4 3c
       -0.056112174 -0.031168215 0.027349312 0.029859629
0002e0 cf 6d 17 be b4 6c 35 3e 45 81 7f bd f1 11 6e bd
       -0.14787982 0.17717248 -0.06237914 -0.05812258
0002f0 cc 84 b9 bc 97 b7 8e bc 5e df 18 3c 62 24 3b 3d
       -0.02264633 -0.017421527 0.009330599 0.045688994
000300 05 18 cf 3c 93 18 1e 3d c5 ce d6 3c df 95 84 bd
       0.025280008 0.038597655 0.026221642 -0.06473898
000310 38 24 ae 3c 3f 94 1c bd 03 34 ac bd 85 0a 0c bd
       0.021257505 -0.038227316 -0.08408358 -0.03418972
000320 db 6a a5 3d e8 67 54 3b a4 63 de 3d 03 7a 58 3d
       0.08077022 0.0032410566 0.10858849 0.052850734
000330 b5 3c a1 3d 2c 8d 30 be 59 31 07 bd 8d a9 4d bd
       0.07872907 -0.17241353 -0.033006046 -0.050210524
000340 03 08 41 3c 6f e1 a7 3d 6a aa b8 3c 90 ed df 3c
       0.011781695 0.08197295 0.022542197 0.027334958
000350 14 62 94 3c c9 8d 3b 3d d4 69 b7 bd 19 13 98 bd
       0.018113174 0.045789514 -0.08955732 -0.074255176
000360 4a 32 b3 3c d1 67 68 bd 00 9e 4d bd 6c 25 bf bc
       0.021874566 -0.056739632 -0.05019951 -0.023333274
000370 47 ec df bc e3 6c 0f 3e df 68 c2 bd 4d 55 49 bd
       -0.027334346 0.1400638 -0.09492659 -0.049153615
000380 d1 23 1b bd a3 91 c1 bd 42 3f 53 3c df 3f 56 bc
       -0.037875954 -0.09451606 0.0128935 -0.0130767515
000390 2a 2a 3e 3d 2d 2d aa bc 29 34 c2 3d 0e 08 19 be
       0.04642693 -0.020773495 0.09482605 -0.14944479
0003a0 f4 b4 d2 bc 72 4a 8b 3d 8c 04 73 3c e9 68 96 3c
       -0.02572105 0.06801309 0.014832627 0.018360572
0003b0 f0 00 76 3c c0 eb 90 3d 04 a6 af 3c 79 61 fc 3a
       0.015014872 0.07076216 0.021441467 0.0019255123
0003c0 a7 e3 a9 ba c3 b3 4b bd b0 7f 12 bd 56 55 72 3c
       -0.0012961522 -0.04973198 -0.035766304 0.0147908535
0003d0 2e 55 70 bb 1d 92 00 3d 13 5d fa 3c 7b f4 8f 3d
       -0.0036671865 0.031389344 0.03056196 0.07029053
0003e0 84 ca 9a bc 06 a5 c9 3c 79 5c 8f bd c4 19 1c 3d
       -0.018895395 0.024614822 -0.0700006 0.03811051
0003f0 d3 98 be bd f9 e2 bc bd 7e b8 95 3b 85 b3 2e bc
       -0.09306493 -0.09222979 0.0045691123 -0.010662918

network_body._body_endoder.seq_layers.2.bias f4 [256]
000000 c1 09 ad bc 6e 71 20 bc 97 a4 d9 3b 5b 7a 5c bc
       -0.021122815 -0.009792669 0.006641935 -0.013456906
000010 60 45 15 3c 93 c8 80 3b a4 ba 67 bb 6c 63 c1 3c
       0.009110779 0.0039301603 -0.003535905 0.023606978
000020 49 8c 05 bc 1d 2e b3 bc 3f a8 22 3c 60 54 e8 bb
       -0.008151122 -0.021872574 0.009927808 -0.0070901364
000030 cc de b7 3c 95 31 79 3c f5 28 1f 3c 6d 6d fd 3c
       0.022445105 0.015209575 0.009714355 0.030935967
000040 df 68 c9 bc f7 e4 28 bd 7a 71 e3 bc fb 47 84 bc
       -0.02458614 -0.041233983 -0.02776407 -0.016147604
000050 cd 25 2e 3b 3b 6e e7 3c 63 5e 41 3c a4 23 8f 3c
       0.0026572824 0.028250804 0.011802289 0.01747305
000060 85 ee aa bc 11 2b 2f bc 1e a0 90 bc f7 2b 36 3c
       -0.020865688 -0.01069142 -0.017654475 0.0111188805
000070 36 34 e9 bc 7f 6b 85 3b c5 41 a6 3b 37 f4 61 bc
       -0.028467279 0.0040716524 0.0050737583 -0.0137911355
000080 25 00 b7 bc 7f f5 77 3c ef e5 00 3c b6 d6 bb 3c
       -0.022338936 0.015134214 0.00786732 0.02292953
000090 41 f8 59 bd fd c8 3d bb 5d 25 93 bc 78 a5 9d 3c
       -0.05321527 -0.002895891 -0.017962152 0.01924394
0000a0 5b d0 86 bc 1f 46 6f bb 13 44 87 3c e9 64 3c 3c
       -0.016456774 -0.0036510301 0.016511953 0.011498668
0000b0 16 b1 9a 3c bf 6e e1 3c a0 ad 20 3d a5 cb 86 3c
       0.01888327 0.027518628 0.03922808 0.016454527
0000c0 4e 3e 41 bc 53 68 19 bc 4d 67 78 3c e3 33 38 3c
       -0.01179464 -0.009363252 0.015161348 0.0112428395
0000d0 f2 38 20 3c c7 1e ed 3b e0 64 68 3a 31 97 0b bd
       0.009779202 0.007236335 0.0008865129 -0.034079734
0000e0 9a 7e 0c bd 95 fa 8b bc ad 05 75 3c fd e7 b2 3c
       -0.034300424 -0.01708726 0.0149549665 0.021839136
0000f0 02 bf f2 bc e3 bb 76 bd 0e 3c e7 3b 93 fb f7 3b
       -0.029632095 -0.060237776 0.0070567196 0.007567832
000100 82 2c 1e bb 2f 3f 95 bb 2f b9 4b 3c 44 4e 24 bc
       -0.0024135415 -0.004554651 0.012434288 -0.010028426
000110 39 cc 28 bd f9 97 9d 3c 3f 87 c1 bb 6c dd e9 bc
       -0.041210387 0.019237505 -0.005906015 -0.028547965
000120 ff a7 ce 3b ad 11 e3 bb 29 f6 29 bd 5e f6 2b bd
       0.006306648 -0.0069295974 -0.041494522 -0.041983
000130 63 71 83 bc c4 80 39 3c b0 ad 69 bd b4 1a 6d bc
       -0.016045278 0.011322204 -0.057050407 -0.014471699
000140 3c 1f 56 bc a4 9b aa 3c 41 1e 9c 3c df e2 e6 bc
       -0.01306897 0.020826168 0.019057395 -0.028184352
000150 0f 7c 9e bc 60 bc 99 bb 71 27 7e 3a f9 c9 0a bc
       -0.019346265 -0.0046916455 0.0009695208 -0.008471006
000160 f0 7e d9 bc 1e 7a 3f bc c1 7e 90 3c 22 c2 a9 3c
       -0.026549786 -0.01168683 0.017638566 0.020722453
000170 a6 f3 96 3b bc 31 c7 3c ce 6f 10 bd 65 79 e9 bc
       0.004606682 0.024315707 -0.035262875 -0.028500268
000180 8e 4e 1d 3b 72 8a 23 3c 80 a4 85 3b 82 1c 8b bc
       0.002400312 0.009981738 0.004078448 -0.016981367
000190 6e c7 af bb 9f 0b 11 bc 57 55 c5 3c 51 23 c1 3c
       -0.00536435 -0.008852868 0.024088545 0.02357641
0001a0 11 aa 43 bb fc 48 c1 bb b4 55 04 bd 58 c2 6d 3c
       -0.0029856006 -0.005898593 -0.032308295 0.014511667
0001b0 26 7c 1f bc d0 35 af 3c 66 0c 0d 3b ba f2 c7 bc
       -0.009734189 0.021387964 0.0021522283 -0.024407733
0001c0 2e c6 41 bc 21 2f 01 3c a7 2a 30 3c e7 62 ab bc
       -0.011827035 0.007884772 0.010752357 -0.020921184
0001d0 d8 ef 6a bc 13 27 90 3c f2 aa 17 3c 64 1c b8 bb
       -0.01433941 0.017596757 0.009257065 -0.005618619
0001e0 ea 23 32 bc 9e e8 71 bd 22 0d 43 3c 22 7e c5 3c
       -0.01087282 -0.05905973 0.011904987 0.024107996
0001f0 e3 3c 3f bd 48 6e b1 bc 80 1a be 3c 8e 8c a0 bb
       -0.046688925 -0.021659032 0.023205996 -0.004899568
000200 83 1d 45 3c 07 4b a0 bc 8b 45 9a bc 9f 6b b2 3c
       0.012030962 -0.019567026 -0.018831989 0.021779833
000210 c7 8b 87 3c 98 ed f8 3c bf 66 46 bd b0 78 ac 3c
       0.016546143 0.030386731 -0.04843783 0.021053642
000220 48 ef 9f 3b bd 7a 07 bb fc b3 83 bc 9c 3e 02 bd
       0.0048808195 -0.0020672523 -0.016077034 -0.03179799
000230 21 09 81 3c 96 84 0e 3d c7 10 96 3b 00 02 a8 3c
       0.015751423 0.034794413 0.0045796367 0.020508766
000240 a3 f9 df bb 63 4a 1a 3c 00 25 19 bd 54 a5 bf 3c
       -0.006835179 0.009417149 -0.0373888 0.023394264
000250 68 76 9a 3c 65 10 d6 3c d8 70 ec 3c 32 44 e0 3b
       0.018855289 0.026130864 0.028862402 0.006844067
000260 30 b9 93 3c 9b d3 e3 38 53 1f 2b bb dd ba 98 bc
       0.01803264 0.00010863618 -0.00261112 -0.01864379
000270 bf 08 e4 3c cc 8e 13 3c 19 fc eb 3c fc 37 71 3c
       0.027836202 0.009006213 0.028806733 0.01472282
000280 53 ab 77 bc 4c ba 17 bd 2f b0 e7 3c 6e 1f 2f bc
       -0.0151165305 -0.0370429 0.028282253 -0.010688646
000290 24 13 c0 bc cd a3 d5 bb 2f f9 df 3c 74 3a 44 bd
       -0.023446627 -0.0065197707 0.0273405 -0.047907308
0002a0 7b f5 f2 bc 61 8a 31 bd f1 6b 47 3c 22 85 95 3c
       -0.02965807 -0.04334486 0.012171731 0.01825196
0002b0 67 0c ed bb 18 0b 4d bc 7f 70 a9 3c 0f 65 0a bc
       -0.0072341445 -0.012514852 0.020683525 -0.008446946
0002c0 23 b0 e8 bc b1 88 15 bc d1 53 bb 3c ba 33 1e 3a
       -0.028404301 -0.009126828 0.022867115 0.00060349295
0002d0 a3 c2 2f bc 72 aa 2e 3c 81 7c 90 3b 86 71 b4 3b
       -0.010727557 0.0106607545 0.0044093733 0.005506697
0002e0 ee 6b db bb 89 10 3a 3c 46 66 77 3c 7f cb 2d bc
       -0.006696216 0.011356481 0.0151000675 -0.010607599
0002f0 39 60 50 bc 4f fa 86 bc 23 23 a9 bc db 04 e6 3b
       -0.012718254 -0.016476778 -0.020646637 0.007019622
000300 62 89 87 3b 39 c8 aa 3c 16 1d a3 3b fd 85 95 bc
       0.0041362504 0.020847427 0.0049778325 -0.018252367
000310 49 f5 04 bd 8a 16 ba bc 84 ea e7 bc 77 4b 36 3c
       -0.032460485 -0.022715826 -0.028310068 0.011126391
000320 3f da 99 3c 76 2a b0 bc 68 c0 00 bd 1a a1 b7 bb
       0.018780826 -0.021504622 -0.031433493 -0.0056039216
000330 5e 2b 1e bd 13 a8 4a bc 49 3a aa 3c 09 da 75 3c
       -0.038615577 -0.012369174 0.020779746 0.015005597
000340 7a be b5 bc 4c c9 49 bd cf 02 b3 bb cb f3 87 bc
       -0.022185553 -0.049264237 -0.0054629813 -0.016595742
000350 36 74 b1 bb e7 7d ba bc c8 5f cd bc 64 51 98 ba
       -0.0054154648 -0.022765113 -0.025070086 -0.0011620936
000360 e6 64 44 3c 67 67 9c 3b e2 85 53 bb a4 02 3b bd
       0.011986947 0.0047730687 -0.0032275845 -0.045656815
000370 2a 9d 15 bc 0e c2 80 3c 2f f3 09 bd ed e8 96 3b
       -0.009131709 0.015717532 -0.033679184 0.0046054036
000380 2e c3 5b bc 85 64 6d bc 70 5a a7 3c 22 71 81 bc
       -0.013413234 -0.014489298 0.020428866 -0.015801016
000390 65 fa ac 3c 5b 7f 60 3c 3f 86 f7 3b 2f 50 3e bd
       0.021115491 0.013702239 0.007553845 -0.046463188
0003a0 42 42 a7 bc 5c ba c0 bc 53 0b 2b ba 41 27 0b bc
       -0.020417336 -0.023526363 -0.000652482 -0.008493246
0003b0 f3 5b a0 3c 8c 05 a4 bc cd ab 77 3c e3 1f 47 bc
       0.019575095 -0.020022176 0.015116644 -0.0121535985
0003c0 f5 d7 41 bd 32 e4 3c bd 0b df 13 3c b9 7f 05 bd
       -0.047325093 -0.04611606 0.009025346 -0.03259251
0003d0 48 53 86 bb 81 b7 9f bc 3b ff 95 bc b7 19 8f 3a
       -0.0040992834 -0.019496681 -0.01831018 0.0010917698
0003e0 a4 02 b0 38 88 ea dd bc 7a 2e 72 3c d2 8a a8 bc
       8.392826e-05 -0.027089372 0.014781589 -0.020574007
0003f0 f3 41 d1 3c 13 a4 49 3c 34 0e a2 bc 6a 55 f7 bb
       0.025544142 0.012307185 -0.019782163 -0.007548024

network_body._body_endoder.seq_layers.4.weight f4 [256, 256]
000000 ee 26 1b be 8a 91 8d 3d e4 ed 46 bd 3f a0 38 3c
       -0.15151569 0.06912525 -0.048566714 0.011268674
000010 a7 bc fc 3c 54 f2 05 be ea 00 d9 bb 16 d2 f7 bc
       0.030851675 -0.13080722 -0.0066224234 -0.030251544
000020 d3 4f 85 bd 95 5b 98 bb 1d a8 98 ba 6b 06 0a bd
       -0.06509366 -0.0046495893 -0.0011646781 -0.033697527
000030 fa 3a 02 3d c0 0c 9d bd ef 81 89 bc 35 67 dd 3d
       0.031794526 -0.076684475 -0.01678559 0.10810701
000040 f5 38 e2 bc 1e 8d 87 bd c3 fa 1c 3d c5 5b dc bc
       -0.02761505 -0.06618713 0.038325083 -0.026899228
000050 a9 06 1a bd 79 54 db 3c 60 09 d2 3d f0 d0 42 bd
       -0.037604008 0.026773678 0.102556944 -0.04756254
000060 eb 66 a5 3d b4 72 60 3b 39 5e a8 3d d5 94 7a bd
       0.08076271 0.0034248056 0.082210965 -0.061177094
000070 56 65 9e bd 7a 64 b7 bc a2 db 92 3c 2b fb cf 3b
       -0.07734172 -0.022386778 0.017926995 0.00634708
000080 7d c4 62 bd fc 9b 18 bd 97 5e 96 bd 5a c4 7d bc
       -0.055363167 -0.037258133 -0.0734226 -0.015488708
000090 89 0d ac bd d7 e3 27 bc 82 cb 03 bd 9d 80 29 3c
       -0.08401019 -0.010247192 -0.032176502 0.010345605
0000a0 32 0a ce bc bc d4 d9 bc 0c 43 39 bd 44 64 4f 3d
       -0.025151346 -0.026590697 -0.045229957 0.05063273
0000b0 4a 54 7f 3c 51 62 37 3d 8a e8 93 bd 61 33 e0 3c
       0.015584061 0.044771496 -0.07222088 0.02736825
0000c0 15 a3 b9 3c 26 ef 67 3d 9d 0c c5 3c 71 ef d9 3c
       0.022660771 0.056624554 0.024053866 0.026603432
0000d0 da f7 b1 bd a1 26 ae 3a 11 d9 b9 3d e7 9e 0a 3c
       -0.08689852 0.0013286659 0.09074605 0.008460737
0000e0 1b dd 59 3b 19 9c 17 3c b6 b4 ef bc ee 96 64 bc
       0.0033243361 0.009253525 -0.029260974 -0.013952
0000f0 62 a9 ba bd 0d 3c 2f bc 29 ba 24 bd c6 88 9b bc
       -0.091143385 -0.01069547 -0.0402166 -0.018986117
000100 9d d6 b1 3d 60 4d 08 3e 2d 22 b2 3c 10 c7 22 3e
       0.08683512 0.13310766 0.021744812 0.15896249
000110 7b 86 01 bd 1d 30 43 3d d8 af 56 bd 83 f8 bb bd
       -0.03162239 0.047653306 -0.05241379 -0.09178259
000120 a9 7d 8e 3c 37 05 d9 bc c4 1d 93 3c c4 f6 ac 3c
       0.017393904 -0.026491744 0.01795853 0.02111376
000130 cf ee 95 3d 12 75 4d 3d 56 d7 69 3c a2 9f 07 be
       0.0732094 0.050160475 0.0142725315 -0.13244489
000140 49 e1 79 bd bc e8 07 3d dc 83 97 3d 23 8e 38 bd
       -0.061005864 0.033180937 0.07398197 -0.045057427
000150 f7 73 78 bc 4c b0 1a bd 81 a3 2c 3d fa 1c 0f 3e
       -0.015164367 -0.037765786 0.042148117 0.13975897
000160 39 80 ec bc 1b ce cf bb c0 68 1c be 73 fb 09 bd
       -0.028869735 -0.0063417084 -0.15274334 -0.033687066
000170 21 56 8c bd ff b7 9b bc 74 e9 98 3d 9d 6a 29 bd
       -0.06852365 -0.019008635 0.07466403 -0.04136144
000180 e1 6e c8 3c 44 60 8c 3d da 0f 7d 3d 6b 30 94 bc
       0.024466934 0.06854299 0.061782695 -0.018089494
000190 76 87 db 3c 93 a1 aa bc ae 23 f8 3d 8c bc 08 3d
       0.026797991 -0.020828998 0.1211618 0.033382937
0001a0 fd 8a f4 bc 6e 28 db bc 89 fc 38 3c d3 30 27 bd
       -0.029851431 -0.026752677 0.011290678 -0.040818047
0001b0 11 65 6f 3d e0 70 cb 3d 62 ca 6e 3c 2b 14 68 3c
       0.058445994 0.099336386 0.014574619 0.014164965
0001c0 f0 a1 51 bd fc 65 5f 3d a2 3a ba 3d 91 87 be bc
       -0.051179826 0.05454062 0.090932146 -0.023258002
0001d0 0b 24 ab bb 5f 98 09 bd 21 73 a3 bd ca e7 aa 3d
       -0.0052228025 -0.033592578 -0.079809435 0.083449915
0001e0 38 1e d2 bb 5b c3 84 bd fe 69 f8 bd 20 0e 61 3c
       -0.0064122938 -0.064825736 -0.121295914 0.013736278
0001f0 6e 7d dd 3d cd 95 89 ba 6a 51 e4 3c 6a 4e ad 3c
       0.108149394 -0.0010496915 0.027870853 0.021155555
000200 3e 3b c3 ba 58 68 61 3d 76 52 8f 3c d7 71 f4 3c
       -0.0014894975 0.05503115 0.017495375 0.02983944
000210 93 94 a3 3c 99 77 d0 bc 5f d7 9e 3c 14 72 b8 bd
       0.019968307 -0.025447654 0.019389806 -0.09006134
000220 97 c4 18 3d ff b9 32 3d 24 12 5a 3d 9c 6b a3 bd
       0.037296858 0.04363441 0.053239956 -0.07979509
000230 74 d2 70 bd 40 b1 32 bd b9 da ed bd d6 20 55 3b
       -0.058794454 -0.04362607 -0.11613984 0.0032520792
000240 8d 38 0c 3c c5 bd 39 bd aa ee d3 3c a1 01 2f 3d
       0.008558405 -0.045346994 0.02587064 0.042726163
000250 9b 9c 3b 3c 9c b6 e1 bc e3 39 82 bd ee b3 bf bd
       0.011450912 -0.027552895 -0.06358697 -0.09360491
000260 3e 51 02 be 78 68 d2 3d 5b 94 9f 3c 15 c3 ea 3c
       -0.12726304 0.10273832 0.019479921 0.028657475
000270 7c 94 4c bd 74 0d c9 bd f6 11 b2 3c 02 a0 82 3d
       -0.049946293 -0.09817019 0.02173708 0.06378175
000280 a6 a4 c7 3d ec 40 3a bd 25 c1 37 bc 73 5c 9a bc
       0.09748201 -0.04547207 -0.011215483 -0.018842911
000290 60 21 5c bd 96 e7 52 3d 40 12 08 be 0b 8f cc 3d
       -0.053742766 0.05149039 -0.13288212 0.09988221
0002a0 33 27 16 3d ac fa 16 3b 73 7c 0a bd d5 7d 0a bd
       0.036658477 0.0023037596 -0.03381009 -0.03381141
0002b0 57 23 15 bd f0 0e 8f bd 0d ee 8c 3d 06 cb a4 bd
       -0.036410656 -0.06985271 0.06881342 -0.08046536
0002c0 4a 56 29 3d af 72 3a 3c 11 aa d9 bc 74 aa d8 bc
       0.041342057 0.011379882 -0.026570352 -0.026448466
0002d0 0e 3f 5c 3c 32 07 ba bd ae 81 5a 3c 56 c9 21 bc
       0.013442768 -0.09083404 0.013336582 -0.009874662
0002e0 60 a0 3b 3d f7 e5 9f 3d 13 67 f0 bc 5b 56 df 3d
       0.045807242 0.07807534 -0.029346025 0.10905143
0002f0 d1 8e e0 3d 44 82 f1 3c 43 d6 bc 3d 62 ed b3 bc
       0.1096474 0.02948106 0.09220555 -0.021963779
000300 54 cf 09 3c 84 97 d2 bc ae ff 65 3d 51 ee 75 bd
       0.008411247 -0.025707014 0.05615204 -0.06004173
000310 f6 39 f9 bc 07 f8 4e bd ac 7b b1 bd 74 e5 58 3d
       -0.030423146 -0.050529506 -0.08666167 0.0529532
000320 04 d9 f0 bd df eb 87 3d f1 b9 1b 3d 34 c2 d2 3d
       -0.117601424 0.06636786 0.038019124 0.102909476
000330 86 92 cf bd c4 9b d8 bd 50 69 50 bc 89 df c3 bc
       -0.10135369 -0.10576585 -0.012720421 -0.0239103
000340 62 91 71 bd 3b 97 9b bd 3b 6f 16 3d 42 75 37 bd
       -0.05897654 -0.07597204 0.03672717 -0.04478956
000350 f3 5c 3c 3c e1 d4 05 bd 7f 7c c5 3c 81 0f f0 bc
       0.01149677 -0.03267372 0.024107216 -0.029304268
000360 82 ed b9 bd 1f fd 6e 3c 8d dd 5f 3d a8 61 12 bc
       -0.09078504 0.014586716 0.054654647 -0.008934416
000370 90 6a a4 3c 03 cb 01 3d 26 6e 92 bd 09 b4 97 bd
       0.020070344 0.031687748 -0.071499154 -0.07407386
000380 e0 db aa bd 31 0c cc bb 27 5c ef 3d 40 10 14 be
       -0.08342719 -0.0062270393 0.116874985 -0.14459324
000390 c5 ae d2 bd 23 8e 74 bc 18 c7 53 bd da 0e 08 bd
       -0.10287241 -0.014926466 -0.051703542 -0.03321729
0003a0 1a a0 8b 3d 49 37 12 3d 52 ec ce 3d 7d 3a 9b 3d
       0.06817646 0.035697255 0.10103668 0.07579515
0003b0 21 7f a8 3c fc 77 db 3d a4 be a7 3d d7 7e 90 bc
       0.020568432 0.107162446 0.08190659 -0.017638607
0003c0 e1 7e ee bd 5a 77 02 3d c4 fb b5 bd a1 8c 2c bc
       -0.11645294 0.031852104 -0.08885911 -0.010531575
0003d0 74 26 91 bd e9 fe d0 3b fd 87 8e 3d 09 50 70 bd
       -0.070874125 0.006378044 0.069595315 -0.058670077
0003e0 8f 7f e3 bd b1 08 20 3d c2 46 c0 3c 26 be 61 bc
       -0.11108314 0.03907079 0.02347124 -0.013778245
0003f0 0a a8 41 bd 7b e5 f2 ba 0e 8f 1e bd 4d d3 78 bc
       -0.047279395 -0.0018531525 -0.038710646 -0.015187097

network_body._body_endoder.seq_layers.4.bias f4 [256]
000000 7e be a9 bc 25 0a 2e 3d 47 61 f1 3c cc 4d 29 3d
       -0.020720717 0.042490143 0.02946533 0.04133396
000010 1a 16 e4 bc 1f f6 96 3c cb 13 df 3c 74 22 a6 bc
       -0.02784257 0.018427907 0.027231118 -0.0202801
000020 a7 5d 49 bd ec 47 39 3c 13 da 7e bc a9 4e 05 bd
       -0.04916158 0.011308651 -0.015554923 -0.03254572
000030 b2 dd dc 3c 02 55 72 bc d0 a9 d3 3b bc a6 21 bd
       0.026961181 -0.014790775 0.006459452 -0.03946565
000040 db 0e 00 bb 7c 92 98 3b ae 99 3f 3c a5 fd e6 bc
       -0.0019540105 0.004656134 0.011694355 -0.028197119
000050 55 4e e2 bc ba 00 06 3d 15 8a 64 bb 7f 84 42 bd
       -0.027625242 0.032715537 -0.0034872342 -0.04748964
000060 3c ed ad 3c 31 12 d0 bc d5 19 3f bc d8 d9 f0 3c
       0.021231286 -0.0253993 -0.011663874 0.029400751
000070 bd 75 15 3d cd fc aa 3c 8d 92 4e bc a0 5e 7e bc
       0.036489237 0.020872498 -0.012608183 -0.01552549
000080 23 83 68 3b 1a c9 9e 3c 67 d3 23 bd 45 47 89 bc
       0.0035478554 0.019383002 -0.03999653 -0.016757617
000090 20 56 e6 3c 8b 30 ab 3c cb 1d 1e 3d e2 98 01 3d
       0.02811724 0.02089717 0.03860263 0.03163994
0000a0 9f 5b 40 bc 56 f9 e9 bc 3b e3 59 bd a7 4e f9 3c
       -0.011740594 -0.028561275 -0.05319522 0.030433012
0000b0 d0 a7 07 3d 15 81 53 bd b5 8f dd bc c4 3d 13 3d
       0.033119023 -0.051636774 -0.027046064 0.035947576
0000c0 aa 0a 0d bd 79 2e 56 3c 73 61 04 3c b3 aa 0d 3d
       -0.034434 0.013072603 0.008079874 0.03458662
0000d0 6b 01 85 3c 41 b2 51 3c 42 37 87 3c b8 b4 45 3c
       0.016236028 0.012798847 0.016505841 0.0120670125
0000e0 00 ca 1e bb cc 05 c3 3c 0d 8f 17 3d 97 36 7a 3c
       -0.0024229288 0.023806475 0.03700166 0.015271804
0000f0 25 cd d0 3c 2d d1 02 bd 61 87 fc 3b 29 58 20 bb
       0.025488446 -0.031937767 0.007706568 -0.002446661
000100 43 ce 2c 3b 09 5f 04 bd 1f 3f 00 bd e0 7c 1d bc
       0.0026368059 -0.032317195 -0.031310197 -0.009612292
000110 72 98 3b bd 2d eb 94 3b 0c 5e f4 3c 62 7a d2 3c
       -0.04579968 0.0045446367 0.029830001 0.025693122
000120 c1 20 ad 3b 0f 26 1f 3c d5 09 96 bc a7 b5 eb bc
       0.0052834456 0.009713664 -0.018315235 -0.028773142
000130 d7 93 c5 bc 03 7f 94 3c 37 25 17 3d 33 1c d2 bc
       -0.024118347 0.01812697 0.036900725 -0.025648212
000140 db a7 37 bd f2 f2 9a 3c 20 ac 12 bd 44 1e d4 3c
       -0.044837814 0.018914673 -0.035808682 0.025893338
000150 2a ff cc bc 38 43 66 3c 35 78 17 bd 5e 09 d7 39
       -0.025024015 0.014054112 -0.036979873 0.00041014975
000160 85 4c 0d 3d 63 93 4c bc 11 ac 1e bd 42 50 e3 3a
       0.034496803 -0.012486312 -0.038738314 0.0017342644
000170 3d 1c 33 3a 8d a9 1c 3d 02 db 88 3c 74 86 7d 3c
       0.0006832516 0.038247634 0.016705994 0.015473951
000180 2e 6d 21 bc db 1b 05 3d 56 74 9a 3c f0 32 3e bd
       -0.009852691 0.03249727 0.018854301 -0.046435297
000190 42 31 92 bd 53 11 f5 bc c5 0c b7 3c 49 b4 25 3c
       -0.071383014 -0.029915487 0.022344956 0.010113784
0001a0 b4 21 09 3d 31 db dc 3b 35 b7 6a bd 49 90 0a bd
       0.033479407 0.006739997 -0.057303626 -0.033829007
0001b0 38 f2 c2 3c 76 7a cf bb 3f 69 e8 bb fe 04 1e 3d
       0.02379714 -0.006331737 -0.0070926244 0.03857898
0001c0 a7 0b 66 bb 44 0b a1 3c aa 57 a3 bd 3c 70 15 bd
       -0.003510216 0.019658692 -0.07975705 -0.03648399
0001d0 a0 8b 5d bd 21 5b 02 bd b1 23 ce bb 26 f8 0c 3b
       -0.054088235 -0.03182519 -0.006290876 0.0021510213
0001e0 49 00 13 bd 16 3c 10 bd ec d3 bf bc 34 84 31 3d
       -0.035888944 -0.035213552 -0.023416482 0.04333897
0001f0 eb e5 04 bd 4e 33 03 bd fd 16 a1 3c 16 1a 6f 3c
       -0.03244583 -0.03203135 0.019664282 0.014593622
000200 f7 67 93 3c f1 69 9d bc 9a 2d 5a bc 5f 15 59 3c
       0.01799391 -0.019215556 -0.013316536 0.013249724
000210 01 39 b3 3a aa 6e af 3c 32 21 f0 bc e4 96 80 bc
       0.0013673605 0.021415073 -0.029312704 -0.01569695
000220 a8 f9 af bb 32 bf 3a 3c 56 31 3f bd 25 48 b5 3b
       -0.0053703375 0.011398124 -0.04667791 0.005532282
000230 61 c6 13 bd 52 14 07 3d 18 aa 0e 3c 44 32 c0 bb
       -0.03607786 0.032978363 0.008707546 -0.005865367
000240 34 84 99 3c 64 29 68 3c 60 9b 1b bb fb 10 25 3c
       0.018739797 0.014170025 -0.0023743734 0.010074849
000250 7a 8c 8b 3c 96 0c 3f bd db 08 05 3d 8d 10 9e ba
       0.017034758 -0.046642862 0.03247915 -0.0012059376
000260 26 17 dd bb 02 56 18 bd ca eb 3b bd 16 98 fb 3c
       -0.0067471443 -0.0371914 -0.045879163 0.030712169
000270 c2 39 11 3c 2e aa 2f 3d 0c 1e 8d bb 4e 82 60 bc
       0.008863868 0.042886905 -0.0043065604 -0.013702942
000280 ca ef aa 3a bf b9 b8 3c df 02 0d 3d 5c 50 12 bb
       0.0013041433 0.022549508 0.034426566 -0.002232573
000290 36 5d 29 bd 06 27 05 3d c5 32 1b bd 60 dc 10 3d
       -0.04134866 0.03250792 -0.037890214 0.035366416
0002a0 63 51 25 3b c3 8c e1 3b fd 0d 6a bc 9b b2 1f bc
       0.0025225512 0.006883235 -0.014285562 -0.009747173
0002b0 a4 d4 b9 bc 84 06 e5 3c 51 71 12 bd 16 e8 8e bc
       -0.022684403 0.027957208 -0.0357526 -0.017444652
0002c0 bc fa c6 3a 72 79 45 bc 09 b9 17 bd 12 75 fd 3c
       0.0015180926 -0.012052881 -0.037041698 0.030939613
0002d0 b4 0d 97 3b a4 39 05 3c 53 b8 fc bc d5 04 61 3c
       0.004609788 0.008131418 -0.030849611 0.013734062
0002e0 ba 21 9b bd be f9 37 3c 0e 71 b7 bb 15 15 bc 3c
       -0.07574792 0.011228977 -0.005598194 0.022959271
0002f0 66 f3 f9 bc 90 06 d6 3a 2c c3 22 bd d1 31 54 bc
       -0.03051157 0.001632886 -0.03973691 -0.01295133
000300 d4 c2 11 3d 55 c4 91 3b 27 39 04 bd 11 46 e1 bc
       0.035586193 0.0044484534 -0.032281067 -0.02749923
000310 6e 0f c1 3c c0 a7 17 3d d2 77 c7 bc 42 dd 47 bd
       0.023566928 0.037025213 -0.024349127 -0.048794992
000320 0a 05 0e bd 4a 73 fc 3c ad 83 d7 3c ba df 0d 3d
       -0.034672774 0.030816693 0.026307905 0.03463719
000330 23 01 08 3c 5f c8 08 3c d1 49 7b bc 56 a8 32 bd
       0.008301052 0.008348553 -0.015337423 -0.04361757
000340 c4 c3 80 3c 9d 09 3d 3d 80 8d 26 bd a8 02 95 3c
       0.015718348 0.046151746 -0.04066229 0.018189743
000350 b7 70 a7 bb d3 62 4d 3c cf 10 df 3c 37 eb a1 bd
       -0.005109872 0.012535769 0.027229695 -0.07906192
000360 cf f5 a9 bc 8d 29 c5 3c 74 9b 1f bc 11 e4 af bc
       -0.020747093 0.024067665 -0.009741653 -0.021471055
000370 2b 09 7c bd 1d f0 01 bd 47 4b f4 ba df 60 c2 bb
       -0.06153218 -0.03172313 -0.0018638157 -0.005931958
000380 b0 6c d7 bb 33 36 3c 3b 2e 6d 21 bc 40 a1 96 3c
       -0.006574236 0.0028718829 -0.009852691 0.018387437
000390 b8 b3 1b 3c 86 92 3a 3c 1e bc 10 bc 71 50 c6 bc
       0.0095032975 0.011387473 -0.008833913 -0.02420828
0003a0 f4 0c 0a 3d 28 d6 0e 3d a7 73 fb bc 59 0f 42 bd
       0.03370376 0.034872204 -0.030694796 -0.047377918
0003b0 ea 8c 02 3c 9a 43 ab b6 8a 9d 9d bc 31 f5 13 bd
       0.007968167 -5.104067e-06 -0.01924016 -0.036122505
0003c0 fe b3 0e 3d 9d fb 9a 3b 5a 90 a4 3c 46 b5 63 bd
       0.034839623 0.0047297017 0.020088363 -0.055592798
0003d0 98 10 fb bc 3c f0 38 3c ed 94 87 ba 9c 88 1c bd
       -0.030647561 0.011287745 -0.0010344066 -0.03821622
0003e0 f7 76 ea ba 1a 78 62 bb 52 15 ea 3c f0 c6 d5 bc
       -0.0017888237 -0.003455645 0.02857462 -0.026095837
0003f0 c2 be 51 bd e4 7e 6e 3c 72 da 98 bb 0e 2f 06 3c
       -0.05120731 0.01455662 -0.0046647126 0.00818993
