results/sacnight/Shooter/Shooter-999000.onnx (onnx, 666224 bytes, 14 tensors)

network_body.observation_encoder.processors.0.normalizer.running_mean f4 [68]
000000 b8 a6 5d 3c 58 89 7c 3f 00 00 00 00 a9 21 44 3e
       0.013528518 0.9864707 0.0 0.19153465
000010 21 e5 58 3c 61 9c 7c 3f 00 00 00 00 c8 60 44 3e
       0.013238222 0.98676115 0.0 0.19177544
000020 e7 5e 59 3c 79 9a 7c 3f 00 00 00 00 6a 6c 44 3e
       0.013267255 0.98673207 0.0 0.19181982
000030 da 89 62 3c ca 75 7c 3f 00 00 00 00 e4 0e 45 3e
       0.013826812 0.9861723 0.0 0.19243962
000040 73 0f 5c 3c ab 8f 7c 3f 00 00 00 00 23 47 45 3e
       0.013431418 0.9865672 0.0 0.19265418
000050 bb 41 5b 3c e9 92 7c 3f 00 00 00 00 e5 4c 46 3e
       0.013382371 0.9866167 0.0 0.1936527
000060 a3 89 60 3c cc 7d 7c 3f 00 00 00 00 90 c2 46 3e
       0.01370469 0.9862945 0.0 0.19410157
000070 85 ee 61 3c 38 78 7c 3f 00 00 00 00 9c 10 48 3e
       0.013789778 0.9862094 0.0 0.19537586
000080 16 3e 60 3c ee 7e 7c 3f 00 00 00 00 75 c9 48 3e
       0.013686677 0.9863118 0.0 0.196081
000090 b9 ea 65 3c 47 68 7c 3f 00 00 00 00 09 81 4a 3e
       0.014033013 0.98596615 0.0 0.19775786
0000a0 44 b4 66 3c 19 65 7c 3f 00 00 00 00 ba 69 4b 3e
       0.014081065 0.9859176 0.0 0.1986455
0000b0 c9 e2 69 3c 6c 58 7c 3f 00 00 00 00 e1 9d 4d 3e
       0.014275261 0.9857242 0.0 0.20079757
0000c0 7b 7a 6f 3c ff 41 7c 3f 00 00 00 00 5a ad 4e 3e
       0.014616604 0.985382 0.0 0.20183316
0000d0 00 df 6d 3c 7b 48 7c 3f 00 00 00 00 03 76 51 3e
       0.014518499 0.98548096 0.0 0.20455174
0000e0 46 db 71 3c 86 38 7c 3f 00 00 00 00 d0 a1 52 3e
       0.0147617515 0.9852375 0.0 0.20569539
0000f0 15 90 75 3c a7 29 7c 3f 00 00 00 00 4c ce 55 3e
       0.014987965 0.98501056 0.0 0.20879477
000100 e5 2f 78 3c 33 1f 7c 3f 00 00 00 00 e8 12 57 3e
       0.015148138 0.98485106 0.0 0.21003306

network_body.observation_encoder.processors.1.normalizer.running_mean f4 [52]
000000 b8 a6 5d 3c 58 89 7c 3f 00 00 00 00 a9 21 44 3e
       0.013528518 0.9864707 0.0 0.19153465
000010 bd 14 66 3c a0 67 7c 3f 00 00 00 00 b6 85 4a 3e
       0.01404303 0.9859562 0.0 0.19777569
000020 3d c9 66 3c cd 64 7c 3f 00 00 00 00 ad 6f 4b 3e
       0.014086065 0.9859131 0.0 0.1986682
000030 03 f7 81 3c 36 f0 7b 3f 00 00 00 00 fd 17 60 3e
       0.015864855 0.9841341 0.0 0.21884151
000040 1b f3 84 3c 57 d8 7b 3f 00 00 00 00 f5 84 61 3e
       0.016229203 0.98376983 0.0 0.22023375
000050 e5 0f 93 3c 70 67 7b 3f 00 00 00 00 b8 90 81 3e
       0.017951915 0.9820471 0.0 0.25305724
000060 36 06 9a 3c c0 2f 7b 3f 00 00 00 00 be ac 82 3e
       0.01880179 0.98119736 0.0 0.25522417
000070 94 d3 aa 3c 59 a9 7a 3f 00 00 00 00 55 69 98 3e
       0.020852841 0.97914654 0.0 0.29767862
000080 c4 ac b4 3c 8e 5a 7a 3f 00 00 00 00 14 b4 99 3e
       0.022055037 0.97794425 0.0 0.300202
000090 7a d8 c4 3c 2a d9 79 3f 00 00 00 00 1c 5b b0 3e
       0.024029005 0.9759699 0.0 0.3444451
0000a0 55 ce c7 3c 77 c1 79 3f 00 00 00 00 59 5e b1 3e
       0.024390379 0.9756083 0.0 0.34642294
0000b0 12 16 cc 3c 3b 9f 79 3f 00 00 00 00 12 59 be 3e
       0.024912868 0.9750859 0.0 0.3717733
0000c0 24 a9 cd 3c a3 92 79 3f 00 00 00 00 3a 93 be 3e
       0.025105067 0.97489375 0.0 0.372217

network_body._body_endoder.seq_layers.0.weight f4 [256, 120]
000000 de b2 6e bd 5c 21 b1 bd 0c a7 79 bc 50 c5 84 3d
       -0.05827605 -0.08648941 -0.015237581 0.06482947
000010 71 c7 9d 3c 4b 24 d2 3c 55 2d 8f 3d e4 64 da 3d
       0.01926014 0.025652071 0.06991068 0.106637746
000020 61 d4 26 3c 37 08 95 bd 0f ea ba 3d 0f ae 91 3d
       0.010182471 -0.072769575 0.091266744 0.07113277
000030 2f 7b e0 bd 1e b9 df 3c 8e 30 35 3d f7 5e 64 3d
       -0.109609954 0.02730995 0.04423576 0.055754628
000040 b1 60 b2 bd d0 30 a7 bd 9b bf 84 3d 20 0c 0e 3e
       -0.08709849 -0.08163607 0.06481858 0.13871813
000050 54 35 a8 3d e6 ea 2a be 53 8e 80 3d 48 d0 93 bd
       0.082132965 -0.16691169 0.06277146 -0.07217461
000060 7b 62 87 3c 8a f4 9e 3d 87 99 ef 3d 3e 50 0a bd
       0.016526451 0.07761486 0.11699205 -0.03376793
000070 66 03 03 be 8c 4d 0a 3d 25 f7 2b 3d e1 53 0c 3e
       -0.12794265 0.03376536 0.041983742 0.13703872
000080 e9 93 86 bc 14 28 ae 3d 02 5d 08 3e 8a 97 03 be
       -0.016427951 0.08503738 0.1331673 -0.12850776
000090 2f 47 b3 3d 7b a9 83 bd 8d f0 58 3d 65 f7 3a bd
       0.087538116 -0.0642881 0.052963782 -0.04564609
0000a0 d8 8c 17 3e 25 8c 39 bd bf b0 11 bd b0 5e ce bd
       0.14799821 -0.045299668 -0.03556895 -0.10076654
0000b0 62 ad c1 bd c2 34 22 3d 3c 85 ce 3a cb 05 8f 3d
       -0.09456898 0.039601095 0.001575626 0.06983527
0000c0 27 b1 97 bc 40 91 9d 3c 0a 71 f1 3c ea 78 62 be
       -0.01851709 0.0192343 0.029472847 -0.22116438
0000d0 da d4 98 3c b3 78 97 bd d5 d6 6f bd 28 99 18 3e
       0.018656183 -0.073960684 -0.05855449 0.14902174
0000e0 df 2e 16 3d 72 df 8f bd 2d bd 62 3d f7 75 12 3e
       0.036665794 -0.07025041 0.055356193 0.14302813
0000f0 d7 d8 04 bd 6b d3 6c bc a3 75 7b 3c e8 59 19 be
       -0.032433357 -0.014454703 0.015347871 -0.14975703
000100 fa ca ef 3b 90 da da 3d b8 0c d0 3d 2f 15 a4 3c
       0.007317898 0.10686219 0.10158676 0.020029632
000110 bf 89 02 bd cd 4f 6a 3d 99 b8 73 3b 86 bf 2c 3c
       -0.031869646 0.05720501 0.0037188886 0.01054371
000120 98 9c 1d 3e a0 75 82 3c 79 22 bb bd 27 aa 0b 3e
       0.15391767 0.015925229 -0.091374345 0.13639127
000130 39 07 c4 bc 04 24 09 be d5 d0 09 be 9f 54 7a 3d
       -0.023929225 -0.13392645 -0.1345857 0.061115857
000140 75 7b fc 3c d6 1c d2 3d ee aa 8e bd 53 22 bc bd
       0.030820588 0.10259406 -0.06966196 -0.09186234
000150 d3 85 db bd 99 ec 1e 3d f2 32 eb bd b1 b3 9a 3d
       -0.10718884 0.038799856 -0.114843264 0.07553805
000160 bd 52 ad 3d 11 64 8c bd 7a 60 13 3e 3c 81 c6 bd
       0.08463047 -0.06855024 0.14392272 -0.09692618
000170 a1 70 fe 3c fb b8 f9 3c 8d c8 25 3d 2a 4f 81 bd
       0.031059565 0.030483713 0.040474463 -0.063139275
000180 fd 90 12 3e 91 f4 e8 bd b2 db eb bd 66 1b 0f be
       0.14313121 -0.11374772 -0.11516513 -0.13975295
000190 b2 83 8c 3d 77 d7 41 bd d0 fb bc bd c4 b5 46 3d
       0.068610564 -0.047324624 -0.09227717 0.04851319
0001a0 fe 5e 4d 3c be 1e c5 3d 7f 0d 33 be 9e 18 08 3e
       0.012534855 0.09625004 -0.17485617 0.1329064
0001b0 c9 b5 ab 3d 7a 37 87 3d 63 d9 ad bd ea 97 eb 3d
       0.08384282 0.06602378 -0.08488729 0.11503585
0001c0 de 31 19 be b3 18 a1 bd 47 a1 36 bc 48 84 0a bd
       -0.14960429 -0.07866039 -0.01114685 -0.03381756
0001d0 21 d0 e3 3c 9e 42 5e bd 17 c2 d1 bd 00 77 83 bd
       0.027809205 -0.05426275 -0.10242098 -0.06419182
0001e0 5a c0 92 3d f6 1d 03 3d e8 7f 07 bb 63 e7 d8 bb
       0.071655944 0.032010995 -0.0020675603 -0.0066193803
0001f0 13 64 e1 bc d5 af 6e bc 8a 83 46 bd 14 fc d7 bc
       -0.02751354 -0.014568289 -0.04846529 -0.026365317
000200 f3 83 e8 bd 69 d3 03 3e 87 fa 0d 3e d6 45 ea 3c
       -0.11353292 0.12873615 0.138651 0.028597753
000210 3b 9b 57 bd cc a0 b8 3d d4 cc 28 3d 16 0e d8 3d
       -0.052638274 0.090150446 0.041210964 0.10549562
000220 0d 6e 03 be a3 4f b4 3b 94 56 df bd 78 3f 3a bd
       -0.1283495 0.0055026575 -0.10905185 -0.045470685
000230 68 e8 87 bd 83 6d 05 3c 2c 5a fd 3d 44 a9 53 3e
       -0.06636125 0.008143785 0.123707145 0.20670038
000240 d8 4c 23 bd 63 f0 9a 3d 1d ac e3 3b 4c 50 c1 bd
       -0.039868206 0.075653814 0.0069480077 -0.094391435
000250 18 b6 0f be 31 1b 64 bd 5c 64 12 3d 10 1c 63 bb
       -0.14034307 -0.055689994 0.03574024 -0.0034654178
000260 44 9a 9d 3d 11 43 b6 3d 31 d6 4c bd 3d 63 8c 3d
       0.076954395 0.08899511 -0.050008956 0.06854866
000270 8f c2 64 be a2 1c b5 3d 7f 90 44 bd 34 19 41 be
       -0.22339843 0.08843352 -0.047989365 -0.1885727
000280 f3 ca 64 bd dd 62 a9 bd ba 1a 4d 3d 7c a7 a8 3c
       -0.05585761 -0.0827081 0.050074317 0.020587675
000290 94 a4 de 3a 92 d5 90 bc 04 84 b3 3d b0 ba b5 bc
       0.0016986304 -0.017679963 0.08765414 -0.022183746
0002a0 95 29 06 3d 4d 24 7a bd 73 20 c6 bd ab 35 61 bd
       0.0327545 -0.061069775 -0.09674158 -0.054982822
0002b0 a7 f9 89 bc bd cf 51 3d bf 83 1f b9 4e d3 73 3d
       -0.016842676 0.051223505 -0.00015212501 0.059527688
0002c0 ff 30 f9 3d 52 fb f2 bc 83 d4 e6 bd 64 92 42 3c
       0.121675484 -0.029660854 -0.11271002 0.011875723
0002d0 2e 8c 9a 3b 01 ab 01 be 91 7e 36 3c 0f 6f 5e bc
       0.0047164178 -0.12662889 0.011138574 -0.013576283
0002e0 9f cf 27 3d 68 a3 86 3d 18 6e 9b 3d 65 41 2f bb
       0.040969487 0.06574136 0.07589358 -0.002674186
0002f0 d6 9f c8 bd 09 90 40 3d 66 18 d8 bc b6 cb 5b bd
       -0.09796111 0.047012363 -0.026378822 -0.05366107
000300 aa be 01 3e a9 13 21 3e 52 0f d6 bd 69 84 e0 3d
       0.12670389 0.15730156 -0.10452141 0.10962755
000310 b1 c8 2b bd e4 56 a2 bd 7b ec 91 bd 6c cf d5 3d
       -0.04193944 -0.07926729 -0.07125183 0.10439953
000320 77 a1 40 3d a3 44 5b bc 0b 2a 0f be 20 98 11 be
       0.047028985 -0.0133830635 -0.13980882 -0.14218187
000330 8f ba 17 bc 2f 42 48 bd d0 6d 33 bd a4 4e 3a 3e
       -0.009260788 -0.048891243 -0.043805897 0.18194062
000340 f8 3b 15 bd f8 bf 46 3e 14 40 8a bd 9c 45 f9 bc
       -0.036434144 0.19409168 -0.06750503 -0.0304287
000350 a6 c1 bf 3d 9b 35 38 bd aa 96 cb bc 0d 4a 60 3e
       0.093631074 -0.044972997 -0.024852116 0.21903248
000360 6b fc 7d b9 a0 01 2e 3e 10 77 af bc ab 6b d4 3d
       -0.00024221993 0.16992807 -0.021419078 0.103720985
000370 45 24 91 bc ff 5d 97 3c ed 49 49 3d da ee 41 bb
       -0.01771749 0.018477438 0.049142767 -0.002959183
000380 06 c1 6b 3d 89 14 d6 3c 39 0a f3 bd 5d bc d5 3d
       0.05755713 0.026132839 -0.11867184 0.10436318
000390 b6 04 9f bd 31 44 1b bd c4 65 5d bd e2 d2 8c 3d
       -0.077645704 -0.03790683 -0.05405213 0.0687616
0003a0 61 20 97 3d a2 87 4f b9 26 81 00 3e a1 e6 6f bd
       0.07379223 -0.00019791586 0.12549266 -0.058569554
0003b0 07 23 e7 3c 7e 3d a1 3b dd e9 d4 ba 59 f8 0a 3e
       0.028214945 0.0049206605 -0.0016244013 0.135713
0003c0 0f 37 49 bd da 4c c9 3c 55 b4 17 bc 86 79 d8 bd
       -0.049124774 0.024572778 -0.009259303 -0.10570054
0003d0 7a 34 ee 3c 04 fb 3d 3d 12 ce 21 bd b4 75 33 3e
       0.029077757 0.046381965 -0.039503165 0.17525369
0003e0 b4 cb d9 bd c8 37 1c 3e c4 24 cc 3d 43 a8 36 3e
       -0.106345564 0.15255654 0.0996795 0.17837624
0003f0 c3 c2 6f 3e d2 19 a4 3e e9 91 a1 3d 90 75 cd 3d
       0.2341414 0.3205095 0.07889158 0.10032189

network_body._body_endoder.seq_layers.0.bias f4 [256]
000000 f7 46 cf bc a8 be 80 bb 70 53 08 3a 26 ef b5 bb
       -0.025302393 -0.003928978 0.00052004214 -0.0055521904
000010 28 97 1b bd 6c 7c 1c bd 8d 18 74 bc 09 c8 14 bd
       -0.03798595 -0.038204595 -0.0148984315 -0.03632358
000020 25 a0 67 3b 06 16 3b bc fc 83 c4 bc 08 4e 36 bd
       0.0035343256 -0.011418825 -0.023988716 -0.04450801
000030 6e 72 20 bc 13 28 22 3b c3 fb 7f 3c 4e 73 97 bc
       -0.009792907 0.0024743124 0.0156239895 -0.018487599
000040 35 b9 3c bc d4 4a 6f bb 76 d0 1d 3c 73 e4 1e bb
       -0.011518766 -0.0036513107 0.0096322205 -0.0024245053
000050 d1 14 c2 bc 12 2c 75 bb d2 12 6b ba b2 dd 03 39
       -0.023691567 -0.00374103 -0.0008967343 0.00012575721
000060 70 ba 80 3c 3c 7b 06 bd db 4e 15 bd fc fb 17 bc
       0.0157139 -0.03283237 -0.036452156 -0.009276386
000070 bf ae 72 3c 0b c9 cb bb 78 18 74 bc 68 49 ee bb
       0.0148121705 -0.0062190345 -0.014898412 -0.0072719343
000080 4b e5 f9 3b 1c ce 31 bd b9 d7 6e 3b 10 6d 38 bb
       0.007626211 -0.04340945 0.0036444499 -0.0028141178
000090 ad 20 aa 3b 20 1e a9 3c cb 3a b3 bc 82 d9 01 3b
       0.0051918835 0.020644248 -0.02187862 0.0019813483
0000a0 e6 4b 39 bc 27 fa f5 bc 72 70 f7 bc 81 e0 db bc
       -0.0113095995 -0.030026508 -0.030204985 -0.02684045
0000b0 97 48 4a 3b 7d 73 c6 bc 23 ed 07 bb a4 02 40 bc
       0.003086602 -0.024224991 -0.002074071 -0.01171938
0000c0 a9 b5 c2 bc da 8a 0f bc d5 c6 80 bd 22 27 e4 ba
       -0.023768263 -0.008761132 -0.06287924 -0.0017406682
0000d0 62 1f 84 bd 9d 50 a8 bc 00 a1 23 b6 f8 e0 e5 bb
       -0.06451298 -0.020546252 -2.4382607e-06 -0.0070153438
0000e0 1b 18 28 bb 3c 61 12 bc e6 a3 4b bd 0a 17 dd bc
       -0.0025649134 -0.008934315 -0.049716853 -0.026988525
0000f0 7a f6 e5 ba ae df 57 3b cd 19 91 bc 8a f7 2c bc
       -0.0017544769 0.003293972 -0.017712498 -0.010557065
000100 8d 1b 73 bb a4 e1 bc bc 59 84 00 bd d2 3c 54 bc
       -0.003709528 -0.023056813 -0.031376217 -0.012953954
000110 80 7f 37 bc 8e e5 8f bc db 22 1f 3c c5 d4 45 3c
       -0.011199832 -0.017565515 0.0097129 0.012074654
000120 b0 4f d4 bc 82 c3 5e bb d8 55 86 3b ad d4 c2 bc
       -0.025916904 -0.0033991043 0.004099589 -0.023783052
000130 8f f9 17 bd 19 a7 89 bc 15 81 dd bc a0 4f 46 bc
       -0.037103232 -0.016803311 -0.02703909 -0.012103945
000140 f2 98 d0 bc d0 c8 f1 bc 6f 52 80 bc f9 93 56 3b
       -0.025463555 -0.0295147 -0.015664307 0.0032742007
000150 00 5d 1d 3b 90 0b c8 bc 33 d1 09 bb 7f 39 3b bd
       0.002401173 -0.024419576 -0.0021029233 -0.04570913
000160 13 8a 3b 3b 86 de 48 3b 92 a0 8c bb ef ff be bc
       0.0028616234 0.0030650212 -0.0042916024 -0.023315398
000170 1a a2 29 bd 9e fe a2 3b 35 15 43 bd 87 13 a4 39
       -0.041414358 0.0049742004 -0.047627646 0.00031295067
000180 4f 58 e9 bc 12 1d 56 bc 8d 2d cf bc 10 fa f4 bb
       -0.028484492 -0.013068454 -0.025290275 -0.007476099
000190 67 fb e8 bc 0d ee fa 3b 89 32 24 bd f6 9f 28 bc
       -0.02844019 0.0076577724 -0.040087257 -0.010292044
0001a0 49 ab 43 bb ce 59 fa bc b7 79 b7 bb ea 55 fd bc
       -0.0029856733 -0.0305604 -0.0055992263 -0.030924756
0001b0 50 a1 c1 bc 63 0c fa bc 5b 28 d4 bc 42 63 b6 bc
       -0.02363649 -0.030523485 -0.02589815 -0.022264127
0001c0 8d 70 64 bc f5 09 fc bb f4 99 2d bb 9d 2c 1c bd
       -0.01394285 -0.0076916167 -0.0026489468 -0.038128484
0001d0 e2 31 09 bd 7c 53 72 3c 3d 97 b0 bc b5 0d a5 bc
       -0.033494838 0.014790412 -0.021556491 -0.020148138
0001e0 3e b6 99 bc f0 eb 0b 3b aa ff 23 bc 36 42 aa 3b
       -0.018763658 0.0021350347 -0.0100096855 0.0051958812
0001f0 23 70 cf bc c5 e4 50 bb 54 7d 92 3b e7 cf 2e bb
       -0.025322026 -0.0031874639 0.0044705067 -0.0026674212
000200 30 ad bc bc b8 2d 42 bc d0 47 eb 3a 46 59 dc 3c
       -0.023031801 -0.0118517205 0.0017950479 0.026898038
000210 d7 35 06 bd 23 2d 9c bc a1 4a 88 bc bb 3f f7 bc
       -0.03276619 -0.019064492 -0.016637148 -0.030181756
000220 78 a5 42 bc fe e7 cd 3b 25 a0 db bb 04 4d 29 bc
       -0.011880271 0.006283759 -0.0067024403 -0.010333303
000230 d6 ac 5a bb 66 5e e7 bc 69 66 40 bd e3 f4 63 bb
       -0.0033367178 -0.028243255 -0.046972666 -0.0034783415
000240 8a e1 e0 bc cd 50 7d bc da a1 e5 bc 5f d1 8e bc
       -0.027451295 -0.015461159 -0.028031278 -0.01743382
000250 a5 62 eb bc ab c4 f5 bb 7d 73 21 3b e0 cf 11 bd
       -0.02873356 -0.0075002513 0.0024635487 -0.035598636
000260 4d 0e 59 bb 99 51 d8 bc a4 b9 66 bb 38 f6 a3 38
       -0.0033120096 -0.026406096 -0.0035205865 7.8183075e-05
000270 e8 5b 75 bc 39 53 20 bd 9d f3 82 bc b6 db 58 3a
       -0.014975525 -0.039141867 -0.015985304 0.00082724856
000280 17 82 43 bb b9 50 58 bc 5e 0e 34 bd dc cd 6b bc
       -0.0029832178 -0.0132028395 -0.043959014 -0.014392342
000290 91 f9 7a bc 9c 9c 83 bc 71 ac 42 bc 9f 6f 32 bd
       -0.01531829 -0.016065888 -0.011881934 -0.04356348
0002a0 28 f4 86 bc 5f 13 f4 bc a2 54 3d bc 2b d2 85 bc
       -0.016473845 -0.029794393 -0.011555823 -0.016335567
0002b0 cb e2 c1 bc 3c 38 e2 bb 41 08 a0 39 80 21 86 bc
       -0.023667714 -0.0069036763 0.00030523728 -0.016373396
0002c0 1e 02 21 bb 90 85 62 3b dc 67 94 bc 86 57 11 3c
       -0.0024567912 0.0034564473 -0.01811593 0.008870965
0002d0 07 8a f8 bc 22 7e 75 bc b4 33 4d bc ba eb 90 3c
       -0.030339254 -0.014983686 -0.012524534 0.017690528
0002e0 c8 62 43 bd 13 f2 51 bb e3 96 29 bc 78 6c 0f bd
       -0.047701627 -0.0032035157 -0.010350916 -0.035015553
0002f0 b5 0f be bc b2 2d c5 bc f9 75 cc bc d6 42 00 bd
       -0.02320085 -0.02406964 -0.024958597 -0.03131374
000300 32 4a 68 bc 24 17 8c bc 60 e8 f6 3b e8 85 0d bd
       -0.014177846 -0.017100878 0.0075350255 -0.03455153
000310 6c bf 06 bd 85 14 4f bd f2 ce 9f bc d7 73 8f 3c
       -0.032897398 -0.05055668 -0.019507859 0.017511291
000320 7b 29 4d bc 35 fd cd 39 6d a5 74 bd b3 4e 88 bb
       -0.012522097 0.000392893 -0.059728075 -0.0041597723
000330 29 e2 5d bd c9 3c 39 bd 96 8c 9c bc cc 3c 44 bc
       -0.05417076 -0.045223985 -0.019110005 -0.011977386
000340 f9 f1 a7 bc 8a dd db bb d5 68 f9 bc f7 6f cf bc
       -0.020501124 -0.006709759 -0.030445496 -0.025321944
000350 60 1a 2d 3c ea 83 b3 bc a9 65 d8 b9 a1 4d 42 bc
       0.01056537 -0.021913487 -0.00041274473 -0.0118593285
000360 0d 4b be bc 29 50 e5 3a 90 34 bc bc 5b 8d c1 bc
       -0.023229146 0.0017495203 -0.022974283 -0.023626974
000370 d3 3a d7 3b f1 07 0c bb fd f9 8b 3c d6 21 da bc
       0.0065682917 -0.0021367038 0.017086977 -0.026627462
000380 dd f4 94 3c 03 d5 b7 bc a0 71 0b bd 4a 54 c3 3c
       0.018183166 -0.02244044 -0.034043908 0.023843903
000390 e6 a7 5a 3c 27 95 86 bc 00 57 94 3c 3f 88 17 3c
       0.013345694 -0.016428543 0.018107891 0.009248792
0003a0 60 d0 42 bc 1e 1c c3 bc a4 b1 6b bd 4f 27 0a bd
       -0.011890501 -0.023817118 -0.05754246 -0.033728894
0003b0 22 a4 03 bd 7f 56 22 bc 23 54 f3 bc dc ec 6b bc
       -0.03213895 -0.009908318 -0.029703205 -0.014399733
0003c0 29 43 3a bc 2f 78 2a 3c c4 cf 19 bc 00 82 5e bc
       -0.011368551 0.010404631 -0.009387914 -0.013580799
0003d0 46 07 30 bd 3c 55 63 3c 08 b9 b3 bc e7 eb 07 bd
       -0.042975686 0.013875302 -0.021938816 -0.03318396
0003e0 7d 93 9a bc f7 7c b5 3c 0a 58 1f 3b 20 f1 75 bc
       -0.018869156 0.022154314 0.002431395 -0.015011102
0003f0 7a 56 0c bd bc 14 42 bc 33 9e c0 bc f4 25 d7 bc
       -0.034262158 -0.011845764 -0.023512935 -0.026263215

network_body._body_endoder.seq_layers.2.weight f4 [256, 256]
000000 b3 1d 6c 3d 86 3b 26 bd 4c c4 aa bc b4 ab 26 bd
       0.05764551 -0.04058411 -0.020845555 -0.040691093
000010 ee 22 bc 3c 7c d9 02 be 6f 20 e8 3d bf a7 4e bd
       0.022965875 -0.12778276 0.11334311 -0.050452944
000020 82 40 80 bd b8 5e 97 bd d4 19 b8 bc d6 58 2b 3d
       -0.06262304 -0.07391113 -0.022473253 0.041832767
000030 f6 c8 a6 bd ee f1 b1 bd 7a 8a 7d ba 78 42 81 3d
       -0.08143799 -0.086887226 -0.00096718187 0.06311506
000040 40 f9 95 3c 83 d1 a8 3d 6a 8f ac 3d ba 4c 62 3d
       0.018307328 0.08243086 0.084257916 0.055248953
000050 a1 55 b9 bd 3a 59 1d bd b7 44 27 3d 1c 1a 34 3d
       -0.090495355 -0.03841517 0.040837016 0.043970212
000060 95 e5 50 bd 15 8f 6b bd 69 bc 1a bd 43 49 60 3d
       -0.051000196 -0.0575095 -0.03777734 0.054757368
000070 29 8a 88 3d f2 d6 00 3e 8c aa 0f be fb 08 80 3d
       0.06666977 0.12581995 -0.14029902 0.06251713
000080 d1 41 5a bb 15 45 84 bc f1 40 d4 3c 8f d3 18 bd
       -0.003330339 -0.016146222 0.025909873 -0.037311133
000090 51 a8 08 3d 4a b1 3f bc 01 91 a1 bd b0 de 35 3a
       0.033363644 -0.011699984 -0.078889854 0.0006937785
0000a0 2a 85 1e 3c 29 64 ba bc 30 fe 19 3d 5f c1 f6 3d
       0.0096753035 -0.022752838 0.037595928 0.12048601
0000b0 ae 4e bb bd b9 b9 2a 3c 7c 41 9f 3d dc 22 23 3d
       -0.09145866 0.010420256 0.07776162 0.039828166
0000c0 16 9f 7b 3c f5 bf 12 bd 78 9a d1 3c b8 39 bc bd
       0.015357753 -0.035827596 0.025586352 -0.091906965
0000d0 45 04 19 3b 57 62 10 bd 6e 02 97 3d bf 42 28 3d
       0.0023348492 -0.035250034 0.0737351 0.04107928
0000e0 a1 d6 5d bd 72 d6 eb bc 95 61 8a 3c 82 73 5e 3d
       -0.054159764 -0.028788779 0.016892234 0.054309376
0000f0 9e ab 34 3d 71 81 08 3d eb 8b 91 3c 08 b0 ca bd
       0.04410898 0.03332657 0.017766913 -0.098968565
000100 3d 36 58 bd c4 e8 56 3b ef 29 cb bd 0a 86 64 3b
       -0.0527861 0.0032792548 -0.099201076 0.0034869933
000110 b0 8a 0a 3d b2 f7 5c bd 24 47 ba 3c 18 a7 90 bc
       0.03382367 -0.05394716 0.022739 -0.017657802
000120 1d 75 f5 bd ac 8a 00 3d 91 cf 53 bd 6f 3a 84 bc
       -0.11985228 0.031382248 -0.051711623 -0.016141145
000130 b4 84 04 3d 7a fb c6 bd 62 e9 cb 3d 14 ca 31 bd
       0.032353118 -0.09715934 0.099566236 -0.043405607
000140 67 e7 73 bd 94 13 6c bd 86 6d bd bc a3 e3 1a bc
       -0.059546854 -0.05763586 -0.023123514 -0.009453687
000150 a0 16 ec bc 17 17 13 bc 36 6b 40 3c 8d a8 18 bd
       -0.028819382 -0.008977673 0.011744311 -0.037270118
000160 ed 7a eb bc 84 97 42 3c 73 db bb bd 28 49 32 3a
       -0.028745139 0.011876944 -0.09172716 0.0006801062
000170 19 9b 12 bc 61 cd 25 bd e3 02 04 3d 17 0e 7d 3d
       -0.008948111 -0.040479068 0.032229315 0.061781015
000180 87 7b 0b bc f0 d9 09 3d 92 3d 3f 3d db dc b4 3d
       -0.008513338 0.033655107 0.046689577 0.08831187
000190 10 93 27 bd 05 a4 03 3d a1 ab 9c bc 74 73 4f bd
       -0.040911734 0.032138843 -0.019124808 -0.050647214
0001a0 c6 8b 42 bd 52 fa 88 3d 9d de 40 be 74 da 27 3d
       -0.04749658 0.0668837 -0.1883492 0.040979818
0001b0 3d 6d 6c 3d 25 79 c9 3d c5 72 ad bb 5d ae e1 bc
       0.057721365 0.098375596 -0.0052932226 -0.027548963
0001c0 c2 f5 8d bc 43 66 3c 3d 49 cb 56 3c 84 67 8c bd
       -0.0173291 0.045995962 0.01310999 -0.068556815
0001d0 3e 3d 15 3d 05 d5 be 3d f0 a9 70 3c ca cc 34 3d
       0.03643536 0.09317974 0.014688954 0.044140615
0001e0 10 a2 a8 3b 7d 26 58 bd ea ee 83 bd ee 22 af bc
       0.0051462725 -0.05277108 -0.064420536 -0.02137896
0001f0 36 72 eb bb ad 4f ca bc fc 88 a0 bc 49 8d 1c 3e
       -0.007185246 -0.024696195 -0.01959657 0.15288271
000200 5a b5 b2 3d 42 40 23 3e 4d e4 11 bc d0 c8 0b 3c
       0.08725996 0.15942481 -0.008904529 0.008531764
000210 1b 6a 2d 3d 9e 92 66 bc ac a6 8e bb 0a 3f 9e 3d
       0.04233752 -0.014073042 -0.004353365 0.077268675
000220 3b c7 ab bd 5f 52 12 3b 2f d3 70 3d 78 bb 77 bb
       -0.083876096 0.002232693 0.05879515 -0.003780095
000230 dd 7d e1 bd bf 50 2b bc 13 dd 97 3d 81 74 c5 bc
       -0.11010335 -0.010456263 0.074152134 -0.024103405
000240 78 e3 5b 3d 5f 1d 9f 3d 90 de 6c bd d7 13 21 3d
       0.053683728 0.07769274 -0.05782944 0.03932556
000250 55 67 c3 3d 05 06 76 3c 75 2d a4 3d 1d f5 d8 bc
       0.095411934 0.015016084 0.08016483 -0.026484067
000260 9f 6d 80 3a 9a 58 8a 3c fa d6 7d 3d 97 fc a0 3d
       0.0009798295 0.016887952 0.061972596 0.07860678
000270 52 a1 dd bc 5f 9f 27 bb 53 d0 7f 3b 22 0d 60 bd
       -0.027054463 -0.002557717 0.0039034083 -0.054700024
000280 3a a5 a9 3c bd ad 7c bd 07 75 c8 bc bb 47 b4 3d
       0.020708669 -0.061689127 -0.024469865 0.08802744
000290 a5 00 77 bd 0f 4a 2f bd aa 94 39 3b 99 37 23 be
       -0.06030335 -0.042795237 0.002831737 -0.15939178
0002a0 10 da 5e bb e3 24 32 bd e8 3b 19 be 8f 4a ad bd
       -0.0034004487 -0.04349221 -0.14964259 -0.084614865
0002b0 de ce 61 be c3 77 d3 bd ff ab 19 bd 74 07 d1 3b
       -0.2205157 -0.10325577 -0.037517544 0.0063790623
0002c0 3e 5e ad bd 98 2c 65 3d 6a 6f 31 bc 38 14 87 bd
       -0.08465241 0.05595073 -0.010829786 -0.06595653
0002d0 4c 05 a9 bd 54 9e eb bc 27 57 e2 3c bb 1b 3d 3d
       -0.082529634 -0.02876202 0.027629448 0.046169024
0002e0 95 bc 14 be 51 43 30 3e c7 10 94 bd 72 16 11 bd
       -0.14525063 0.17213179 -0.072297625 -0.035421796
0002f0 80 76 42 bd de 0b 39 bc 56 01 18 bc 17 ef f8 3c
       -0.04747629 -0.011294333 -0.009277662 0.030387444
000300 f9 ee 26 3c a2 2b e8 3c e4 e1 59 3d 87 e3 be bd
       0.010188811 0.028341118 0.05319394 -0.09320741
000310 36 3f ac 3c f7 3c 0f bd 79 d6 b6 bd bb 25 33 bd
       0.021026235 -0.03497025 -0.08927626 -0.043737154
000320 d9 14 d3 3d f1 0c aa 3c f9 25 e6 3d 04 0c 3f 3d
       0.10306711 0.020758124 0.112377115 0.04664232
000330 be f3 b2 3d eb f2 36 be f3 4c 0c bc 28 07 1b bd
       0.087378964 -0.17866103 -0.008563268 -0.03784862
000340 25 48 2c 3c dd c7 af 3d e2 0c 58 3d 97 b3 8a 3c
       0.0105152475 0.08583043 0.05274666 0.016931338
000350 28 77 a7 3c b6 74 1b 3d ce 6d 99 bd 9a 5c a4 bd
       0.02044256 0.0379531 -0.07491647 -0.08025475
000360 77 77 2a 3d 7e 19 92 bd 82 35 8a bd 9b 16 a4 bc
       0.041617837 -0.071337685 -0.06748487 -0.02003031
000370 22 ad 3f bd 61 ff 10 3e e6 f3 aa bd 33 ba 7d bd
       -0.04679597 0.1415992 -0.08347301 -0.06194515
000380 4e be 43 bd f6 48 d8 bd d7 13 e8 b8 6b c0 03 3c
       -0.04778891 -0.10560791 -0.000110663175 0.0080414815
000390 80 f4 00 3d 48 71 82 bc d3 bb b6 3d 7a ce 17 be
       0.031483173 -0.015923157 0.089225434 -0.14824858
0003a0 2a c6 c9 bc e7 3b 8f 3d b5 fd 87 3c 1d 8d 3c b7
       -0.024630625 0.06993847 0.01660047 -1.1238529e-05
0003b0 7a a5 f6 3b cd 6a 67 3d b8 79 49 3c ed a3 28 bb
       0.0075270506 0.056498338 0.012297086 -0.0025732473
0003c0 14 a8 3f bc 25 7a 91 bd e4 46 1c bd 66 4a c4 3b
       -0.011697788 -0.07103375 -0.038153544 0.0059903143
0003d0 0c 1d 6c 38 60 21 07 3d aa ae 79 3c 18 1d 74 3d
       5.6293837e-05 0.032990813 0.015239397 0.05959806
0003e0 13 83 c6 bc 30 24 3f 3d 4e f1 7d bd 9c 6f 50 3d
       -0.024232423 0.04666537 -0.061997704 0.05088769
0003f0 dd c7 b3 bd 43 19 d1 bd 4e c8 c7 bc 48 32 e7 bc
       -0.08778355 -0.102098964 -0.024387505 -0.028222218

network_body._body_endoder.seq_layers.2.bias f4 [256]
000000 1c 1e 9d bc 92 ba b0 bc fa 17 1d 3c f5 bf 52 bc
       -0.019179396 -0.021573339 0.009588236 -0.012863149
000010 31 0e ad ba 0a 6a ca ba 76 a8 ea bb 5f 5c 2e 3c
       -0.0013203082 -0.0015442979 -0.0071611954 0.01064214
000020 6d 2f 83 bc 56 a5 8a bc 98 d5 c1 b9 10 5f 0e bc
       -0.016013825 -0.016924541 -0.00036970968 -0.008689657
000030 ed 72 26 3c 08 73 f1 3b 5c 6b 27 3c 38 11 ec 3c
       0.010159236 0.007368449 0.010218468 0.028816804
000040 b5 b8 e5 bc c8 5e 34 bd e4 7d b5 bc 8c 54 9c bc
       -0.028042177 -0.044035703 -0.022154756 -0.019083284
000050 54 02 93 3b ab 0b b9 3c 58 81 13 3c 6a 8a be 3c
       0.0044863615 0.022588572 0.009003006 0.02325936
000060 b1 32 d7 bc c2 37 25 bb 38 dd e7 bc 84 f4 fb 3b
       -0.026269289 -0.0025210236 -0.028303728 0.0076890606
000070 7e 20 da bc 8b e5 6d ba 0e ce 0c 37 55 9b 4e bc
       -0.026626822 -0.0009075037 8.392626e-06 -0.012610276
000080 07 ac d3 bc 26 74 3b 3c 7e 44 d9 3b 17 5b e3 3b
       -0.025838865 0.011441266 0.0066304794 0.006938349
000090 cd 7c 61 bd 44 ec 00 bc db c2 cf bc 56 d6 88 3c
       -0.05505066 -0.00786883 -0.025361469 0.016703766
0000a0 0f 69 29 bd 99 7a 44 bc b2 98 c2 39 d6 01 64 3c
       -0.041359957 -0.01199212 0.0003711633 0.013916453
0000b0 7b d5 49 3c 8f f3 bb 3c e0 67 04 3d 60 5d d1 3b
       0.012318964 0.022943286 0.032325625 0.006389305
0000c0 2a d5 08 bc 8f 17 71 bc f1 8b 97 3b 2c c9 04 3c
       -0.0083516035 -0.014715089 0.0046248366 0.008104604
0000d0 b6 67 e7 3b 1c a5 c4 3b b5 3f ab bb 7d f8 04 bd
       0.007061924 0.006001128 -0.0052261003 -0.03246354
0000e0 dc fd 18 bd 0d 5b 9b bc a7 04 4c ba b4 5a 7b 3c
       -0.037351474 -0.018964315 -0.00077826757 0.0153414495
0000f0 71 25 ba bc 1a 9b 41 bd 3a 6b 95 3b ff 54 0c bb
       -0.022722932 -0.047267057 0.0045599015 -0.0021412966
000100 80 d1 1e bc 81 92 3a bc 13 ec 72 3c c1 73 fd bb
       -0.009693503 -0.011387468 0.014826792 -0.007734746
000110 59 bd eb bc cd 81 e6 3b ff 5a 09 bc 37 e2 ee bc
       -0.028776811 0.0070345164 -0.008383512 -0.029160602
000120 93 70 e2 3b 6b 33 5d bc 4e 6c 18 bd c4 0c 2e bd
       0.0069103925 -0.0135010285 -0.037212662 -0.042492643
000130 c5 2d ba bc 3a 43 d9 3b 88 fa 68 bd a6 26 74 bc
       -0.022726903 0.0066303285 -0.05687955 -0.014901793
000140 2b 4c 6e bc c7 35 68 3c d5 8b 57 3c 3a 8c db bc
       -0.014544527 0.014172978 0.013155897 -0.026800264
000150 7b fe 10 bd 7d bd 89 bc 36 2d 8e ba 53 75 38 bc
       -0.03539894 -0.016813988 -0.0010847214 -0.011258441
000160 53 30 07 bd 77 a7 72 bc c6 29 86 3b b7 e9 b5 3b
       -0.03300507 -0.014810435 0.0040943353 0.0055515426
000170 bc 8f 48 bc 61 58 ae 3c dc 71 23 bd c6 ab cd bc
       -0.0122413 0.021282377 -0.039903507 -0.025106322
000180 50 c7 9d bb 13 26 16 3c a4 ea 5f bb 4d d5 49 bc
       -0.0048150197 0.009164351 -0.0034166956 -0.012318921
000190 11 43 63 bc 9f 93 9e bc 8a 28 51 3c fe 98 96 3c
       -0.01387097 -0.0193575 0.012766013 0.0183835
0001a0 55 c0 32 bc 52 50 a1 b9 3e a4 1d bd 36 9a 85 bb
       -0.010910113 -0.00030768156 -0.03848671 -0.0040772213
0001b0 a2 8b 95 bc b6 2e 33 3c e6 c3 76 3a 67 0f 13 bd
       -0.018255059 0.01093643 0.00094133464 -0.03590336
0001c0 9b bb 44 bc 2d bb 59 3b 9a ce 49 3c be 5e fe bc
       -0.012007619 0.0033223138 0.012317324 -0.031051036
0001d0 d7 76 07 bc 42 93 2b 3c 47 fb 33 3c d0 0c 31 bc
       -0.00826808 0.010472121 0.010985202 -0.010806277
0001e0 40 ef 7e bc b4 36 29 bd a8 9d 65 3c 87 e4 c2 3c
       -0.015559971 -0.041311935 0.014014639 0.023790611
0001f0 bd a4 4a bd b4 fb c7 bc e5 70 ae 3c 39 76 20 ba
       -0.049473513 -0.024412014 0.021294067 -0.0006121132
000200 e7 0d 4b bb 8f 20 b8 bc a3 b7 d5 bc df 58 6b 3c
       -0.0030983628 -0.022476463 -0.026088541 0.01436445
000210 c8 08 3f 3c 4f 22 fc 3c 92 9d e4 bc 94 c4 23 3c
       0.011659808 0.030778078 -0.027907167 0.009995598
000220 f8 d4 41 3c 1b 95 d2 bb 13 e3 9f bc f7 2c ff bc
       0.011830561 -0.006426466 -0.019517457 -0.03114937
000230 f7 cc 09 3c 1b 40 fa 3c 3c dc f7 3b 2b 24 9a 3c
       0.008410684 0.030548146 0.007564096 0.018816074
000240 28 77 6e bb 9d e7 81 3b 71 16 29 bd ce f1 20 3c
       -0.003638694 0.003964378 -0.041281167 0.009823276
000250 db 13 1b 3c 9e 27 71 3c a9 f6 cf 3c 7a 44 a1 3b
       0.009465183 0.014718918 0.025386171 0.004921493
000260 f8 99 d5 3b 96 1f 98 3a e9 d0 be bc 87 ee 6a bc
       0.0065185986 0.0011606093 -0.023292976 -0.014339096
000270 3d 1e f7 3c e6 00 b6 3a 37 66 59 3c 8b eb 13 ba
       0.030165786 0.0013885766 0.013268999 -0.00056427036
000280 4e 14 5f bc 0b d6 e2 bc 21 68 98 3c 56 93 97 bc
       -0.013615681 -0.027689954 0.01860434 -0.018502872
000290 c5 a0 f3 bc 6e 63 79 bc ab 97 b0 3c 67 e2 f3 bc
       -0.029739747 -0.01522146 0.021556696 -0.029771043
0002a0 cd 43 cc bc 8f b0 13 bd 66 80 17 3c a2 4c 78 ba
       -0.024934674 -0.03605705 0.009246921 -0.00094718684
0002b0 18 bb 7f bc 9c a1 2f bc af d6 9a 3c 8e 44 ea bb
       -0.0156085715 -0.010719683 0.018901197 -0.0071492856
0002c0 7c 99 fa bc 5d bd 2c bc 13 7e 8a 3c c9 f5 81 bb
       -0.030590765 -0.010543195 0.01690582 -0.0039660675
0002d0 a0 4a 33 ba a0 5c 9f 3b f2 7c 6e bb c4 fd 9c bb
       -0.0006839428 0.0048633367 -0.0036390391 -0.0047909934
0002e0 bb a3 cb bb 52 12 8e 3b c0 65 d6 3b a9 60 bd bb
       -0.0062145866 0.00433568 0.0065428913 -0.005779345
0002f0 0b 60 85 bc 7f 61 39 bc 62 4d a7 bc 42 82 b6 bb
       -0.016281148 -0.011314749 -0.020422641 -0.005569727
000300 a5 19 48 bb fe d6 90 3c cf ba 31 bb 58 70 72 bc
       -0.0030532863 0.017680641 -0.0027119403 -0.014797293
000310 33 f9 04 bd 07 27 e8 bc 3d 78 dc bc b9 90 a5 3b
       -0.032464217 -0.028338922 -0.026912803 0.0050526527
000320 17 ee 5b 3c 3f b4 7c bc dc 02 ee bc a0 03 43 3b
       0.013423464 -0.015423833 -0.029054098 0.00297568
000330 ba e5 eb bc f0 25 ae bc 5a 42 e7 3b 11 95 fe 3b
       -0.028796066 -0.021258324 0.0070574703 0.007769235
000340 60 5e a4 bc e5 7c 29 bd 3c 41 15 bc c6 32 e3 bb
       -0.020064533 -0.041378874 -0.009109791 -0.006933543
000350 c2 c4 fa bb 3b 0e e4 bc 63 b5 f0 bc 9c cc 93 ba
       -0.00765285 -0.027838817 -0.029383367 -0.0011276188
000360 d9 b0 19 3c 19 1f 2a bb 35 48 fa bb d6 74 2b bd
       0.009380543 -0.0025958477 -0.0076380023 -0.04185947
000370 cb cf 34 bc 33 2b fd 3b d3 db c8 bc 51 41 95 3b
       -0.01103587 0.007726097 -0.024518883 0.0045549055
000380 c3 ec fd bb 5c d6 d5 bc d3 1c 39 3c ce aa 56 bc
       -0.0077491715 -0.026103191 0.011298376 -0.013102246
000390 18 44 c1 3c 2b f8 7a 39 d9 cb 93 bb 8d 6c 1a bd
       0.02359204 0.00023934308 -0.0045103845 -0.03770118
0003a0 1d 10 e4 bc 42 27 e9 bc fd 27 dd bb f2 65 07 bc
       -0.027839715 -0.028461102 -0.0067491517 -0.008264052
0003b0 c6 0f 1a 3c 58 89 d8 bc 61 09 8d 3c 0b c4 68 bc
       0.009403175 -0.026432678 0.017216386 -0.014206897
0003c0 5b a5 63 bd 73 d8 26 bd 95 f6 0c 3c 1e 3b 00 bd
       -0.055577617 -0.040733766 0.008603712 -0.03130638
0003d0 5e c3 71 bc 02 f4 b8 bc 96 80 89 bc 8b 6c 5b ba
       -0.014756052 -0.02257729 -0.016784947 -0.0008370361
0003e0 8c 74 2d 3b ce c4 8e bc 23 e1 06 bc 77 69 3e 3a
       0.0026467172 -0.017427828 -0.008232388 0.00072636403
0003f0 a1 a3 08 3d 95 98 2b bb 5d 84 c2 bc de 2e 26 bc
       0.033359174 -0.0026183475 -0.023744756 -0.01014301

network_body._body_endoder.seq_layers.4.weight f4 [256, 256]
000000 eb 41 22 be 19 9d 87 3d 31 be 09 bd ea 9b 23 bc
       -0.15845458 0.06621761 -0.033628646 -0.009985903
000010 72 db 34 3d 1c 9f ff bd b1 b5 84 bb c5 0a 2e bd
       0.04415459 -0.124815196 -0.0040499796 -0.04249074
000020 3d 08 8b bd 6b d1 46 bc 01 ce 93 bc 47 6b 27 3a
       -0.06788681 -0.01213489 -0.018042566 0.000638653
000030 4d 0c c8 3c a6 23 a3 bd 6e 34 6c 3b 6a 0b d1 3d
       0.024419928 -0.07965784 0.0036041993 0.10207255
000040 b1 f0 34 bd 6a c0 45 bd ae 09 df 3c a9 11 20 bd
       -0.044174854 -0.048279203 0.027226295 -0.039079342
000050 53 3c 32 bc 69 3c 04 3d 19 5c 21 3e b7 ed 83 bc
       -0.01087864 0.032284174 0.15757789 -0.016104562
000060 29 3f 6c 3d 93 37 b7 3c 03 6b a0 3d 55 4a 84 bd
       0.05767742 0.022365367 0.07832911 -0.0645949
000070 89 a7 e0 bd 16 02 98 bc 5a b0 08 3d 5f 79 3a 3d
       -0.10969455 -0.018555682 0.033371307 0.045525905
000080 77 4c 89 bd b9 99 10 bd c0 6b d2 bd 79 1b 27 ba
       -0.06704038 -0.03530285 -0.10274458 -0.0006374638
000090 c0 b4 af bd 0d 5b be bc 02 f7 5f bd 39 c1 08 3d
       -0.08579397 -0.023236776 -0.054678924 0.033387396
0000a0 68 75 12 bd 31 29 e5 bc cc f7 00 bd 6e 92 3d 3d
       -0.0357565 -0.027973743 -0.031486318 0.046282224
0000b0 fc b5 af 39 3b 86 ab 3c c1 f2 ab bd 14 25 86 3c
       0.0003351419 0.02093803 -0.08395911 0.016375102
0000c0 61 3e 97 bc 8a 4b 32 3d 08 21 c6 3c ae a4 1b 3d
       -0.018462362 0.04352907 0.024185672 0.037998848
0000d0 ae b3 a7 bd d9 47 33 bd 6d 46 d6 3d 08 be ad bb
       -0.08188568 -0.04376969 0.104626514 -0.0053021945
0000e0 70 24 8c 3b e7 ab 52 bc 5e f8 8d bd b5 21 3a bd
       0.0042768046 -0.0128583675 -0.06932138 -0.0454423
0000f0 cd a0 91 bd 13 29 13 bb 9f 23 90 bd a4 38 b9 bc
       -0.071107484 -0.0022454902 -0.07038044 -0.022610016
000100 a0 82 9c 3d d1 ef 01 3e 51 27 9e bc 64 31 38 3e
       0.07642102 0.12689139 -0.019305857 0.17987591
000110 53 49 76 bc 0c 91 ec 3c a3 58 ba bc ae 03 7a bd
       -0.01503213 0.028877757 -0.022747343 -0.061038665
000120 fb fe 6d 39 58 f8 d6 bc a4 e9 a3 3c 2e dd c7 3c
       0.00022697069 -0.026241466 0.02000887 0.024397459
000130 db 51 89 3d cb 20 8c 3d 88 9e 6c 3c ea 23 11 be
       0.06705066 0.06842192 0.014442094 -0.14173856
000140 00 4f 42 bd 1d f5 2f 3d bc ee 64 3d 7b 1e 69 bd
       -0.04743862 0.042958368 0.055891737 -0.056913834
000150 fb 0e 8c bb de ce 0a bd 71 60 94 3d c3 f7 22 3e
       -0.0042742467 -0.03388869 0.07244957 0.15914826
000160 ec d9 43 bc b0 30 9c bc 47 c1 2a be 45 a1 34 bd
       -0.011953812 -0.019066185 -0.16675292 -0.04409911
000170 c9 23 7b bd 74 27 5f bb 08 49 24 3d a2 27 29 bd
       -0.061313424 -0.0034050616 0.04010871 -0.041297562
000180 89 80 70 3c 24 8d 51 3d 1e ac 0a 3d 93 2d d5 3c
       0.014679083 0.051159993 0.03385555 0.026022708
000190 83 ba c3 3c 44 11 43 bc f1 5a f9 3d 2e ff 65 3d
       0.023892647 -0.011905972 0.12175549 0.05615156
0001a0 10 b0 d4 ba e7 c2 18 bd 8c 90 33 3d d0 f1 90 bd
       -0.0016226787 -0.03729525 0.043839023 -0.07077372
0001b0 93 b6 49 3d 04 bd e7 3d a0 03 41 3c a0 8a b7 3c
       0.049246382 0.11315349 0.011780649 0.022404969
0001c0 e0 9b 22 bd 9b f8 99 3d d4 95 96 3d 8d de eb bc
       -0.039699435 0.07518121 0.07352796 -0.028792644
0001d0 9e 65 8e bc a1 89 26 bd 7e 8e cf bd 32 69 f7 3d
       -0.01738244 -0.040658597 -0.101346 0.12080611
0001e0 6a 9c 63 3b e9 2b 6a bd 3d 3b 20 be d3 42 19 3d
       0.0034730681 -0.057170782 -0.15647598 0.037417244
0001f0 6c 0a f8 3d fd 60 b1 3c b6 b4 52 3d 60 bf 48 3d
       0.12111363 0.021652693 0.05144187 0.049010634
000200 91 b2 07 3c 46 00 82 3d ec 30 15 3b 53 f6 a3 3c
       0.00828232 0.063477084 0.0022764755 0.020014917
000210 60 eb 8a 3c 1a 2e a8 bc 5c 8b 18 3d d1 2f 95 bd
       0.016957939 -0.020529795 0.03724228 -0.07284511
000220 93 f2 04 3d bb a4 48 bc 92 d5 ad 3d 3a dd e3 bd
       0.0324579 -0.012246306 0.08488001 -0.1112618
000230 bb 05 84 bd 5c 66 06 bd 66 6f 0a be 53 7d 1c 3c
       -0.064464055 -0.03281246 -0.13519058 0.009551364
000240 6b 2a f5 3c 38 7b 84 bc 86 09 74 3d af 4d 0e 3d
       0.029927453 -0.016172037 0.059579395 0.034742054
000250 59 e9 02 3c b3 15 9a bc 62 8a 7b bd 65 f9 da bd
       0.007990205 -0.018809175 -0.06141127 -0.106920995
000260 e8 cf fe bd 1c 9e 16 3e 46 12 bf 3c 38 70 1a 3d
       -0.12441999 0.14708751 0.023324143 0.037704676
000270 ea c6 af bd 3a cb f4 bd 04 e6 e6 3c 3a 32 f9 3c
       -0.08582862 -0.11952825 0.028185852 0.030419458
000280 16 4e 05 3e 1c c6 8f bd 63 91 7a 3c 71 1e cf bc
       0.13018069 -0.07020208 0.015293452 -0.02528307
000290 fe 33 3a bd 80 15 a3 3d 85 91 0c be d7 5e d2 3d
       -0.04545974 0.07963085 -0.13727386 0.102719955
0002a0 c4 12 38 3d aa 51 5b 3b 70 e1 6e bc 42 57 2f bd
       0.04493977 0.0033465424 -0.014580116 -0.042807825
0002b0 60 7f ef bc 8e 1a 97 bd 66 f6 f4 3c c0 b1 8a bd
       -0.029235542 -0.07378112 0.029902648 -0.06772184
0002c0 db 1a bd 3d 64 05 ad 3c 30 02 4c 3c 4a 2b 0a bd
       0.09233638 0.021120735 0.012451693 -0.03373269
0002d0 69 6b 2a 3d 90 58 d1 bd 35 c0 94 3b 44 28 05 bd
       0.04160634 -0.1022197 0.0045395144 -0.032509103
0002e0 ec 57 22 3d 8a bf ba 3d 9a 95 89 bc b7 c5 8c 3d
       0.03963463 0.091185644 -0.016794968 0.068736486
0002f0 20 37 b6 3d 7a 67 07 3d 1c b7 8a 3d 2e 1d e6 bb
       0.08897233 0.033057667 0.067732066 -0.0070225215
000300 06 fa c9 ba 43 ea bf bc bd 14 01 3d bb 03 96 bd
       -0.0015409596 -0.023427134 0.03151392 -0.0732493
000310 01 51 67 bc b3 31 2a bd cf e0 7c bd 06 9e c9 3c
       -0.014118434 -0.041551303 -0.06173783 0.024611484
000320 ae 84 e3 bd 69 c8 90 3d 8c a9 4d 3c 94 a5 d2 3d
       -0.11109291 0.07069475 0.01255263 0.10285488
000330 ca e8 bc bd ab 40 06 be 73 68 99 bc 41 f3 3d bd
       -0.092240885 -0.13110606 -0.018726563 -0.046374563
000340 8e 4d 37 bd 4f 3d a4 bd 84 54 c1 3c df 95 6b bd
       -0.044751696 -0.08019506 0.02359987 -0.057515975
000350 c8 83 ae 3c df 6a e5 bb 6e fb 06 3d 8a c3 31 bd
       0.021303073 -0.0070012654 0.032954626 -0.04339937
000360 bc 4f b6 bd bc f3 c5 3c 2f 27 2e 3d e0 aa 86 3c
       -0.08901927 0.024164073 0.042517837 0.016438901
000370 88 19 e4 3b 27 a7 2f 3d de fe c9 bd 83 62 90 bd
       0.0069610514 0.04288402 -0.09863065 -0.070500396
000380 1f 8c dd bd 98 52 39 b8 d2 d6 e9 3d 04 62 26 be
       -0.108177416 -4.418436e-05 0.11417927 -0.16248327
000390 f9 45 ff bd d6 f5 0e bd 21 1e 35 bd dd 6d 29 bd
       -0.12464518 -0.034902416 -0.044218186 -0.04136454
0003a0 8e 25 4f 3d 94 13 f3 3c bf a0 e6 3d 27 e9 8f 3d
       0.050572924 0.029672422 0.11261129 0.07026892
0003b0 7d 98 2f bb b8 bc b2 3d bf 92 cb 3d f0 63 ea bc
       -0.002679377 0.087274015 0.09940099 -0.028612107
0003c0 50 51 e1 bd 5c e8 ce 3c 73 fa a0 bd 2e 8c 89 3b
       -0.11001837 0.025257282 -0.078602694 0.004197619
0003d0 5d 14 7e bd 08 a3 56 bc 8c 9e 85 3d b2 12 34 bd
       -0.06203114 -0.013100393 0.06524381 -0.04396314
0003e0 d2 4e d8 bd 8c c5 42 3d dc 31 e8 3c c4 65 af bc
       -0.10561909 0.047551677 0.028344087 -0.02141083
0003f0 23 a2 6b bd b2 34 e5 bc 65 12 38 bc c4 1f 0d bd
       -0.057527672 -0.027979229 -0.011234854 -0.034454122

network_body._body_endoder.seq_layers.4.bias f4 [256]
000000 28 96 c2 bc 14 97 53 3d c5 13 16 3d 6a e2 4b 3d
       -0.02375324 0.05165775 0.036639947 0.049776472
000010 60 75 d5 bc 34 c3 bd 3c 98 52 1d 3d 86 9a f5 bc
       -0.026056945 0.02316437 0.038408846 -0.02998091
000020 c2 a5 79 bd 37 02 56 3c c7 67 88 bc 53 7d 0e bd
       -0.060949095 0.0130620515 -0.016651047 -0.034787487
000030 29 8c ea 3c 70 f1 77 bc 64 54 f1 3b 10 18 40 bd
       0.028631287 -0.015133247 0.0073647965 -0.046897948
000040 f8 f6 6b 3b 13 f5 04 3c 28 6b 87 3c a0 44 15 bd
       0.003600536 0.008115071 0.016530588 -0.0364424
000050 6c b0 09 bd cb 9d 27 3d 02 58 87 bb 78 bc 64 bd
       -0.033615515 0.040921967 -0.0041303644 -0.0558438
000060 68 e2 ce 3c 18 9e cf bc 8b 62 7e bc 6c eb fe 3c
       0.025254443 -0.02534394 -0.015526424 0.031118117
000070 f5 2d 4c 3d 54 9e bf 3c 24 ef 94 bc 5d d8 ae bc
       0.049848516 0.023390926 -0.018180437 -0.021343404
000080 fb 0f 1d 3c 21 ff 8d 3c f7 53 35 bd cd 45 9f bc
       0.00958633 0.017333569 -0.04426953 -0.019442463
000090 2d eb 06 3d c9 13 c3 3c 84 20 1c 3d 7f 8c 0e 3d
       0.032939125 0.023813145 0.038116947 0.034801956
0000a0 34 7f 8e bc 35 79 17 bd 9d 14 91 bd 7d 7d e6 3c
       -0.01739464 -0.036980826 -0.0708401 0.02813601
0000b0 27 3e 08 3d 4c 06 88 bd 13 4e e2 bc 91 66 2b 3d
       0.033262398 -0.06641826 -0.02762512 0.04184586
0000c0 6a 90 42 bd 39 6a 70 3c 60 55 35 3c ed c0 19 3d
       -0.047501005 0.014673763 0.011067718 0.037537504
0000d0 5f dc 9a 3c 71 f6 a1 3c 94 ab 8c 3c f3 18 7d 3c
       0.01890391 0.019770833 0.017171659 0.015447843
0000e0 dc f5 01 bb e0 d0 f6 3c ed 6d 3f 3d 16 df 6c 3c
       -0.0019830381 0.030128896 0.046735693 0.014457485
0000f0 0f e2 f5 3c 30 43 0c bd 6b 75 01 3c 9b 22 67 ba
       0.03001502 -0.034243762 0.00790153 -0.00088171073
000100 99 31 fb 39 59 df 05 bd d4 9c 07 bd de 12 2a bc
       0.00047911404 -0.032683704 -0.033108547 -0.010380475
000110 19 b1 5a bd bd f0 ab 3b 4f 63 fc 3c 6d 78 ec 3c
       -0.05339155 0.005247204 0.030809073 0.028866017
000120 f6 0f e4 3a d2 23 3d 3c 79 36 c2 bc 2a c8 11 bd
       0.0017399776 0.011544185 -0.023707615 -0.035591282
000130 b3 04 16 bd 48 17 b7 3c 27 51 3c 3d 1e b2 06 bd
       -0.036625575 0.022349969 0.04597583 -0.03288471
000140 72 29 62 bd 9e 14 91 3c 4a 45 2e bd 1c 39 ee 3c
       -0.055215307 0.017710026 -0.042546548 0.029079966
000150 00 44 d0 bc ff f4 85 3c ec 87 2a bd 23 ce ae 3a
       -0.02542305 0.016352175 -0.04163353 0.001333658
000160 99 f9 3c 3d 42 db 87 bc fd ac 37 bd 9b 88 81 3a
       0.046136472 -0.016584042 -0.04484271 0.000988263
000170 9c 3c 70 bb 8f 95 39 3d bb 69 40 3c 77 f3 9e 3c
       -0.003665722 0.045308646 0.011743958 0.019403202
000180 e6 ff 2c bc 40 6e ff 3c ff 48 6b 3c 93 ce 4e bd
       -0.010559058 0.031180501 0.014360665 -0.050489973
000190 18 1a cb bd 9e 7f 00 bd 45 7c f5 3c 82 3c 4a 3c
       -0.09917086 -0.031371705 0.029966483 0.012343528
0001a0 9b 93 17 3d 2f eb 99 3b 7d 80 a8 bd 15 dd 0c bd
       0.037006002 0.0046972255 -0.08227632 -0.034390528
0001b0 e7 f9 da 3c 3c 7d 43 bb 1c ba d2 bb 3b d1 3e 3d
       0.02673049 -0.0029829284 -0.0064308774 0.046586256
0001c0 3c af ab 3a 61 c7 f7 3c f2 14 d6 bd 20 77 1d bd
       0.0013098489 0.030246438 -0.10453214 -0.038443685
0001d0 f8 23 8b bd 89 11 1e bd c9 b4 6b ba 99 00 05 bb
       -0.0679397 -0.03859094 -0.00089914777 -0.0020294546
0001e0 f0 9f 24 bd 44 27 20 bd 27 21 a1 bc b9 b9 5c 3d
       -0.04019159 -0.039099947 -0.019669129 0.053888056
0001f0 06 ed 27 bd 2f 44 1f bd 9f 5b 91 3c 34 e4 34 3c
       -0.040997528 -0.038883384 0.017743884 0.011040736
000200 5e b3 9f 3c b2 1d bb bc 3a 4b 19 bc c1 27 99 3c
       0.019494709 -0.022841308 -0.009356314 0.018695714
000210 b1 56 af 3a ae 1d d5 3c e3 1a 0b bd ec 65 2f bc
       0.0013377276 0.026015129 -0.033961188 -0.010705452
000220 8e 1b ce bb 70 4e 72 3c c9 9f 70 bd 2a 67 a6 3b
       -0.006289906 0.014789209 -0.058746133 0.005078216
000230 11 19 13 bd 17 ce 2a 3d fc 1a 5b 3c 2c 48 b9 bb
       -0.035912577 0.04170045 0.013373133 -0.0056543555
000240 51 c3 a6 3c c3 ea 8d 3c 6c e7 f2 bb 26 d4 15 3c
       0.020356806 0.017323857 -0.0074128415 0.009144818
000250 24 6a c7 3c 6b 4d 54 bd 46 ed 39 3d 52 22 bd bb
       0.024342604 -0.051831644 0.045392297 -0.0057719136
000260 13 c2 e0 bb 55 20 10 bd 91 28 7e bd dc d6 1b 3d
       -0.006859073 -0.035187084 -0.062050406 0.038046703
000270 b0 af 4e 3c 1e 81 4a 3d a7 54 30 ba 3a 1f 86 bc
       0.012615129 0.049439542 -0.00067264814 -0.016372312
000280 b9 a5 53 bb 86 6f e3 3c 34 a9 2b 3d 3a e7 21 bb
       -0.0032294823 0.02776314 0.04190941 -0.0024704472
000290 7e 0f 4a bd 14 ba 1c 3d a0 a5 28 bd b6 94 0e 3d
       -0.04933118 0.038263395 -0.041173577 0.03480979
0002a0 e0 5f b4 3b e3 49 66 3b 40 20 6a bc 2c 57 55 bc
       0.0055045933 0.0035139255 -0.014289916 -0.013021272
0002b0 df d8 d4 bc b6 ae 1a 3d d3 8a 30 bd 97 4a 8e bc
       -0.025982318 0.037764274 -0.043101143 -0.017369552
0002c0 f1 02 ac 3b 8f 1e de bb 61 be 2f bd 77 d2 12 3d
       0.005249374 -0.006778545 -0.04290617 0.035845246
0002d0 b2 25 28 3b 5c 13 70 3c b2 20 28 bd 1b 56 47 3c
       0.0025657234 0.014653053 -0.041046806 0.012166525
0002e0 94 0f db bd 89 b6 97 3c 12 69 fd bb 11 7f 9a 3c
       -0.10696331 0.018519657 -0.0077334726 0.018859418
0002f0 1a 2d 22 bd 46 1a 3b ba 6e 56 3a bd a9 74 69 bc
       -0.039593793 -0.0007137399 -0.045492582 -0.014249005
000300 f0 2d 41 3d ed e1 86 3b d7 9c 16 bd 42 b4 1b bd
       0.04716295 0.004116288 -0.036770668 -0.038013704
000310 3a 27 d9 3c 37 cd 2e 3d 84 52 a7 bc 46 1d 84 bd
       0.026507962 0.042676177 -0.020425089 -0.06450896
000320 34 f5 2c bd e5 5a f9 3c 6f 81 03 3d f4 f2 1d 3d
       -0.04222603 0.03043885 0.03210586 0.038561776
000330 d7 ad 0c 3c bb 2c 2a 3c 45 fc b0 bc 2d 06 50 bd
       0.0085863685 0.010386641 -0.021604666 -0.05078714
000340 b6 3f 75 3c c8 38 68 3d d5 3b 53 bd 1a 46 b3 3c
       0.014968803 0.056694776 -0.051570732 0.021884013
000350 92 a2 00 bc 62 f9 2f 3c 9b ea 09 3d b2 67 dc bd
       -0.00785126 0.01074061 0.033671003 -0.10761966
000360 44 70 cb bc e8 a0 c8 3c 15 c6 52 bc f3 78 e4 bc
       -0.024833806 0.024490789 -0.012864609 -0.027889704
000370 02 b6 95 bd 7a 0b 1b bd 45 09 8e bb 01 b1 2e bb
       -0.07310106 -0.03785274 -0.004334601 -0.0026655796
000380 b6 f2 f4 bb cc 08 90 39 0c fb 2c bc 3c e0 bd 3c
       -0.0074752225 0.00027472374 -0.010557901 0.023178212
000390 60 07 38 3c ce 35 54 3c b7 93 06 bc 1c a1 0d bd
       0.011232227 0.012952281 -0.008213929 -0.034577474
0003a0 a8 b3 31 3d 44 fa 2c 3d e8 4e 13 bd 0d 97 70 bd
       0.043384224 0.04223086 -0.035963923 -0.058737803
0003b0 f9 b4 b3 3b 16 0c 62 ba d6 8f a7 bc a6 44 18 bd
       0.00548422 -0.0008623017 -0.020454329 -0.037174843
0003c0 28 47 34 3d 55 4f 75 3a 73 88 bb 3c 19 31 9d bd
       0.044013172 0.00093578297 0.022892212 -0.0767538
0003d0 7f 55 0c bd 1a 8c 68 3c 09 90 9e 3a 58 3e 31 bd
       -0.034261223 0.014193559 0.0012097369 -0.043272346
0003e0 10 cf 98 bb 8a 87 8b 3b 04 c7 fd 3c 10 d4 f3 bc
       -0.0046633556 0.004258101 0.030978687 -0.029764205
0003f0 c4 ba 88 bd e2 f5 4d 3c c5 8b c3 bb b1 62 21 3c
       -0.06676248 0.01257083 -0.0059675896 0.00985019
