results/sacnight/Shooter/Shooter-2265000.onnx (onnx, 666224 bytes, 14 tensors)

network_body.observation_encoder.processors.0.normalizer.running_mean f4 [68]
000000 6e c9 10 3c d9 bc 7d 3f 00 00 00 00 89 50 09 3e
       0.008837087 0.99116284 0.0 0.13409628
000010 c4 5a 0f 3c 88 c2 7d 3f 00 00 00 00 9b 92 09 3e
       0.008749668 0.99124956 0.0 0.13434832
000020 28 ad 0d 3c 4a c9 7d 3f 00 00 00 00 46 95 09 3e
       0.008647241 0.9913527 0.0 0.1343585
000030 7b bc 14 3c 10 ad 7d 3f 00 00 00 00 0c 4f 0a 3e
       0.00907814 0.990922 0.0 0.13506716
000040 10 1f 10 3c 81 bf 7d 3f 00 00 00 00 f7 64 0a 3e
       0.008796468 0.99120337 0.0 0.13515078
000050 43 f7 11 3c 19 b8 7d 3f 00 00 00 00 c1 9e 0b 3e
       0.008909049 0.99109036 0.0 0.13634779
000060 75 0d 12 3c c1 b7 7d 3f 00 00 00 00 30 cb 0b 3e
       0.008914341 0.9910851 0.0 0.13651729
000070 a7 1e 15 3c 7c ab 7d 3f 00 00 00 00 f6 7f 0d 3e
       0.009101546 0.9908979 0.0 0.13818344
000080 21 1f 14 3c 72 af 7d 3f 00 00 00 00 75 c2 0d 3e
       0.009040625 0.99095833 0.0 0.1384371
000090 22 0d 1b 3c c2 93 7d 3f 00 00 00 00 f0 0d 10 3e
       0.00946358 0.99053586 0.0 0.14067817
0000a0 32 c0 18 3c eb 9c 7d 3f 00 00 00 00 63 4d 10 3e
       0.009323167 0.9906756 0.0 0.1409202
0000b0 67 9f 1f 3c 76 81 7d 3f 00 00 00 00 f2 60 13 3e
       0.009742594 0.99025667 0.0 0.1439245
0000c0 3a 63 21 3c 79 7a 7d 3f 00 00 00 00 f1 78 13 3e
       0.009850318 0.99015003 0.0 0.14401604
0000d0 ce ad 24 3c 58 6d 7d 3f 00 00 00 00 3d 9a 17 3e
       0.010051204 0.9899497 0.0 0.14804931
0000e0 5a d9 26 3c 8d 64 7d 3f 00 00 00 00 9b 49 17 3e
       0.010183657 0.98981553 0.0 0.14774172
0000f0 8f 03 2c 3c d8 4f 7d 3f 00 00 00 00 af 95 1c 3e
       0.010498895 0.98949957 0.0 0.15291475
000100 8a 7a 2f 3c 09 42 7d 3f 00 00 00 00 79 9f 1b 3e
       0.010710368 0.98928887 0.0 0.15197553

network_body.observation_encoder.processors.1.normalizer.running_mean f4 [52]
000000 6e c9 10 3c d9 bc 7d 3f 00 00 00 00 89 50 09 3e
       0.008837087 0.99116284 0.0 0.13409628
000010 4d 23 1b 3c 60 93 7d 3f 00 00 00 00 5f 13 10 3e
       0.009468866 0.99053 0.0 0.1406989
000020 86 e1 18 3c 71 9c 7d 3f 00 00 00 00 d9 52 10 3e
       0.009331113 0.99066836 0.0 0.14094104
000030 12 9c 3f 3c 8c 01 7d 3f 00 00 00 00 c1 35 29 3e
       0.011694925 0.98830485 0.0 0.16524412
000040 e0 b6 41 3c 22 f9 7c 3f 00 00 00 00 25 48 26 3e
       0.011823386 0.98817647 0.0 0.16238458
000050 41 e0 7d 3c 79 08 7c 3f 00 00 00 00 ae 9c 5b 3e
       0.015495361 0.9845043 0.0 0.21446487
000060 b3 2e 82 3c 8b ee 7b 3f 00 00 00 00 84 40 51 3e
       0.015891409 0.9841086 0.0 0.20434767
000070 a4 c4 ad 3c d3 91 7a 3f 00 00 00 00 82 af 96 3e
       0.02121193 0.9787876 0.0 0.29430777
000080 f8 ac ae 3c 92 8a 7a 3f 00 00 00 00 40 f3 8b 3e
       0.021322712 0.9786769 0.0 0.27334023
000090 69 78 ef 3c 39 84 78 3f 00 00 00 00 a7 ec c8 3e
       0.02923222 0.97076756 0.0 0.3924305
0000a0 b3 46 de 3c be 0d 79 3f 00 00 00 00 9c 4d bd 3e
       0.027133321 0.97286594 0.0 0.36973274
0000b0 46 b7 e5 3c 3e d2 78 3f 00 00 00 00 d7 70 e3 3e
       0.028041493 0.97195804 0.0 0.44422027
0000c0 58 b5 e1 3c 47 f2 78 3f 00 00 00 00 e0 13 df 3e
       0.027552292 0.97244686 0.0 0.4356985

network_body._body_endoder.seq_layers.0.weight f4 [256, 120]
000000 56 22 7a bd 10 69 ab bd 0c a7 79 bc fc c5 ac 3d
       -0.0610679 -0.083696485 -0.015237581 0.084362
000010 aa 9b 89 3d 21 84 b6 bc 55 2d 8f 3d 85 24 01 3e
       0.06719144 -0.0222798 0.06991068 0.12611587
000020 8f 68 19 3d b0 e1 cc bd 0f ea ba 3d fd 3c 98 3d
       0.03745323 -0.10003984 0.091266744 0.074335076
000030 87 b2 f5 bd 12 4b 1a 3d 8e 30 35 3d eb 46 9a 3d
       -0.11996942 0.03766925 0.04423576 0.07533058
000040 f5 c5 a3 bd 28 cc b5 bd 9b bf 84 3d 64 91 16 3e
       -0.07996742 -0.0887683 0.06481858 0.147039
000050 b6 f0 c6 3d 8c 48 3a be 53 8e 80 3d eb a1 a5 bd
       0.09713881 -0.18191737 0.06277146 -0.08087524
000060 ab 90 6a 3c ed 7a a3 3d 87 99 ef 3d 83 95 14 bd
       0.014316718 0.079824306 0.11699205 -0.036275398
000070 6a c8 26 be 07 b0 8c 3d 25 f7 2b 3d be d0 05 3e
       -0.1628739 0.06869512 0.041983742 0.1306791
000080 d8 cd 3d 3d e0 6f b6 3c 02 5d 08 3e fc de 1a be
       0.046338886 0.022270143 0.1331673 -0.15124124
000090 87 42 02 3e b9 e7 d4 bd 8d f0 58 3d 2d 9d 9e bd
       0.1272069 -0.1039576 0.052963782 -0.07744823
0000a0 5c 61 3f 3e e3 6e ac bd bf b0 11 bd 63 f0 24 be
       0.18689483 -0.084195875 -0.03556895 -0.16107325
0000b0 18 bc 9b bd 25 a3 ac 3c 3c 85 ce 3a a3 00 38 3c
       -0.076042354 0.021073887 0.001575626 0.011230621
0000c0 06 6b 0a bd 72 5b 0d 3d 0a 71 f1 3c 9d 11 93 be
       -0.03379347 0.034511037 0.029472847 -0.28724375
0000d0 e2 77 95 bc 56 c9 17 bd d5 d6 6f bd a0 aa 89 3d
       -0.018245641 -0.037057243 -0.05855449 0.06721997
0000e0 9e 61 1d 3d 37 79 93 bd 2d bd 62 3d 16 44 b8 3d
       0.038423173 -0.07200854 0.055356193 0.08997361
0000f0 3d 96 1a bc e6 68 19 bd a3 75 7b 3c ee 38 7a be
       -0.009435234 -0.037453555 0.015347871 -0.2443578
000100 b5 77 8e bc 9f ba 06 3e b8 0c d0 3d 10 9c a0 bc
       -0.017391065 0.13157128 0.10158676 -0.019605666
000110 54 fa 0d bd ea bf 75 3d 99 b8 73 3b 8f 64 f6 3c
       -0.03466256 0.059997477 0.0037188886 0.030077247
000120 c1 8d 43 3e 9b 14 ad bc 79 22 bb bd 26 f6 d6 3d
       0.19097044 -0.02112799 -0.091374345 0.10496168
000130 11 d9 14 3c e0 f2 2a be d5 d0 09 be 3c ca a3 3a
       0.009084956 -0.16694212 -0.1345857 0.0012496184
000140 cc 1a 86 3c 83 b4 ef 3d ee aa 8e bd 7e 3b 17 be
       0.0163702 0.11704352 -0.06966196 -0.14768788
000150 ff e7 24 be db c1 bd 3d f2 32 eb bd fb 08 13 3d
       -0.16104124 0.092654906 -0.114843264 0.035897236
000160 0f 03 db 3d 70 14 ba bd 7a 60 13 3e b1 02 13 be
       0.10693943 -0.090859294 0.14392272 -0.14356495
000170 2d ea 0d 3d ad 55 dc 3c 8d c8 25 3d ae 68 a3 bd
       0.034647156 0.026896322 0.040474463 -0.079789504
000180 f4 38 c4 3d 0d 0c 88 bd b2 db eb bd e5 94 9c be
       0.095811754 -0.066429235 -0.11516513 -0.30582348
000190 81 25 36 3d 2f eb bd bc d0 fb bc bd 83 07 5a 3d
       0.04446936 -0.023183433 -0.09227717 0.05322982
0001a0 5c 43 cf ba 87 07 e2 3d 7f 0d 33 be 0b b2 86 3e
       -0.0015812921 0.11036592 -0.17485617 0.2630771
0001b0 63 93 f2 3b fa e1 11 3e 63 d9 ad bd 24 df a5 3d
       0.007402824 0.1424636 -0.08488729 0.08099201
0001c0 d1 59 1f be 1c ca 94 bd 47 a1 36 bc e0 d2 8f bd
       -0.15561606 -0.07265112 -0.01114685 -0.07022643
0001d0 5a f4 d2 3d 00 91 04 be 17 c2 d1 bd ea d6 24 bd
       0.103005126 -0.12945938 -0.10242098 -0.04024402
0001e0 8c 87 a0 3d 32 22 cf 3c e8 7f 07 bb 60 1a 97 bc
       0.078383535 0.02528486 -0.0020675603 -0.018445194
0001f0 43 72 b4 bc a5 47 a4 bc 8a 83 46 bd 78 d8 c6 bc
       -0.02202714 -0.020053694 -0.04846529 -0.024273142
000200 81 8c 20 be ae 1d 30 3e 87 fa 0d 3e 8a 21 99 ba
       -0.15678598 0.17198822 0.138651 -0.0011682969
000210 2a 5e cd bd b0 18 0d 3e d4 cc 28 3d 61 c0 e2 3d
       -0.10027726 0.13778949 0.041210964 0.110718496
000220 13 88 1b be ba e2 ed 3c 94 56 df bd dc cd bd bd
       -0.15188627 0.029038776 -0.10905185 -0.0926778
000230 b7 59 cc bd ff 3c 2a 3d 2c 5a fd 3d 19 d3 5c 3e
       -0.09978049 0.041562077 0.123707145 0.21564902
000240 3f c6 b8 bd 13 08 01 3e 1d ac e3 3b 34 90 fd bd
       -0.090221874 0.12600736 0.0069480077 -0.1238102
000250 87 53 0d be 74 a3 6d bd 5c 64 12 3d 43 63 15 3d
       -0.13801394 -0.05801721 0.03574024 0.036471616
000260 14 a5 79 3d 3c 0b d7 3d 31 d6 4c bd 8e ef 5b 3d
       0.060948446 0.1050019 -0.050008956 0.053695254
000270 24 00 68 be c9 96 bb 3d 7f 90 44 bd 98 7a 19 be
       -0.22656304 0.09159619 -0.047989365 -0.14988172
000280 08 47 0f bd 99 25 d4 bd ba 1a 4d 3d 96 c2 35 bc
       -0.03497985 -0.10358734 0.050074317 -0.011093756
000290 81 f0 15 bd 32 f5 a8 3c 04 84 b3 3d d0 6e ea 3c
       -0.036606316 0.02062473 0.08765414 0.028617293
0002a0 df 4a 00 3d 1e 46 74 bd 73 20 c6 bd 4f 85 86 bd
       0.031321403 -0.05963718 -0.09674158 -0.06568395
0002b0 d6 63 65 bd a1 1a b9 3d bf 83 1f b9 70 fb 03 3e
       -0.056003414 0.09038282 -0.00015212501 0.12888885
0002c0 3b 2f da 3d dc e9 6d bc 83 d4 e6 bd 24 5d 1c 3c
       0.1065354 -0.014521088 -0.11271002 0.009543691
0002d0 17 47 87 3d b5 79 40 be 91 7e 36 3c e1 3e d7 3c
       0.06605356 -0.18796428 0.011138574 0.0262751
0002e0 c1 75 09 3d 6e d0 95 3d 18 6e 9b 3d c2 b7 24 bb
       0.033559565 0.073151454 0.07589358 -0.0025133942
0002f0 a8 d8 ba bd 0c 03 25 3d 66 18 d8 bc 61 1d 86 bd
       -0.09123355 0.04028611 -0.026378822 -0.06548572
000300 cf cd 35 3e f1 09 da 3d 52 0f d6 bd e6 a7 16 3e
       0.17754291 0.106464274 -0.10452141 0.14712486
000310 65 08 e9 bc 0c f9 bd bd 7b ec 91 bd ce 61 96 3d
       -0.028446386 -0.092760175 -0.07125183 0.073428735
000320 79 47 3c 3e 20 d3 19 be 0b 2a 0f be cb cf fb bd
       0.1838664 -0.15021944 -0.13980882 -0.12295493
000330 f6 3c 29 3d ea b6 cb bd d0 6d 33 bd 91 8d 9b 3e
       0.041317903 -0.099469975 -0.043805897 0.30381444
000340 12 2b 9a bd 00 87 6e 3e 14 40 8a bd ac f1 ae bc
       -0.07527746 0.23293686 -0.06750503 -0.021355473
000350 3e a5 17 3e 11 a2 cb bd aa 96 cb bc c5 b7 bb 3e
       0.14809129 -0.09943021 -0.024852116 0.36663643
000360 44 f0 5a bd 6e 7e 64 3e 10 77 af bc eb c5 66 3e
       -0.05345179 0.22313854 -0.021419078 0.22536437
000370 76 9a 10 bd 73 b7 13 3d ed 49 49 3d 4a fa 16 3c
       -0.035303555 0.036063623 0.049142767 0.009214947
000380 20 c7 e7 3d 54 83 f1 bc 39 0a f3 bd f0 dc 11 3e
       0.11317277 -0.029481567 -0.11867184 0.14244437
000390 d0 92 65 bd 65 bb 73 bd c4 65 5d bd bd f9 f3 3d
       -0.056048214 -0.059504885 -0.05405213 0.11912868
0003a0 33 bc 02 3e ac 7f 5d bd 26 81 00 3e ed fd 4a bc
       0.12767105 -0.054076836 0.12549266 -0.012389642
0003b0 b8 00 b7 3c 77 e4 30 3c dd e9 d4 ba 13 bc 33 3e
       0.02233921 0.010796658 -0.0016244013 0.17552213
0003c0 f4 4e 12 3c 11 24 09 bd 55 b4 17 bc 49 0a ae bd
       0.008929957 -0.03348166 -0.009259303 -0.084980555
0003d0 03 4b 20 3c 17 81 86 3d 12 ce 21 bd e6 5c 65 3e
       0.009783509 0.06567591 -0.039503165 0.22398719
0003e0 e1 b4 f6 bd 91 ac 2a 3e c4 24 cc 3d 0f c9 49 3e
       -0.12046219 0.16667391 0.0996795 0.19705604
0003f0 5f 2d 8f 3e cb cd 8c 3e e9 91 a1 3d 33 ef 28 3e
       0.27964303 0.27500758 0.07889158 0.16497497

network_body._body_endoder.seq_layers.0.bias f4 [256]
000000 18 96 92 bd 55 ee aa 3b ae b8 1c 3b c1 ff 07 bd
       -0.07157534 0.0052163997 0.0023913789 -0.03320289
000010 c5 f8 01 3b cc a1 7c bc 4c bf 19 bd 2c d5 b9 bb
       0.0019832116 -0.015419435 -0.03753595 -0.005671164
000020 4d 34 e6 bd 3e 36 13 bd 71 97 75 bd 82 4a 5f bc
       -0.11240444 -0.0359404 -0.05995888 -0.013628604
000030 e8 79 96 3c 78 3b b0 bd ae 8d ed 3c 08 3d 10 bd
       0.018368676 -0.08605093 0.028998222 -0.035214454
000040 1e 2a 8e bd 83 c6 1a bd 1d 1a 6e bd 99 d2 93 bd
       -0.06941627 -0.03778697 -0.058130372 -0.07217903
000050 7d e5 8c bd 88 41 23 bd 6b 8d 39 bd 21 7a 7f bc
       -0.06879709 -0.039857417 -0.045300882 -0.015593083
000060 ed 95 08 bd b2 3c 96 bd 33 7d 92 bd 90 1d 6f bd
       -0.033346105 -0.073357955 -0.07152786 -0.058377802
000070 d7 ed a0 bd e7 c5 9b bd aa 95 8c bd 68 2e 91 bc
       -0.07857864 -0.07606106 -0.06864484 -0.017722324
000080 9a d8 07 bc 7a 83 01 bc a2 59 a2 3c b7 1c 4b bd
       -0.008291388 -0.007904882 0.01981813 -0.04958793
000090 93 a8 96 bd ea b6 9d 3d bd 82 90 3c 4f be 24 3c
       -0.07356372 0.07700904 0.017640466 0.010055139
0000a0 7d 94 8d bd c6 35 16 3c 09 8d 3a bd 7f 19 7c bc
       -0.069130875 0.009168094 -0.045544658 -0.015386938
0000b0 f4 ea 53 bd 38 cf 6e 3b 47 b7 3f 3c e1 22 7a 3c
       -0.05173774 0.003643943 0.011701412 0.015267105
0000c0 17 a2 10 3d 76 8e f9 3c 57 05 c7 bd 4d 04 18 3d
       0.03531083 0.030463438 -0.09717815 0.037113477
0000d0 8d 22 9b bd 00 11 d4 bc be 13 b5 3a 8e 6f db 3c
       -0.075749494 -0.025887012 0.0013815088 0.026786592
0000e0 35 26 f8 bc fb 0d 1f bd 31 61 07 bd 58 26 94 bd
       -0.030291656 -0.038831692 -0.033051673 -0.07233876
0000f0 31 dc 41 bc 4c c2 0a 3d 3b e2 a1 bd a1 86 0d 3c
       -0.011832283 0.033876702 -0.07904478 0.008638055
000100 6d 49 55 bd 5f 32 fd bc ac 4e c2 bd b0 90 98 bd
       -0.052071977 -0.030907808 -0.09487662 -0.07449472
000110 c5 19 cb bd fb 9c c1 bd 84 e4 85 bd 7f 99 41 bb
       -0.099170245 -0.0945377 -0.065377265 -0.0029540954
000120 d3 39 9b bc c5 c0 19 3c 09 e8 18 bd 70 a5 74 bd
       -0.018948471 0.009384339 -0.03733066 -0.059728086
000130 2d ce 19 bd 98 d0 7a bb a9 f6 95 3d 0a 92 17 3d
       -0.03755014 -0.0038271304 0.07322437 0.037004508
000140 6d 23 01 bd 28 b6 9f bc b6 86 2e 3d 00 56 f0 bb
       -0.031527925 -0.019496039 0.04260894 -0.0073344707
000150 f1 33 88 bc bb ad a0 bd d9 a4 aa 3d e5 28 3f bd
       -0.01662633 -0.078456365 0.083322234 -0.04666986
000160 bb 7a f4 bc 68 e8 3b 3d e1 f3 26 bc 1e c3 9c bc
       -0.029843679 0.045875937 -0.010189981 -0.019136008
000170 5d 65 0f bd c9 5f 19 3d 3b 7c ce bd 9d 3f df 3d
       -0.035008777 0.037444863 -0.10082289 0.10900805
000180 75 12 8e bd 6a 12 01 3d 3a 57 0f bd c0 d9 cf 3b
       -0.06937114 0.0315117 -0.034995295 0.0063430965
000190 8e 17 80 bd 41 59 34 3d 5d bd 14 be 95 98 40 bd
       -0.06254493 0.04403043 -0.14525361 -0.047020514
0001a0 54 e8 10 bc a5 60 c5 bc ea 2f c6 3c 3d 70 d7 bd
       -0.008844454 -0.024093935 0.02419277 -0.10519455
0001b0 d8 15 16 bd 6d e9 61 bc 1f 05 0f 3a 83 98 56 3c
       -0.036641926 -0.013788563 0.000545578 0.013097885
0001c0 10 68 b8 bc fe c9 7c bd 75 54 3f bd 6b 1b 12 3b
       -0.022510558 -0.061716072 -0.046711404 0.0022294174
0001d0 45 a0 c9 3c 06 2b 53 3c 80 6e c0 bc 6e ed 07 bd
       0.024612555 0.012888676 -0.02349019 -0.033185415
0001e0 a9 1b b8 bd 1a 7c 4b bd 51 41 48 bd 58 d3 e6 3c
       -0.08989651 -0.0496789 -0.048890416 0.028176948
0001f0 7a a3 04 bd 31 55 91 bc e0 ad 55 bd 0d c0 82 3c
       -0.032382466 -0.017740818 -0.052167773 0.015960718
000200 73 2e 13 3d 83 0d 4c bc 1c 5f b7 bd 75 44 07 3d
       0.03593297 -0.012454393 -0.089536875 0.03302427
000210 46 5a 91 bd 6c 97 f4 bd e5 00 c4 bb c4 62 99 bd
       -0.070972964 -0.11942944 -0.005981552 -0.07489541
000220 4f 72 50 bc 8e 94 00 bd c6 cf 3d bd 11 23 a2 bd
       -0.012722566 -0.031391673 -0.046340726 -0.07916845
000230 b3 43 8c bd 37 11 f4 bc ab aa f9 bb b0 94 83 3b
       -0.0684885 -0.029793365 -0.007619222 0.0040155277
000240 48 71 89 bc 16 ec b9 bd 69 4d cd bc 41 4b 9f bd
       -0.01677765 -0.09078233 -0.025061326 -0.077780254
000250 6e b3 e7 bd 88 82 ca bd 66 24 80 3d d6 21 87 bd
       -0.1131352 -0.09888178 0.062569425 -0.065982506
000260 c3 e3 57 bc eb 78 26 3d 23 94 32 bd f3 e2 54 bd
       -0.013176861 0.04064266 -0.043598305 -0.05197425
000270 c6 65 77 bd 33 01 09 be dd 3c c4 bd 25 89 e6 3c
       -0.060399793 -0.13379364 -0.09581921 0.028141567
000280 ed 8b 0c bd b0 1b ee bb be 6c cc bb e4 ee 5e bd
       -0.03431313 -0.007266484 -0.006238549 -0.054427043
000290 31 af a5 bd ab b5 a4 bd ac 53 f4 3c 7c 2e 18 bd
       -0.08090056 -0.08042463 0.029825054 -0.037153706
0002a0 17 65 35 bd 03 17 4c bd 17 1f dd bd 07 d0 7a 3d
       -0.04428586 -0.049826633 -0.107969455 0.061233547
0002b0 ec 40 dd bd 0b cb 81 bd 57 75 93 ba ac 49 e3 3c
       -0.108033985 -0.063375555 -0.001125018 0.02774509
0002c0 cf 01 1c bd fa 47 d0 3c 11 67 e6 bd 66 19 6f 3d
       -0.038087662 0.025424946 -0.11250127 0.05837383
0002d0 85 ac 99 bd f6 18 cf bd 47 48 96 3c f3 6b 95 3d
       -0.075036086 -0.10112183 0.018345011 0.0729598
0002e0 b9 51 be bd a0 6f 3e 3c 72 58 32 bd d1 81 d6 bd
       -0.09292931 0.011623293 -0.04354138 -0.10473979
0002f0 9c bb 8f bd 06 d5 ad bd 14 ba 66 3d 6f f4 7c bd
       -0.070182055 -0.084878966 0.0563298 -0.061756548
000300 cd be 6f bc 1d dc b7 bd 8b d2 df bc ee d9 5b bd
       -0.014632893 -0.0897753 -0.027322074 -0.05367463
000310 5e 7f b6 bd 81 f3 c2 bd 59 88 f1 bd bb 03 28 3c
       -0.08911012 -0.09519101 -0.117935844 0.010254796
000320 cc 2a 8d bc d0 3b a6 bd 67 83 f5 bd 2b 8e d3 3b
       -0.017232321 -0.08116877 -0.11987954 0.0064561567
000330 86 25 14 3d 28 c8 0c be 17 c3 bd bb 69 ff 3e bd
       0.036168598 -0.13748229 -0.005791079 -0.046630297
000340 18 b8 19 bd 40 98 53 3d 4e b9 55 bd 27 f3 d7 bd
       -0.03752908 0.05165887 -0.052178673 -0.105444245
000350 af 6b e2 bc 2f 20 78 bd 86 f7 6a bd ee c5 c6 3b
       -0.027639238 -0.060577568 -0.057364963 0.0060660755
000360 8e f7 b9 bd 6b 6e ef bc c1 bd a6 bc b7 7a 6a 3c
       -0.090804204 -0.029227456 -0.020354154 0.014311484
000370 fe 95 88 bc 63 5b ba 3c 95 dc 17 bb fe 48 2a bc
       -0.016673084 0.022748655 -0.0023172249 -0.010393379
000380 96 e6 1e bb 0d 72 8b bd ea c4 4a bd be a4 8f bd
       -0.0024246327 -0.06808863 -0.049504198 -0.07013844
000390 e0 c2 b9 bc 2f 42 87 3c c8 9a 92 3c 2f 5b 53 bd
       -0.022675931 0.016511051 0.017896071 -0.05160063
0003a0 9b 30 03 bd 78 29 ce bd 6d a6 02 bc 95 62 91 bd
       -0.032028776 -0.10066503 -0.007974249 -0.07098881
0003b0 7a 67 cf bd 73 36 85 bc d0 5a 3f bd 62 fd ac bc
       -0.101271585 -0.016261315 -0.046717465 -0.021116916
0003c0 3d 71 3b bc 4d cd 1a bb d9 79 ac bc c0 54 02 bd
       -0.011440572 -0.0023620904 -0.021054195 -0.031819105
0003d0 d2 64 75 bd 11 41 09 3d 43 f9 e7 3b 6d f1 b5 bc
       -0.059910603 0.033509318 0.007079275 -0.022209847
0003e0 f8 1d a2 bc ad 5a 54 3d 52 d8 a3 bd 27 68 c5 bd
       -0.01978968 0.051844288 -0.08000244 -0.09639006
0003f0 e5 f9 92 bd b3 ca be bc fc 8f 67 bd 05 fb f1 3b
       -0.0717657 -0.023290014 -0.0565338 0.00738466

network_body._body_endoder.seq_layers.2.weight f4 [256, 256]
000000 bb 74 bd 3d 79 64 67 bc 43 74 7e 3d eb ea fc bd
       0.0925078 -0.014123076 0.062122595 -0.123494945
000010 c5 99 9c 3d 32 28 25 be da 43 0a 3e d3 bf ed bd
       0.07646517 -0.16128615 0.13502446 -0.11608853
000020 a3 17 7c bd 3c da df bd 60 ed fd 3c 84 ec 71 3c
       -0.06154598 -0.10930297 0.030996978 0.014765862
000030 e8 3f 08 be fe ea 92 bd dd bd a8 bc 45 ab b5 3d
       -0.13305628 -0.071737275 -0.020598346 0.08870558
000040 1e 08 15 3d cf b9 6d 3d 3c 35 aa 3d 3f 1b 5d 3d
       0.036384694 0.05803853 0.08310935 0.053981062
000050 ed 2e 8e bd 21 09 c4 bd e9 dd 85 3d 1f a9 27 3d
       -0.06942544 -0.09572054 0.06536467 0.04093277
000060 1c b4 69 bc 2b db 29 bd bd 48 9f bd 5d 64 c4 3d
       -0.014264133 -0.04146878 -0.077775456 0.09589455
000070 25 a7 4a 3d 55 73 06 3e 1c 29 cd bd e9 85 0c 3d
       0.049475808 0.13129933 -0.100176066 0.034307394
000080 15 a1 05 3d 7d 94 81 bb 67 32 78 3d 3e ed f5 bd
       0.032624323 -0.0039544688 0.060594942 -0.12008141
000090 cf 83 34 3d ed b4 09 bc 5b 8f 31 3d 4f 41 9f 3c
       0.044071015 -0.0084049525 0.043349605 0.019440321
0000a0 dc 65 33 3c cf 98 3e 3c 39 07 89 3d 55 36 6a 3e
       0.010949578 0.011633112 0.06690831 0.22872289
0000b0 61 16 9f bc 85 f6 ac 3b fa 53 e3 3d f1 95 5f bb
       -0.01941985 0.005278411 0.11100002 -0.0034116472
0000c0 22 9f 0d 3d a7 b1 94 bc 22 1f fd b9 06 90 a7 bd
       0.03457559 -0.018151117 -0.00048279116 -0.08181767
0000d0 31 2f 47 3d 0d ec 84 bd e3 7f 1d 3e d4 73 99 3d
       0.04862899 -0.064903356 0.15380816 0.074927956
0000e0 3d 8a 51 bd 45 94 ad bd 10 c5 7f bc b6 22 f4 3d
       -0.051157225 -0.08475546 -0.015610948 0.11920683
0000f0 77 df 49 3d 2d e2 af 3c d7 ea 81 3c a5 c5 d5 bd
       0.04928538 0.021470154 0.01585905 -0.10438088
000100 6e 02 9f bc 8b 11 67 bc c4 8b 1a be 56 89 25 3c
       -0.019410338 -0.014103304 -0.15092379 0.010103544
000110 cb e6 b8 3d e3 14 4b bd cb d5 33 bc a3 67 21 3d
       0.09028395 -0.049580466 -0.010976265 0.039405476
000120 be df ba bd eb bf 5c 3d 4f b0 f9 bc 49 81 c4 bc
       -0.09124707 0.053893965 -0.030479578 -0.02398743
000130 db 96 1b bd 80 54 ed bd e6 64 6d 3d 0f 51 72 bd
       -0.037985664 -0.11588383 0.057957552 -0.059159335
000140 ed 50 f2 bc 77 72 07 be 6b fe 9c bc 0a 78 11 ba
       -0.029579604 -0.13227259 -0.019164285 -0.0005549198
000150 4d f7 47 bc 63 a7 1b 3d e5 db 25 bd 25 18 44 bd
       -0.012204957 0.03800143 -0.04049291 -0.04787459
000160 82 cd 90 3c 62 86 b3 3c f2 97 02 be 0c 86 ad 3c
       0.017676119 0.021914665 -0.12753275 0.021182083
000170 9b 5c 07 3c f8 07 55 bd 6d 66 6f 3c 42 6b be 3d
       0.008261825 -0.052009553 0.014611823 0.092978016
000180 64 df e4 bc a4 e4 85 3d f6 a1 42 3d 88 cb d2 3d
       -0.027938552 0.0653775 0.04751774 0.10292727
000190 e2 08 49 bd 40 08 af 3b c1 b9 dd bc c7 f0 78 3c
       -0.049080737 0.0053415596 -0.027066113 0.015194125
0001a0 b6 a4 f3 bd d7 bb b5 3d 0a 09 45 be c8 61 18 3d
       -0.118966505 0.08873718 -0.1924173 0.037202626
0001b0 db b8 ba 3d b0 a3 1b 3e 4d 57 47 3d 31 f9 7d 3d
       0.0911729 0.1519916 0.04866724 0.062005226
0001c0 ff 25 a4 bd 86 8e 12 3d 40 68 98 bc 99 c9 a4 bd
       -0.0801506 0.035780452 -0.018604398 -0.08046264
0001d0 3e 12 15 3d 58 25 e5 3d 8b 7b a9 3b ac 34 76 3c
       0.03639435 0.111887634 0.005172198 0.015027206
0001e0 38 5e 26 3d 68 de 2b be b9 30 f6 bd a8 1c 60 ba
       0.040617198 -0.1678406 -0.12021012 -0.0008549192
0001f0 28 2f 84 3c 52 e8 16 bd 5d 41 95 bc 13 71 34 3e
       0.016135767 -0.03684265 -0.018219644 0.1762126
000200 0e 9e 30 3e 8e b8 3e 3e 56 12 c2 3c 3b c6 c0 3b
       0.17247793 0.1862509 0.023690384 0.005883006
000210 cc f6 4d 3d 50 2b 95 bc 88 0f 36 3b 01 b3 00 3d
       0.050284192 -0.01820913 0.0027780253 0.03142071
000220 5b 9c 08 be c2 2a f7 3d c7 70 e2 3d 1e 81 cc bc
       -0.13340895 0.12068702 0.11056667 -0.024963912
000230 3c 61 f9 bd 24 87 c2 3a e9 06 1c 3e 93 21 77 bd
       -0.12176749 0.00148413 0.15237011 -0.060334753
000240 29 16 c5 3d b1 44 62 3d 37 52 35 3d c9 bb b9 3d
       0.09623367 0.05524129 0.04426786 0.0906902
000250 90 42 cb 3d 2f 42 b6 bd ed 65 7e 3e fa b8 ce bc
       0.09924805 -0.08899342 0.24843569 -0.025234688
000260 97 a6 33 bc 78 08 40 3e e3 d2 bd 3d 2c 83 b5 3d
       -0.010965011 0.1875323 0.09268739 0.0886291
000270 ec 13 89 3c 2f c8 56 bc 4e 82 93 3c 3f a2 5b bd
       0.016733132 -0.013109251 0.01800647 -0.053621527
000280 9d 8a 52 3d 16 b3 3f bd 91 23 6f bd 37 04 e9 3d
       0.051401723 -0.04680165 -0.05838353 0.11377757
000290 27 9d 0a bd 13 ba e7 bc 42 6f 7b 3c 5c d2 2d be
       -0.03384128 -0.02828697 0.01534635 -0.16974777
0002a0 7b ed 8d 3d eb 6d 22 bd a0 0e 43 be a0 60 83 bd
       0.069300614 -0.039655607 -0.19048548 -0.06414914
0002b0 7e 55 9c be 8a 7f 10 be cb 9a c8 bd 3f 76 db 3c
       -0.30533975 -0.14111152 -0.097951494 0.026789783
0002c0 7d b7 41 bd d9 8d ce 3d 36 4f fe bc eb 68 99 bd
       -0.04729413 0.10085649 -0.03104363 -0.07490715
0002d0 6c 59 2d bd e8 bc a0 3d d6 3a e4 3c 2b a7 61 3d
       -0.042321607 0.07848531 0.027860086 0.055091064
0002e0 8a 1b ff bd 40 b1 5c 3e 2a e8 fc bd d8 cf 21 bd
       -0.124564245 0.2155199 -0.12348969 -0.039504856
0002f0 77 76 7a bd 22 c9 60 3d e9 08 d8 bc 95 2f ae 3b
       -0.061148133 0.054879315 -0.026371436 0.005315731
000300 53 61 21 3c 55 15 2f bc 7e f5 82 3d 42 2c e4 bd
       0.009849864 -0.010686238 0.0639448 -0.11141254
000310 87 39 80 3d f8 99 e5 bc 85 db 8c bd f3 2f 0d bd
       0.062609725 -0.02802752 -0.068778075 -0.034469556
000320 b3 f3 fb 3d d3 44 3e bd 38 73 21 3e b5 35 b3 3d
       0.12302341 -0.046452355 0.15766609 0.08750478
000330 d2 b0 d2 3d 4d 4f 77 be c0 2f 3b bc ac 59 10 bd
       0.10287632 -0.24151345 -0.011424959 -0.035241768
000340 07 24 26 3c 9b ab 3b 3d 99 8e 21 3d 12 99 3c 3d
       0.0101404255 0.045817953 0.039442632 0.046044417
000350 e2 de 04 bd 13 13 ab 3d b2 d0 8d bd 6c 55 27 be
       -0.03243912 0.083532475 -0.06924571 -0.1634118
000360 fe 8e 96 3d 8f 58 b7 bd bc 78 d3 bd fa 29 bc 3c
       0.07351492 -0.08952438 -0.10325763 0.022969235
000370 ef 1c cf bc b1 7a 33 3e 2d e9 4f be 9b 6c 9f bd
       -0.025282351 0.17527272 -0.20303793 -0.07784387
000380 b9 40 a2 3c 31 08 c0 bd d2 45 d3 3d 31 02 da 3c
       0.019806253 -0.093765624 0.103160515 0.026612373
000390 16 09 f3 3c 42 4c 80 bc e9 8c 0d 3d 76 00 11 be
       0.029667418 -0.015661363 0.03455821 -0.14160332
0003a0 28 a3 42 3d 7c b5 ad 3c c6 f4 f3 bb 5a 01 89 bb
       0.04751888 0.021204703 -0.0074449508 -0.0041810693
0003b0 bb a3 52 3b ee f2 aa 3d b5 bd 8d 3d 29 bc c8 bc
       0.0032141048 0.083471164 0.06920949 -0.024503784
0003c0 56 16 a2 bc 4f 7f e9 bd fc ce 19 bd 00 2d 0c 3d
       -0.019786041 -0.11401235 -0.03755091 0.034222603
0003d0 d4 11 2f bc 51 a4 84 3d 5c fe 9c 3d b5 67 0c 3e
       -0.010685403 0.06476653 0.07665703 0.13711436
0003e0 36 e9 10 bb c3 de 61 3d 54 76 d1 bd d7 6c 6f bd
       -0.002211166 0.055144083 -0.102276474 -0.058453407
0003f0 ca a5 c2 bd f0 89 0f be cc 2c 63 3c 13 b3 a7 bc
       -0.09504278 -0.14017463 0.013865661 -0.020471131

network_body._body_endoder.seq_layers.2.bias f4 [256]
000000 9c e4 cf 3c 8e df a9 bd 94 c8 80 bc c5 7b 58 bc
       0.025377564 -0.08294593 -0.015720643 -0.013213103
000010 86 ac 40 ba 05 3d 2d 3d c5 70 8e 3c 5b 9d ba 3c
       -0.0007349927 0.04229452 0.017387757 0.022780111
000020 f1 7f 99 3c cd 26 3b bd 97 10 3c bd c6 0a 38 bd
       0.018737765 -0.0456913 -0.04591426 -0.04493215
000030 2d 0a 0c bc 81 c4 13 bb af 1d f4 bc b9 2c 2f 3c
       -0.008547348 -0.0022547545 -0.02979931 0.010691815
000040 78 2a e0 3c 62 f8 7a bd 97 fe dc 3c 2a c4 43 bd
       0.027364 -0.061272033 0.026976867 -0.0477945
000050 d9 29 d9 bc 3a 23 97 bc e5 6d 69 3c 36 23 ea bc
       -0.026509212 -0.018449415 0.014247392 -0.028581243
000060 64 53 1b bc 18 77 5f bd 17 cb 0e bc f6 64 51 3d
       -0.009480331 -0.054556936 -0.008715413 0.051121674
000070 ea c3 35 bd a5 28 e7 bc 9f 9a 48 bd 9c ea 08 3b
       -0.04437629 -0.028217623 -0.048975583 0.0020891791
000080 87 19 4e 3d 86 64 96 3d d3 de f9 3b a1 3f 0c bc
       0.050317314 0.07343392 0.0076254397 -0.008560092
000090 9d 3d 2c bc d0 0f eb bc a1 e1 c8 bc 96 95 21 bc
       -0.010512737 -0.028694063 -0.02452165 -0.009862324
0000a0 69 1b 38 bd 08 6b e4 bc 76 18 6d bd c5 26 c7 ba
       -0.044948015 -0.027883068 -0.057884656 -0.0015194049
0000b0 da 2b aa bc 58 a8 26 3d 2e 00 4a bb 0e f8 08 3d
       -0.020772863 0.04068789 -0.003082286 0.03343969
0000c0 50 75 2a 3d 46 3c 8a bc c5 d7 4d bd 73 ad 0e 3c
       0.041615784 -0.016874444 -0.050254602 0.008708346
0000d0 b7 77 94 bc 89 c3 46 3d 26 e4 b9 bc 10 ed 02 3c
       -0.01812349 0.04852632 -0.022691797 0.00799109
0000e0 8d dd 10 bd 44 fe 17 3c ef 37 05 3d 01 e9 da bc
       -0.035367537 0.00927693 0.032524046 -0.026722433
0000f0 85 14 72 bc 7f 2c 2d bc 45 82 29 3b ff 79 b9 bc
       -0.0147754 -0.010569691 0.0025865 -0.02264118
000100 a6 03 11 bd 66 bc 7c bd 7d 60 d1 3b f7 ad 85 3d
       -0.03540387 -0.06170311 0.006389676 0.06527322
000110 48 36 d6 3b 04 6f 41 3b 7b 0f 02 bd 72 e1 00 bc
       0.0065372325 0.0029515633 -0.031753045 -0.00786625
000120 ea bd 36 3c 0d 7d 6b bd 8f 67 18 3c 8f 24 10 ba
       0.0111536775 -0.057492305 0.009302034 -0.0005498612
000130 63 da 1f bd e0 b5 81 bc f6 d4 6d bc 56 77 05 bd
       -0.03902663 -0.015833795 -0.014516106 -0.03258451
000140 e8 6f 3c bd f6 9a 1c bd 23 b6 d7 bb 6a 07 a9 bd
       -0.04600516 -0.03823372 -0.0065829917 -0.08253367
000150 15 cf a6 bd 1f bc 13 bc 46 01 61 bd 5c 96 8a bd
       -0.081449665 -0.0090170195 -0.054932855 -0.0676696
000160 b1 3d 82 bc 1c 9b 3d 3d b4 2a 3d 3c 77 37 33 bc
       -0.015898557 0.046290502 0.011545826 -0.010938517
000170 fe d2 25 bd c5 66 51 3d 4d 05 f9 bc b7 32 57 3d
       -0.04048442 0.0511234 -0.030398035 0.0525386
000180 45 55 c4 3c 47 ef 59 bc 38 ee 09 3c 3c 4d 5c bd
       0.02396644 -0.013301677 0.008418612 -0.053784594
000190 66 b0 23 bd 8b 9c 26 3c c7 ae e0 3b 68 5b b3 bc
       -0.03996315 0.010169159 0.0068567726 -0.021894172
0001a0 21 54 5e bd a7 91 55 3d 8a 08 e1 bd 4f 52 c6 bc
       -0.05427945 0.052140858 -0.10987957 -0.02420917
0001b0 90 4f 1f bd a5 56 ea bc 2f 6a f9 3b 23 48 2d bd
       -0.038894236 -0.028605768 0.007611535 -0.042305123
0001c0 45 d8 57 bc de 5d 7b 3c 9d ca 1b 3d 64 d6 22 3c
       -0.013174121 0.015342204 0.038035024 0.00993881
0001d0 86 16 62 3c 18 06 a8 bc 8c 31 5a bb dd cd 1f bb
       0.013799315 -0.020510718 -0.0033293692 -0.0024384179
0001e0 da ab 38 bd 01 b1 41 3d ff 6e 7e 3d c3 5a 61 bd
       -0.045085765 0.047287945 0.062117573 -0.055018198
0001f0 d3 bc d6 bc 16 bd 6d bb 13 24 ed bc dd 5c 9f bd
       -0.026213085 -0.0036276034 -0.028947866 -0.07781384
000200 3d 13 0d bd 88 3f dd bc 5f 49 a2 bc 6e 40 28 3d
       -0.034442175 -0.027007833 -0.019810377 0.04107707
000210 63 9b 04 bd 19 11 51 3c a1 da 87 bc ee 6b 28 3c
       -0.03237475 0.012760424 -0.016583743 0.010279639
000220 8a 63 33 bd 97 c3 d4 3b 27 46 12 bd c8 b3 17 3c
       -0.0437961 0.0064930427 -0.035711434 0.009259172
000230 72 a9 93 3d 17 1d 09 3d e2 5d 43 3c 35 f4 06 bd
       0.072100535 0.033475008 0.011924239 -0.032947738
000240 6a 2e 4d bb 00 d3 b7 39 ec 6b a2 bd 1e ba 39 3d
       -0.0031308183 0.00035061687 -0.07930741 0.04534351
000250 8e 5c f4 3c 48 48 22 3d 37 d2 35 3d d8 42 86 3d
       0.02982929 0.039619714 0.04438993 0.06555718
000260 40 e0 8e bd 38 75 11 3d 3a 06 6e bc 1c 85 5b bd
       -0.06976366 0.03551218 -0.014527852 -0.05359374
000270 36 65 3e 3d ca 2a 3a bc 50 93 0e bd 61 c8 2f bb
       0.04648324 -0.011362741 -0.034808457 -0.0026822316
000280 09 69 3f bd 8f 9c b5 bb 86 b6 44 bb c7 77 a6 bd
       -0.04673103 -0.005542345 -0.003001602 -0.081283145
000290 d6 90 47 bd e1 c1 85 bc f2 48 86 bb ef 51 ba 3c
       -0.04872211 -0.0163278 -0.004098051 0.022744147
0002a0 52 ca 85 bd f4 d6 25 bd b8 7a 72 bc 0b 30 20 bb
       -0.0653273 -0.0404882 -0.014799766 -0.0024442698
0002b0 81 62 50 bb 77 e4 36 3d bd 46 62 3c ba 69 87 3c
       -0.0031796994 0.044651475 0.013810811 0.016529907
0002c0 82 da 58 bc 71 5d 05 3d 8c 83 59 bc 6d 4d f0 3c
       -0.01323569 0.032559816 -0.013275992 0.029333794
0002d0 e6 af 05 bc 6e 48 ae 3c 3a dc 08 bc af 75 18 bd
       -0.008159613 0.021274772 -0.008353287 -0.037221607
0002e0 23 53 42 bc f6 41 84 3d 49 dd 8e bd 54 53 2d 3d
       -0.011860642 0.064578936 -0.069758005 0.042315796
0002f0 ad 24 8c bd ea ec 43 bd 0f 05 c6 bc 78 a9 0e bc
       -0.06842933 -0.04783336 -0.024172334 -0.008707397
000300 80 92 d4 bb c1 ab 01 bd e4 e2 a6 bc fb f3 fc bc
       -0.0064871907 -0.031657938 -0.020371862 -0.030878058
000310 f0 44 ad bd 84 bf de 3c 69 c5 56 bd 04 88 1f bc
       -0.084604144 0.027190931 -0.05243436 -0.0097370185
000320 8d 99 11 bd 89 0a 56 bd 8e 3c 95 3b 70 65 22 bd
       -0.035546828 -0.05225614 0.004554338 -0.03964752
000330 c5 87 93 bc d1 70 66 bc 2e 89 3e bd fd 19 bd bc
       -0.018009076 -0.014064983 -0.046517543 -0.023083681
000340 dd 49 1c bd d9 80 c3 3b db 72 e1 bc fe 3d dc bc
       -0.03815638 0.0059662876 -0.027520588 -0.026885029
000350 d5 3a 5b bd 81 2e cb bd 1f c7 50 bd 01 43 10 3d
       -0.053522903 -0.09920979 -0.050971147 0.03522015
000360 23 80 d6 39 b6 47 fb 3c f3 c9 0b bd e6 50 9b bd
       0.0004091273 0.030673843 -0.03412814 -0.075837895
000370 df 5a 38 bd 92 ac 2e 3c ee ff 0e 3b 4c 54 32 bc
       -0.045008536 0.010661261 0.0021820026 -0.010884356
000380 1e 22 4e bd f6 a6 1e bd f1 1c 35 3b 09 3e 0b bd
       -0.050325505 -0.038733445 0.0027635659 -0.03399471
000390 5b b6 ab 3d a1 a1 9a 3a 48 e5 20 bd 45 51 a2 3c
       0.08384391 0.0011797437 -0.03928116 0.019814143
0003a0 f3 1c c0 bc 7c 75 a7 bd 51 e7 8f 3c 7d c4 e6 bc
       -0.023451304 -0.08176705 0.017566355 -0.028169865
0003b0 c3 aa 10 3d 88 37 6e 3c 3d b1 99 3c 16 0a e8 3c
       0.0353191 0.014539607 0.018761272 0.028325122
0003c0 63 3a b7 bd 5d d9 b4 bc 4e 03 a9 bc 96 c9 49 bd
       -0.08946683 -0.022076303 -0.020631459 -0.049264513
0003d0 a9 03 d1 bc fd 25 17 bd 40 1b 97 bc 2f 14 7a bd
       -0.02551444 -0.036901463 -0.018445611 -0.061054405
0003e0 92 79 22 3c b0 66 6e bd 30 8f 10 bd f1 e1 53 3d
       0.00991668 -0.0582034 -0.035292804 0.051729146
0003f0 b2 59 7c 3d 34 69 84 bd a9 cc aa bd 6f b8 af 3c
       0.061608978 -0.064653784 -0.08339817 0.02145025

network_body._body_endoder.seq_layers.4.weight f4 [256, 256]
000000 71 e1 f6 bd cf ce bf 3d dc e6 0e be 0d d7 fe 3c
       -0.12054718 0.093656175 -0.13955253 0.031108404
000010 de c2 58 3d e9 f6 39 be 6b 25 75 bd 10 e1 76 bc
       0.052920215 -0.18160595 -0.059850138 -0.0150683075
000020 5a b5 e6 bd 9b da e6 bc d2 6d 33 be 0c ff 49 bd
       -0.11265059 -0.028180411 -0.17522362 -0.049315497
000030 34 19 68 3d 02 8d 27 be 44 3b c5 bc e3 9e 07 3d
       0.05666466 -0.16362384 -0.024076112 0.03311051
000040 a3 c1 aa bd 4d da ef bd 75 11 84 3c fb 05 b1 bd
       -0.083377145 -0.117115594 0.016121605 -0.08643719
000050 91 51 f0 bc e0 f3 23 3e 99 8d 1d 3e 15 fa c9 bd
       -0.029335769 0.16011 0.15386046 -0.098621525
000060 ac 40 f8 3c 50 d1 9b 3c ac ae 22 3e 67 9f c6 bd
       0.030304275 0.019020706 0.15886945 -0.09698372
000070 41 f1 86 bd 5b 8f 8a 3c b3 23 89 3d e9 73 e8 3b
       -0.06588984 0.01691406 0.06696262 0.0070938957
000080 37 df c6 bd ce 8f 85 bd 39 12 81 bd 02 88 78 3d
       -0.097105436 -0.06521569 -0.06302304 0.060676582
000090 3a 50 78 bd dc f9 05 be 5f 8d 96 bd 92 44 22 3c
       -0.060623385 -0.13083595 -0.07351183 0.009904044
0000a0 89 e3 04 3d 18 bf 8d 3c 30 ea 00 3d 04 20 4c 3d
       0.032443557 0.017303035 0.03147334 0.04983522
0000b0 1a 74 ba 3b 01 1d ec bc 6f 6d 5c be 6f 7d 98 3d
       0.00569011 -0.028822424 -0.2152612 0.074457996
0000c0 29 53 8a bd 31 15 c5 3b 9e 69 d7 3c a1 7c 0e be
       -0.06754143 0.006014489 0.02629548 -0.1391473
0000d0 96 48 b4 bd 15 46 8f bc 6a 72 28 3e b9 86 ab bd
       -0.08802907 -0.017489472 0.16449896 -0.08375306
0000e0 68 b9 7c 3d e3 45 8d 3c 2f ce c9 bd e1 2b 3c bd
       0.061700255 0.017245239 -0.098537795 -0.045940284
0000f0 69 b4 91 bc 8c 0b 50 3c e1 29 93 bd 88 40 b6 3b
       -0.017786222 0.0126980655 -0.07185722 0.005561892
000100 fd ce a4 bc 7c 5d 8b 3c 56 ff 77 bd 78 f0 56 3e
       -0.020118231 0.01701235 -0.06054624 0.20990169
000110 32 5c 45 bd 36 2d f8 3d f5 00 4d bb cb ff 02 be
       -0.048183627 0.12117998 -0.0031281088 -0.1279289
000120 96 82 b1 3c a6 d9 1c 3d 3c db 26 3d e6 1b 79 3d
       0.021668714 0.038293503 0.040736422 0.06081762
000130 b6 2d 5d 3d 40 fe 34 3e e7 93 0b 3d 6d a8 4a be
       0.05399867 0.17675114 0.034076598 -0.19790812
000140 12 5a 09 be e8 58 a2 3d 5a 3c 5e 3c 19 c9 96 bd
       -0.13413265 0.07927114 0.013564194 -0.07362575
000150 f1 d1 37 3d a2 32 ad bd 69 17 f2 3d a1 39 77 3e
       0.04487795 -0.08456923 0.118208714 0.24143077
000160 e9 e1 82 3c 6a 20 8d ba e4 7c 5f be 52 b1 1b bc
       0.015976863 -0.0010767106 -0.21824986 -0.009502726
000170 5e 1a 1e bd c1 15 10 be a7 fd f5 3d 6e 21 51 bc
       -0.038599364 -0.14070798 0.12011271 -0.012764318
000180 6c f2 2d 3d 89 86 1c 3d 26 62 85 3d 7f 69 e9 3c
       0.04246752 0.03821424 0.06512861 0.028492687
000190 a7 fd ca 3d be 25 97 3c 75 b5 45 ba 4b 31 9b 3d
       0.099116616 0.018450614 -0.0007541993 0.07577761
0001a0 9d 3e 83 bd 99 95 44 bd 3c 50 ba 3d c2 02 b7 bc
       -0.06408427 -0.04799423 0.09097335 -0.022340182
0001b0 9b 23 8e 3d 2d e7 d8 3d f7 0c 7f 3c c9 d7 9a 3d
       0.06940385 0.10590968 0.015567056 0.07560689
0001c0 9a d2 a3 bd 70 f2 c9 3d 73 e8 03 3e 9e 7f 67 bd
       -0.079991534 0.098606944 0.12881641 -0.05651819
0001d0 a3 f7 16 3c c8 c6 a0 bc 1d 9d 29 be ea ce 34 3e
       0.009214315 -0.019626036 -0.1656384 0.17657056
0001e0 6b 99 d2 bd 2b d4 8f bd 91 f6 2a be 91 6f c0 3b
       -0.102831684 -0.0702289 -0.1669562 0.0058726748
0001f0 5f 56 1d 3e 3c 57 66 3d 04 d0 22 bb 40 4f d7 3d
       0.15364979 0.056235537 -0.0024843225 0.105131626
000200 93 be 89 bc 17 f3 12 3e d4 94 8e 3c 32 d1 3f bc
       -0.016814506 0.14350544 0.017404951 -0.011707591
000210 f9 22 02 bd 0c 35 06 be 6b d2 0f 3e a3 d5 4e bd
       -0.031771634 -0.13106173 0.14045112 -0.05049671
000220 fb f4 4f 3d e3 f1 7d bd 6e 0a 85 3d 5d 8a 13 be
       0.05077074 -0.06199826 0.0649613 -0.1440825
000230 c4 22 23 bd 34 47 ba bc 33 cb 6d be 73 b0 94 3c
       -0.039828077 -0.02273903 -0.23222046 0.018150544
000240 9e 55 56 3d 2c 31 6e bd f3 96 fa 3d 69 cc 4c bd
       0.052327745 -0.058152363 0.122358225 -0.04999963
000250 65 54 f5 bd 58 33 d8 bd 15 b8 3b bd 2f 3e ea 3c
       -0.119789876 -0.10556668 -0.04582985 0.028594105
000260 30 65 32 be b2 4e 58 3e dd ad 91 bd 43 da 9f 3d
       -0.17421412 0.2112377 -0.0711324 0.07805302
000270 c5 45 cc bd fa 9b 6a be 84 f5 56 3d 4a c3 37 ba
       -0.09974245 -0.22911063 0.052480236 -0.00070099963
000280 66 17 7b 3e a7 bb a2 bd 4c 0b 09 3d 71 a2 43 bb
       0.24520645 -0.07945948 0.03345804 -0.0029851461
000290 93 57 ff bc f0 b7 15 3e 4c 47 97 bd 18 ad 07 3e
       -0.031169688 0.14620948 -0.07386646 0.13249624
0002a0 01 e9 3c 3d 7c fd e1 ba ee 87 79 bc 29 2e c1 bd
       0.046120647 -0.0017241682 -0.015230162 -0.094326325
0002b0 52 5e 4d bd f9 b8 bb bc a7 8f 89 bd 2f 5a b4 bd
       -0.05013878 -0.02291535 -0.06716853 -0.08806264
0002c0 c3 aa 5a 3d 90 46 b7 3c 39 e8 07 3d 71 ba ae bc
       0.053385507 0.022372514 0.03318045 -0.021329137
0002d0 75 2c 04 3e b8 b4 1d be 8e 5e 4f 3d 0d 44 5b be
       0.12907584 -0.1540097 0.050627284 -0.21412678
0002e0 1a b0 98 3d df 63 9e 3d d0 e5 5e 3d da da 63 3d
       0.07455464 0.07733893 0.054418385 0.055628635
0002f0 3e 41 3f 3e a3 d8 a2 bc 73 51 e3 bd 97 81 e0 3a
       0.18677232 -0.019878691 -0.110995196 0.0017128465
000300 bd 9a 02 bd fd 30 f1 3c 11 22 3f bc 48 20 08 be
       -0.03188585 0.029442305 -0.011665837 -0.13293564
000310 6e dc 6c b9 2c cd 90 bd c0 fd de bd c9 03 2d 3d
       -0.0002258883 -0.070703834 -0.10888243 0.042239938
000320 82 0b 83 bd 67 90 d8 3d f8 3f a8 3d d1 bd 34 3d
       -0.06398679 0.105744176 0.08215326 0.044126336
000330 68 69 c6 bd 2b c0 39 be cc 61 16 be 77 60 35 bd
       -0.096880734 -0.18139713 -0.14685744 -0.04428145
000340 d4 42 90 bd 05 4f 77 bd de bc 90 3a a7 ca 91 bc
       -0.070439965 -0.060378093 0.0011042615 -0.017796827
000350 b5 d8 28 3b fe 71 c8 bd 3a b5 b5 3d 8d ce 6e bc
       0.0025763933 -0.09787367 0.08872457 -0.014575613
000360 b3 bb 8f bc 9d 74 a2 3d b6 df 24 3d 4c 63 9d 3c
       -0.017545557 0.079323985 0.04025241 0.019212388
000370 5f cf 36 be b4 74 4d bd 22 87 b1 bd 00 e0 14 be
       -0.17852543 -0.050160125 -0.08668353 -0.14538574
000380 ad 7c 5e be a2 5f f7 3c d2 7e 27 3e 00 83 57 be
       -0.21727248 0.030196968 0.16356972 -0.21046066
000390 e1 bd 07 be ae 42 03 bd a9 e5 19 bd 9b c1 15 bd
       -0.13256027 -0.032046013 -0.037572537 -0.03656159
0003a0 5a 87 06 3d 45 10 8f 3d 43 f6 70 3e 4c 3b 3c bc
       0.032843925 0.06985525 0.23531441 -0.011488747
0003b0 03 6b d1 bd 92 7b 09 3e 3e 01 85 3d ea f4 fd bc
       -0.10225489 0.13426045 0.064943776 -0.031000573
0003c0 a1 5b 1f be 5c 62 5b 3d 02 c2 c6 bd f6 a1 57 3d
       -0.15562297 0.0535606 -0.09704973 0.052644692
0003d0 1b 1d f0 bd 49 a6 4d 3d 2b 0d 14 3e 2f 54 55 bd
       -0.117243014 0.05020741 0.14458148 -0.052082237
0003e0 1f be 4c be 5f c6 39 3d 38 34 a4 3d 05 b8 ee ba
       -0.199944 0.045355197 0.080177724 -0.0018212801
0003f0 88 f5 fc bd 15 1b 09 3d 27 9e bc bd 3b e0 dd bd
       -0.12351519 0.033473093 -0.09209853 -0.10833784

network_body._body_endoder.seq_layers.4.bias f4 [256]
000000 65 89 88 bd 2a ab 48 3d 41 cf 09 3d 15 1b 89 3c
       -0.06666831 0.04899136 0.03364492 0.016736547
000010 5b 85 88 be 4d 91 41 3d 16 42 b3 bc 33 c8 54 bd
       -0.26664242 0.04725771 -0.021882098 -0.051948737
000020 45 c1 36 bd 9e 3b 85 3d ce e2 c4 bd a7 cc 96 3c
       -0.04461791 0.06505512 -0.09613572 0.018408133
000030 77 7e 06 3b 10 60 b3 bd 5c 09 d4 3d cf 0f c2 bd
       0.0020522156 -0.08758557 0.10353348 -0.094756715
000040 8f c7 2e 3d 05 d5 0e 3d 21 9d 44 bd 11 89 6b bd
       0.042670783 0.03487112 -0.048001412 -0.057503764
000050 32 62 a4 bd ee 87 20 3d c5 16 c3 bc 51 b3 c1 bd
       -0.08026542 0.039192133 -0.023814568 -0.0945803
000060 9c fa 17 3c f5 8d 88 bd 2f b6 b3 3c 3a d1 e0 3d
       0.0092760585 -0.06667701 0.021937458 0.10977407
000070 ff 83 ea 3b ff 09 9b bd ad ae 45 bd a9 bd 8a 3c
       0.0071568484 -0.07570266 -0.048262287 0.01693614
000080 f1 88 2b bd 9d 50 ed bb 62 76 71 be d6 25 9b bd
       -0.041878644 -0.007242276 -0.23580316 -0.07575576
000090 df 23 80 3d f5 da 48 3c d2 b4 5a 3d 39 01 aa 3d
       0.06256842 0.012259235 0.0533951 0.083010145
0000a0 76 cf cc bd 71 6b 86 bd b9 bc 76 be 19 eb 9f 3d
       -0.100005075 -0.065634616 -0.2409543 0.07808513
0000b0 2a aa 97 3d f8 67 f4 bc 8b ca 95 bc ec aa 59 bc
       0.07405503 -0.029834732 -0.018285057 -0.01328538
0000c0 e7 9b b5 bd 35 67 16 bd 68 ff cc bc 95 ef 01 3e
       -0.08867627 -0.03671952 -0.025024131 0.1268905
0000d0 7b 6f 58 3d 3d 53 50 3d 04 b8 04 bd 1e a5 8e 3b
       0.05284069 0.050860632 -0.032402053 0.0043531796
0000e0 06 87 b1 bd 5c aa 56 3d 19 0c 45 3d 06 04 65 bc
       -0.08668332 0.05240856 0.04810724 -0.01397801
0000f0 d8 5d 32 3b ca 3d b5 bd 22 0c 8b bc 58 17 8f 3c
       0.002721658 -0.08849676 -0.016973559 0.017467186
000100 e6 a1 41 3d 2e 01 22 bc 0a 01 c2 bd 25 9f 1c bd
       0.04727354 -0.009887977 -0.094728544 -0.03823771
000110 ce 3a 96 bd d7 0b 11 3d 30 2f 55 3c 7c 64 80 bc
       -0.07335435 0.035411682 0.013011739 -0.015672915
000120 b9 2a 8a 3b 57 7d 1d 3c 61 11 22 bc ac d3 b7 be
       0.0042165187 0.009612403 -0.009891839 -0.3590368
000130 12 62 d9 bc 61 a4 53 39 6d ca 2c 3d 0a 66 22 be
       -0.026536021 0.00020183764 0.042185236 -0.15859237
000140 54 18 c2 bd 84 5a d0 3c d2 c0 23 bd 45 0a a6 3c
       -0.094772965 0.025433786 -0.03997881 0.020268569
000150 29 52 fe bc ea 73 2d bd 15 0c 32 bd bb 65 07 39
       -0.031045036 -0.042346872 -0.043468554 0.00012912501
000160 f7 16 c7 3c 01 25 94 bd c2 b7 7d bd bb 78 36 3b
       0.024302943 -0.072336204 -0.061942823 0.0027842957
000170 5d 01 31 bc 74 eb c0 3d 3d c1 5c 3d 09 99 4d bc
       -0.010803548 0.09419909 0.053895224 -0.012548693
000180 ef a4 5b bb 23 aa fd 3c 9b 68 5d 3c 98 4c a1 bd
       -0.0033515056 0.030964917 0.013513709 -0.07875937
000190 81 64 77 be bf eb 57 bd 2b f2 3c 3b a8 ba 13 3d
       -0.24159433 -0.05271506 0.0028830867 0.03606668
0001a0 bc 53 1b bd 7b 07 84 3c 82 28 e7 bd 59 46 d1 bc
       -0.037921652 0.016116848 -0.11287023 -0.02554624
0001b0 82 b6 2b 3d 89 5d 1f 3b 11 18 38 bd bb dc 93 3d
       0.0419221 0.0024317226 -0.044944827 0.07219835
0001c0 6a 0e 05 3d ec 14 e0 bb e7 8d 51 be 6c 22 b3 bd
       0.03248445 -0.0068384316 -0.20464288 -0.087468
0001d0 57 87 c8 bd ef c7 2c bd 03 0f c5 bb 28 ee 47 3d
       -0.09791439 -0.04218286 -0.0060137524 0.048811108
0001e0 88 50 ad bd 2d bb fc 3c fd ae 6b bb 66 e8 a9 bc
       -0.08462626 0.030850971 -0.0035962455 -0.020740699
0001f0 b1 c5 05 be 94 38 da bc 6f 46 01 3d e9 ac d7 3b
       -0.13063695 -0.026638307 0.03156131 0.006581892
000200 f7 ef 3e 3d 8f 35 1e 3c e7 24 2e 3d 82 4e 9f 3c
       0.046615567 0.009656324 0.04251566 0.019446615
000210 a3 1a 54 bd 17 a7 37 3a 4b ad e7 bc 8c 85 82 bd
       -0.051783215 0.00070057943 -0.028280875 -0.06373128
000220 5c ce b2 bc 38 56 8a 3c 67 67 68 be cd d4 e7 bc
       -0.021826915 0.016886815 -0.22695695 -0.028299714
000230 48 b0 8f bc 92 5f f7 3d 59 8f 70 3c c8 ce 1d bd
       -0.017540112 0.120787755 0.014682614 -0.03852728
000240 34 7f 0c bd 72 e1 51 bd 07 56 73 bd 95 1f f0 3b
       -0.034300998 -0.051240392 -0.059408214 0.0073279836
000250 0f d1 f1 3b cd 6f f3 bb b9 71 b2 3d f6 c0 0a 3a
       0.007379658 -0.007429099 0.08713097 0.00052930356
000260 40 eb 1b bd 6f 3c b2 bb 02 5b 93 be 32 c5 be 3d
       -0.03806615 -0.005439333 -0.2878037 0.09314956
000270 da f0 af bc d0 ad 84 3b 2f 67 18 3c f2 54 20 bd
       -0.021477152 0.0040490404 0.009301945 -0.03914351
000280 8c 96 5c bb f5 a1 94 3d 75 d9 48 3d 4f 3c cd bc
       -0.003365907 0.07257453 0.04903551 -0.025053171
000290 f0 f3 42 bd 60 0f 41 3d 23 20 82 bd 21 32 26 3d
       -0.04759592 0.047133803 -0.06353786 0.04057515
0002a0 c7 b0 53 3d df 0a 12 3d 7c 69 3f 3b 9a f1 7d 3c
       0.05168226 0.0356549 0.002920716 0.015499497
0002b0 10 7d 6c bd 7d 48 fb 3c 0c b5 2e be 6a 24 9e bc
       -0.057736456 0.030674214 -0.17061251 -0.019304473
0002c0 6d 08 4b 3d 34 8c 57 bc d2 15 94 bd 2c 2c 64 3d
       0.049568582 -0.013155986 -0.072307244 0.055706188
0002d0 86 84 03 3d 25 a9 eb bc 1a a1 8f bd 04 14 57 3c
       0.032108806 -0.028767178 -0.070131496 0.013127331
0002e0 52 11 0f be d9 e5 c8 bc 0a 4e 1e bd ac ab 0d bd
       -0.13971451 -0.024523662 -0.038648643 -0.034587547
0002f0 65 61 ca bd b2 d4 45 bd ae be d0 bd a8 91 75 bd
       -0.09881858 -0.048298545 -0.10192619 -0.05995336
000300 f1 14 aa 3c c3 cf c1 bc eb c6 a1 bd 13 71 be bd
       0.020761939 -0.023658639 -0.07899269 -0.09298911
000310 c9 fc 0a 3d 3e 6b f5 3c 65 8a e4 bc ee 9d 13 be
       0.03393248 0.029958364 -0.027898023 -0.14415714
000320 9c e7 e0 bd a4 b6 19 bb a2 d9 7d 3d 29 2f 38 3d
       -0.10981676 -0.002345481 0.06197513 0.04496685
000330 6a 33 1a bd f7 f9 c4 3d 98 49 af bd 57 9a 2b be
       -0.03764669 0.096179895 -0.08558959 -0.16758095
000340 2e 1c 84 3d a5 ba 60 bb ed 91 e6 bd 16 5b 22 3d
       0.06450687 -0.0034290936 -0.11258302 0.039637648
000350 ad 01 47 bd a4 3b 3b 3d 48 2f 97 3d c3 e9 ac bd
       -0.048585583 0.045711175 0.07382065 -0.08443024
000360 b5 cd 96 bd 5d 7e d8 bb 83 ec 5e bd 28 f6 1f be
       -0.07363454 -0.0066068606 -0.054424774 -0.15621245
000370 c1 5b 2c be a5 55 c3 bd ad 49 ce 3d 73 ce 27 bb
       -0.16831876 -0.0953782 0.10072646 -0.002560523
000380 cf a9 2f 3d 76 3b 90 3d ab 43 cc 3c 8b c7 86 ba
       0.04288655 0.07042591 0.02493461 -0.0010282857
000390 f2 43 10 3d 26 62 84 3c 10 ec 20 bc 2a f4 8e bd
       0.035221048 0.016160082 -0.009821907 -0.06980164
0003a0 1f c5 97 3d 79 74 43 3c bd d6 d6 bd 4d fb 3e be
       0.07410645 0.011929625 -0.10490177 -0.18650551
0003b0 3e 6c 03 bd f8 71 5e bd 59 64 7e 3c 20 5a e8 bc
       -0.03208565 -0.054307908 0.015526854 -0.028363287
0003c0 24 ed 08 3d 86 06 43 bc 2e c8 6f bd 4a 3a a2 be
       0.03342928 -0.011903411 -0.058540516 -0.31685096
0003d0 75 4e 27 bd fb 94 91 3d 56 81 76 bd 98 85 74 bd
       -0.040846307 0.07108494 -0.060181938 -0.059697717
0003e0 c5 e0 e9 3c 77 0c a0 3c c0 e3 a1 3d 24 ab 9c bd
       0.028549561 0.019537194 0.07904768 -0.0764983
0003f0 e0 42 80 be 0a 76 aa 3c 77 fa 9d bd d8 42 9f bd
       -0.25051022 0.020808239 -0.07713788 -0.07776421
