results/sacnight/Shooter/Shooter-1499000.onnx (onnx, 666224 bytes, 14 tensors)

network_body.observation_encoder.processors.0.normalizer.running_mean f4 [68]
0.0122575 0.9877419 0.0 0.17591655 0.012108076 0.987891 0.0 0.17617886
0.011953965 0.9880457 0.0 0.17619872 0.012547692 0.9874519 0.0 0.1768885
0.012131413 0.9878676 0.0 0.17703693 0.012232145 0.98776764 0.0 0.17816885
0.012318201 0.98768115 0.0 0.17848875 0.012420946 0.987578 0.0 0.17998472
0.012383587 0.98761517 0.0 0.18050276 0.012795851 0.9872036 0.0 0.18244772
0.012689115 0.98731035 0.0 0.18309456 0.013114064 0.98688555 0.0 0.18562868
0.013264833 0.9867351 0.0 0.1863546 0.013346224 0.9866546 0.0 0.18958858
0.013508336 0.98649126 0.0 0.1902939 0.013816528 0.98618215 0.0 0.19404335
0.013972643 0.98602694 0.0 0.19475394
00000000: aed3 483c a7dc 7c3f 0000 0000 7823 343e
00000010: f460 463c 6de6 7c3f 0000 0000 3b68 343e
00000020: 90da 433c 90f0 7c3f 0000 0000 706d 343e
00000030: d694 4d3c a6c9 7c3f 0000 0000 4222 353e
00000040: d6c2 463c e4e4 7c3f 0000 0000 2b49 353e
00000050: 5669 483c 57de 7c3f 0000 0000 e571 363e
00000060: 48d2 493c acd8 7c3f 0000 0000 c1c5 363e
00000070: 3981 4b3c e9d1 7c3f 0000 0000 ea4d 383e
00000080: 87e4 4a3c 59d4 7c3f 0000 0000 b7d5 383e
00000090: b0a5 513c 60b9 7c3f 0000 0000 93d3 3a3e
000000a0: 01e6 4f3c 5fc0 7c3f 0000 0000 247d 3b3e
000000b0: 5fdc 563c 88a4 7c3f 0000 0000 7215 3e3e
000000c0: be54 593c ac9a 7c3f 0000 0000 bed3 3e3e
000000d0: 1faa 5a3c 6595 7c3f 0000 0000 8223 423e
000000e0: 1152 5d3c b18a 7c3f 0000 0000 67dc 423e
000000f0: b85e 623c 6f76 7c3f 0000 0000 4db3 463e
00000100: 83ed 643c 436c 7c3f 0000 0000 946d 473e

network_body.observation_encoder.processors.1.normalizer.running_mean f4 [52]
0.0122575 0.9877419 0.0 0.17591655 0.012803855 0.98719585 0.0 0.18246832
0.012694448 0.9873049 0.0 0.18311729 0.014892588 0.9851068 0.0 0.20469075
0.014971287 0.98502797 0.0 0.20541131 0.017785167 0.98221433 0.0 0.24255666
0.01821216 0.9817876 0.0 0.2431601 0.021134749 0.9788647 0.0 0.29561874
0.022027995 0.97797155 0.0 0.29627174 0.025461618 0.9745376 0.0 0.3548997
0.025460966 0.97453856 0.0 0.35508516 0.02602867 0.9739707 0.0 0.39001393
0.026134733 0.9738642 0.0 0.38967028
00000000: aed3 483c a7dc 7c3f 0000 0000 7823 343e
00000010: 43c7 513c deb8 7c3f 0000 0000 fad8 3a3e
00000020: 60fc 4f3c 04c0 7c3f 0000 0000 1983 3b3e
00000030: 0b00 743c f62f 7c3f 0000 0000 749a 513e
00000040: 214a 753c cb2a 7c3f 0000 0000 5857 523e
00000050: 33b2 913c 6672 7b3f 0000 0000 c660 783e
00000060: ab31 953c 6f56 7b3f 0000 0000 f6fe 783e
00000070: c822 ad3c e196 7a3f 0000 0000 575b 973e
00000080: 0e74 b43c 585c 7a3f 0000 0000 eeb0 973e
00000090: e294 d03c 4c7b 793f 0000 0000 6ab5 b53e
000000a0: 8493 d03c 5c7b 793f 0000 0000 b9cd b53e
000000b0: 143a d53c 2556 793f 0000 0000 e8af c73e
000000c0: 8218 d63c 2a4f 793f 0000 0000 dd82 c73e

network_body._body_endoder.seq_layers.0.weight f4 [256, 120]
-0.0661386 -0.07862633 -0.015237581 0.08021997 0.040495053 0.004417079 0.06991068 0.11978773
0.03850333 -0.10109062 0.091266744 0.07356036 -0.11021315 0.027913263 0.04423576 0.065457545
-0.05958168 -0.109153196 0.06481858 0.14461148 0.08877687 -0.17355615 0.06277146 -0.088093616
0.018861743 0.075279385 0.11699205 -0.034365125 -0.13650304 0.0423254 0.041983742 0.12637936
0.0086277 0.05998136 0.1331673 -0.1441718 0.10423551 -0.08098568 0.052963782 -0.070420064
0.15787119 -0.055172812 -0.03556895 -0.14616905 -0.07180722 0.01683884 0.001575626 0.034155246
-0.024957998 0.025675122 0.029472847 -0.26691696 0.016999867 -0.07230446 -0.05855449 0.10122202
0.04203628 -0.07562149 0.055356193 0.11470226 -0.018625295 -0.028262865 0.015347871 -0.20673996
0.0048546195 0.109325305 0.10158676 0.0013079725 -0.03973196 0.06506781 0.0037188886 0.02593412
0.16705792 0.0027849874 -0.091374345 0.112135835 -0.021482691 -0.13637191 -0.1345857 0.016465653
0.03970577 0.093708344 -0.06966196 -0.1160552 -0.15407826 0.085689604 -0.114843264 0.08402273
0.09336256 -0.07728241 0.14392272 -0.120356195 0.05322992 0.008313728 0.040474463 -0.050334994
0.10625516 -0.07687239 -0.11516513 -0.19875588 0.03611766 -0.014831528 -0.09227717 0.059318073
-0.004175682 0.112960406 -0.17485617 0.15048377 0.078405365 0.07146107 -0.08488729 0.11094423
-0.14346929 -0.084794454 -0.01114685 -0.048277956 0.043528706 -0.06998276 -0.10242098 -0.076726735
0.06633448 0.037332814 -0.0020675603 -0.011735638 -0.029990964 -0.012090743 -0.04846529 -0.02413844
-0.14642447 0.16162701 0.138651 0.010217497 -0.049353957 0.08686602 0.041210964 0.11153076
-0.11773328 -0.005113723 -0.10905185 -0.08226461 -0.082802005 0.024584457 0.123707145 0.21777537
-0.061744384 0.09752991 0.0069480077 -0.12087779 -0.13091977 -0.06511328 0.03574024 0.024199832
0.05652944 0.10942067 -0.050008956 0.05083991 -0.23207101 0.09710645 -0.047989365 -0.16658534
-0.03996132 -0.09860509 0.050074317 -0.011321308 -0.03344028 0.017458973 0.08765414 0.0076635396
0.035007402 -0.06332286 -0.09674158 -0.06319438 -0.056256805 0.09063675 -0.00015212501 0.099400505
0.08910218 0.002912274 -0.11271002 0.017446484 0.00016696165 -0.12207951 0.011138574 0.013839514
0.031986907 0.07472353 0.07589358 -0.00822516 -0.10328258 0.05233414 -0.026378822 -0.05877729
0.1731616 0.110844225 -0.10452141 0.13040677 -0.031462472 -0.08974438 -0.07125183 0.07309526
0.07478396 -0.041138582 -0.13980882 -0.12227308 -0.030234387 -0.027917767 -0.043805897 0.22352901
-0.057075758 0.21473345 -0.06750503 -0.026702099 0.12492749 -0.07626927 -0.024852116 0.27752993
-0.04770593 0.2173923 -0.021419078 0.1457692 -0.031837538 0.032597452 0.049142767 -0.032570545
0.10232307 -0.018632852 -0.11867184 0.109762296 -0.09085975 -0.024693217 -0.05405213 0.07369562
0.10166687 -0.0280728 0.12549266 -0.033965472 -0.0014123572 0.034547806 -0.0016244013 0.15027282
0.00087337807 -0.025425175 -0.009259303 -0.10853513 0.027940623 0.04751931 -0.039503165 0.18949112
-0.12912428 0.17533538 0.0996795 0.18213813 0.27046058 0.28419024 0.07889158 0.1241131
00000000: ad73 87bd d706 a1bd 0ca7 79bc 5e4a a43d
00000010: 24de 253d 25bd 903b 552d 8f3d 4553 f53d
00000020: abb5 1d3d 9908 cfbd 0fea ba3d d0a6 963d
00000030: 6fb7 e1bd 5baa e43c 8e30 353d 9b0e 863d
00000040: eb0b 74bd b68b dfbd 9bbf 843d 0815 143e
00000050: a6d0 b53d b4b8 31be 538e 803d 6d6a b4bd
00000060: f183 9a3c 142c 9a3d 8799 ef3d 72c2 0cbd
00000070: 74c7 0bbe 665d 2d3d 25f7 2b3d 9769 013e
00000080: 325b 0d3c 04af 753d 025d 083e c6a1 13be
00000090: 6d79 d53d d2db a5bd 8df0 583d 6538 90bd
000000a0: fca8 213e e3fc 61bd bfb0 11bd 57ad 15be
000000b0: aa0f 93bd 9bf1 893c 3c85 ce3a 5fe6 0b3d
000000c0: b774 ccbc a254 d23c 0a71 f13c 57a9 88be
000000d0: 4e43 8b3c 5c14 94bd d5d6 6fbd 7e4d cf3d
000000e0: 3c2e 2c3d 71df 9abd 2dbd 623d 05e9 ea3d
000000f0: 1394 98bc 8687 e7bc a375 7b3c a4b3 53be
00000100: 8013 9f3b f2e5 df3d b80c d03d 4670 ab3a
00000110: fbbd 22bd 4642 853d 99b8 733b cb73 d43c
00000120: 3b11 2b3e 5684 363b 7922 bbbd 79a7 e53d
00000130: 78fc afbc 14a5 0bbe d5d0 09be fae2 863c
00000140: 84a2 223d 29ea bf3d eeaa 8ebd 59ae edbd
00000150: b1c6 1dbe 087e af3d f232 ebbd 1c14 ac3d
00000160: df34 bf3d 3d46 9ebd 7a60 133e 4f7d f6bd
00000170: 9e07 5a3d 4d36 083c 8dc8 253d 112c 4ebd
00000180: 4e9c d93d 466f 9dbd b2db ebbd a986 4bbe
00000190: 1df0 133d f0ff 72bc d0fb bcbd 82f7 723d
000001a0: 29d4 88bb c957 e73d 7f0d 33be 6b18 1a3e
000001b0: fe92 a03d 2e5a 923d 63d9 adbd ba36 e33d
000001c0: 9de9 12be b7a8 adbd 47a1 36bc 1bbf 45bd
000001d0: 284b 323d 1f53 8fbd 17c2 d1bd e822 9dbd
000001e0: 5fda 873d 4bea 183d e87f 07bb d546 40bc
000001f0: 9caf f5bc 4018 46bc 8a83 46bd fabd c5bc
00000200: 4cf0 15be 8d81 253e 87fa 0d3e 4a67 273c
00000210: 6027 4abd d0e6 b13d d4cc 283d 3d6a e43d
00000220: 251e f1bd 0591 a7bb 9456 dfbd 597a a8bd
00000230: 1994 a9bd 5865 c93c 2c5a fd3d 8200 5f3e
00000240: aee7 7cbd c3bd c73d 1dac e33b c68e f7bd
00000250: d50f 06be 1d5a 85bd 5c64 123d ba3e c63c
00000260: 6a8b 673d f217 e03d 31d6 4cbd 823d 503d
00000270: 06a4 6dbe bfdf c63d 7f90 44bd 5995 2abe
00000280: 7bae 23bd 77f1 c9bd ba1a 4d3d 027d 39bc
00000290: adf8 08bd 1f06 8f3c 0484 b33d 6e1e fb3b
000002a0: ec63 0f3d 6aaf 81bd 7320 c6bd 0e6c 81bd
000002b0: 896d 66bd c39f b93d bf83 1fb9 7e92 cb3d
000002c0: 347b b63d dadb 3e3b 83d4 e6bd eeeb 8e3c
000002d0: 6d12 2f39 d204 fabd 917e 363c 21bf 623c
000002e0: b404 033d a608 993d 186e 9b3d d2c2 06bc
000002f0: d185 d3bd 535c 563d 6618 d8bc 75c0 70bd
00000300: 4651 313e 4c02 e33d 520f d6bd 5a89 053e
00000310: cbde 00bd e7cb b7bd 7bec 91bd f8b2 953d
00000320: 5528 993d ee80 28bd 0b2a 0fbe 4f6a fabd
00000330: 1bae f7bc cdb3 e4bc d06d 33bd cae4 643e
00000340: 45c8 69bd 16e3 5b3e 1440 8abd 5cbe dabc
00000350: fcd9 ff3d 1033 9cbd aa96 cbbc 6718 8e3e
00000360: 4b67 43bd 169c 5e3e 1077 afbc 8544 153e
00000370: 1468 02bd e884 053d ed49 493d b168 05bd
00000380: c28e d13d eca3 98bc 390a f3bd 0ecb e03d
00000390: ad14 babd 6e49 cabc c465 5dbd bbed 963d
000003a0: b836 d03d eef8 e5bc 2681 003e 611f 0bbd
000003b0: d81e b9ba 0082 0d3d dde9 d4ba 1ee1 193e
000003c0: 69f3 643a 7548 d0bc 55b4 17bc ab47 debd
000003d0: bce3 e43c 9ca3 423d 12ce 21bd f609 423e
000003e0: 2839 04be 1e8b 333e c424 cc3d 6b82 3a3e
000003f0: cf79 8a3e 6281 913e e991 a13d 022f fe3d

network_body._body_endoder.seq_layers.0.bias f4 [256]
-0.038259584 -0.0032415995 -0.008935329 -0.038040053 -0.015309401 -0.027554207 -0.027179651 -0.020632839
-0.0628676 -0.029232575 -0.05029297 -0.024999512 0.02149235 -0.04691873 0.026625529 -0.042326212
-0.051913295 -0.029719166 -0.059278425 -0.03873091 -0.049979705 -0.032364786 -0.021422524 -0.032186855
-0.033871572 -0.03361693 -0.03745408 -0.05279173 -0.021501126 -0.0372441 -0.036784265 -0.023017988
-0.003571593 -0.026204532 0.007096103 -0.016922045 -0.027452884 0.021963326 -0.013020475 0.0060519096
-0.051162858 -0.010337668 -0.048080545 -0.0065495824 -0.04169139 -0.018857112 -0.03209416 -0.006513405
-0.007842139 -0.011834192 -0.07732963 -0.010129268 -0.066488914 -0.020967593 -0.018960588 -0.019000899
-0.047737733 -0.036750898 -0.029605526 -0.048291184 -0.038813315 0.01582209 -0.07060523 -0.014160726
-0.009190247 -0.042931385 -0.06263992 -0.06047509 -0.04578967 -0.078256585 -0.029252453 -0.008869185
-0.03909653 -7.133986e-05 -0.011675172 -0.05213023 -0.031427402 -0.010816005 0.013552573 -0.012953464
-0.038663045 -0.028289245 -0.0057376735 -0.00802646 -0.02796961 -0.044294037 0.05127334 -0.044882007
-0.04352084 0.011409049 -0.01810988 -0.02843512 -0.033571135 0.043708056 -0.07296043 0.059011992
-0.04212129 0.014041126 -0.009397265 0.0004054103 -0.06183196 0.021001214 -0.080910355 -0.054167416
-0.032874193 -0.038058136 -0.0027062497 -0.06948928 -0.048625734 -0.020215398 -0.01139988 -0.0071888724
-0.00565435 -0.044904705 -0.031430013 0.004837131 -0.01895915 0.020390766 -0.047069155 -0.024224684
-0.05154904 -0.025740212 -0.034790132 0.017414771 -0.04280661 -0.018608406 -0.02830769 1.52416505e-05
-0.027789366 0.00225313 -0.050308447 0.04438612 -0.05440026 -0.08761052 -0.018818112 -0.058911566
-0.033791292 -0.032550562 -0.030238057 -0.010954221 -0.04366671 -0.021236533 -0.022340676 0.008112865
0.0075068846 -0.06248803 -0.067879476 -0.038563546 -0.068049595 -0.040690996 0.0008463029 -0.06847404
-0.010620167 -0.00041258885 -0.047202047 -0.028001992 -0.035403162 -0.09711374 -0.04240956 -0.002624409
-0.021830337 -0.017701758 -0.03438473 -0.015675372 -0.05652573 -0.08589163 0.0055357595 -0.04408306
-0.049825657 -0.037964128 -0.07522735 0.01888155 -0.08033549 -0.036772057 -0.0048388755 -0.010474187
-0.027067186 -0.002607057 -0.08379181 0.036188208 -0.04133304 -0.0688782 0.008862225 0.011349729
-0.0965138 0.027122868 0.004076654 -0.045413736 -0.05467404 -0.0730239 0.02013799 -0.04994812
-0.02436276 -0.04475999 -0.023071209 -0.040992506 -0.043901876 -0.07849696 -0.0890783 0.0072090994
-0.014591755 -0.0736829 -0.0906717 -0.02530773 -0.02505183 -0.08889747 -0.024968471 -0.04868108
-0.05863403 0.015525877 -0.050074432 -0.058465898 -0.0074705547 -0.047453642 -0.044330515 -0.028382335
-0.035045765 -0.041263442 -0.028473875 -0.012031555 0.0008500149 -0.006089466 -0.012353166 -0.0057126526
-0.030510135 -0.052122742 -0.032447625 -0.023182148 -0.003866584 0.0062034954 0.009032917 -0.042856824
-0.04125555 -0.047232833 -0.024336578 -0.011718292 -0.057323344 -0.02515048 -0.035634305 -0.027473088
-0.020835305 -0.021494102 -0.055423908 -0.050862007 -0.017782789 0.011225972 -0.027401393 -0.033249576
-0.033403408 0.018868905 -0.06202115 -0.07032492 -0.045739044 -0.01997698 -0.0668336 -0.01879578
00000000: 15b6 1cbd 0471 54bb 7c65 12bc e3cf 1bbd
00000010: 48d4 7abc 5cb9 e1bc dca7 debc 3306 a9bc
00000020: bac0 80bd 2779 efbc 0000 4ebd c7cb ccbc
00000030: ba10 b03c db2d 40bd c81d da3c 405e 2dbd
00000040: 09a3 54bd 9c75 f3bc efcd 72bd 4da4 1ebd
00000050: 85b7 4cbd f090 04bd 4a7e afbc 5dd6 03bd
00000060: ebbc 0abd e8b1 09bd 7369 19bd 243c 58bd
00000070: 2123 b0bc 458d 18bd 19ab 16bd 3890 bcbc
00000080: 6311 6abb e3aa d6bc 6d86 e83b 1aa0 8abc
00000090: dfe4 e0bc 6fec b33c d553 55bc 194f c63b
000000a0: 2590 51bd 525f 29bc 1bf0 44bd e19d d6bb
000000b0: 97c4 2abd 3b7a 9abc 2a75 03bd 676e d5bb
000000c0: 517c 00bc 33e4 41bc ff5e 9ebd 3bf5 25bc
000000d0: 572b 88bd 3bc4 abbc 3c53 9bbc c6a7 9bbc
000000e0: a488 43bd 1c88 16bd 4a87 f2bc facc 45bd
000000f0: b6fa 1ebd 549d 813c 7a99 90bd 6402 68bc
00000100: b192 16bc d2d8 2fbd 5c49 80bd bab4 77bd
00000110: f38d 3bbd fd44 a0bd d7a2 efbc 0f50 11bc
00000120: af23 20bd 4c9c 95b8 3849 3fbc 8286 55bd
00000130: 05ba 00bd 9d35 31bc 9c0b 5e3c c43a 54bc
00000140: 245d 1ebd d9be e7bc 1803 bcbb 6a81 03bc
00000150: 8620 e5bc aa6d 35bd fe03 523d 32d6 37bd
00000160: e942 32bd 05ed 3a3c 2c5b 94bc c5f0 e8bc
00000170: e381 09bd 3807 333d 476c 95bd 8fb6 713d
00000180: 6087 2cbd c00c 663c fcf6 19bc 408d d439
00000190: 8243 7dbd bd0a ac3c 54b4 a5bd a7de 5dbd
000001a0: 17a7 06bd d9e2 1bbd 565b 31bb 6550 8ebd
000001b0: c72b 47bd c39a a5bc 90c6 3abc a290 ebbb
000001c0: 2048 b9bb ffed 37bd c2bc 00bd cc80 9e3b
000001d0: 3850 9bbc 890a a73c 96cb 40bd d872 c6bc
000001e0: 1625 53bd 23dd d2bc 1980 0ebd 6ca9 8e3c
000001f0: fc55 2fbd a870 98bc 87e5 e7bc 64b6 7f37
00000200: 86a6 e3bc 40a9 133b 3b10 4ebd 38ce 353d
00000210: cfd2 5ebd 256d b3bd 7128 9abc 414d 71bd
00000220: bd68 0abd bd53 05bd cdb5 f7bc 5579 33bc
00000230: dddb 32bd 3df8 adbc cb03 b7bc d2eb 043c
00000240: 50fc f53b 73f3 7fbd 6504 8bbd cff4 1dbd
00000250: 965d 8bbd 9aab 26bd 6dda 5d3a 1e3c 8cbd
00000260: 3500 2ebc bd50 d8b9 ef56 41bd 6f64 e5bc
00000270: e802 11bd 92e3 c6bd a6b5 2dbd 47fe 2bbb
00000280: 89d5 b2bc 4703 91bc 01d7 0cbd a369 80bc
00000290: 8687 67bd f3e7 afbd 5165 b53b 7090 34bd
000002a0: fd15 4cbd 4680 1bbd cc10 9abd 7bad 9a3c
000002b0: ef86 a4bd 4c9e 16bd 6e8f 9ebb ed9b 2bbc
000002c0: 01bc ddbc 29db 2abb 0a9b abbd 163a 143d
000002d0: d54c 29bd 0410 8dbd de32 113c 37f4 393c
000002e0: 07a9 c5bd c730 de3c 7495 853b c103 3abd
000002f0: e3f1 5fbd 8e8d 95bd 6df8 a43c 6696 4cbd
00000300: 6994 c7bc 4056 37bd d5ff bcbc c2e7 27bd
00000310: 74d2 33bd 04c3 a0bd af6e b6bd 4f3a ec3b
00000320: 4212 6fbc 0fe7 96bd 16b2 b9bd 2852 cfbc
00000330: 7f39 cdbc e00f b6bd ae8a ccbc d065 47bd
00000340: 3d2a 70bd 3f60 7e3c d91a 4dbd f079 6fbd
00000350: 8ecb f4bb c05e 42bd ea93 35bd 1282 e8bc
00000360: 268c 0fbd db03 29bd 0b42 e9bc 0020 45bc
00000370: 89d3 5e3a 258a c7bb ef64 4abc 3431 bbbb
00000380: 64f0 f9bc a87e 55bd cde7 04bd 7de8 bdbc
00000390: 8466 7dbb b146 cb3b cdfe 133c a38a 2fbd
000003a0: 94fb 28bd 3777 41bd 815d c7bc 14fe 3fbc
000003b0: e2cb 6abd 6108 cebc 47f5 11bd 3e0f e1bc
000003c0: cdae aabc 6614 b0bc 2e04 63bd ae54 50bd
000003d0: 36ad 91bc 24ed 373c e378 e0bc b530 08bd
000003e0: 03d2 08bd f692 9a3c e409 7ebd 8306 90bd
000003f0: dd58 3bbd c3a6 a3bc 0ee0 88bd 9cf9 99bc

network_body._body_endoder.seq_layers.2.weight f4 [256, 256]
0.07632443 -0.008361919 4.542752e-05 -0.04672034 0.025792737 -0.11970568 0.12965658 -0.071631454
-0.028653579 -0.086577766 -0.0139740575 0.053367812 -0.08309184 -0.095050715 0.0027081328 0.07384669
0.029965514 0.105465405 0.09491765 0.06939598 -0.09884459 -0.059728503 0.042287137 0.07317429
-0.061160266 -0.051102754 -0.06393351 0.07595502 0.04981266 0.12663975 -0.10613549 0.060364213
0.022141127 -0.0040951036 0.048712723 -0.099671036 0.03224075 -0.0017774431 -0.0371731 -0.00068634946
0.009695399 0.01830849 0.052912254 0.14705198 -0.07305653 0.007076913 0.091620855 0.04002438
0.039369516 -0.009357461 0.020117195 -0.088718206 0.026499815 -0.037038352 0.120017745 0.0510756
-0.067034826 -0.028656306 0.031471632 0.0784784 0.04535442 0.008270019 0.019060457 -0.08681998
-0.030302264 0.0010830786 -0.12135968 0.021439588 0.049915157 -0.061599832 0.01604959 -0.005534874
-0.12989037 0.024635872 -0.06611548 -0.03007943 0.0011579675 -0.098671496 0.092106305 -0.0529185
-0.049585346 -0.081264354 -0.016256768 0.019390423 -0.028895227 0.014018518 0.004284281 -0.04345234
-0.017728003 0.013065289 -0.09678133 0.0212875 0.014197288 -0.048907127 0.012764777 0.07962628
-0.012895377 0.060322303 0.046350785 0.08564223 -0.05766461 0.07178544 -0.019067641 -0.04918928
-0.056239583 0.08425209 -0.19341661 0.0365747 0.09182883 0.12540202 0.0052412907 0.026335325
-0.058905426 0.03691932 0.0067944475 -0.065890014 0.025952518 0.088819906 0.0012871625 0.022101978
0.031164827 -0.077126704 -0.073623955 0.018738182 -0.005641294 -0.0024350616 0.0068205497 0.1477019
0.114133075 0.16399814 0.008360011 0.020066164 0.045748405 -0.01882624 0.02001595 0.0714603
-0.09971394 0.033061646 0.07525482 -0.0043100137 -0.10449069 -0.0035642795 0.12265945 -0.023098055
0.08011481 0.07384147 -0.034022313 0.047982037 0.108662345 -0.02101078 0.13100739 -0.020072088
-0.013639982 0.06644075 0.077161245 0.06435516 -0.01538947 0.004067746 -0.010491241 -0.076480225
0.032456942 -0.06531598 -0.04955347 0.092002705 -0.054250367 -0.0400723 0.0014470614 -0.18563797
0.044352297 -0.038435593 -0.16984038 -0.056650084 -0.23146172 -0.121280774 -0.04228649 0.022121422
-0.10092796 0.08418834 -0.034426548 -0.103389 -0.07720924 -0.013724888 0.032172482 0.06368345
-0.13110913 0.18985055 -0.07620369 -0.04517306 -0.034323078 0.008938807 -0.011164887 -0.00096385047
0.032898035 -0.0024192813 0.06733907 -0.08917511 0.039743185 -0.04042571 -0.09730708 -0.060226582
0.0793094 0.0064008534 0.12425555 0.052903976 0.104060024 -0.21312243 -0.0037244558 -0.033343807
0.0327998 0.10292476 0.085840456 0.022399474 0.0062881825 0.03169913 -0.077133045 -0.12975523
0.05469536 -0.0961227 -0.06113143 0.02566509 -0.0028731695 0.15143704 -0.104148395 -0.068303145
-0.026565928 -0.11838504 0.04970629 0.0034933146 0.032966312 -0.0075715357 0.06619515 -0.15485625
0.007554585 0.057434417 0.012325004 0.014901041 0.017246388 0.054511484 0.027597753 0.0006186586
0.0047466154 -0.05727812 -0.02115406 0.026064364 0.0109101925 0.05981163 0.059424736 0.08421095
0.006539509 0.07482095 -0.07853032 -0.0031977776 -0.08621483 -0.09406874 -0.012646668 -0.023931261
00000000: fc4f 9c3d 6e00 09bc 6e89 3e38 d45d 3fbd
00000010: 4a4b d33c 4028 f5bd b2c4 043e 83b3 92bd
00000020: e9ba eabc af4f b1bd 72f3 64bc 3598 5a3d
00000030: 0e2c aabd f3a9 c2bd ee7a 313b ef3c 973d
00000040: 3d7a f53c 3ffe d73d 2f64 c23d 7b1f 8e3d
00000050: 086f cabd e0a5 74bd 4735 2d3d 67dc 953d
00000060: 3083 7abd 1f51 51bd 92ef 82bd 4e8e 9b3d
00000070: 5c08 4c3d daad 013e 905d d9bd 7740 773d
00000080: 4f61 b53c 3830 86bb fe86 473d 5420 ccbd
00000090: e00e 043d 18f9 e8ba d242 18bd 22ec 33ba
000000a0: 73d9 1e3c b0fb 953c 85ba 583d cb94 163e
000000b0: a99e 95bd 73e5 e73b b7a3 bb3d 9bf0 233d
000000c0: ee41 213d 0950 19bc d1cc a43c e4b1 b5bd
000000d0: 2416 d93c 87b5 17bd ddcb f53d a634 513d
000000e0: 8e49 89bd a1c0 eabc 66e8 003d 49b9 a03d
000000f0: 8ec5 393d f97e 073c ad24 9c3c acce b1bd
00000100: 743c f8bc 16f6 8d3a 6d8b f8bd 13a2 af3c
00000110: d673 4c3d 1b50 7cbd 6e7a 833c e35d b5bb
00000120: fb01 05be 2bd1 c93c 8e67 87bd 2369 f6bc
00000130: f1c6 973a 4814 cabd 3ba2 bc3d 12c1 58bd
00000140: 011a 4bbd ed6d a6bd ea2c 85bc aad8 9e3c
00000150: afb5 ecbc edad 653c 2763 8c3b 15fb 31bd
00000160: 513a 91bc cb0f 563c 4a35 c6bd 2063 ae3c
00000170: be9b 683c d752 48bd 5b23 513c 1a13 a33d
00000180: 2247 53bc 8514 773d 52da 3d3d 3265 af3d
00000190: ba31 6cbd 3f04 933d be33 9cbc b37a 49bd
000001a0: 7a5b 66bd 5c8c ac3d 010f 46be 5acf 153d
000001b0: c110 bc3d 6369 003e 22bf ab3b 2ebd d73c
000001c0: d146 71bd b638 173d f5a3 de3b 58f1 86bd
000001d0: 609a d43c 36e7 b53d 02b6 a83a 350f b53c
000001e0: 614d ff3c 9bf4 9dbd 28c8 96bd d180 993c
000001f0: 9bda b8bb 8e95 1fbb eb7e df3b 2b3f 173e
00000200: 9abe e93d 21ef 273e 6df8 083c cc61 a43c
00000210: ae62 3b3d 7d39 9abc 7df8 a33c c759 923d
00000220: d236 ccbd a66b 073d 331f 9a3d 043b 8dbb
00000230: 37ff d5bd b096 69bb e134 fb3d 2238 bdbc
00000240: 3c13 a43d 323a 973d fb5a 0bbd d088 443d
00000250: 5d8a de3d cd1e acbc cd26 063e 386e a4bc
00000260: 3b7a 5fbc 1712 883d b706 9e3d a3cc 833d
00000270: 1e24 7cbc ba4a 853b 74e3 2bbc aaa1 9cbd
00000280: 92f1 043d 62c4 85bd 94f8 4abd ea6b bc3d
00000290: a235 5ebd da22 24bd 53ab bd3a e117 3ebe
000002a0: c1aa 353d a46e 1dbd a3ea 2dbe eb09 68bd
000002b0: 4d04 6dbe 0e62 f8bd 9934 2dbd fc37 b53c
000002c0: 51b3 cebd f06a ac3d da02 0dbd 9dbd d3bd
000002d0: e11f 9ebd 5ade 60bc 4bc7 033d 786c 823d
000002e0: 7941 06be 2f68 423e ae10 9cbd 6307 39bd
000002f0: 5b96 0cbd 1374 123c eeec 36bc e9aa 7cba
00000300: 17c0 063d ce8c 1ebb 11e9 893d 71a1 b6bd
00000310: c0c9 223d 6e95 25bd ef48 c7bd 26b0 76bd
00000320: f76c a23d 40be d13b b279 fe3d d7b1 583d
00000330: 6c1d d53d c43c 5abe 0016 74bb 8493 08bd
00000340: 1559 063d 37ca d23d 1fcd af3d 1a7f b73c
00000350: 190d ce3b f2d6 013d eef7 9dbd 8ede 04be
00000360: 3e08 603d fadb c4bd f364 7abd 983f d23c
00000370: c94b 3cbb 5012 1b3e c14b d5bd 85e2 8bbd
00000380: caa0 d9bc db73 f2bd d398 4b3d 18f0 643b
00000390: af07 073d a51a f8bb 5391 873d a392 1ebe
000003a0: 748c f73b 5a40 6b3d d0ee 493c 7f23 743c
000003b0: 4c48 8d3c 6f47 5f3d af14 e23c 7a2d 223a
000003c0: 7f89 9b3b 769c 6abd 474b adbc ef84 d53c
000003d0: aac0 323c 0afd 743d 5a67 733d ca76 ac3d
000003e0: 6149 d63b ba3b 993d 81d4 a0bd ce91 51bb
000003f0: 6791 b0bd 1da7 c0bd f833 4fbc 7e0b c4bc

network_body._body_endoder.seq_layers.2.bias f4 [256]
0.0070436588 -0.05358618 -0.004093606 -0.020781618 -0.0059822565 0.04061308 -0.0004454548 -0.021794913
0.01985762 -0.046076726 -0.050115846 -0.029276466 -0.02498769 -0.0023345777 -0.012851588 0.026401194
-0.016182622 -0.058849797 0.009391336 -0.025626734 -0.0022755174 0.0076139253 -0.0053620334 -0.008213429
-0.003724172 -0.036232993 -0.021095192 0.0056027896 -0.035756636 0.013357761 -0.04156316 0.003189478
0.02190084 0.022799768 -0.009685247 -0.029191488 -0.013019303 0.0028916495 -0.010162581 -0.016422868
-0.062811516 -0.046999965 -0.039378647 0.00034569588 -0.0058467193 0.030677803 -0.004920415 -0.00845367
0.033451732 -0.0077628144 -0.034804195 -0.009849897 -0.020330992 0.034636024 -0.0058207917 -0.004670344
-0.02119501 0.0040291767 0.0036057115 0.0033440012 -0.01787678 0.02941341 -0.012790736 -0.040237166
-0.02830831 -0.0408214 -0.00040102503 0.050115656 0.024331834 -0.003120815 -0.033371124 -0.020726878
0.016471393 -0.031050669 0.011674384 -0.007917226 -0.028623845 -0.027754862 -0.011624939 -0.043201882
-0.03301904 -0.018357152 -0.012987234 -0.034442235 -0.063985504 -0.029707253 -0.027320696 -0.042929083
-0.014937423 6.485992e-05 -0.017554738 -0.012563465 -0.059510455 0.017820867 -0.029000454 0.024886401
-0.0032642677 -0.031043394 0.023279704 -0.045285456 -0.017686943 -0.004369465 0.023981448 -0.041251734
-0.052462798 0.03369597 -0.07285762 -0.033693813 -0.03575971 -0.03245804 -0.0021683676 -0.05337308
0.0008022073 -0.0063391714 0.03847256 -0.0019291196 0.018877236 -0.018529778 0.007861666 -0.0018891187
-0.039059978 0.04625681 0.035914134 -0.017358106 -0.0041248137 0.0051798983 -0.012657413 -0.036465336
-0.03059931 -0.013847613 -0.02486688 0.011195997 -0.026492203 0.011059666 0.023775866 -0.012371112
0.004062361 0.003434004 -0.034166936 0.001618673 -0.013504097 0.027321307 0.027789641 -0.015907912
0.003015179 -0.021022325 -0.05460125 -0.016573688 0.0002389535 -0.018693432 0.03268134 0.03129698
-0.04485617 0.019875413 -0.038056083 -0.04588139 0.038454436 -0.018182626 -0.049477722 -0.030122356
-0.019616004 0.0033251103 -0.029393937 -0.053400144 -0.04120515 -0.010311434 -0.013985154 0.039868176
-0.03684701 -0.0067719263 -0.035596717 -0.006913968 -0.00095624337 0.025437886 0.0036721188 0.00391847
-0.021104865 0.051123183 -0.008076682 -0.011834359 0.014131831 0.00032177972 -0.0028788229 -0.025127381
-0.010215882 0.01362861 -0.0325042 0.027686976 -0.05434868 -0.02925341 -0.019408332 -0.023902
-0.011973293 -0.017101489 -0.0061547277 -0.019177249 -0.05614299 0.012514727 -0.036113583 -0.029857032
-0.020507447 -0.038625535 -0.0020344115 -0.00952619 0.0038817266 -0.02510333 -0.052281465 -0.018513856
-0.018927064 0.030930396 -0.039219707 0.016758358 -0.044420253 -0.06336087 -0.05694265 0.010492247
0.010761694 0.017574854 -0.010278087 -0.037892405 -0.04009588 -0.036901712 -0.0048700096 0.017468048
-0.023192538 -0.049455427 0.0019110575 0.0082803 0.043528643 -0.015481265 -0.026496686 0.033328164
-0.03253361 -0.075891465 0.018279046 -0.029003957 -0.0011543941 0.026215138 0.019626375 0.00029636998
-0.074934095 -0.005205215 -0.011963352 -0.01620522 -0.020858988 -0.03593688 -0.010256349 -0.014954543
0.011382299 -0.04079412 -0.042054117 0.0653147 0.04787802 -0.04976129 -0.07279787 0.0011590954
00000000: 7ece e63b 2f7d 5bbd a823 86bb 363e aabc
00000010: ce06 c4bb e759 263d ee8b e9b9 3f8b b2bc
00000020: 73ac a23c f3ba 3cbd 4646 4dbd 33d5 efbc
00000030: fcb2 ccbc b7ff 18bb 788f 52bc 5147 d83c
00000040: 6b91 84bc 7c0c 71bd 1ede 193c 28ef d1bc
00000050: d920 15bb 3c7e f93b ffb3 afbb 9e91 06bc
00000060: 3d11 74bb 0c69 14bd d3cf acbc 9b97 b73b
00000070: 8d75 12bd 83da 5a3c 223e 2abd 9006 513b
00000080: 6469 b33c 94c6 ba3c dfae 1ebc fd22 efbc
00000090: ea4e 55bc d481 3d3b f480 26bc 4089 86bc
000000a0: 53a3 80bd 0983 40bd 814b 21bd 843e b539
000000b0: d695 bfbb 0450 fb3c 6f3b a1bb 4381 0abc
000000c0: af04 093d 355f febb d88e 0ebd 7661 21bc
000000d0: 2e8d a6bc 81de 0d3d 57bc bebb af09 99bb
000000e0: 28a1 adbc 2f07 843b cd4d 6c3b 0827 5b3b
000000f0: 5372 92bc 64f4 f03c 3c90 51bc bacf 24bd
00000100: d4e6 e7bc 5734 27bd ab40 d2b9 1346 4d3d
00000110: 8e53 c73c 9686 4cbb 29b0 08bd 6acb a9bc
00000120: 04ef 863c f95d febc ea45 3f3c 41b7 01bc
00000130: 8e7c eabc 2a5e e3bc 8776 3ebc 75f4 30bd
00000140: f93e 07bd bd61 96bc 68c8 54bc 4d13 0dbd
00000150: d50a 83bd a05c f3bc a7cf dfbc 68d6 2fbd
00000160: 18bc 74bc 6805 8838 f4ce 8fbc fed6 4dbc
00000170: 3cc1 73bd 11fd 913c 5c92 edbc 91de cb3c
00000180: 53ed 55bb b74e febc 14b5 be3c 3e7d 39bd
00000190: 35e4 90bc bb2d 8fbb be74 c43c 94f7 28bd
000001a0: 3be3 56bd c904 0a3d 6036 95bd 8602 0abd
000001b0: c678 12bd b9f2 04bd 2c1b 0ebb bb9d 5abd
000001c0: 384b 523a d3b8 cfbb 6795 1d3d 83da fcba
000001d0: 6fa4 9a3c c3cb 97bc 38ce 003c 4e9c f7ba
000001e0: 5bfd 1fbd c877 3d3d b31a 133d 9632 8ebc
000001f0: 7229 87bb 23bc a93b 0a61 4fbc ad5c 15bd
00000200: 67ab fabc 19e1 62bc a1b5 cbbc 6a6f 373c
00000210: 2d06 d9bc 9a33 353c 9bc5 c23c 34b0 4abc
00000220: 8e1d 853b 070d 613b a1f2 0bbd a729 d43a
00000230: 4a40 5dbc efd0 df3c 1aa7 e33c 4f51 82bc
00000240: 4f9a 453b 0337 acbc 8fa5 5fbd 8bc5 87bc
00000250: 978f 7a39 f822 99bc dedc 053d 4331 003d
00000260: 1abb 37bd c3d1 a23c b2e0 1bbd 20ee 3bbd
00000270: 6682 1d3d bbf3 94bc 27a9 4abd 29c3 f6bc
00000280: beb1 a0bc 18ea 593b 8ecb f0bc 1cba 5abd
00000290: bbc6 28bd 4af1 28bc fd21 65bc d04c 233d
000002a0: e4ec 16bd 09e7 ddbb ddcd 11bd 918e e2bb
000002b0: 68ac 7aba 1d63 d03c eea7 703b 8266 803b
000002c0: 1ce4 acbc 8b66 513d 0f54 04bc e6e4 41bc
000002d0: 3289 673c 8bb4 a839 a2aa 3cbb f0d7 cdbc
000002e0: 8460 27bc 894a 5f3c 2023 05bd cccf e23c
000002f0: b99c 5ebd d9a4 efbc 39fe 9ebc 21ce c3bc
00000300: a12b 44bc 6c18 8cbc 99ad c9bb 9b19 9dbc
00000310: 31f6 65bd 920a 4d3c d6eb 13bd bc96 f4bc
00000320: 3cff a7bc cf35 1ebd c353 05bb bd13 1cbc
00000330: 9164 7e3b 80a5 cdbc 1725 56bd 5faa 97bc
00000340: ee0c 9bbc be61 fd3c d8a4 20bd d348 893c
00000350: 03f2 35bd 58c3 81bd b23c 69bd ace7 2b3c
00000360: d151 303c 24f9 8f3c 6c65 28bc 1135 1bbd
00000370: 943b 24bd 4026 17bd 9a94 9fbb 2719 8f3c
00000380: 47fe bdbc c691 4abd 737c fa3a 18aa 073c
00000390: 174b 323d 22a5 7dbc 940f d9bc 1d83 083d
000003a0: f641 05bd fc6c 9bbd f0bd 953c b599 edbc
000003b0: 0a4f 97ba 21c1 d63c 7ec7 a03c 1b62 9b39
000003c0: 0c77 99bd 8290 aabb ef01 44bc cfc0 84bc
000003d0: 78e0 aabc 8d32 13bd 3f0a 28bc e603 75bc
000003e0: d27c 3a3c bc17 27bd f040 2cbd b7c3 853d
000003f0: be1b 443d 7fd2 4bbd 0d17 95bd caec 973a

network_body._body_endoder.seq_layers.4.weight f4 [256, 256]
-0.15371878 0.060677063 -0.08997661 -0.008802868 0.040833168 -0.13931093 -0.023651777 -0.01454462
-0.10745203 0.019056533 -0.020976506 0.0003122329 0.040705763 -0.10092817 -0.008854284 0.0856156
-0.03707876 -0.059423227 0.06106474 -0.056173753 -0.051416297 0.04300267 0.16272031 -0.02040287
0.04755403 0.00731401 0.11722713 -0.08441498 -0.11287365 -0.006213597 0.039721925 0.007640462
-0.090895 -0.062110953 -0.07233586 0.032067556 -0.07386348 -0.03346932 -0.061410785 0.022700489
-0.0147773335 -0.018201653 -0.04614654 0.04972481 0.0134378355 -0.008066454 -0.14406261 0.051363856
-0.05097942 0.030254763 0.028027833 -0.019275961 -0.09004611 -0.04840964 0.11399811 -0.004072024
0.028126838 0.010846831 -0.08716091 -0.051099073 -0.07441515 -0.034673687 -0.06647367 -0.019680059
0.04586283 0.102810286 -0.026404103 0.1973677 -0.017721964 0.03186241 -0.021336505 -0.06463922
-0.020201826 -0.016714258 0.016753336 0.047729433 0.06430589 0.07971703 -0.0047239107 -0.13557006
-0.06294872 0.07967853 0.04316246 -0.07131515 0.003382006 -0.044835147 0.08446319 0.18200739
0.0005042673 -0.017528694 -0.18971828 -0.025114372 -0.064261116 -0.02809123 0.05114214 -0.041051015
0.061010346 0.07402733 0.048301574 0.022551524 0.03648363 0.0033070175 0.10871253 0.07614404
0.01494469 -0.04832633 0.049342517 -0.057198077 0.024702752 0.12192953 0.018609216 0.046834465
-0.077413306 0.06570395 0.07018035 -0.040499408 -0.014624577 -0.026372278 -0.14445546 0.16622768
-0.026473822 -0.10245375 -0.17361252 0.05463267 0.134384 0.011538658 0.028943207 0.058801338
-0.009099314 0.08875516 -0.0071474 -0.006077313 0.03236758 -0.046538375 0.023939474 -0.047472112
0.008573537 -0.0049844314 0.116341054 -0.11608341 -0.058813956 -0.060243525 -0.15309747 0.011374523
0.021861637 -0.033631716 0.054964468 -0.0017565603 -0.03913015 -0.032324612 -0.08231455 -0.10616503
-0.11988575 0.1460164 0.012409724 0.06878603 -0.10033413 -0.12694834 0.03877852 0.03102782
0.12990169 -0.1022085 0.009653509 -0.011377135 -0.059637528 0.107122265 -0.1350791 0.08059121
0.050558303 -0.025971513 -0.009627085 -0.06658171 -0.033023227 -0.055399194 0.0061300653 -0.056880854
0.07074274 0.009118547 0.035629928 -0.04359988 0.09940802 -0.10492584 0.011296789 -0.06728652
0.043946892 0.08881953 -0.012679245 0.032271054 0.13782711 0.015248641 0.017386394 -0.006771231
-0.0025107649 -0.022448286 0.0365842 -0.08908368 0.023328748 -0.04432729 -0.058297854 0.016587935
-0.10420542 0.05165587 0.02949152 0.07685277 -0.091779575 -0.14012839 -0.036897585 -0.08073382
-0.05843185 -0.07320063 0.017967576 -0.056308255 0.021436695 -0.020387836 0.050623756 -0.063899145
-0.06630279 0.021440305 0.040379513 0.020093687 -0.02176858 0.040412415 -0.08374919 -0.078893244
-0.10496682 0.01004973 0.15561979 -0.17684132 -0.13459739 -0.019053655 -0.047271222 -0.058872677
0.02448182 0.030052034 0.108862914 0.0628101 -0.020121938 0.08755941 0.10629092 -0.0302581
-0.12053232 0.01948811 -0.07159979 0.019514259 -0.06890738 0.011012912 0.08061997 -0.055427387
-0.12421249 0.016291272 0.0036956728 -0.029119728 -0.066306025 0.028164612 -0.008335744 -0.0862804
00000000: 7568 1dbe 8388 783d a845 b8bd e839 10bc
00000010: ae40 273d 86a7 0ebe 5fc1 c1bc 8f4c 6ebc
00000020: cf0f dcbd 721c 9c3c ecd6 abbc 31b3 a339
00000030: 16bb 263d 6eb3 cebd 8f11 11bc 3b57 af3d
00000040: e6df 17bd c565 73bd 051f 7a3d 7316 66bd
00000050: e599 52bd 9123 303d 27a0 263e eb23 a7bc
00000060: 04c8 423d 5daa ef3b c714 f03d c3e1 acbd
00000070: 4d2a e7bd 6e9b cbbb 75b3 223d d75c fa3b
00000080: 2827 babd 0e68 7ebd d324 94bd 4559 033d
00000090: bc45 97bd 2017 09bd e089 7bbd 60f6 b93c
000000a0: a11c 72bc a21b 95bc 2804 3dbd 3eac 4b3d
000000b0: 5e2a 5c3c 2929 04bc 2685 13be e862 523d
000000c0: cccf 50bd d6d8 f73c a09a e53c 9fe8 9dbc
000000d0: 186a b8bd 3049 46bd d777 e93d 9d6e 85bb
000000e0: 416a e63c e8b6 313c 6b81 b2bd 434d 51bd
000000f0: f866 98bd ff05 0ebd 5923 88bd 1338 a1bc
00000100: aada 3b3d 338e d23d 6b4d d8bc c21a 4a3e
00000110: a72d 91bc 2982 023d e5c9 aebc 9161 84bd
00000120: 4d7e a5bc 57ec 88bc 4b3e 893c f07f 433d
00000130: ceb2 833d af42 a33d 09cb 9abb e1d2 0abe
00000140: 42eb 80bd 7f2e a33d 1fcb 303d ad0d 92bd
00000150: a5a4 5d3b 0fa5 37bd 09fb ac3d 2560 3a3e
00000160: ce30 043a 5698 8fbc 8245 42be a8bc cdbc
00000170: 559b 83bd 941f e6bc 6c7a 513d 1c25 28bd
00000180: fce5 793d a49b 973d dfd7 453d f9bd b83c
00000190: dc6f 153d 8cba 583b ada4 de3d 68f1 9b3d
000001a0: 93da 743c d4f1 45bd 611b 4a3d 8848 6abd
000001b0: 6d5d ca3c 30b6 f93d 5b72 983c 7fd5 3f3d
000001c0: de8a 9ebd cb8f 863d b7ba 8f3d b5e2 25bd
000001d0: ec9b 6fbc ad0a d8bc 22ec 13be 9737 2a3e
000001e0: a1df d8bc 46d3 d1bd 7bc7 31be 82c6 5f3d
000001f0: f69b 093e a40c 3d3c 4e1a ed3c acd9 703d
00000200: 4a15 15bc 44c5 b53d bd34 eabb 3224 c7bb
00000210: de93 043d 069f 3ebd b71c c43c 1e72 42bd
00000220: 0578 0c3c 7154 a3bb 3844 ee3d 24bd edbd
00000230: e7e6 70bd eac1 76bd 95c5 1cbe 355c 3a3c
00000240: 2d17 b33c 69c1 09bd 6c22 613d 623c e6ba
00000250: f046 20bd d066 04bd 8894 a8bd 0d6d d9bd
00000260: a986 f5bd 5385 153e 2852 4b3c b1df 8c3d
00000270: fb7b cdbd bffe 01be 3ad6 1e3d 0e2e fe3c
00000280: f304 053e b152 d1bd c029 1e3c 2a67 3abc
00000290: 7b46 74bd eb62 db3d 2d52 0abe 010d a53d
000002a0: 3916 4f3d 36c2 d4bc ecba 1dbc fe5b 88bd
000002b0: 5d43 07bd 44ea 62bd b7de c83b e6fb 68bd
000002c0: 92e1 903d f565 153c b0f0 113d ca95 32bd
000002d0: 6f96 cb3d 5ce3 d6bd 2b16 393c 84cd 89bd
000002e0: a801 343d 04e7 b53d 9cbc 4fbc a72e 043d
000002f0: 8d22 0d3e 70d5 793c e96d 8e3c 34e1 ddbb
00000300: a58b 24bb 78e5 b7bc 50d9 153d 8171 b6bd
00000310: ee1b bf3c 8890 35bd bbc9 6ebd 6ce3 873c
00000320: a769 d5bd 1b95 533d 3398 f13c fc64 9d3d
00000330: eef6 bbbd d17d 0fbe ec21 17bd c657 a5bd
00000340: 3c56 6fbd 36ea 95bd bd30 933c 7ca3 66bd
00000350: 029c af3c 6404 a7bc db5a 4f3d 8edd 82bd
00000360: c2c9 87bd 94a3 af3c fd64 253d 849b a43c
00000370: 0554 b2bc 7d87 253d b284 abbd c892 a1bd
00000380: d8f8 d6bd 9fa7 243c cb5a 1f3e e415 35be
00000390: e6d3 09be 6916 9cbc 789f 41bd 7a24 71bd
000003a0: 198e c83c af2f f63c 85f3 de3d 95a2 803d
000003b0: c3d6 a4bc 5952 b33d 0eaf d93d d6df f7bc
000003c0: a6d9 f6bd 87a5 9f3c e9a2 92bd 5edc 9f3c
000003d0: 501f 8dbd 806f 343c 151c a53d d407 63bd
000003e0: 1e63 febd 4675 853c 1a33 723b 7f8c eebc
000003f0: 74cb 87bd 79b9 e63c a592 08bc c7b3 b0bd

network_body._body_endoder.seq_layers.4.bias f4 [256]
-0.02629985 0.036663692 0.03004598 0.03525911 -0.026448932 0.056547854 0.03348961 -0.03485609
-0.006341576 0.04517636 -0.020609684 0.0050151777 -0.005474284 -0.047988553 0.032559715 -0.02559776
0.018035227 0.009527326 0.0019679146 -0.04931925 -0.04146186 0.026846278 -0.017928468 -0.03402819
0.009138144 -0.026919352 -0.0089315325 0.039481055 0.018929314 0.0026623243 -0.027305963 -0.007923698
-0.012198695 -0.0051312824 -0.017786063 -0.01980953 0.074092634 -0.002393363 0.025825268 0.044840656
-0.04327324 -0.04626656 -0.061978266 0.032868117 0.023611259 -0.026352119 -0.022239365 0.0019354463
-0.058715526 -0.008317379 0.00050693704 0.0628047 0.042691316 0.036583535 -0.013637414 0.011431368
-0.034886308 0.04717696 0.02532975 0.0006395781 0.0116075715 -0.045034498 0.013669353 0.018318921
0.032607254 -0.0102724545 -0.048066217 -0.041914597 -0.038229045 0.03489083 0.034212213 0.0015508868
0.00864742 0.018973581 0.0069549237 -0.03648639 -0.028278673 0.031004269 0.051606614 -0.067444794
-0.05861248 0.041403353 -0.037884355 0.019333078 -0.00016745589 -0.008110289 -0.028796555 0.013876474
0.014592473 -0.045623995 -0.05180585 0.0024549381 -0.0073339813 0.089833915 0.015271693 0.0125431605
-0.00097355124 0.016501334 0.00917324 -0.043679807 -0.069422334 -0.011433301 0.023488086 0.03438654
0.011992516 0.016043931 -0.043802474 0.004828608 0.046395894 0.0066889944 -0.03817034 0.08290305
0.031844646 0.016342716 -0.05233171 -0.06279528 -0.049721442 -0.0019180528 0.0104266675 0.040565845
-0.03968167 0.008267684 0.009727566 0.011934303 -0.05785912 -0.009899155 0.04078041 0.0064150007
0.03377902 0.006304443 0.016482018 0.014305124 -0.025139092 0.015534809 -0.0048198793 -0.011321598
-0.017426593 0.023474773 -0.045594454 -0.011708465 -0.024056615 0.06664929 0.02688816 -0.011569819
-0.023703406 -0.010507686 -0.03703191 0.03402146 0.024069514 -0.013899561 0.062322587 0.00045807008
0.005511087 -0.0039677634 -0.07052618 0.039915305 -0.00093259447 0.019969607 0.01469311 -0.009833119
0.016417623 0.058203492 0.029865025 -0.0045940215 -0.045025013 0.04336811 -0.026968712 0.032306198
0.038292382 0.01650092 0.016992448 0.018822301 -0.041401897 0.011296767 -0.046075433 0.017321086
0.043452956 -0.0057617077 -0.057416975 0.057729375 0.028894546 0.0045196987 -0.049852878 0.010223223
-0.078682475 0.005716668 -0.017976772 -0.02726866 -0.06706392 -0.03126251 -0.0509433 -0.039866637
0.032647945 -0.00066384743 -0.04495279 -0.056520168 0.02562039 0.022341236 -0.010149085 -0.051719345
-0.047325127 0.010866559 0.023177678 0.01581755 -0.013801474 0.044042423 -0.043021835 -0.039172705
0.026024377 0.022305654 -0.06597296 0.035908554 -0.01827109 0.033996306 0.043336477 -0.06375919
-0.030646361 0.0055589676 -0.024701567 -0.06554502 -0.04257809 -0.019153755 0.038699064 -0.005135364
0.025301458 0.025135176 0.026926799 0.010880102 0.033234928 0.01597522 0.0057374993 -0.02820281
0.037532672 0.013720006 -0.059306275 -0.08542279 -0.019337662 -0.026791157 0.011113268 -0.030813234
0.018382536 0.009955232 -0.0121661285 -0.08120934 -0.016875545 0.056820903 -0.0183804 -0.029277867
0.030319028 0.023355238 0.03973171 -0.047676865 -0.040455975 0.017103838 -0.0365858 -0.03141958
00000000: c872 d7bc ab2c 163d fd22 f63c db6b 103d
00000010: 6eab d8bc b99e 673d 672c 093d 42c5 0ebd
00000020: ffcc cfbb d90a 393d a4d5 a8bc 5c56 a43b
00000030: 9f61 b3bb a58f 44bd 565d 053d 65b2 d1bc
00000040: 9dbe 933c 8018 1c3c 21f8 003b fb02 4abd
00000050: e9d3 29bd baec db3c b9de 92bc 2561 0bbd
00000060: 27b8 153c f985 dcbc 9055 12bc e3b6 213d
00000070: a611 9b3c 647a 2e3b c1b0 dfbc 66d2 01bc
00000080: 09dd 47bc 5124 a8bb 14b4 91bc 9847 a2bc
00000090: e1bd 973d f8d9 1cbb 838f d33c d6aa 373d
000000a0: 483f 31bd 0182 3dbd ecdc 7dbd b8a0 063d
000000b0: 666c c13c 66e0 d7bc 542f b6bc cdae fd3a
000000c0: b17f 70bd 9e45 08bc f8e3 043a c09f 803d
000000d0: 17dd 2e3d 9ed8 153d 766f 5fbc a24a 3b3c
000000e0: f2e4 0ebd a13c 413d 5680 cf3c 5ca9 273a
000000f0: af2d 3e3c 1876 38bd 6cf5 5f3c 9011 963c
00000100: 2f8f 053d cc4d 28bc 15e1 44bd a4ae 2bbd
00000110: 0f96 1cbd b0e9 0e3d 1b22 0c3d 2047 cb3a
00000120: e9ad 0d3c 7c6e 9b3c 21e6 e33b c172 15bd
00000130: ada8 e7bc aafc fd3c 7561 533d 7f20 8abd
00000140: a413 70bd 9096 293d a02c 1bbd 6760 9e3c
00000150: 1997 2fb9 05e1 04bc c1e6 ebbc 275a 633c
00000160: 4515 6f3c 3ae0 3abd 5f32 54bd 07e3 203b
00000170: e551 f0bb d8fa b73d 1f36 7a3c d481 4d3c
00000180: eb35 7fba ce2d 873c 5b4b 163c 99e9 32bd
00000190: 4c2d 8ebd bd52 3bbc 166a c03c e7d8 0c3d
000001a0: 427c 443c 906e 833c 396a 33bd 4d39 9e3b
000001b0: 9f09 3e3d 5a2f db3b 8158 1cbd 13c9 a93d
000001c0: 886f 023d 29e1 853c c659 56bd d09a 80bd
000001d0: b6a8 4bbd 2c67 fbba 9dd4 2a3c 5f28 263d
000001e0: 3f89 22bd 2e75 073c 5e60 1f3c 1888 433c
000001f0: affd 6cbd 1130 22bc 5c09 273d ed34 d23b
00000200: df5b 0a3d 8095 ce3b 4c05 873c 0a60 6a3c
00000210: 7ff0 cdbc b685 7e3c 14f0 9dbb 397e 39bc
00000220: 37c2 8ebc 2b4e c03c 40c1 3abd ddd4 3fbc
00000230: 6112 c5bc 6c7f 883d 8f44 dc3c 578f 3dbc
00000240: a52d c2bc 6e28 2cbc c6ae 17bd 165a 0b3d
00000250: 6e2d c53c fcba 63bc f845 7f3d 2029 f039
00000260: 5996 b43b 0304 82bb 0870 90bd 3b7e 233d
00000270: 5b79 74ba 4d97 a33c 5fbb 703c 171b 21bc
00000280: 407e 863c c966 6e3d 7fa7 f43c 7289 96bb
00000290: 266c 38bd c2a2 313d 7ded dcbc 8153 043d
000002a0: 79d8 1c3d f02c 873c bf33 8b3c 3a31 9a3c
000002b0: 0995 29bd 1316 393c 98b9 3cbd f3e4 8d3c
000002c0: bafb 313d b5cc bcbb 102e 6bbd a375 6c3d
000002d0: 41b4 ec3c fb19 943b 8832 4cbd 4e7f 273c
000002e0: 4724 a1bd e352 bb3b 0644 93bc 8662 dfbc
000002f0: cf58 89bd 1e0d 00bd eca9 50bd 334b 23bd
00000300: dab9 053d 0c06 2eba 6b20 38bd b181 67bd
00000310: dae1 d13c f804 b73c 5948 26bc aad7 53bd
00000320: fed7 41bd a709 323c 1ddf bd3c ce93 813c
00000330: 941f 62bc d465 343d aa37 30bd 8f73 20bd
00000340: 1331 d53c 59ba b63c d51c 87bd d914 133d
00000350: 41ad 95bc b63f 0b3d 9781 313d 2e94 82bd
00000360: 140e fbbc 0028 b63b f15a cabc 783c 86bd
00000370: 5d66 2ebd 56e8 9cbc e982 1e3d 8e46 a8bb
00000380: 0145 cf3c 49e8 cd3c 9795 dc3c 7542 323c
00000390: 5921 083d 77de 823c a201 bc3b 9409 e7bc
000003a0: dcbb 193d e0c9 603c 23eb 72bd 25f2 aebd
000003b0: 046a 9ebc 2179 dbbc 6d14 363c 096c fcbc
000003c0: f996 963c 451b 233c 7154 47bc 1551 a6bd
000003d0: 953e 8abc 09bd 683d 7e92 96bc 23d8 efbc
000003e0: 9c5f f83c 7c53 bf3c b8bd 223d d148 43bd
000003f0: 2ab5 25bd 591d 8c3c feda 15bd d1b1 00bd

action_model._continuous_distribution.mu.weight f4 [4, 256]
0.075352535 -0.021724645 0.054811623 -0.00060973415 -0.009913609 -0.0018867448 0.0371193 0.0051202853
0.0019632059 -0.022893421 0.03220751 -0.0009951765 -0.008048948 -0.018401418 -0.026656138 0.016164228
0.007532688 -0.039932642 0.016862452 0.033030182 0.07988314 0.041931063 -0.06397099 -0.026648287
0.014648196 0.066605255 -0.06798981 0.005235433 0.025283342 0.008678323 -0.011961414 -0.0022338058
-0.010964105 0.027559225 -0.035290238 -0.01504136 -0.004136323 -0.0063142567 0.023580072 -0.0440964
-0.04108303 -0.052180998 -0.03497098 -0.010994059 0.021640293 -0.06187103 0.042254426 0.019618893
-0.060365167 0.005993397 0.035519708 0.03810073 0.025476988 -0.014228781 -0.010687165 0.041757893
0.0068460936 0.056426086 0.0077200634 -0.019447051 -0.012338428 0.009312756 -0.04401037 -0.03814544
-0.044785302 -0.0377793 0.07653708 -0.054195475 0.008459195 -0.04208564 0.03426967 -0.02148598
0.0719577 0.0016920543 -0.06771457 -0.01894347 0.036404144 0.043129407 -0.015646819 -0.0071164556
0.025249878 -0.015506816 -0.075657286 -0.010453823 0.023341324 -0.009415983 -0.065027714 0.012410294
0.0062843086 0.052478846 -0.062082063 7.156116e-05 -0.0009132821 -0.010868692 0.008443681 0.081760935
-0.027661484 -0.008719861 -0.034288764 0.023316229 -0.035778463 -0.025753891 0.011326588 -0.010452473
-0.0008578163 -0.10065299 -0.07108932 -0.025835732 0.08979013 -0.01433649 0.0042000376 0.007447529
-0.027070653 0.097665675 -0.039084252 0.061885357 0.013120824 -0.00040118292 0.07348958 -0.011650825
0.028125633 0.017851204 -0.04511305 -0.01837191 0.0014592829 0.018071933 -0.0130431065 -0.036054857
0.032679006 -0.07864634 0.011038788 0.03131703 -0.07265539 -0.015763182 0.03893066 -0.0057084616
-0.030708632 -0.007083766 -0.037984855 0.017977262 -0.0760545 -0.022905938 0.0506015 -0.031545453
-0.024388455 -0.053995546 0.015818091 0.01695312 0.03948575 -0.026083283 -0.021828594 0.023878813
0.009186857 -0.026798978 0.028792161 -0.018384904 -0.05734361 -0.018076925 0.0057065026 -0.0131400535
-0.017122159 -0.023517065 -0.06298252 -0.006091598 -0.0132164145 -0.041355513 -0.009245787 -0.030718574
-0.047644597 -0.0036947362 0.020540465 -0.0030242302 -0.024438564 0.02344927 -0.01621206 0.0053359796
-0.0006697602 -0.051066402 -0.0680448 0.034166377 0.01923 -0.0061542355 -0.0426246 -0.0010278032
-0.068307124 0.032887813 -0.020630553 -0.0075952443 0.037131228 0.029196031 0.006657885 0.06270981
0.06585587 -0.040880743 0.022299984 -0.033889644 0.069949314 -0.023052067 -0.017053386 0.014348148
-0.014847177 0.013635002 -0.028519634 -0.008077665 -0.0027135236 -0.021422125 -0.038192276 -0.038650423
-0.036736015 -0.02052985 -0.06335229 -0.03680214 -0.0051118433 0.012453572 -0.013878838 -0.05555641
-0.035659555 0.008981284 -0.03850035 -0.007290424 -0.015334197 -1.441699e-05 -0.011129688 -0.08070105
-0.10853473 -0.049729012 0.042640775 0.065529615 -0.019634126 0.068040274 0.037498243 0.0395302
0.030360566 0.011730185 0.023540426 -0.042100325 -0.0051924847 0.035508465 -0.05093747 -0.013241126
-0.041823037 0.0016187216 0.0017882932 -0.00059141964 -0.0352625 -0.03950023 -0.034636706 -0.018370489
-0.040837698 0.024441587 0.023795413 0.023319313 -0.0057148063 -0.06362623 0.053453572 -0.01257745
00000000: 6e52 9a3d e2f7 b1bc 2782 603d 91d6 1fba
00000010: b16c 22bc a64c f7ba 680a 183d 11c8 a73b
00000020: 21a9 003b fc8a bbbc 06ec 033d 9570 82ba
00000030: bcdf 03bc 92be 96bc f95d dabc d86a 843c
00000040: c4d4 f63b 6990 23bd 2023 8a3c a84a 073d
00000050: c699 a33d e8bf 2b3d 3903 83bd 824d dabc
00000060: fdfe 6f3c 5668 883d 3e3e 8bbd ff8d ab3b
00000070: 031f cf3c 862f 0e3c cef9 43bc 0b65 12bb
00000080: caa2 33bc e2c3 e13c 7f8c 10bd 0970 76bc
00000090: fe89 87bb d3e7 cebb ff2a c13c 6d9e 34bd
000000a0: ae46 28bd bebb 55bd bb3d 0fbd 6d20 34bc
000000b0: fc46 b13c 7a6c 7dbd fa12 2d3d cdb7 a03c
000000c0: 7741 77bd 4264 c43b 1d7d 113d 830f 1c3d
000000d0: 1eb5 d03c d51f 69bc 3819 2fbc 530a 2b3d
000000e0: 3255 e03b 0a1f 673d 96f8 fc3b 6c4f 9fbc
000000f0: 1e27 4abc 8894 183c 3844 34bd 653e 1cbd
00000100: cb70 37bd 78be 1abd 79bf 9c3d 13fc 5dbd
00000110: 6f98 0a3c fe61 2cbd 5a5e 0c3d 5e03 b0bc
00000120: 8f5e 933d ecc7 dd3a f0ad 8abd 562f 9bbc
00000130: 831c 153d 76a8 303d c22d 80bc 2831 e9bb
00000140: d5d8 ce3c 4d10 7ebc 35f2 9abd 8346 2bbc
00000150: 4e36 bf3c 7f45 1abc 402d 85bd 8c54 4b3c
00000160: 9aec cd3b 0ff4 563d c349 7ebd 1b13 9638
00000170: 5369 6fba 9912 32bc 5d57 0a3c 4772 a73d
00000180: 569a e2bc bfdd 0ebc 6072 0cbd ad01 bf3c
00000190: 708c 12bd d3f9 d2bc 2793 393c d940 2bbc
000001a0: 14df 60ba 2823 cebd 4797 91bd 75a5 d3bc
000001b0: e3e3 b73d 99e3 6abc 78a0 893b 670a f43b
000001c0: 46c3 ddbc f104 c83d cf16 20bd 807b 7d3d
000001d0: b9f8 563c dc55 d2b9 b481 963d 1ae3 3ebc
000001e0: ba67 e63c b03c 923c 76c8 38bd b080 96bc
000001f0: 6945 bf3a 970b 943c c1b2 55bc 42ae 13bd
00000200: 6cda 053d 5511 a1bd 08dc 343c 4946 003d
00000210: 59cc 94bd ca21 81bc c175 1f3d 0c0e bbbb
00000220: ab90 fbbc f01e e8bb 0296 1bbd 0d45 933c
00000230: 76c2 9bbd 3ca5 bbbc 8543 4f3d ce35 01bd
00000240: 4cca c7bc 6f2a 5dbd f194 813c 45e1 8a3c
00000250: cfbb 213d 9cac d5bc e1d1 b2bc 809d c33c
00000260: 7984 163c 8889 dbbc 8add eb3c f09b 96bc
00000270: 22e1 6abd 0f16 94bc 9dfd ba3b 6149 57bc
00000280: c543 8cbc dca6 c0bc fbfc 80bd 079c c7bb
00000290: a989 58bc 6664 29bd a47b 17bc 85a5 fbbc
000002a0: fb26 43bd 6323 72bb 7a44 a83c 2a32 46bb
000002b0: 6233 c8bc af18 c03c 27cf 84bc 71d9 ae3b
000002c0: d992 2fba 012b 51bd 125b 8bbd 0bf2 0b3d
000002d0: 3c88 9d3c 78a9 c9bb 2297 2ebd 5ab7 86ba
000002e0: 9be4 8bbd 5fb5 063d 6801 a9bc 87e1 f8bb
000002f0: ea16 183d 842c ef3c 632a da3b 006e 803d
00000300: 71df 863d 9172 27bd 75ae b63c decf 0abd
00000310: 9641 8f3d b0d7 bcbc 8bb3 8bbc 7f14 6b3c
00000320: 9341 73bc 5865 5f3c 02a2 e9bc 2f58 04bc
00000330: 5fd5 31bb 747d afbc 816f 1cbd e84f 1ebd
00000340: 8178 16bd 372e a8bc d8be 81bd d7bd 16bd
00000350: 4081 a7bb 110a 4c3c 1164 63bc 1e8f 63bd
00000360: c10f 12bd 3c26 133c 8bb2 1dbd 82e4 eebb
00000370: 493c 7bbc 80e0 71b7 4b59 36bc 9846 a5bd
00000380: 7547 debd a6b0 4bbd 18a8 2e3d 6434 863d
00000390: bfd7 a0bc b358 8b3d c297 193d 6bea 213d
000003a0: b9b6 f83c f62f 403c dad7 c03c 6471 2cbd
000003b0: b825 aabb 5371 113d cfa3 50bd 4ff1 58bc
000003c0: a24e 2bbd 492b d43a 2a65 ea3a 8009 1bba
000003d0: 696f 10bd feca 21bd 38df 0dbd b57d 96bc
000003e0: 6e45 27bd b939 c83c 99ee c23c 2508 bf3c
000003f0: 4543 bbbb 784e 82bd 22f2 5a3d a611 4ebc

action_model._continuous_distribution.mu.bias f4 [4]
-0.004095938 0.012249368 0.04014704 0.037238013
00000000: 3837 86bb 93b1 483c 3971 243d e386 183d
