results/attackshooter/Shooter/Shooter-1132096.onnx (onnx, 201499 bytes, 9 tensors)

network_body._body_endoder.seq_layers.0.weight f4 [128, 120]
000000 b5 4d a0 bd 84 5d 61 bd ed a0 1d be 34 19 23 bd
       -0.078273214 -0.055020824 -0.1539342 -0.039818957
000010 ba db 02 3e 37 e2 b1 bc 2a e3 49 3d af 9a 08 3c
       0.12779132 -0.021714313 0.049288906 0.008337661
000020 a1 ca 7b bb f3 8e 9d 3d 10 d3 9b 3d 61 ee 5a bb
       -0.0038420337 0.07693281 0.07608616 -0.0033406245
000030 eb 94 db 3d 69 5f 48 bb fe 39 1c ba 72 fe ce 3c
       0.10721763 -0.0030574447 -0.0005959569 0.025267813
000040 cd 03 a2 3c c2 ef 04 3d 13 0d d3 bc d9 40 82 bc
       0.019777203 0.032455213 -0.02576307 -0.015900062
000050 2d 62 a9 bc d7 7f 86 3d 97 90 6a 3d 0c ee 6f 3d
       -0.020676697 0.06567352 0.057266798 0.05857663
000060 50 d0 76 bd dc 19 af 3d 9e da c9 3d 5a a2 05 3e
       -0.060257256 0.08549854 0.09856151 0.13050213
000070 3e c1 e3 bd 98 7a 42 bd 32 f7 75 3d 37 b1 ea 3d
       -0.111208424 -0.047480196 0.060050197 0.11459582
000080 52 d8 8a 3c 40 a3 1a 3c 91 24 33 bc 98 58 e1 bd
       0.016948853 0.009438336 -0.010934011 -0.11003226
000090 d8 da 05 3e 13 b6 f7 bd 9f dd 73 bd fd 87 9b bd
       0.13071764 -0.12095275 -0.059537526 -0.07594297
0000a0 40 79 8d bd 09 3c 95 bd f5 92 b7 3d 34 6b 40 be
       -0.06907892 -0.072868414 0.08963577 -0.18790895
0000b0 6a a7 c1 3d cd 28 7c bd 6e 7a 2c 3e 1e 10 40 3c
       0.0945576 -0.06156235 0.16843578 0.011722593
0000c0 a3 bb 01 3e 9c 3a e1 3d 25 aa df 3d d0 60 9b bd
       0.12669234 0.10997507 0.10921124 -0.07586825
0000d0 1b b1 6c 3b fc d3 22 bd 94 42 64 be ff 69 c9 3b
       0.0036116305 -0.039752945 -0.22291023 0.006146669
0000e0 50 14 46 be 01 7c 9b 3d 43 a8 cc bc 9f d6 ef bd
       -0.19343686 0.07592011 -0.024982577 -0.117108576
0000f0 92 13 4d 3d 00 95 34 bd b7 ff 86 bc 3e 0d ef bd
       0.05006749 -0.04408741 -0.016479356 -0.116724476
000100 2e f2 a9 bc 39 af 8e 3d 06 85 83 bd 60 e7 3e bd
       -0.020745363 0.06967015 -0.064218566 -0.046607375
000110 60 b9 78 bc b4 94 20 3e af c6 04 3c be df 86 bd
       -0.015180916 0.15681726 0.0081040105 -0.06585644
000120 dc e9 09 3e bd 29 17 3e fb f8 91 bd 7f 88 12 3d
       0.13468117 0.14762016 -0.071275674 0.035774704
000130 a9 e6 8f bd e3 96 57 3d a0 e2 a8 3d 5c 6e cb 3d
       -0.07026417 0.05263413 0.0824635 0.09933159
000140 2c 10 99 3d 53 44 17 bd 3a 27 11 3e 7b e5 80 3d
       0.07473788 -0.036930393 0.1417512 0.0629377
000150 34 bc 62 3d b2 79 b9 3c 08 e0 15 3e c8 7b af bd
       0.055355266 0.022641037 0.14636242 -0.08568531
000160 2e c5 2e bd 46 8d 01 3c 7c 33 99 bc a3 8a 7a ba
       -0.042668514 0.007907217 -0.018701307 -0.00095574016
000170 88 9b 6f 3e 9f d8 1c bc d9 f1 22 3d ac 99 69 3e
       0.23399174 -0.009573131 0.039781425 0.22812527
000180 df 34 3b 3b 44 c7 d6 bc d4 b4 40 bd 4e 79 a8 bd
       0.002856545 -0.026218064 -0.04704745 -0.08226262
000190 61 f8 d3 bd c6 52 f5 bd 67 49 0e bd c0 6f da 3d
       -0.10350109 -0.119786784 -0.03473797 0.10665846
0001a0 5a 96 2b 3e 09 01 61 3c ac a2 05 3e 09 a0 05 be
       0.16756573 0.013733157 0.13050336 -0.1304933
0001b0 c3 3e 91 3d 9f 88 a8 3d 24 a2 61 bd ac 0b 88 3d
       0.07092049 0.082291834 -0.05508627 0.06642851
0001c0 a2 73 b8 3d e4 d1 11 bd f6 a4 e8 bc 83 bd 61 3d
       0.0900643 -0.035600558 -0.028398972 0.055112373
0001d0 fd ef 29 be 73 2a f5 3c c9 62 e7 3d 58 1c 07 be
       -0.16595455 0.029927468 0.11298139 -0.13194406
0001e0 9c 59 7d bc 22 8c 82 bd 36 20 41 3d 4e 00 1d 3d
       -0.015463259 -0.063743845 0.04714986 0.03833037
0001f0 33 cb 04 bd 86 0f 4b be 80 72 87 bd 29 7f 4b bc
       -0.03242035 -0.1983014 -0.06613636 -0.012420454
000200 7c 77 b9 3c 1f 1c ad bd 91 60 7b bd a0 bc b0 bd
       0.022639982 -0.08452629 -0.06137139 -0.08629727
000210 3c bd 23 be 7b 73 3d bd ef 1b 5b bd ef 88 57 3b
       -0.15990156 -0.04625271 -0.053493436 0.0032888015
000220 c2 03 c1 3c 81 e3 2d 3d 62 99 13 bd 94 4b da 3b
       0.023561362 0.042453293 -0.03603495 0.0066618416
000230 41 00 f3 bd fb 15 56 be b1 d9 0b be 2b 71 80 3d
       -0.11865283 -0.20906822 -0.13657261 0.06271585
000240 7d df 6c bc 01 c0 1e 3d 4e 60 a0 3d 4e 52 97 3d
       -0.014457581 0.038757328 0.07830869 0.07388745
000250 e2 ab ab 3c a0 e8 a3 3d dd db 91 bc 01 5e 8e bd
       0.020955984 0.08003354 -0.017805034 -0.069515236
000260 d4 bb 45 3e 58 e8 c1 bd be 9d a7 bd e7 8c 34 bd
       0.19309932 -0.09468144 -0.08184384 -0.044079687
000270 df 0d 9e bd 74 26 81 3d dc de 10 be f2 0d d1 bc
       -0.077174895 0.063061625 -0.14147514 -0.025519345
000280 d0 23 d0 3b 88 16 04 3e 05 79 4d 3e a1 db 2e bd
       0.0063519254 0.1289922 0.20065697 -0.042689923
000290 6c 6f 9f 3d 57 51 a8 3d 02 a4 10 3c 8e 30 1a bd
       0.07784924 0.08218639 0.008828165 -0.03764396
0002a0 16 dc 96 bd 25 b5 82 3d 81 de d4 3d 2d a8 34 bd
       -0.07366197 0.06382207 0.10394002 -0.044105697
0002b0 8a 3b 2a 3c 20 d9 fb 3b ae b6 53 3d b7 11 ca 3c
       0.010390172 0.0076857954 0.05168789 0.02466665
0002c0 ec f0 a8 bd ee da 1e bc 93 e6 ab 3b 96 8b de bd
       -0.08249077 -0.009695752 0.0052459924 -0.10866468
0002d0 e7 1a 9b 3c c8 19 95 3a 3c 09 7f bc 23 0b b8 3d
       0.018933726 0.0011375481 -0.0155661665 0.08986499
0002e0 08 22 64 3b b6 ac 5f bd b3 92 a2 bd 99 86 ed 3d
       0.0034810323 -0.05460807 -0.07938137 0.11597938
0002f0 d4 bf 18 3d cd 99 0e 3c 4e 3c 00 be e8 d1 23 3d
       0.037292317 0.008703661 -0.12523004 0.039995104
000300 19 8d 01 be 1b 97 82 39 99 17 d2 bd cf a0 04 be
       -0.1265148 0.00024908115 -0.10258407 -0.12951969
000310 fa 73 f6 bd 52 97 c8 bd 5b ff 11 3d 6d 79 d2 3d
       -0.120338395 -0.09794487 0.035643917 0.102770664
000320 16 d2 76 bd 69 51 e0 bc 76 b6 39 3d a6 b8 30 be
       -0.060258947 -0.02738257 0.045340024 -0.17257938
000330 63 99 b5 bd ba 27 7a 3c 76 80 08 3e 9c a0 27 bd
       -0.08867147 0.015268261 0.13330254 -0.040924653
000340 d1 0e bd 3d a4 e2 9a 3c 7c 50 eb 3c dd 9a 47 be
       0.09231342 0.018906899 0.028724901 -0.1949267
000350 5c 9d 37 3e d1 78 24 bc 4f b2 e9 3d a6 23 90 bd
       0.17931122 -0.0100385705 0.11410963 -0.070380494
000360 45 68 23 be 95 fc b2 3c 36 ff 75 3d 54 f5 b2 bd
       -0.15957744 0.021848956 0.06005784 -0.08738199
000370 7f 63 04 be 72 9d a8 3d b8 ea 2b 3e 27 fd 08 be
       -0.1292858 0.08233155 0.16788757 -0.1337782
000380 9e 0c 13 3e 33 c7 b4 bd a3 b1 d4 bc a2 f3 fc 3b
       0.14360282 -0.08827057 -0.02596361 0.007719473
000390 2b 2d cc bd 0d 0b 9b be ee fa e0 bd ed 7d 88 bd
       -0.099695526 -0.3028187 -0.10985361 -0.066646434
0003a0 a0 ed 1c 3d 73 df e2 3d 96 e0 1f 3d b5 bf 9a 3d
       0.038312554 0.11077776 0.03903254 0.075560965
0003b0 a8 83 99 bd a8 74 c1 bd 89 04 bb b9 85 0d 3e bd
       -0.074958146 -0.094460785 -0.00035670798 -0.046399612
0003c0 9e e4 02 3e db 79 03 3c 90 1c 30 bd b9 7e cf bc
       0.12782523 0.008024658 -0.04299599 -0.02532898
0003d0 c6 7e 84 bd 32 2f a6 bd 69 85 a3 3d c3 d9 14 bd
       -0.064694926 -0.081144705 0.0798443 -0.036340486
0003e0 f3 18 d3 bd 3e e3 b1 3c b7 71 88 bd 1c 24 9a bc
       -0.10307493 0.021714803 -0.066623144 -0.018816046
0003f0 33 52 9f 3c 30 f2 ce bd ba 1b ab 3b d6 a9 68 bd
       0.019448375 -0.10104787 0.005221811 -0.056802593

network_body._body_endoder.seq_layers.0.bias f4 [128]
000000 0e e0 cc ba 48 39 2e bc c7 92 aa 39 5c 49 9d 3c
       -0.0015630738 -0.010633774 0.00032534284 0.01920002
000010 d5 71 5e 3c 13 55 39 bc f1 66 74 3c 55 d2 a6 bc
       0.013576944 -0.011311787 0.014917121 -0.020363966
000020 e5 15 3b 3b 03 dc be 3c ea fc 2c bb 28 51 1a 3c
       0.0028546986 0.02329827 -0.0026395866 0.009418763
000030 a5 35 2f bc 40 fc 53 3b f5 26 a5 bb ef 0d 13 3b
       -0.010693942 0.0032346398 -0.0050400444 0.0022438725
000040 f7 c8 10 3c 9e 43 53 bc 75 b2 63 3c 13 2b 73 3c
       0.008836976 -0.012894539 0.013897528 0.014841813
000050 82 d1 cd b8 0c 16 be 3b ea 18 35 3c 6d 96 5e 3c
       -9.8141856e-05 0.005800968 0.011053303 0.013585669
000060 cb f0 12 3c 7a 15 6a 3b 97 6e a0 3c 70 b3 b6 3b
       0.008968542 0.0035718367 0.019583983 0.00557559
000070 87 66 9c 3b 01 19 a5 38 40 fc 8c 3b d8 b2 de 3b
       0.0047729644 7.8724705e-05 0.0043025315 0.006796222
000080 b6 f9 1a 3c 13 37 a8 3b c0 70 59 3c d0 c8 31 3c
       0.00945895 0.0051335185 0.013271511 0.0108511
000090 dd 3d b0 3c d1 68 91 3c eb 7b 49 3b d1 a8 fd bb
       0.021513874 0.017750176 0.0030744027 -0.0077410717
0000a0 08 bc 9f bb c3 09 df bb 5c 6e 47 3c bd 4c 8b bc
       -0.00487471 -0.0068065836 0.012172308 -0.017004365
0000b0 3c 20 4b 3c 49 49 de 3b 0b 08 91 3c 72 62 ed 3b
       0.012397822 0.0067836386 0.01770403 0.0072444016
0000c0 7c 4d b7 3b fd cb b0 bc d3 82 27 3b e3 bb 3e 3c
       0.0055939537 -0.021581644 0.0025560155 0.011641475
0000d0 0c 31 2e 3b 32 1d a3 3c b3 59 46 3b 36 4d 76 3b
       0.0026579527 0.019911382 0.0030265867 0.0037582642
0000e0 7f 2e 3f 3c 6a 37 08 bc bf 96 13 3c f2 96 69 3b
       0.0116688 -0.008313993 0.009008109 0.003564295
0000f0 69 83 0b 3b 09 b0 a5 3a d2 74 b5 ba 9b f3 13 3c
       0.0021288043 0.0012640964 -0.0013844019 0.009030248
000100 31 95 ba 3b a9 6a fa 3b 4a d3 94 bb 17 dd f3 3b
       0.0056940545 0.0076421094 -0.004541789 0.0074421274
000110 b8 b5 21 3c 21 18 4a 3b ae bc 35 3a 4a 8d be 3a
       0.009869985 0.0030837136 0.00069327175 0.0014537957
000120 ce 53 77 3b 2f a2 90 3c d5 11 18 3c 68 23 91 3c
       0.003773916 0.01765546 0.009281595 0.017717078
000130 2b 55 92 3b 87 1b 58 3c 4f 8d a3 38 95 89 29 3b
       0.004465719 0.013190157 7.7987665e-05 0.0025869359
000140 b7 3d 69 3b 8d d4 72 3b cd 46 a4 bc 3a 68 d6 3b
       0.0035589763 0.003705296 -0.020053292 0.0065431865
000150 6c 84 91 3b 3e 01 01 bb 2b dc 7d bb e4 34 62 3c
       0.0044408347 -0.0019684578 -0.0038735967 0.013806555
000160 68 6d 08 3b df 68 a5 3a e6 3c 25 3c 4d 14 34 3c
       0.0020817164 0.0012619755 0.01008532 0.010991168
000170 34 03 c6 3b 6f 0d 0d 3b f6 ff 0c 3c 1a 6b 54 3b
       0.0060428623 0.00215229 0.008605948 0.003241247
000180 d4 56 dc 3b 2d 90 53 3d 45 d8 04 bc 46 17 3e bc
       0.006724218 0.05165117 -0.008108203 -0.0116022285
000190 4e da 2e bc 78 43 c8 ba bd 48 ca 3b ea 84 25 3c
       -0.010672165 -0.0015278896 0.006173222 0.01010249
0001a0 4b 2e b8 3a de e9 a6 3b 85 9e 31 3b 40 06 73 3c
       0.0014051882 0.005093797 0.0027102542 0.014833033
0001b0 36 4e 19 3c 7d 6d b6 bb 2a 10 a4 3c bc 89 c3 3c
       0.009357026 -0.0055672512 0.020027239 0.023869388
0001c0 d0 24 86 b9 d4 47 5f 3c 52 e7 83 3b e2 09 26 3b
       -0.000255859 0.013627965 0.0040253783 0.002533548
0001d0 9b 46 59 3c f3 b3 7c 3c 21 64 7f 3c e0 f4 ed bb
       0.013261463 0.015423763 0.015587837 -0.0072618574
0001e0 34 5a 68 3b 6a 4b 5a ba 4c a5 1b 3c 4d 81 2f 3c
       0.0035454156 -0.00083272776 0.009499859 0.01071198
0001f0 d4 62 74 3c 91 98 4c 3b 42 92 a4 ba 7c 50 00 3c
       0.014916141 0.0031218866 -0.0012555795 0.007831689

network_body._body_endoder.seq_layers.2.weight f4 [128, 128]
000000 14 27 41 3e 0b a7 91 3d b8 f9 11 3e 47 88 e2 3c
       0.18862563 0.07111939 0.14255416 0.027652873
000010 25 b9 44 bd da 9e c4 3d af ca 41 bd ca e2 b3 3d
       -0.04802813 0.09600611 -0.047312435 0.08783491
000020 7e d8 1e 3c de e7 dd bd c7 90 e9 bd 27 67 80 bd
       0.00969517 -0.10835241 -0.11404567 -0.06269675
000030 2d b7 0b be f4 22 89 bd 18 bd 9c 3d a3 b8 1b 3e
       -0.13644095 -0.0669612 0.07653254 0.15207152
000040 f7 29 ac 3d b0 4b 41 be b4 4c 92 3d 47 6c a0 bd
       0.08406442 -0.18876529 0.07143536 -0.07833152
000050 60 47 41 be 87 4e eb bd d5 1f cf bd 0c c7 d3 bd
       -0.18874884 -0.11489587 -0.10113493 -0.103406996
000060 33 9c 19 be 6f 2e 5e bd ce da 0b 3d cf 64 4a 3b
       -0.15000992 -0.0542435 0.034144215 0.003088284
000070 56 38 aa bd 2a e4 e4 bd 6b 06 1a bb 4f bb d1 3d
       -0.083115265 -0.11176331 -0.002350236 0.102408044
000080 41 eb d5 bd 66 b6 4f 3e 5f 1a d7 3d 05 84 2b bc
       -0.10445262 0.20284423 0.10503077 -0.010468488
000090 68 01 48 be 3f 08 22 bd fc 92 84 3e e0 45 37 3c
       -0.19531786 -0.039558645 0.2589339 0.011186093
0000a0 c5 83 78 bd e8 96 da bd 4b 4b 8c bc ef b5 6a 3d
       -0.06067254 -0.10673314 -0.017125746 0.05730241
0000b0 9c 93 a1 3d e8 e2 49 be bc 4f 4b bd 2b b5 f3 3d
       0.078894824 -0.19715464 -0.049636588 0.118997894
0000c0 3e d7 81 bd 49 79 68 bd b8 6d 9b bc f4 7e 63 3d
       -0.06339882 -0.05675629 -0.018973216 0.055540994
0000d0 e4 22 27 3b 1f d6 44 bd 8a b5 16 3d a7 4a b0 3d
       0.0025502974 -0.048055764 0.036794223 0.08607989
0000e0 04 52 a4 bd d2 6c f4 bb 47 60 30 3d e4 57 90 bd
       -0.08023456 -0.0074592615 0.043060567 -0.07048014
0000f0 0b b3 2b 3c 45 8a 7b bc f7 fe f9 bd 2d 28 98 3d
       0.010479699 -0.01535279 -0.12206834 0.07429538
000100 53 34 0a 3e 8e 51 77 be 5a ec 0a 3d 17 9e 3f 3d
       0.13496523 -0.24152204 0.03391681 0.046781626
000110 6c 3d b6 bd 80 6b 70 3c b4 2e 3b bd 2a f5 37 3e
       -0.08898434 0.0146740675 -0.045698836 0.17964616
000120 fa 76 7d 3e 28 c2 b1 3d 48 7b c7 3c ea 3a 3a 3d
       0.24752417 0.086796105 0.024350777 0.04546634
000130 7c b7 76 bd 4a 67 d4 bd bb 5e 32 3c 5b 73 5c 3d
       -0.060233578 -0.10371263 0.010886843 0.05382095
000140 94 49 da bd ec e2 c4 3d 0c db 29 bd ce ad a3 3d
       -0.10658565 0.096135944 -0.041468665 0.07992135
000150 97 23 30 3e 08 a9 e2 3d e7 37 5d bd 10 f0 52 3e
       0.17201076 0.110673964 -0.05400839 0.20599389
000160 ee b5 1f 3e a3 d1 e2 bd 28 28 4e bd 8e 49 1a 3e
       0.15596744 -0.11075141 -0.050331265 0.15067121
000170 2f ae 9c bc ae b9 09 3e b4 dd 08 be 01 94 6b 3b
       -0.019126026 0.13449737 -0.13365823 0.0035946371
000180 15 b2 96 be cc 60 b4 bd 8a 1e 81 bd 9f 66 63 3d
       -0.2943274 -0.08807525 -0.06304653 0.05551779
000190 77 48 36 bd 1d 1b c9 bd 94 27 01 3e 40 17 3b 3d
       -0.0445027 -0.098196246 0.12612754 0.04567647
0001a0 ba 1d ec bb bf ca da bd e5 e1 86 bc 9c 2b c2 bd
       -0.007205692 -0.10683202 -0.016465137 -0.09480974
0001b0 bc 34 bb bd b7 79 b4 3c 00 f1 1e bd fd 83 dd bd
       -0.09140918 0.022030694 -0.038804054 -0.108161904
0001c0 12 5f 56 be 9c b8 c1 bc dc e3 99 bc c0 e6 44 3c
       -0.20934704 -0.023647599 -0.01878541 0.012017906
0001d0 c6 d8 b3 3b a3 f0 39 3d 59 98 45 3e 8e 9b 11 bd
       0.005488488 0.045395505 0.19296397 -0.03554874
0001e0 1d c9 fc 3d 90 0f 1a be 11 7e 14 3c 3e be a6 3d
       0.12343047 -0.15044999 0.00906326 0.081417546
0001f0 c5 6a c7 bd 51 a4 a6 bc ec b0 d7 39 ef cd 8a 3b
       -0.097371615 -0.020342024 0.00041139813 0.004235975
000200 a4 22 9d 3d 55 ee f0 3c 67 88 97 3d 0a 58 ba bc
       0.07672623 0.02941052 0.073990636 -0.022747058
000210 0e 9c 86 bd b7 a8 70 3d 65 8f a6 bb 4d 81 a7 3d
       -0.06572734 0.05875465 -0.005083012 0.08178959
000220 77 de 90 bd ac af aa 3b 31 84 7a bd 7d 29 73 bd
       -0.07073682 0.00520893 -0.061161224 -0.05936574
000230 ce bc 83 bc f5 4e 42 3e 7f e8 be bd fb 8f b6 3d
       -0.01608124 0.18975432 -0.09321689 0.08914181
000240 c8 d1 01 be d7 15 b2 3b 26 83 0e 3d 67 ea 94 3d
       -0.12677681 0.0054347324 0.03479304 0.07271271
000250 6f aa 06 3e c0 89 ea 3d c9 7b d6 bd 78 98 e3 bd
       0.13150953 0.11452055 -0.10472829 -0.111130655
000260 dc 25 08 3d 9f a8 00 3e 75 69 a3 3d ba 42 bc 39
       0.03323923 0.12564324 0.07979099 0.0003590787
000270 c4 d1 bc 3d 35 93 ba 3c b2 60 8c bc 05 e0 f8 bc
       0.09219697 0.022775272 -0.017135952 -0.030380258
000280 f4 9f ed bd f1 c4 0b 3d d8 e4 f4 bd 9f 00 83 3d
       -0.11602774 0.034123365 -0.11957711 0.06396603
000290 8d 37 e3 3b af 28 85 be d0 6d ba 3d fd b2 f6 bd
       0.0069341124 -0.26007602 0.09102976 -0.12045858
0002a0 29 09 3b 3c 92 fa 4a bd f9 0e b2 bc 7f 12 cf 3d
       0.011415758 -0.04955537 -0.021735655 0.1011095
0002b0 07 a7 df bd fa c6 e2 3c cc 19 9c 3c 3c 43 87 3d
       -0.1092053 0.02768277 0.01905527 0.06604621
0002c0 44 e4 96 bd c3 5f 8b 3c f2 4d a1 3c 26 2d 80 3d
       -0.07367757 0.017013436 0.019690488 0.062586114
0002d0 02 d0 a7 bc ba 21 2e bc b2 b5 6e 3b 38 a5 02 be
       -0.020484928 -0.010628158 0.0036424217 -0.12758338
0002e0 b5 03 bc 3d de 5e 36 bc fd d2 9a 3c 59 26 36 3c
       0.091803946 -0.011131017 0.018899435 0.011117541
0002f0 60 e7 ae 3c b4 81 b3 bd 8a 82 52 bd a5 39 69 bd
       0.021350563 -0.08764973 -0.051394023 -0.05693974
000300 d4 64 88 3d e4 59 0d bd d9 9b f7 3d 37 55 c4 3d
       0.066598564 -0.034509555 0.120902725 0.09586566
000310 14 d2 56 3d 65 0b ac bc 7e 1e 0f bc 43 18 16 be
       0.05244644 -0.021001527 -0.008735297 -0.14657693
000320 1c b1 99 bc e1 bd da bb af 02 eb 3c 4c 1c df 3d
       -0.01876121 -0.0066754674 0.028687803 0.10894069
000330 d9 90 0f 3d 0b 12 0c bd 82 b5 03 3e 64 08 cb 3c
       0.035050247 -0.034196895 0.12862208 0.024784274
000340 a0 0b 25 3d e4 26 0a 3e b0 75 1d 3d ef 57 c1 bd
       0.04029429 0.13491398 0.038442314 -0.094406
000350 a4 31 94 bd 39 ae 91 bd 7d f3 2c bc 51 be 69 3d
       -0.07236031 -0.071133085 -0.010556099 0.057066265
000360 eb 8c 8f be 02 93 7d bc 8a b2 11 3d 3e 54 12 bd
       -0.280372 -0.015476944 0.03557066 -0.03572487
000370 b6 50 f6 bc 70 f3 04 be 4d 2d 3c bd f0 78 cb 3d
       -0.030067783 -0.12983489 -0.04594164 0.09935176
000380 7e 0d 43 3e 54 78 98 3d c8 02 3a bd e0 e4 2d 3e
       0.19048116 0.07444826 -0.04541281 0.1698184
000390 45 76 ca 3c 1e 53 37 bd ba b9 57 bd ab 1c b8 3d
       0.024714598 -0.044757 -0.052667357 0.08989843
0003a0 4a 9b f4 bc c5 94 c6 bd 76 13 83 3c 94 2e 00 3e
       -0.029859204 -0.09696344 0.01600049 0.12517768
0003b0 91 5b b3 3d a0 82 b1 bc c0 8b d1 3b 63 d5 e3 3d
       0.08757699 -0.021668732 0.0063948333 0.11124685
0003c0 7d 0c bc 3d a2 80 b3 bc 1b 13 81 bd 2a 0d 26 3e
       0.091820695 -0.021911923 -0.06302472 0.16215959
0003d0 98 fc 18 bd 45 2e 8f 3d fb f5 12 be 70 f7 0d be
       -0.037350267 0.06991247 -0.14351647 -0.13863921
0003e0 78 3d 6e 3c bc 4e 0f 3e d9 3a 08 3e 16 c5 34 3e
       0.0145410225 0.13994879 0.13303699 0.17653307
0003f0 b5 67 d2 bc d9 b6 62 3c c0 20 1e be 15 1e b9 3d
       -0.025684217 0.01383754 -0.1544218 0.09038941

network_body._body_endoder.seq_layers.2.bias f4 [128]
000000 f3 4f a8 b9 4c 7b f7 bb 99 8d d2 3b 1c 04 ed bb
       -0.00032103024 -0.00755254 0.006425571 -0.007233156
000010 43 b3 33 bc 2b 55 09 3c eb 82 b2 3b bf 83 50 3c
       -0.010968032 0.008382122 0.0054477355 0.012726723
000020 b2 f3 d7 bb 98 59 5a 3c 0f 68 c7 3b d1 81 95 3c
       -0.00659033 0.013327025 0.006085403 0.018250378
000030 91 ce 9f bb 44 e2 17 3c e8 04 89 3c c0 a4 8b 3b
       -0.0048769196 0.0092702545 0.016725972 0.004261583
000040 2f be 22 3c cf 69 a8 3a e2 26 20 3c 79 3f df 3a
       0.009933039 0.0012848916 0.009774895 0.0017032466
000050 9e c2 09 3c 49 64 97 39 68 92 c0 3a 94 b1 b1 3c
       0.008408217 0.00028875683 0.001469207 0.021691121
000060 96 c7 b5 3a 38 77 87 3b 34 81 84 3a 6e 66 24 3c
       0.0013868685 0.004134085 0.0010109306 0.010034187
000070 c3 67 1a 3c df b6 00 3c 24 81 18 bc ce 8c 24 b9
       0.009424153 0.0078561 -0.009308133 -0.00015692713
000080 ae ba 5e 3b af 7c 3a 3c ff 5b 8e 3c 20 17 b1 3b
       0.0033985781 0.011382266 0.017377852 0.005404368
000090 01 8b ce 3b 52 cf 92 3b 80 8c 55 3c 75 c2 e7 3b
       0.0063031917 0.004480281 0.013033986 0.0070727416
0000a0 72 2e 7d 3b dd 58 46 3c 8c ce e1 3b 53 33 81 bc
       0.003863242 0.012106148 0.0068910774 -0.015771544
0000b0 11 4b 98 3b b0 53 1a 3b ed 90 0a 3c 39 a7 7a 3b
       0.0046476205 0.0023548417 0.008457405 0.0038246645
0000c0 56 0a a4 bb c2 e8 d3 3b 95 cc 8d 3c 1f 0b 92 bb
       -0.005006115 0.006466956 0.017309466 -0.004456892
0000d0 75 fc cf 38 07 d0 29 3c 8d d6 ca bb 10 ed e1 3a
       9.917553e-05 0.010364539 -0.006190127 0.0017236788
0000e0 d1 7f 35 3c 23 c6 b8 3b 12 fc 9c 3b 90 7e 07 3c
       0.011077837 0.005638854 0.0047907913 0.008269921
0000f0 55 d2 b7 3b 2e 9e b3 3b 76 fd 82 bb 87 5a a3 3a
       0.0056097903 0.005481503 -0.0039975 0.0012462892
000100 59 fe 9a 3b 25 dd 93 bb 02 6f 42 3c 84 fb 20 3c
       0.0047300276 -0.0045124465 0.011867287 0.009825591
000110 59 23 3b 3b 60 75 1e 3b cf b8 70 3c 63 72 33 bc
       0.0028555004 0.0024178848 0.014692499 -0.010952565
000120 95 76 d8 3b 68 21 23 3c d1 f3 e2 3b 04 d1 4c bb
       0.006605933 0.009956695 0.006926038 -0.0031252513
000130 3a e1 70 3c 96 aa d0 3a 16 8f b1 3c 41 d1 09 3c
       0.014702136 0.0015919979 0.021674674 0.008411706
000140 22 6e 00 bc 8c 03 5a 3c 0d 41 84 3b 5e ab 12 bc
       -0.007838758 0.01330651 0.004036075 -0.00895199
000150 5a 5b ed 3b 65 07 7b 3b d3 f1 f6 bb c4 dd 3b 3c
       0.007243556 0.0038303968 -0.007536152 0.011466447
000160 39 3f 2d 3c ef 4a 6b 3b 3c c5 f8 3b 1c 50 d4 3b
       0.0105741555 0.0035902818 0.0075918715 0.0064792763
000170 5c 0c 8f 3b c9 25 24 3c de e1 23 b9 0f 5a 80 3c
       0.004365487 0.010018774 -0.00015629033 0.015667943
000180 e4 65 d4 3b c8 d4 aa 3b ae 0c 28 3c 0a b5 11 3b
       0.006481873 0.005213354 0.010256929 0.0022233152
000190 ba 6f b8 3b c5 46 46 3c 47 53 87 3a fe 2d aa bb
       0.005628553 0.012101834 0.0010324501 -0.005193471
0001a0 f6 07 92 3c 9e c3 cd 3b f1 07 45 3c 28 e4 3c bc
       0.017826062 0.006279423 0.012025819 -0.011529006
0001b0 69 2c 93 3c 38 02 34 bb 05 13 39 bb 7b 44 86 3b
       0.017965512 -0.0027467143 -0.0028240096 0.004097519
0001c0 ba 8f 42 3b a5 97 ac 3b 9f 06 59 3b 3a 73 0b 3c
       0.0029687718 0.005267101 0.0033115519 0.008511359
0001d0 a1 79 88 bb a4 8a 86 3b df 14 95 3b 1b 5e 7c 3b
       -0.00416489 0.0041058827 0.004549607 0.003850824
0001e0 9c ae ea 3b ab ef aa ba ba 27 a5 3b 4d c7 9f 3c
       0.0071619283 -0.0013041397 0.005040136 0.019504214
0001f0 01 47 74 3b e1 27 c7 3b 34 3d ef 3a cb cc 40 3c
       0.0037273767 0.006077752 0.0018252493 0.011767576

network_body._body_endoder.seq_layers.4.weight f4 [128, 128]
000000 04 e0 7b bd 8a 05 4a bc 9b 7d 94 bd 25 e1 01 be
       -0.061492935 -0.012330422 -0.0725052 -0.12683542
000010 b2 50 18 bd 90 15 57 3d c5 84 7b be 37 d5 62 bd
       -0.037186332 0.052510798 -0.24562366 -0.05537912
000020 0c 65 3a 3e 9e 17 18 be f9 d7 80 3d db 7d bf 3d
       0.18202609 -0.14852759 0.062911935 0.09350177
000030 41 4f 92 bd 20 8d 97 3c 42 fd 14 bd 6d e9 80 bc
       -0.07144023 0.01849991 -0.036374338 -0.015736306
000040 d8 b2 a4 3d 3d 63 c7 3c 02 f9 70 be 44 18 1c 3e
       0.08041924 0.024339313 -0.23532489 0.15243632
000050 3e a6 1f be 2b e2 f5 3d f3 8e 85 3d 66 09 19 bc
       -0.1559076 0.12006029 0.06521406 -0.00934062
000060 8b 83 25 3d 11 e4 84 bc 56 05 32 be b9 85 0c 3d
       0.040408652 -0.016222032 -0.17384848 0.034307215
000070 62 b5 11 3e 04 8a 4b 3c 66 88 84 bb 45 ba ac 3d
       0.14229348 0.012423042 -0.0040445803 0.084339656
000080 27 41 72 3d d5 ec 1b 3d a1 25 05 be a3 61 99 bb
       0.059144165 0.038067658 -0.13002636 -0.0046808287
000090 f3 75 76 3d 15 e2 88 3d 8a cd ce bd e7 8c f7 3d
       0.06017108 0.06683747 -0.10097797 0.12087422
0000a0 90 3e 95 bc b9 77 f6 bd 13 e0 2f 3c 12 19 3c bc
       -0.018218309 -0.12034554 0.010734576 -0.011480587
0000b0 a4 16 04 3d 4c f9 12 3d 51 c1 0a be e8 c9 0a be
       0.032248154 0.03588228 -0.13550307 -0.13553584
0000c0 2b ed e9 3d 7b 54 34 bd f9 5e b2 3d 21 5f 15 3d
       0.11422189 -0.04402588 0.08709521 0.036467675
0000d0 86 b8 67 bd d2 0a 08 3d 8e 46 d1 bd 72 d2 24 3e
       -0.05657246 0.033213444 -0.10218535 0.16095904
0000e0 74 78 2c be 9f e2 11 3e b8 1b 77 be 21 86 e4 3d
       -0.16842824 0.14246605 -0.24131668 0.111583956
0000f0 e1 7f 4a be d3 31 4b 3c 10 da ca 3c dd f7 8a 3d
       -0.19775344 0.012402016 0.024762183 0.067855574
000100 43 e6 af bd c7 2b 12 be 12 4d 14 bd 03 0b a3 bc
       -0.08588841 -0.14274512 -0.036206312 -0.019902712
000110 57 8f 23 bd 5e 94 36 3c 85 02 fe bd 61 3f 1e be
       -0.03993162 0.011143772 -0.12402824 -0.15453865
000120 16 1d d7 3c 98 d8 1c 3d b4 85 2a 3d 05 cc 2e be
       0.026258986 0.038292497 0.041631415 -0.17070015
000130 58 16 06 be 15 b5 10 bd b5 c5 ad bd 16 dd 19 3d
       -0.13094461 -0.035328943 -0.08484975 0.03756436
000140 b0 9c 7d bd e9 f0 38 3c e6 00 b3 3c 43 b3 17 3e
       -0.061917007 0.011287906 0.021851014 0.14814477
000150 cb 09 2d bd 96 66 99 bd 9b b2 e7 3c 59 cc be bd
       -0.042245667 -0.0749027 0.028283408 -0.0931632
000160 05 5e e3 3d c0 0b 8d 3d 3a ac 2f bd 29 fc 92 bc
       0.11101917 0.06887007 -0.042888857 -0.017942505
000170 38 82 ab bd b0 61 10 3e 54 9a d9 3d 2b 9b e2 3c
       -0.08374447 0.14099765 0.10625139 0.02766188
000180 11 51 4c 3e b0 cc 1e 3e 62 db b2 bd 0e b2 49 3d
       0.199528 0.1550777 -0.0873325 0.04924207
000190 f4 45 76 bc e7 81 18 3b d2 fa fc ba 82 5d b7 bd
       -0.015031327 0.0023270787 -0.0019300824 -0.08953382
0001a0 46 f8 71 3b 09 0a 0c 3e 37 23 8e bd dd cf f9 bc
       0.0036921664 0.13675703 -0.069403104 -0.030494625
0001b0 d2 4c 63 bd 25 23 99 3c 01 a6 3d be 74 32 19 3e
       -0.055493183 0.018693516 -0.18520357 0.14960653
0001c0 bb 32 2b 3e e4 65 8a bd 8e f4 3c 3e 78 1e 66 3d
       0.16718571 -0.06757715 0.18452665 0.0561814
0001d0 93 cf 80 3d 0c 28 c0 bc 82 0c 81 3d cd 6c 1e be
       0.06289592 -0.023456596 0.06301214 -0.15471192
0001e0 42 73 1d bd 01 9f c1 bd da d3 06 bd d8 40 d1 bc
       -0.038439997 -0.09454156 -0.03291688 -0.025543615
0001f0 df 07 0d 3e f2 0c 56 bd 43 28 f2 bd dd 9f b8 bd
       0.13772534 -0.05225844 -0.118240856 -0.090148665
000200 80 46 08 3c 50 19 93 bc 06 eb 82 3c ff 5a d9 3d
       0.00831759 -0.017956406 0.015981209 0.10613059
000210 d9 4d 24 bd a3 b5 a2 bc 48 68 16 3e 81 7a c0 3d
       -0.040113304 -0.019862002 0.14688218 0.09398366
000220 ae cd 02 bc 08 09 d6 bd 7e 9a e5 3d 5d 81 ca bd
       -0.007983608 -0.10450941 0.11211108 -0.09887955
000230 7f c7 7a 3d 74 df 75 bd 7e a3 8b 3c d5 10 4c be
       0.06122541 -0.060027555 0.017045733 -0.19928296
000240 df d3 a6 3d 55 6a e5 3d 55 79 fe 3c 21 55 85 3d
       0.0814588 0.11201922 0.031063715 0.06510378
000250 bf bd 1d bd 48 1f 80 bb 97 2e 7a bd 30 cb 29 3b
       -0.038511034 -0.003909979 -0.061079588 0.0025908463
000260 7e b9 b6 bd 4b 91 2d 3d 84 9c 84 bc 63 f5 28 3e
       -0.089220986 0.04237489 -0.016187914 0.16499858
000270 84 b1 6e 3d 43 bb ce bc 02 72 65 bd d5 88 10 be
       0.05827476 -0.025235778 -0.05601693 -0.14114697
000280 f6 8c 32 bd 5c 3c 1c bd ca bc 22 be 17 fd ad 3d
       -0.043591462 -0.0381435 -0.1589233 0.08495539
000290 e4 f7 4a 3d 66 95 0f 3d 3f b7 44 3d 17 5f bd 3d
       0.049552813 0.035054587 0.04802632 0.092466526
0002a0 8b 2f f6 bd 5f 90 15 3e d5 7c 9a 3d de d1 b3 bc
       -0.12020787 0.14605854 0.07543341 -0.021950658
0002b0 3e ff d7 3d ba 7f 94 bd cd 40 14 bd 09 25 70 3d
       0.105467305 -0.072509244 -0.03619461 0.05862907
0002c0 76 25 2d 3d 3c 5b ed 3c 4b 4a f4 3d 66 02 b0 3c
       0.042272054 0.028974168 0.11928233 0.021485519
0002d0 ce db bf bd 29 5b cb 3d f4 d9 d8 bd ca b0 6f 3e
       -0.09368096 0.09929497 -0.10588446 0.23407283
0002e0 13 11 0a 3d b0 af 83 bd 2d 75 82 3d b2 58 36 bd
       0.03370769 -0.06429994 0.06370006 -0.04451818
0002f0 16 d8 01 3d 0a 77 a5 3e fe 5e 85 bc 3f 2b 07 be
       0.031700216 0.32317382 -0.016280647 -0.13200091
000300 fb f1 2c bd 34 cc 07 be 9d 9e 44 3d f9 2d 8e 3b
       -0.042222958 -0.13261491 0.048002828 0.0043389765
000310 be 2e 3c bc c0 18 5b bb 39 e6 88 bb b5 f4 c5 bd
       -0.011485754 -0.00334315 -0.0041778353 -0.09665815
000320 60 de 06 be d7 93 54 bd 7f 6a f5 bd 17 69 da bd
       -0.13170767 -0.051898804 -0.11983203 -0.106645755
000330 30 79 2b bc 28 35 a3 3d 94 41 0c bc d0 82 3f 3c
       -0.010465905 0.07969123 -0.008560557 0.011688903
000340 ce 75 a7 3d 3e cf 42 bc 75 b4 a7 3d f4 b8 23 3d
       0.08176766 -0.011890231 0.08188716 0.039971307
000350 db 1f 6f 3c df b7 5e 3d f2 1d c5 bd 9f 01 21 bc
       0.014594997 0.054374572 -0.09624852 -0.009827047
000360 1c af cd 3d 96 d8 a2 3c 9e b1 b5 bd 38 27 20 bd
       0.10043165 0.019878667 -0.088717684 -0.039099902
000370 a4 30 89 bc c3 7c c4 3d 3b 21 9d bd 85 8e 19 bb
       -0.016746826 0.09594109 -0.07672354 -0.0023430896
000380 dd 5b c5 3d b3 47 09 3c c2 5d 61 3d 1a 82 f6 3d
       0.09636662 0.008378911 0.055021055 0.12036534
000390 55 87 9c bb d2 0f 19 bd 19 2f a9 bd cc 97 19 be
       -0.004776875 -0.037368603 -0.08260936 -0.14999312
0003a0 48 f1 09 3e 55 90 51 3d 67 a1 63 3e dd d5 da bd
       0.13470948 0.051163036 0.22229539 -0.106853224
0003b0 d3 c9 11 3e 44 9f b8 bd e6 68 a4 3b 82 57 1a be
       0.14237146 -0.090147525 0.0050173877 -0.15072444
0003c0 5a 90 a9 bd 72 16 df 3b 99 19 7f 3d 46 b4 81 3c
       -0.08279486 0.0068080956 0.06228027 0.015833031
0003d0 34 13 4e be 67 fe 42 bd a9 01 8d 3d 00 18 55 3b
       -0.20124513 -0.0476059 0.06885082 0.0032515526
0003e0 2c 06 77 3d 45 ab 8a bc 10 9b c2 bc 9c a8 a2 bd
       0.06030862 -0.01692737 -0.02375558 -0.07942316
0003f0 80 68 cb 3d 70 48 b3 bc 5a 02 25 3c a5 f8 e5 bd
       0.09932041 -0.021885127 0.010071361 -0.11229066

network_body._body_endoder.seq_layers.4.bias f4 [128]
000000 8f ac 29 bb 87 cd 45 3c 21 2d 40 bb 5e c1 16 bb
       -0.0025890206 0.012072927 -0.0029323774 -0.002300344
000010 e2 7f 1d 3c d1 69 96 bb 81 62 27 3c bb e7 21 3a
       0.009613009 -0.004590251 0.010216356 0.0006176193
000020 ef ee f4 3b 67 65 a0 bb cc f2 1e 3a dd 18 5d 3b
       0.007474772 -0.0048949006 0.0006063401 0.0033736743
000030 eb b8 94 3b 1c 77 87 bb d0 9c 1a 3c d2 61 7b bb
       0.0045386455 -0.004134072 0.009436801 -0.0038357866
000040 2f f9 46 bb 88 cf 9c bb 25 d2 e6 38 e0 c4 a9 3b
       -0.0030360927 -0.004785482 0.00011006397 0.00518094
000050 5a f2 95 3b 68 52 14 3c cb d1 47 3c dc f6 31 bb
       0.0045760097 0.00905285 0.012196015 -0.0027155196
000060 7b 7f 59 3b ba 49 98 b8 37 ea db 3a b8 84 87 3a
       0.0033187557 -7.2616574e-05 0.0016778175 0.0010339236
000070 7c f7 b5 3a 28 1f 42 ba f9 c1 a6 3b a7 2d dd 3b
       0.001388296 -0.00074051553 0.0050890413 0.006749827
000080 39 6e 2d 3c 40 c7 30 3b d9 7d 1d ba d5 32 93 3b
       0.010585361 0.002697423 -0.00060078275 0.0044921436
000090 9d 26 ff 3b 2b 0f 98 b9 79 65 b4 3b 6c 6b c1 3a
       0.0077865855 -0.00029003 0.0055052605 0.0014756746
0000a0 dd 45 d3 3b 55 45 2f 3b 89 03 e9 3b 86 43 15 3c
       0.0064475373 0.0026744206 0.007111017 0.009110337
0000b0 5b 08 e4 3a 6b f2 62 3b 76 a5 1f 3c 67 d2 97 3a
       0.001739751 0.0034629356 0.009744039 0.001158309
0000c0 40 b6 a4 3b b3 59 da 3b af bb 16 3b cd 70 18 3c
       0.0050266087 0.006663525 0.0023000052 0.009304238
0000d0 fb 9d 2a 3c 90 2c 26 3c 8d 90 37 3b 0d 83 f8 3b
       0.010413642 0.01014246 0.0028009743 0.007583982
0000e0 76 2f d2 3b 16 2d 74 3b 4f bd 8f ba c4 a4 4f 3c
       0.006414349 0.0037258319 -0.0010966453 0.0126735605
0000f0 4a a0 be 3b 70 0d 8a 3b 3f 09 2e 3b bb 6c d1 3b
       0.005817448 0.0042130277 0.0026555804 0.0063911355
000100 a1 50 2b 3c af e6 13 3b 38 f6 21 3c 63 17 f1 3b
       0.010456235 0.0022567918 0.009885363 0.0073575242
000110 01 90 38 bc 4c 92 2b 3b 0c 15 da 3b 35 1e f4 39
       -0.011264802 0.002617973 0.006655341 0.00046561813
000120 47 f8 24 3c a1 41 a6 3b f1 29 7d 3b a5 ac 6f bb
       0.01006896 0.0050737415 0.0038629735 -0.003657141
000130 8a f5 cf 3b 81 23 70 ba 03 5b b1 bb 33 9c c5 b9
       0.006346409 -0.0009160564 -0.005412461 -0.00037691146
000140 03 67 29 3c d1 5c 1d 3b 2c a6 f7 3b 05 39 10 3b
       0.010339501 0.0024011622 0.007557651 0.0022006643
000150 92 75 81 3b e9 ff 17 3c fb 1c 4a ba 7a 2f 88 3b
       0.003950783 0.009277322 -0.0007710007 0.0041560503
000160 3c 93 c0 3b 86 fd 46 bb 91 22 d2 bb cf 20 5d 3b
       0.0058769267 -0.0030363514 -0.006412812 0.003374148
000170 57 69 6b bb 10 40 14 3b 4f e7 f0 ba 97 bc 94 3b
       -0.0035920942 0.0022621192 -0.0018379482 0.004539083
000180 90 c5 6b b9 90 ff 57 3b 61 f0 f4 3b ce a1 fb 3b
       -0.00022484944 0.0032958724 0.0074749445 0.0076792007
000190 93 2d 1a 3b 75 71 2c 3c 0f f0 59 3c de 36 63 3b
       0.00235257 0.010525097 0.013301863 0.0034670155
0001a0 33 5e 14 3c dd fa 64 3b 7f 88 61 3b f9 50 a7 3a
       0.009055662 0.0034939565 0.0034413633 0.0012765221
0001b0 d7 28 a4 b9 3f 1b 71 bb 87 60 dc ba 69 bb 92 3a
       -0.00031310946 -0.0036789922 -0.0016813435 0.0011194769
0001c0 72 e6 03 3c dc 92 2a 3b 68 22 ae 3b 50 39 77 3b
       0.008050548 0.0026027476 0.00531416 0.003772337
0001d0 22 32 c6 b9 0c ae df 3a 55 f8 26 3b dd 53 5a 3b
       -0.00037802855 0.001706542 0.0025477607 0.0033314147
0001e0 92 44 e3 3b cf 65 39 3c 2e ee cc ba 46 60 05 bb
       0.0069356645 0.011315777 -0.0015634948 -0.0020351573
0001f0 d3 e3 ab 3b b9 ad 7a 3c f0 dd 98 3b 60 f3 a5 3b
       0.0052456646 0.015300208 0.004665129 0.005064413

action_model._continuous_distribution.log_sigma f4 [1, 4]
000000 a7 cf 8b 3c 8e d0 ee 3c f1 09 ec 3b 6e 05 2a bc
       0.01706679 0.029152181 0.0072033335 -0.010377271

action_model._continuous_distribution.mu.weight f4 [4, 128]
000000 31 fc 7e bb 29 de 7a bd 89 aa ec 3c a6 33 bb bc
       -0.0038907642 -0.061247025 0.028889911 -0.022851776
000010 fa bf d7 3d 50 10 87 bc 5b 1c b9 3c 1d 98 83 3c
       0.105346635 -0.01648727 0.022596529 0.016063744
000020 2a a1 29 bd 2b c1 9f 3c 29 b9 c8 bc 13 99 04 bd
       -0.041413464 0.01950129 -0.024502354 -0.032372545
000030 0b db 8c bc 08 11 91 3c 29 6a 3f bd 8e 1a ec bb
       -0.017194292 0.017708316 -0.0467321 -0.007205314
000040 b3 f6 54 bc 79 61 a2 bc da e7 bf bb 56 6f 8b 3c
       -0.012998271 -0.01982187 -0.0058564963 0.017020863
000050 45 89 19 bd f0 c1 51 bd dd 4a 59 bd fc 33 c9 3b
       -0.037484426 -0.051210344 -0.05304991 0.00614023
000060 59 25 4e bc 5c 62 62 3c de ef df bc 2e d4 42 3d
       -0.012582147 0.013817396 -0.027336057 0.04756563
000070 92 b5 33 bc a5 b4 c0 3c d3 e4 47 bd 98 35 c6 3c
       -0.010968583 0.023523638 -0.04880221 0.024195477
000080 67 cb a0 3c 8c e8 b6 3a 81 ea 0d 3d 34 aa eb 3c
       0.01962824 0.0013954802 0.03464747 0.028767683
000090 8d ca 04 3c e7 44 8e bc 0e 8a 0c bd 2d fa eb 3c
       0.0081049325 -0.01736684 -0.034311347 0.028805817
0000a0 70 c7 3f 3b 6b 32 3d 3d 19 43 12 3d ca a2 25 bd
       0.002926316 0.04619066 0.03570852 -0.04043845
0000b0 4e 4b f7 bc bf 1c 4c 3c b0 24 6f bd a9 87 8f bc
       -0.030187275 0.0124580255 -0.058384597 -0.017520742
0000c0 52 a3 b8 3c 5e 73 84 bc a3 f8 05 3d c3 2d 22 bd
       0.022538815 -0.016168293 0.03270782 -0.039594423
0000d0 84 ac 59 bd b5 98 43 3d 21 a8 39 3d 88 40 11 3d
       -0.05314304 0.047753055 0.045326356 0.035461932
0000e0 d3 e2 c8 3b 58 78 be 3b c1 25 ec 3c 0b 3a 81 bd
       0.006130555 0.005812686 0.028826596 -0.06309899
0000f0 c5 ad 8b 3c 1c cc 8d bc 03 c1 27 3d 30 e8 27 3d
       0.017050633 -0.017309241 0.040955555 0.040992916
000100 4e 06 4d bd 12 14 9f bc 09 b2 2e bd fa d2 1a 3d
       -0.05005484 -0.01941875 -0.042650256 0.03779886
000110 27 e6 1b 3c de ca 06 bd c6 11 ed 3c 05 9e a5 3c
       0.009515322 -0.032908313 0.02893914 0.020216951
000120 7f 7b e6 bc fb a1 98 3c 2a e8 21 bd 79 0d 54 ba
       -0.02813506 0.018631926 -0.03952805 -0.0008089166
000130 f3 22 2b 3d 24 3d bb 3c 62 e4 d3 3c 40 c7 24 bb
       0.041781377 0.022856303 0.025865737 -0.0025143176
000140 82 48 b8 bd 3a 92 a6 3d ce 16 4a 3d 3f c4 09 3c
       -0.08998205 0.08133359 0.049338154 0.008408605
000150 1c e1 81 bc df 76 22 bd 7f d4 b1 bb 97 0b 37 3d
       -0.01585441 -0.039664146 -0.005426943 0.044688787
000160 65 7f 2e bd ae d9 a8 bb 7b 88 86 3b 12 e5 d4 3c
       -0.04260196 -0.0051529026 0.004105625 0.025988135
000170 de 03 e6 3c e2 d4 53 bc 6e 4b ad bc 49 86 a9 3c
       0.028078016 -0.012929173 -0.021154132 0.020693915
000180 67 a9 04 bc 7f 64 2b bd 0a b3 1f bd 53 f0 47 bd
       -0.008097029 -0.041843887 -0.038989104 -0.048813175
000190 80 3b f2 3c ba 7f bf b9 43 8c c8 bc d0 da eb 3c
       0.029569387 -0.00036525523 -0.024480944 0.028790861
0001a0 58 36 f3 bc 22 d3 04 bd 01 15 52 3d 16 29 d8 3c
       -0.029688999 -0.032427914 0.051289562 0.026386779
0001b0 46 d5 89 bc 7f d1 28 bc bb 40 f2 3b 7d c7 18 3d
       -0.01682533 -0.010303854 0.0073929704 0.03729962
0001c0 96 1e 05 bd 8a a2 1a 3d b9 53 13 bd 6f 33 5e 3d
       -0.032499872 0.037752666 -0.035968516 0.05424827
0001d0 f0 c5 64 3d e1 36 e9 bb b6 14 ce bc 32 14 50 3c
       0.05585283 -0.007117138 -0.02515636 0.012700127
0001e0 5b 7f 68 3a a1 2a 23 3d 15 04 5d 3d c0 1b 3e bc
       0.0008869075 0.039835576 0.05395897 -0.011603296
0001f0 be 40 bc bc d7 86 cf bc 6f f5 10 bd 68 4b ab 3c
       -0.02298009 -0.025332851 -0.035390314 0.02090998
000200 47 47 cb bb 8b ac c4 3c 56 b3 85 bc 3e d1 9f 3c
       -0.0062035653 0.024008056 -0.016320866 0.019508954
000210 ae 4d 3a bb 30 a9 b0 3c f8 9a d3 3b 61 23 56 3c
       -0.0028427648 0.02156505 0.0064576827 0.013069958
000220 60 3a bf bc a0 af 2f bd b7 9b 5d bb 9e 45 11 3c
       -0.023343265 -0.0428921 -0.0033814737 0.008866696
000230 ae 17 02 3b 20 ce 21 3c ce 9c 47 3c 48 02 1e 3b
       0.001985054 0.009875804 0.012183381 0.0024110246
000240 7e 8d bc 3b 95 9b 5c 3b b8 39 9b 3c f3 f2 ca b9
       0.005754172 0.003366207 0.01894842 -0.00038709454
000250 1f 79 d1 ba d3 41 25 bc 9b 50 d9 3c 7f 57 51 3c
       -0.0015981531 -0.0100864945 0.026527693 0.012777208
000260 df 8a d7 3c f8 94 83 bc 2d 60 6c 3c a4 e1 15 3c
       0.026311336 -0.016062245 0.014427227 0.009148035
000270 f8 7b 1e 3d 40 60 66 3c 2f 98 46 3d d8 22 78 bc
       0.038692445 0.014061034 0.048484977 -0.015145026
000280 62 51 a3 bc d3 9a cf 3b bd 66 08 3c 4f a9 57 3b
       -0.019936267 0.006335595 0.008325276 0.0032907312
000290 2d 35 76 bc 56 31 0f 3c 33 a6 63 3b 07 96 4a bc
       -0.0150273265 0.00873979 0.0034736514 -0.012364871
0002a0 06 bc 87 bc 26 1c 2f bc 8e bd c8 bc a0 bc 12 3d
       -0.016569149 -0.010687863 -0.02450445 0.035824418
0002b0 54 b6 fa 3c 26 ef 20 bb f1 61 64 bc 16 d3 bb 3c
       0.030604519 -0.0024556606 -0.013939367 0.022927802
0002c0 cf d8 1f 3c fd ea 95 3c fd 4c ed ba e3 d8 3b bc
       0.009756281 0.018300528 -0.0018104609 -0.011465284
0002d0 c7 27 62 3c 81 8e 54 bc c5 37 48 3c 8f ff 57 ba
       0.013803429 -0.012973429 0.012220328 -0.00082396803
0002e0 d6 32 85 bc cc 65 f4 3b 28 7c 56 bc 07 94 a3 bb
       -0.016259592 0.007458424 -0.013091125 -0.0049920115
0002f0 20 07 9f bb 59 68 0a 3c 7f e8 f2 3b 6b e8 e5 bc
       -0.0048531443 0.00844773 0.0074129696 -0.028064927
000300 7a 63 97 bc 2b cf 0c bd 4d 86 07 ba 5e 5c 94 3c
       -0.018480051 -0.03437726 -0.00051698537 0.01811045
000310 ad 41 74 3c dc 24 e4 3c 37 21 05 bd c9 30 b5 bb
       0.014908236 0.027849607 -0.03250238 -0.0055294973
000320 11 f6 81 3c 64 fe b0 bb 79 02 25 bc a3 11 a8 3b
       0.015864404 -0.0054014195 -0.01007139 0.0051290556
000330 b4 cc 49 b8 d8 79 34 bd ff 25 ff 3c ef 03 68 bb
       -4.811278e-05 -0.04406151 0.031146048 -0.0035402735
000340 c0 76 36 bc a1 9c 77 bc f0 86 a2 3b eb 86 e4 3c
       -0.011136711 -0.015113027 0.0049599335 0.027896365
000350 6e 54 1e 3d 5f b2 9d bc 9f b4 73 bb c5 e0 d3 3c
       0.038654737 -0.019250093 -0.0037186516 0.025864014
000360 34 3f 3b 3c a2 4e a1 bb 53 ca a1 3b b9 c1 50 bc
       0.011428643 -0.004922704 0.004937449 -0.0127415
000370 23 11 22 bb 0d b3 c9 3b 5f b8 94 3c 64 62 f0 bc
       -0.0024729453 0.0061553777 0.018154321 -0.029343791
000380 82 94 21 3b f7 24 c6 bb 08 1a ea 3b 4e 8d ab 3c
       0.0024655168 -0.006046887 0.0071442164 0.020941403
000390 23 0d 66 bc 68 3c a6 3c 64 c9 91 bc a9 a2 4d bb
       -0.014041218 0.020292476 -0.017796226 -0.003137747
0003a0 eb 98 3b bd ea 60 22 3c cb 53 06 bc ae a8 80 bc
       -0.04580013 0.009910801 -0.008198689 -0.015705433
0003b0 ea b6 f8 bb 09 54 aa 3b fb 84 1e bd 8e c5 f5 bb
       -0.0075901644 0.005198006 -0.03870104 -0.007500357
0003c0 f7 7a 9b 3c 60 eb 43 bb 3f 36 d0 bc ed 1c be 3c
       0.018979533 -0.0029894933 -0.025416492 0.023207152
0003d0 8f 7c fd bb 61 6a f1 3b 2f e2 14 ba d5 02 84 bb
       -0.007735796 0.0073674177 -0.0005679456 -0.004028658
0003e0 a5 1d e7 3b 4f cd 01 bc 16 9a 9f bb 61 5f 66 3c
       0.0070530945 -0.007922485 -0.0048706634 0.014060826
0003f0 e2 5d 10 3d ea 56 f7 bb 3d d9 b9 3a e4 fc 73 3c
       0.035245784 -0.0075482028 0.0014179122 0.014891837

action_model._continuous_distribution.mu.bias f4 [4]
000000 d0 ae d9 bb f9 92 f9 39 c3 7b a3 bb f3 3c b3 39
       -0.0066431537 0.00047602484 -0.004989119 0.0003418695
