results/attackshooter/Shooter/Shooter-499725.onnx (onnx, 201499 bytes, 9 tensors)

network_body._body_endoder.seq_layers.0.weight f4 [128, 120]
000000 82 75 68 bd 9b a2 87 bd ed a0 1d be 8d bb 03 bd
       -0.05675269 -0.066228114 -0.1539342 -0.032161284
000010 af b7 19 3e a6 2c 05 bd 2a e3 49 3d b3 34 8e 3c
       0.15011476 -0.032513283 0.049288906 0.017359113
000020 c3 1a 1e 3c 54 16 98 3d 10 d3 9b 3d 4f ca 01 3c
       0.009649935 0.07426134 0.07608616 0.007921769
000030 77 04 06 3e 81 fd 5a bc fe 39 1c ba 82 a9 07 3d
       0.1308764 -0.013366104 -0.0005959569 0.03312064
000040 52 9c b8 3c 54 47 16 3d 13 0d d3 bc c5 57 46 bb
       0.022535477 0.036689118 -0.02576307 -0.0030264717
000050 02 9f 1b 3b 48 cc 69 3d 97 90 6a 3d 39 64 8b 3d
       0.00237459 0.057079583 0.057266798 0.06806225
000060 1c d0 7a bd ff a9 bb 3d 9e da c9 3d ea 97 11 3e
       -0.061233625 0.091632836 0.09856151 0.14218107
000070 42 ff c5 bd 0b 86 4d bd 32 f7 75 3d 73 5e ff 3d
       -0.09667827 -0.05017666 0.060050197 0.12469187
000080 7c a9 e4 3b 43 dc 9b 3c 91 24 33 bc cc 39 c6 bd
       0.006978212 0.019025927 -0.010934011 -0.09678993
000090 76 42 13 3e 8f 5c fa bd 9f dd 73 bd e0 d2 85 bd
       0.14380822 -0.122246854 -0.059537526 -0.06534362
0000a0 4d d5 95 bd ae 68 86 bd f5 92 b7 3d 7a c0 38 be
       -0.073160745 -0.06562935 0.08963577 -0.18042174
0000b0 56 15 c5 3d 07 a1 63 bd 6e 7a 2c 3e fc fc e8 3c
       0.0962321 -0.05557349 0.16843578 0.028440945
0000c0 20 8f fa 3d 67 03 f0 3d 25 aa df 3d 20 88 8b bd
       0.1223433 0.11719399 0.10921124 -0.06813073
0000d0 07 97 3e 3c dd d1 19 bd 94 42 64 be 22 c3 c1 3c
       0.011632687 -0.037553657 -0.22291023 0.023652617
0000e0 86 63 43 be 54 1a a7 3d 43 a8 cc bc 4e 28 e5 bd
       -0.19080934 0.081593186 -0.024982577 -0.11189328
0000f0 66 41 66 3d 06 51 27 bd b7 ff 86 bc dc 3e cf bd
       0.056214713 -0.040848754 -0.016479356 -0.10119411
000100 1b e8 2e bc 78 2e 97 3d 06 85 83 bd 8b 92 37 bd
       -0.010675455 0.0738191 -0.064218566 -0.04481749
000110 bc bc cf 3b ab 1a 15 3e af c6 04 3c c9 61 6e bd
       0.0063396376 0.14560954 0.0081040105 -0.058198724
000120 6c 04 17 3e 97 08 16 3e fb f8 91 bd 04 fa 3d 3d
       0.1474778 0.14651714 -0.071275674 0.04638101
000130 32 7b 99 bd 78 12 76 3d a0 e2 a8 3d 59 34 db 3d
       -0.07494201 0.060076207 0.0824635 0.10703344
000140 75 87 9f 3d f1 76 01 bd 3a 27 11 3e 5e cd ab 3d
       0.07789508 -0.031607572 0.1417512 0.0838878
000150 e6 73 6c 3d eb d8 e7 3c 08 e0 15 3e ec 64 b3 bd
       0.057727717 0.028301677 0.14636242 -0.08759484
000160 0f 0d 5a bd b9 16 9e 3c 7c 33 99 bc 18 48 9b 3c
       -0.05323511 0.019297944 -0.018701307 0.018955275
000170 59 36 7d 3e 9b 37 e3 bb d9 f1 22 3d 77 22 66 3e
       0.24727763 -0.006934119 0.039781425 0.22474085
000180 a8 26 91 bc c1 86 40 bc d4 b4 40 bd df 15 68 bd
       -0.017718628 -0.011750878 -0.04704745 -0.056661483
000190 ae 77 c9 bd 85 55 eb bd 67 49 0e bd 40 ad cf 3d
       -0.0983728 -0.11490921 -0.03473797 0.10140467
0001a0 1b df 1c 3e 2a 95 c9 3c ac a2 05 3e 53 61 e8 bd
       0.15319483 0.02460726 0.13050336 -0.11346688
0001b0 65 13 9c 3d 48 8f b2 3d 24 a2 61 bd 93 35 6e 3d
       0.07620887 0.08718735 -0.05508627 0.05815656
0001c0 26 ab 9e 3d ae 1c d6 bc f6 a4 e8 bc 4e 6f 81 3d
       0.07747488 -0.026136722 -0.028398972 0.06320058
0001d0 2d dd 3f be 35 fa 29 3d c9 62 e7 3d 82 44 01 be
       -0.18736716 0.04149838 0.11298139 -0.1262379
0001e0 0c c4 85 bc 3e 78 7c bd 36 20 41 3d bb 0a 1a 3d
       -0.016328834 -0.06163811 0.04714986 0.03760789
0001f0 26 e9 0a bd 25 71 48 be 80 72 87 bd 31 0f 5b bc
       -0.033913754 -0.19574411 -0.06613636 -0.013370321
000200 6a 88 ea 3c 3f e2 b3 bd 91 60 7b bd 0d cf b3 bd
       0.0286295 -0.087833874 -0.06137139 -0.08779726
000210 94 a7 27 be 76 c6 30 bd ef 1b 5b bd 49 f7 01 3b
       -0.1637252 -0.043158017 -0.053493436 0.0019831231
000220 47 a4 03 3d 66 d3 1a 3d 62 99 13 bd 17 62 e8 3b
       0.03213909 0.03779926 -0.03603495 0.0070917713
000230 f8 86 08 be e7 2e 4f be b1 d9 0b be 3e 2b 6f 3d
       -0.13332736 -0.20232736 -0.13657261 0.05839085
000240 6a 18 0c bc 90 59 14 3d 4e 60 a0 3d 63 34 a0 3d
       -0.008550743 0.036218226 0.07830869 0.07822492
000250 63 8c 93 3c 4a ea a3 3d dd db 91 bc 2c f9 a2 bd
       0.018011278 0.080036715 -0.017805034 -0.07957682
000260 88 ae 4a 3e d1 49 c5 bd be 9d a7 bd 1a df 20 bd
       0.19793141 -0.0963322 -0.08184384 -0.039275266
000270 87 45 b5 bd 2b 09 86 3d dc de 10 be ea 5e 13 bd
       -0.08851152 0.065447174 -0.14147514 -0.03597919
000280 67 c9 14 3c 4f 6b 03 3e 05 79 4d 3e fa cb 11 bd
       0.009081221 0.12833904 0.20065697 -0.035594918
000290 91 05 8f 3d ee 93 ab 3d 02 a4 10 3c 22 1e 4f bd
       0.069834836 0.08377825 0.008828165 -0.050565846
0002a0 89 1b 93 bd c6 93 83 3d 81 de d4 3d 5b b7 15 bd
       -0.07182986 0.0642467 0.10394002 -0.036551815
0002b0 09 d7 04 bb b5 28 25 3c ae b6 53 3d 1d 16 0f 3c
       -0.0020269773 0.010080506 0.05168789 0.0087333
0002c0 13 10 b3 bd ce ad 08 bc 93 e6 ab 3b ae 24 c9 bd
       -0.087433 -0.0083422195 0.0052459924 -0.09821449
0002d0 8f 13 14 3c bd 44 54 3b 3c 09 7f bc 45 84 93 3d
       0.009037866 0.0032389604 -0.0155661665 0.07202963
0002e0 ce 89 b0 bb 43 bf 53 bd b3 92 a2 bd 76 84 05 3e
       -0.0053875213 -0.051696073 -0.07938137 0.13038811
0002f0 2d 34 15 3d 09 1a 31 3c 4e 3c 00 be 55 dc 20 3d
       0.03642671 0.01080943 -0.12523004 0.039272625
000300 f1 a0 0b be 27 07 14 3b 99 17 d2 bd 0c 70 0f be
       -0.13635613 0.002258727 -0.10258407 -0.14007586
000310 ae f3 f0 bd e9 10 ca bd 5b ff 11 3d e1 e3 e0 3d
       -0.11765228 -0.098665066 0.035643917 0.109809645
000320 78 66 8e bd dc dc d2 bc 76 b6 39 3d 5c f9 44 be
       -0.06953138 -0.02574008 0.045340024 -0.19235748
000330 8f 74 bf bd 42 c4 8b 3c 76 80 08 3e 43 1d cc bc
       -0.09348404 0.017061356 0.13330254 -0.024916297
000340 63 a0 c7 3d 78 7f 8e 3c 7c 50 eb 3c a0 e1 59 be
       0.09747388 0.017394766 0.028724901 -0.21277475
000350 0f 21 30 3e d3 a5 e5 bb 4f b2 e9 3d 39 be 61 bd
       0.17200111 -0.007008293 0.11410963 -0.05511305
000360 74 ac 11 be d9 06 8a 3c 36 ff 75 3d 10 98 ea bd
       -0.14225942 0.016848968 0.06005784 -0.11454785
000370 7d 20 10 be 76 07 b0 3d b8 ea 2b 3e bb 2d ed bd
       -0.14074893 0.08595173 0.16788757 -0.11580988
000380 78 64 1d 3e 23 53 bc bd a3 b1 d4 bc 45 26 0d bc
       0.15370357 -0.091955446 -0.02596361 -0.008615081
000390 3b 1c eb bd 65 3c 97 be ee fa e0 bd 7b 4b 45 bd
       -0.11479994 -0.29538265 -0.10985361 -0.048167687
0003a0 25 98 26 3d 04 9a e2 3d 96 e0 1f 3d dd 0c 93 3d
       0.04067244 0.110645324 0.03903254 0.07180188
0003b0 0d 3b 95 bd 39 db c1 bd 89 04 bb b9 c3 63 2a bd
       -0.07286654 -0.094656415 -0.00035670798 -0.041599046
0003c0 e0 b0 15 3e ce bc 99 bb 90 1c 30 bd 08 69 82 3b
       0.14618254 -0.0046916967 -0.04299599 0.003979806
0003d0 65 e1 39 bd c9 4d c0 bd 69 85 a3 3d 55 98 c8 bb
       -0.04538097 -0.09389836 0.0798443 -0.006121675
0003e0 0b c4 c3 bd c8 aa 87 3c b7 71 88 bd bc 21 64 3c
       -0.095588766 0.016560927 -0.066623144 0.0139240585
0003f0 6c 7d 23 3d 8a f1 e8 bd ba 1b ab 3b 95 3c ee bc
       0.039914533 -0.11374195 0.005221811 -0.029081622

network_body._body_endoder.seq_layers.0.bias f4 [128]
000000 bd b9 97 3b b3 77 27 bc 98 92 62 39 f5 22 ba bb
       0.004630296 -0.01022141 0.0002160765 -0.0056804367
000010 3a 6b 71 3c 3d b2 1e bc 9d cb bd 3b d0 58 84 bc
       0.014735037 -0.00968605 0.005792095 -0.01615563
000020 db 4d ff ba 93 e7 04 3c c8 35 b5 ba e8 b8 ed 3a
       -0.0019478159 0.008111852 -0.0013825232 0.0018136771
000030 30 7b 51 bc 13 65 ce bb cd 7e b2 bb a5 ce 94 ba
       -0.012785718 -0.00629867 -0.0054472447 -0.0011353089
000040 96 f1 29 3c 22 c5 53 ba 30 f4 bd 3b b4 b0 29 ba
       0.01037254 -0.00080783863 0.0057969317 -0.0006473169
000050 40 d3 07 bc 46 56 d0 bb 6d df 28 3c 2a f9 00 bb
       -0.008290112 -0.006357941 0.010307175 -0.0019679763
000060 8c 04 08 3c 28 f9 d3 3b 8a 6d 5b 3c 00 d8 05 3c
       0.008301865 0.0064689107 0.013392815 0.008169174
000070 11 08 03 3c d3 69 0d bc 4b f0 0c bb 68 86 2d 3c
       0.007997529 -0.0086311875 -0.002150553 0.010591127
000080 79 89 d3 3b 3e e3 20 bb 6a 60 32 3c 25 b5 a5 bb
       0.006455597 -0.002454951 0.010887245 -0.0050569945
000090 cc ee 87 b9 6e cc 07 bb fc 44 80 3b d7 76 a0 bb
       -0.00025927124 -0.0020721215 0.0039144736 -0.0048969793
0000a0 92 f8 b8 3b f7 4d d5 bb 42 ad 09 3c 7b c2 b8 bb
       0.0056448663 -0.0065095383 0.008403124 -0.0056384183
0000b0 f0 03 0d 3c 1a 7a e9 bb 5c 94 d9 ba 6b f4 0e 3c
       0.008606896 -0.0071251513 -0.0016600001 0.008725266
0000c0 83 d1 3f bc 42 22 3b bc 18 f0 84 39 8f 6e 1c 3c
       -0.011707666 -0.011421742 0.00025355886 0.009547844
0000d0 bf 94 72 b9 d3 31 da ba 67 0c 07 3c 27 f0 d1 3b
       -0.0002313433 -0.0016646929 0.008242703 0.006406802
0000e0 79 56 22 3a 6a 00 84 bb 94 b9 09 bb 08 9e 1c 3c
       0.0006192695 -0.0040283697 -0.0021015154 0.009559162
0000f0 53 9a f1 ba 5a 48 9f bb 4c 13 9c 3a fe 4b 36 bb
       -0.0018432833 -0.00486092 0.0011907606 -0.002781629
000100 9c 48 af bb 3b 0b 1d 3c 9f 82 fa 3a 16 e8 a1 bb
       -0.005349232 0.009585197 0.0019112414 -0.004940997
000110 0b de a8 ba dc c2 c1 39 2b 5f 24 bc 32 9f 4c bb
       -0.0012883557 0.0003695701 -0.010032455 -0.0031222817
000120 20 9c ab 3b 6f 08 fb 3a 4f 58 9b b9 a0 50 10 3c
       0.0052371174 0.0019152294 -0.000296297 0.008808285
000130 40 33 c8 bb 57 87 1c 3c 26 b6 b1 bb 83 08 56 ba
       -0.006109625 0.009553752 -0.005423325 -0.00081647205
000140 5a 0d ad 3b 6b 87 c9 bb 6a ca 52 bc 86 14 00 ba
       0.0052811326 -0.0061501763 -0.012865642 -0.0004885871
000150 bb 53 b8 bb b2 af 0e bc 5f b1 d5 39 34 e9 c2 3b
       -0.005625216 -0.008708881 0.00040758678 0.00594821
000160 ee 99 a8 bb a3 7f f7 39 cc ea 1a bb a6 80 f1 3b
       -0.005145303 0.00047206608 -0.0023638485 0.0073700724
000170 d1 e4 b7 3b 26 4a 1c 3b 1b 22 93 bb d5 68 94 3b
       0.005611994 0.0023847907 -0.0044901497 0.0045290985
000180 9b 5c 15 3b d2 67 30 3c 0a 95 b5 3b 62 82 4c bc
       0.0022790793 0.01076694 0.0055414485 -0.012482258
000190 40 26 22 bc 2f 6a 69 3b c6 7d a3 bb e3 aa 28 3c
       -0.009896815 0.003561627 -0.0049893586 0.010294649
0001a0 b2 d0 bd 3b 76 c0 81 3b d9 a9 13 bc 19 ee fd ba
       0.0057927007 0.0039597107 -0.009012663 -0.0019373327
0001b0 dd 00 eb 3b 3e e3 c2 bb 7e 26 6f 3c ab 2f d1 3b
       0.007171734 -0.0059474995 0.01459658 0.0063838563
0001c0 1b 51 cb 3b ab 12 44 3c 17 e2 ca 3a c0 fa e0 bb
       0.006204737 0.011967341 0.0015478757 -0.006865829
0001d0 6f 86 b5 3a 5d 3c d4 3b 43 4a c7 3a 5a e4 04 bb
       0.0013849268 0.0064769224 0.0015204627 -0.002027771
0001e0 27 7d 83 3b c3 cc 27 bc 03 ce 35 bc 89 90 8e 3b
       0.004012722 -0.01024169 -0.01109648 0.004350726
0001f0 cd 19 8a 3c 99 9c 09 3c 7d 30 00 bc c4 a1 9f 3b
       0.016858006 0.008399152 -0.0078240605 0.004871579

network_body._body_endoder.seq_layers.2.weight f4 [128, 128]
000000 79 a1 3c 3e 9c 9c 89 3d 63 34 04 3e 4d 88 00 3d
       0.18420972 0.06719324 0.12910609 0.031379987
000010 90 36 66 bd 03 3d c4 3d db aa 2d bd 59 36 b5 3d
       -0.05620438 0.095819496 -0.04239927 0.088482566
000020 d6 25 fe 3c b8 64 c8 bd 09 38 e7 bd 60 ef 7b bd
       0.031023901 -0.097848356 -0.11289985 -0.061507583
000030 dd 59 18 be 08 e9 74 bd c3 03 9f 3d 11 0f 0e 3e
       -0.1487803 -0.05979255 0.07764389 0.13872935
000040 22 fe 96 3d 7b 58 4a be 51 40 a3 3d ca 21 9e bd
       0.07372691 -0.19760315 0.07971252 -0.077212885
000050 28 13 2c be d5 f1 e3 bd 3b 0f cd bd 72 4f e2 bd
       -0.16804183 -0.1113011 -0.100126706 -0.11050309
000060 81 24 16 be e7 6d 80 bd b3 ef 68 3c a6 e8 c4 bb
       -0.14662363 -0.06270962 0.014217305 -0.006009179
000070 cc ba a7 bd 53 bc e2 bd 3d f7 96 bb be 3c cb 3d
       -0.081899256 -0.11071076 -0.00460711 0.09923695
000080 41 1e b2 bd bc 1f 58 3e a4 ad bf 3d d9 af b0 bb
       -0.08697177 0.21105856 0.09359291 -0.0053920564
000090 07 28 4e be 18 86 32 bd 97 ae 84 3e ce b8 b5 3c
       -0.20132457 -0.043584913 0.2591445 0.022182848
0000a0 72 38 66 bd c4 10 db bd 0c 4b a1 bc c0 4a 79 3d
       -0.056206174 -0.10696557 -0.019689105 0.060862303
0000b0 9e e7 ba 3d cc 74 4a be e5 34 67 bd 76 e6 06 3e
       0.09126209 -0.19771117 -0.05644693 0.13173851
0000c0 fc bc 81 bd 36 14 68 bd d0 f8 ce bc 80 52 3c 3d
       -0.06334874 -0.0566599 -0.025265127 0.045977116
0000d0 c3 d6 76 3b d9 5e 26 bd c2 8f 28 3d 6a cf ae 3d
       0.003766463 -0.040617798 0.041152723 0.08535655
0000e0 c3 04 7b bd 2d 71 04 bc da 26 34 3d 71 7d 9c bd
       -0.061283838 -0.008083624 0.043982364 -0.076411135
0000f0 fd 47 60 3c b0 b1 bd bc fd 07 06 be 6f ed a0 3d
       0.013689038 -0.023156017 -0.13088985 0.07857787
000100 c4 c8 eb 3d a8 cf 77 be 4f c5 c6 3c 65 50 3c 3d
       0.115129024 -0.24200308 0.024264006 0.045975108
000110 d0 5b cc bd fb f9 8a 3c 8d 86 5e bd 0c 62 2a 3e
       -0.09978449 0.016964903 -0.054327536 0.16638964
000120 6b 72 73 3e 17 b0 8b 3d 3a b8 b5 3c 47 cc 4d 3d
       0.23774116 0.06820696 0.022182573 0.050243642
000130 dc 5e 68 bd 5d 39 cf bd a8 c3 01 3d b2 25 40 3d
       -0.05673109 -0.10118363 0.031680733 0.04691095
000140 42 1a d7 bd 76 b2 b6 3d c4 87 29 bd d1 53 84 3d
       -0.10503055 0.089207575 -0.04138924 0.06461299
000150 20 17 3f 3e 5d ad ed 3d 80 19 16 bd 39 1c 41 3e
       0.18661165 0.11605332 -0.036645412 0.18858422
000160 00 52 2d 3e 6c b3 cf bd 56 7c 5e bd fa 16 1e 3e
       0.16925812 -0.10141644 -0.054317795 0.15438452
000170 cf 85 99 bc b9 b4 08 3e 7c f4 06 be 65 64 0b 3b
       -0.018740563 0.1335019 -0.13179201 0.0021269557
000180 db b5 97 be 93 41 ae bd 30 23 93 bd dd 0d 62 3d
       -0.29630932 -0.08508601 -0.07184446 0.055189002
000190 60 7d 28 bd 8b 56 cb bd 77 ed 07 3e 24 14 40 3d
       -0.041135192 -0.09928616 0.1327418 0.046894208
0001a0 ca 02 41 bc 72 ab e9 bd db 93 22 bc 79 ba bd bd
       -0.01178045 -0.11409654 -0.009922947 -0.092640825
0001b0 21 d0 b8 bd 19 44 23 3d 3f e8 19 bd d0 a5 cc bd
       -0.090240724 0.039859865 -0.037575003 -0.09992564
0001c0 dd 87 53 be d3 4a c4 bc 2d 7a 69 bc ae 38 65 3c
       -0.20657296 -0.02396146 -0.01425032 0.013990564
0001d0 e2 65 82 bb 57 cd 50 3d e4 8e 43 3e aa 52 e5 bc
       -0.0039794305 0.050977077 0.19097477 -0.027993519
0001e0 a4 9b 00 3e ad cf 18 be 85 a2 8d 3c 28 4e 81 3d
       0.12559372 -0.14922972 0.01728941 0.06313735
0001f0 e7 98 d2 bd 1c 7c 86 bc d0 d8 47 3b ed 21 96 3b
       -0.1028307 -0.016416602 0.003049422 0.004581681
000200 b0 53 9a 3d af 11 ec 3c 45 49 a4 3d 87 28 b1 bc
       0.075354934 0.028817026 0.080217876 -0.02162577
000210 f2 84 55 bd d4 3b 67 3d 3e 16 52 3c 45 72 a4 3d
       -0.05212874 0.05645354 0.012822686 0.08029608
000220 64 7a 8e bd 03 74 7b bb 01 51 80 bd 77 a1 99 bd
       -0.06956938 -0.003836871 -0.0626545 -0.075015
000230 4a 9d 4b bc 8a 0c 39 3e a6 83 b4 bd 4c f0 d5 3d
       -0.012427637 0.1807119 -0.088141724 0.104462236
000240 58 77 03 be 82 a7 0b 3b 3a bc 2d 3d 28 1a 93 3d
       -0.12838495 0.002130956 0.042415835 0.07182723
000250 10 f2 ea 3d b7 db dd 3d e7 cd ed bd 96 35 d4 bd
       0.11471951 0.10832923 -0.116115384 -0.10361783
000260 bb 73 b3 3c 00 d5 0a 3e fb d9 8b 3d 07 f8 ba 3b
       0.02190577 0.13557816 0.06828686 0.0057058367
000270 a0 97 c4 3d fc d1 f3 3c d3 42 5d bc 10 32 cb bc
       0.09599233 0.029763214 -0.013504702 -0.024804145
000280 25 4d e5 bd 12 6c 1d 3d 81 3e 12 be 28 33 84 3d
       -0.11196355 0.038433142 -0.14281656 0.0645507
000290 10 1b c6 3c fe de 81 be 0e 8b ad 3d d3 79 0c be
       0.024182826 -0.25365442 0.08473788 -0.13718347
0002a0 46 c1 ab 3a f7 6b 43 bd 39 cd f2 bc 73 38 d7 3d
       0.0013103865 -0.047710385 -0.029638873 0.10508814
0002b0 0d 89 d7 bd 47 5b 14 3d 98 97 90 3c 4f e7 99 3d
       -0.10524187 0.03621986 0.01765041 0.07514822
0002c0 44 00 94 bd cf b9 42 3c 0b 9b ca 3c 03 1a ad 3d
       -0.07226613 0.0118851205 0.024732133 0.08452227
0002d0 e3 e5 21 bc ca 9c 37 3c b4 91 81 3a d7 55 f2 bd
       -0.009881469 0.011206815 0.0009885342 -0.11832779
0002e0 1b 5f a5 3d d1 e5 bb bb ae 1a 87 3c 6b fc c4 3b
       0.080747806 -0.0057341834 0.016492214 0.006011536
0002f0 1c b5 60 3c 46 f5 ba bd 03 8c 20 bd 5e f2 8a bd
       0.013715055 -0.091288134 -0.039196026 -0.06784509
000300 50 a5 8f 3d bf e0 25 bd 9f 2c 04 3e 02 9f a0 3d
       0.07013953 -0.040497538 0.12907647 0.07842828
000310 57 f2 51 3d bf 81 25 bd 8b c8 e4 bb c6 c3 0c be
       0.051256504 -0.04040694 -0.0069819144 -0.13746557
000320 ae d4 00 bd b4 cb 1e 3c 75 7b 1e 3d ee c1 04 3e
       -0.031452827 0.009692121 0.038691957 0.12964603
000330 61 bc 10 3d 64 a2 34 bd d0 a2 07 3e 0d d1 e4 3c
       0.035335902 -0.04410018 0.13245702 0.027931714
000340 3b 0e 44 3d 44 57 f7 3d 24 06 17 3d d1 c8 b1 bd
       0.047865134 0.120771915 0.03687109 -0.08680881
000350 9e 66 aa bd c7 61 ac bd 7c 37 45 bd e8 12 4c 3d
       -0.08320354 -0.08417087 -0.048148617 0.049822718
000360 9b ad 8f be 71 f9 93 bc fa 6e 26 3d 4e 5e 80 bc
       -0.28062138 -0.018063279 0.04063318 -0.015669968
000370 7e b3 a7 bc fe 1c 0c be 60 52 3d bd 98 62 d8 3d
       -0.02047133 -0.13682935 -0.046221137 0.1056568
000380 b1 96 47 3e cb 38 ac 3d 3e a2 0d bd 94 02 2a 3e
       0.19491078 0.0840927 -0.034578554 0.16602546
000390 54 36 b7 3c e4 d9 23 bd 6e 76 59 bd f4 ef ba 3d
       0.022364773 -0.04000272 -0.05309146 0.09127799
0003a0 00 37 02 bd c1 80 c6 bd 2f 47 3b 3c 54 51 00 3e
       -0.031790733 -0.096925266 0.011430546 0.12531024
0003b0 81 b0 ab 3d 25 b2 ec bc 9b 4a b0 3b 10 a5 09 3e
       0.08383275 -0.02889354 0.0053799874 0.13441873
0003c0 74 ba c3 3d 9f 7b 08 bc 50 02 8f bd 04 bd 24 3e
       0.095570475 -0.008330255 -0.06982863 0.16087729
0003d0 1d 3d f5 bc 5d 6d 44 3d b7 9a 08 be cf e5 16 be
       -0.029936368 0.04795586 -0.13340269 -0.14736103
0003e0 80 e8 ce 3c 43 b0 0c 3e ff cf 08 3e 6c 91 26 3e
       0.025257349 0.13739114 0.13360594 0.16266412
0003f0 83 10 01 bc 13 ee 8c 3c ec b6 24 be 3b 3d d4 3d
       -0.007877472 0.017203366 -0.16085404 0.10363241

network_body._body_endoder.seq_layers.2.bias f4 [128]
000000 3c b3 09 ba a6 1e 72 bb 0e d8 f2 3b 1a a8 bb 3b
       -0.0005252843 -0.0036944537 0.0074110096 0.0057268264
000010 4b 0a ff bb 3b 7b 8c 3b 06 ae 29 3c 41 e4 19 3c
       -0.0077832094 0.004287151 0.010356432 0.009392799
000020 e0 c2 1b 3b e7 60 7e 3a 59 39 1b 3c c6 cb 3a 3b
       0.0023767278 0.00097037706 0.009474122 0.0028502806
000030 73 66 3f 3a 9a 58 e2 3a 02 1f 41 3c 36 a8 78 bb
       0.0007301338 0.0017268837 0.011787178 -0.0037942058
000040 73 70 08 3c 85 a1 05 ba f5 d2 1d bc 07 f1 89 3a
       0.008327591 -0.00050976156 -0.009632816 0.0010524102
000050 37 71 4f 3c 31 61 bb 3b 77 ff 98 ba 40 df 4e 3c
       0.01266127 0.005718373 -0.0011672814 0.012626469
000060 6d 25 cc 3a 2c 53 c3 3b 3e 95 28 bb d0 88 1b 3c
       0.0015575119 0.0059608426 -0.002572372 0.009493068
000070 df 16 9c 3b ee 4d 0b 3c 0a 30 36 bc df 3d 04 3c
       0.0047634686 0.008502467 -0.011119852 0.008071392
000080 03 32 43 3b a3 0e 24 bc dd db 64 ba 70 75 7f 3a
       0.0029784448 -0.010013255 -0.0008730272 0.00097449776
000090 85 04 14 3a 84 3c d5 3b d9 b6 7e bb a8 29 a2 3b
       0.00056464254 0.006507458 -0.003886631 0.0049488135
0000a0 79 d0 f0 bb 05 c3 8d 3b 2d 1e fa 3b 31 a0 d4 bb
       -0.0073490706 0.0043262267 0.0076329918 -0.006488823
0000b0 bc ed a4 3b 52 56 2b 3a fb 6e 52 3a 5b ee 9f 3b
       0.005033223 0.0006535995 0.00080274016 0.004880709
0000c0 48 47 8f 3b 34 80 0a 3c aa 3e 5a 3c 40 94 4b bc
       0.004372511 0.008453418 0.013320604 -0.012425482
0000d0 7e bb 28 bc fd c3 c0 3b 5e fc 1e bc 12 37 82 3b
       -0.010298608 0.0058827386 -0.009703724 0.00397385
0000e0 60 e4 23 bc 47 b0 ff bb b4 3b aa 3b 2e f4 e8 3b
       -0.010003179 -0.0078029963 0.0051951054 0.0071091866
0000f0 da 99 36 bc 64 66 f4 3b c1 13 d2 3b 4a bf 04 bc
       -0.0111450795 0.007458495 0.0064110463 -0.0081022475
000100 ca d8 a3 ba 3e 0f 85 3b 25 d9 c3 3b 3b b8 27 bb
       -0.0012500521 0.004060655 0.0059768134 -0.0025591988
000110 d5 a1 5b 3a 2d c5 06 bc fa 02 fe 3b c2 7e 0e bc
       0.0008378302 -0.008225721 0.0077518197 -0.008697214
000120 12 92 2c bb 5f e4 cd ba 42 d5 5a bb c5 7b 76 3b
       -0.0026332182 -0.0015708319 -0.0033391272 0.0037610393
000130 9d 6b 12 3c 7e ae f1 3b c0 ac 32 bb 1b e0 61 3b
       0.00893679 0.0073755374 -0.0027263612 0.0034465853
000140 26 45 2a bc ba 0c d9 bb 8e d9 1b 3c a1 9f 30 bc
       -0.010392463 -0.0066238316 0.009512318 -0.010780246
000150 50 e4 74 b8 2c eb d5 3b 83 3f 0b 3b 3c e5 68 3b
       -5.8386766e-05 0.006528279 0.0021247573 0.0035537025
000160 fa d2 a2 bb 0a 85 e6 3b a0 99 07 bc 44 80 f3 bb
       -0.004968998 0.0070349025 -0.008276373 -0.007431062
000170 89 d5 aa 3b 4e 81 a0 3b 20 79 94 3b 5f 3a fb 3b
       0.0052134437 0.004898227 0.004531041 0.0076668705
000180 7a f5 1c 3c e2 14 1e 3c 6d c4 f8 ba 78 b8 08 bc
       0.009580011 0.009648534 -0.0018979438 -0.008344762
000190 5f ed ef bb 2f f7 43 bb 6e 69 6f 3b e9 95 79 bb
       -0.007321998 -0.0029901972 0.0036531347 -0.0038083738
0001a0 95 99 0e 3c 5b 63 db bb 0a 55 15 bb b9 fa ea bb
       0.008703609 -0.0066951937 -0.0022786283 -0.0071710018
0001b0 40 28 6b 3c 28 de 9c bb f7 7b cc bb 74 b4 85 bb
       0.014352858 -0.0047872253 -0.0062403637 -0.0040803496
0001c0 21 c2 1b bc fb 66 47 3b 9a d0 ea 3b 0e ab 00 b8
       -0.009506733 0.0030426371 0.0071659805 -3.0676885e-05
0001d0 10 10 f7 bb 18 79 4e 3b 8e 83 f6 3b ae 18 14 3c
       -0.0075397566 0.0031505283 0.0075230068 0.009039087
0001e0 9a 74 b5 ba fc b9 db 3a 47 f8 2d 3c 82 14 1f 3c
       -0.0013843954 0.0016763802 0.010618276 0.009709479
0001f0 2a 49 67 ba 8b 05 35 3b 67 ab 08 3c bb 4c 6c bb
       -0.0008822853 0.0027621712 0.008341647 -0.0036056477

network_body._body_endoder.seq_layers.4.weight f4 [128, 128]
000000 9a 93 74 bd bc ec 04 bc 70 3f 8d bd ab 1e 0d be
       -0.059711076 -0.0081130825 -0.06896865 -0.1378123
000010 62 d6 0b bd c0 ef 48 3d 0d bf 7d be 81 c3 4f bd
       -0.03414 0.04905677 -0.24779911 -0.050723556
000020 c3 c5 30 3e 86 10 18 be 12 cf 74 3d 56 d9 b8 3d
       0.1726294 -0.14850053 0.05976779 0.090258285
000030 e5 75 9d bd 2f 13 b3 3c ae 91 0c bd 97 76 0e 3b
       -0.07688502 0.021859733 -0.03431862 0.0021738166
000040 03 70 a0 3d a7 7e ea 3c 0d 3e 68 be ef 07 14 3e
       0.078338645 0.028624846 -0.2267992 0.14456151
000050 1e 20 1f be d5 44 f3 3d d8 b5 90 3d fc 69 01 39
       -0.15539595 0.11878363 0.07065934 0.00012341881
000060 08 92 dc 3c cd a9 52 bc 73 e1 2b be 6f f4 38 3d
       0.026925102 -0.0128578665 -0.16785221 0.045154985
000070 e4 3f 15 3e 3c cc ac 3b b0 5d 53 bb cb 9e ae 3d
       0.14575154 0.00527337 -0.0032251887 0.08526381
000080 fa 9a 6f 3d 32 bf 66 3d 29 ca 05 be c6 a1 00 b9
       0.058497407 0.05633468 -0.13065399 -0.00012267297
000090 fc ee 24 3d 84 ad 4a 3d b4 93 bc bd a5 56 04 3e
       0.040266976 0.049481884 -0.0920786 0.12923677
0000a0 7d af 08 bc 5d be c9 bd c7 b0 6e ba a3 98 72 bc
       -0.008342621 -0.09850762 -0.00091053214 -0.014806899
0000b0 b7 ac ba 3c 9a 0d 26 3d d6 60 09 be 37 d9 f9 bd
       0.022787435 0.040540315 -0.13415846 -0.121996336
0000c0 27 21 e2 3d ba b8 64 bd 7c 14 b8 3d 10 87 29 3d
       0.110414796 -0.05584023 0.08988282 0.04138857
0000d0 55 99 24 bd a1 e6 42 3d 1c 8e be bd 42 27 25 3e
       -0.04018529 0.047583226 -0.09304449 0.16128257
0000e0 2b 38 2c be 1a ee 15 3e b0 fb 70 be ee 01 e0 3d
       -0.16818301 0.1464161 -0.23533511 0.10937868
0000f0 b7 66 32 be d2 cc 96 3b e5 fe 85 3c f1 c3 83 3d
       -0.17421995 0.004602053 0.016356895 0.06433857
000100 38 b9 af bd 85 09 11 be 13 19 3c bd ae b7 be bb
       -0.085802495 -0.14163788 -0.04592235 -0.005820236
000110 74 85 43 bd e7 90 37 3c 6b a1 e9 bd ed 53 18 be
       -0.047734693 0.011203981 -0.11407741 -0.14875765
000120 0e 46 e9 3c 61 55 40 3d f9 37 f5 3c 09 03 32 be
       0.028475787 0.046956424 0.029933916 -0.1738397
000130 eb 6d f0 bd 3b 64 36 bd a6 15 91 bd dd 79 31 3d
       -0.11739715 -0.04452918 -0.07084207 0.04332911
000140 f0 f3 68 bd 34 81 8b 3c 06 e2 3f 3c 98 d8 1c 3e
       -0.056873262 0.017029382 0.011711603 0.15316999
000150 01 19 07 bd b4 57 a5 bd cc 1d f4 3c 16 67 b4 bd
       -0.03298283 -0.08073369 0.029799365 -0.088087246
000160 28 87 ed 3d 80 2c 98 3d f2 1f 1c bd c9 70 62 bc
       0.11598045 0.07430363 -0.038116403 -0.013820835
000170 e9 8c cc bd fb 6e 08 3e bb b9 bf 3d 92 ce 8d 3c
       -0.09987814 0.13323586 0.09361597 0.017310414
000180 24 c8 42 3e 99 90 0d 3e 6d 41 59 bd c0 8c 43 3d
       0.1902166 0.13824691 -0.05304091 0.04774165
000190 0f 4b 87 bc 83 e4 89 3c 5f a6 9d bc 75 95 d3 bd
       -0.016515283 0.016832596 -0.019244371 -0.10331241
0001a0 83 65 fa 38 0a bb 13 3e 95 95 1a bd b1 84 f8 bc
       0.00011939837 0.14426818 -0.03774031 -0.03033671
0001b0 e9 9b 6f bd 5b d0 94 3c 9c 42 48 be a3 15 18 3e
       -0.058498297 0.018165758 -0.1955666 0.14852004
0001c0 bb 9c 2d 3e 3a 09 89 bd 8f 57 33 3e 81 19 78 3d
       0.16954319 -0.06691213 0.1751387 0.060571197
0001d0 e0 3d 81 3d 72 c5 e0 bc d1 61 5d 3d fa 2f 21 be
       0.0631063 -0.0274379 0.054048363 -0.15740958
0001e0 a3 ab 12 bd 90 4c b0 bd 63 c0 12 bd d9 43 a5 bc
       -0.035808217 -0.08608353 -0.035828006 -0.020173954
0001f0 07 bb 0f 3e e5 90 37 bd ed 33 fd bd 03 de a1 bd
       0.14036189 -0.044815917 -0.1236342 -0.079036735
000200 b9 6a af 3b 07 35 b1 bc 72 d6 ee 3b bb fe d1 3d
       0.0053532985 -0.02163173 0.0072887475 0.10253664
000210 9d 0a 36 bd 62 21 0c bd 2f 51 0c 3e ed 3a a3 3d
       -0.044443715 -0.034211524 0.13702844 0.079702236
000220 39 c5 73 bc 18 c2 cc bd f3 23 da 3d 23 32 e9 bd
       -0.0148785645 -0.09997958 0.10651388 -0.11386516
000230 0c 56 6f 3d bc 5e 69 bd c9 c6 42 3c 07 28 4b be
       0.05843167 -0.05697511 0.011888214 -0.19839488
000240 40 35 91 3d 55 c8 d0 3d ef 9d 0f 3d 4b b5 56 3d
       0.07090235 0.1019446 0.035062727 0.05241899
000250 0f 09 3a bd 18 3c 3c bc b7 f9 81 bd 5f b9 83 bb
       -0.045418795 -0.011488937 -0.063464575 -0.0040199007
000260 90 24 98 bd 87 b5 48 3d 48 b2 30 bc 4f e6 25 3e
       -0.07428849 0.049001243 -0.010784693 0.16201137
000270 82 78 87 3d 49 89 01 bd cf f2 68 bd 45 f2 17 be
       0.06614782 -0.031625066 -0.056872185 -0.14838512
000280 da 4f 01 bd 34 e3 e6 bc 8a ba 12 be b6 bb b8 3d
       -0.031570293 -0.02818451 -0.14328972 0.09020178
000290 41 0e 8a 3d 68 66 f0 3c 99 53 56 3d 66 bb ba 3d
       0.06741 0.029345706 0.05232582 0.09117775
0002a0 7a 70 f9 bd 87 1f 01 3e 75 af 88 3d e7 6d b8 bc
       -0.12179656 0.12609683 0.06674091 -0.022513343
0002b0 bf d7 b6 3d 13 46 99 bd f0 d8 aa bc d8 23 62 3d
       0.08927869 -0.07484069 -0.020855397 0.055209965
0002c0 d9 31 53 3d 7f 96 f6 3c 96 ae d9 3d d1 6f 91 3c
       0.05156121 0.030101059 0.10629003 0.017753514
0002d0 9c d4 b2 bd 94 b5 af 3d 10 3c cc bd e9 af 70 3e
       -0.08731958 0.08579555 -0.099723935 0.23504604
0002e0 2e 40 0c 3d 94 64 6a bd 58 cf 53 3d a8 b2 57 bd
       0.034240894 -0.057224825 0.05171141 -0.052660614
0002f0 08 4c f0 3c 2f 18 a2 3e 73 3e a8 bc 63 03 10 be
       0.02933313 0.31659076 -0.02053759 -0.14063792
000300 85 c9 72 bd 8e 54 01 be 4d cf 4f 3d 1a dd 5f 3c
       -0.059274215 -0.12629911 0.050734807 0.013663555
000310 7a eb ab bb f0 af 2f 3b 03 d7 90 bc cc ed c6 bd
       -0.005246577 0.0026807748 -0.01768065 -0.09713325
000320 96 15 01 be 0f 21 71 bd 4f c1 c9 bd 5f 25 e5 bd
       -0.1260589 -0.058869418 -0.09851324 -0.111887686
000330 d5 f5 d0 bc 42 6f a2 3d 97 ef 47 bc ae 5e 81 3c
       -0.025507847 0.07931377 -0.012203119 0.015792217
000340 9c 82 a7 3d 72 df 8e 3b d6 a4 a1 3d b6 8d 1a 3d
       0.08179209 0.004360133 0.07892768 0.037732802
000350 a6 55 19 3c 62 4d 4e 3d ab da bf bd bc 2d 97 3b
       0.009358799 0.050366767 -0.093678795 0.0046136063
000360 66 89 d4 3d af 98 5a 3c d4 d9 a6 bd 24 8e 93 bc
       0.10377769 0.013342067 -0.08147016 -0.018012114
000370 fd d4 8c bc 7b 7f c3 3d b6 fa 9a bd 3c 74 21 bc
       -0.017191404 0.09545799 -0.075673506 -0.009854373
000380 cc bb bd 3d eb af b1 3b 4d 14 17 3d 27 50 f7 3d
       0.09264335 0.0054225824 0.036884595 0.12075835
000390 fa c1 08 3b 67 01 00 bd 20 f0 a9 bd 67 d1 0d be
       0.0020867572 -0.031251337 -0.08297753 -0.13849412
0003a0 1c 8f f7 3d ac 9f 86 3d 6c 9c 48 3e 94 65 db bd
       0.12087843 0.06573424 0.1959092 -0.10712734
0003b0 5d 18 09 3e 9e e0 93 bd f7 c0 37 3b 5d 85 0b be
       0.133882 -0.07220577 0.00280386 -0.13625093
0003c0 e8 4c 9d bd c7 4e bb 3b 9d 0e 64 3d 8a 20 83 3c
       -0.07680684 0.005716178 0.055678 0.016006727
0003d0 5d a1 44 be b3 34 3b bd 64 c1 84 3d ca 55 1d bb
       -0.1920218 -0.045704555 0.06482199 -0.0024007433
0003e0 f6 50 60 3d af 81 86 bc 17 0a ee bc 67 52 8b bd
       0.05476471 -0.01641926 -0.029057546 -0.068028264
0003f0 77 3a d2 3d 50 c8 8f bc d4 19 c8 3b 59 c4 ed bd
       0.102650575 -0.017551571 0.0061065946 -0.11609716

network_body._body_endoder.seq_layers.4.bias f4 [128]
000000 3c 65 2f ba cc 68 28 3c 86 09 5c bb ce 4e c0 3b
       -0.00066908053 0.010278892 -0.0033575012 0.0058687693
000010 09 f3 0b bc ed 67 0f 3b 07 7f 22 bb 0f c8 15 3b
       -0.008541831 0.0021882013 -0.0024794952 0.002285484
000020 6f da 05 3c ee 9e d1 bb c6 0c 53 3b 27 07 e5 3b
       0.008169754 -0.0063971197 0.0032203658 0.006989378
000030 18 6d 62 bb f5 d5 bf 3b b6 41 10 3c e7 50 72 3b
       -0.0034549888 0.005854363 0.008804729 0.003697449
000040 34 fe 19 3a 7c 08 92 ba 8d a7 9e 3b 0d cb ba bb
       0.0005874366 -0.0011141445 0.004841751 -0.005700475
000050 fd 8c 05 3c 01 bb 2f 3c b8 f2 36 3c c6 c8 17 bb
       0.00815129 0.010725738 0.011166267 -0.0023160442
000060 bd a2 0a 3c ed a9 2c bc d2 2c b2 ba 64 be fb bb
       0.008461651 -0.01053856 -0.001359368 -0.0076826084
000070 44 18 39 3b 17 8a c7 3a 25 76 1e 3c 68 b1 28 bc
       0.0028243223 0.0015223649 0.009671723 -0.010296203
000080 42 7f 70 bb b8 c5 81 ba ab 65 90 bb 5e 11 97 3a
       -0.0036696945 -0.0009900844 -0.004406651 0.0011525562
000090 3c 5e 4e bb 74 c7 5f 3b fc 3f 29 3c 6b 3b 37 bc
       -0.0031489274 0.0034145983 0.0103301965 -0.0111836
0000a0 d5 46 5a bb 8f 84 2d bc 8f 02 fd bb 39 9e 20 3c
       -0.003330638 -0.010590686 -0.0077212523 0.009803348
0000b0 b6 3f d9 3b 7c 8c 19 bc b0 e0 0e 3c 39 50 49 b8
       0.0066299094 -0.009371873 0.008720562 -4.7996848e-05
0000c0 a0 df d3 bb db be 19 3c 3c 68 ba ba 04 0d c8 3b
       -0.006465867 0.009383882 -0.0014221738 0.006105067
0000d0 2a 3f 23 3c c2 92 fb bb 4b dc fd bb 4f 8b 3b bc
       0.00996379 -0.007677407 -0.0077472082 -0.011446788
0000e0 12 ac 08 ba 5d 04 18 bc d4 06 d2 b9 be 8d 1b 3c
       -0.0005213629 -0.009278384 -0.0004005941 0.009494243
0000f0 92 27 9a bb aa 66 a6 3b 90 55 f9 bb b5 f2 6f bb
       -0.004704424 0.0050781565 -0.007609077 -0.003661317
000100 50 06 f3 3b 29 94 46 3b 54 f0 ab 3b 10 bd d8 bb
       0.007416524 0.0030300713 0.005247155 -0.006614335
000110 03 2a be bb b0 89 1e 3c 0a 18 96 bb 25 2a 4c 3b
       -0.005803348 0.009676382 -0.0045805024 0.003115305
000120 08 a7 04 3c 45 46 98 bb c9 01 93 3b c2 12 90 3a
       0.008096464 -0.0046470487 0.004486297 0.0010991918
000130 fd c0 d1 bb 89 f2 6e bb 82 d5 7b ba f1 9c 25 bc
       -0.00640118 -0.003646048 -0.0009606705 -0.0101082185
000140 9e 83 06 3c 4e 91 25 bc 71 01 b6 bb 55 40 c2 3a
       0.008210091 -0.010105444 -0.005554371 0.0014820198
000150 f2 d1 6d 3a 79 13 ca 3b 03 a8 6e 3b ea 7f 68 3b
       0.0009072117 0.006166872 0.003641606 0.0035476633
000160 61 22 b2 3b c2 4c 18 bb e4 3f 2e ba 44 0c 16 bb
       0.005436227 -0.002323911 -0.00066470937 -0.0022895494
000170 d2 e1 c1 bb af 40 20 3b e8 e5 98 3b f5 5a b8 bb
       -0.0059168125 0.0024452617 0.004666079 -0.0056260773
000180 ff b9 2f 3c da 98 1a 3c fb 09 00 3c d7 3c 3f 3c
       0.010725497 0.009435857 0.0078148795 0.01167222
000190 2a 08 75 3a ed b9 ad 3b c5 35 19 3b d8 ac 1f bc
       0.0009347225 0.005301705 0.0023377996 -0.009745799
0001a0 95 7d 84 3b 55 28 dd 3b 9c 00 34 bc 06 4a 17 bb
       0.004043291 0.0067491927 -0.010986473 -0.0023084893
0001b0 ce fe 0c 3c 7b 2f 41 3b 5d 62 c8 bb 32 60 32 bc
       0.008605672 0.0029477763 -0.0061152414 -0.010887193
0001c0 d4 c6 2f 3c 32 86 00 bc 4b 52 a3 3b aa e4 0e bb
       0.010728557 -0.007844495 0.0049841753 -0.0021803775
0001d0 fe 0d e6 bb b1 56 e5 bb fd c1 03 3c 23 44 06 3c
       -0.007020711 -0.00699886 0.008041856 0.008194956
0001e0 a4 86 a7 bb a9 cd 0a bb de b3 1a bc 06 6f 5a bb
       -0.005112486 -0.0021179712 -0.009442298 -0.0033330335
0001f0 3a 8f a6 3b 5d 00 02 3c 6e 41 c5 3b 0b 10 49 bb
       0.005082992 0.007934657 0.0060197627 -0.0030679728

action_model._continuous_distribution.log_sigma f4 [1, 4]
000000 ae f5 9c bb 3e 13 84 3c 2f 83 06 3c 3c 2f 11 bb
       -0.0047900295 0.016122457 0.008209988 -0.0022153398

action_model._continuous_distribution.mu.weight f4 [4, 128]
000000 1b 2f 33 ba 1d ab 51 bd d0 f5 c2 3c dd d5 87 bc
       -0.00068353274 -0.051188577 0.023798853 -0.01658147
000010 b5 9e ab 3d 46 37 1b bc 7d f4 85 3c fc 08 92 3c
       0.0837988 -0.009473627 0.016351933 0.01782655
000020 82 36 e8 bc a1 0c be 3c 3d 55 86 bc fe 64 d2 bc
       -0.028346304 0.023199381 -0.016398067 -0.025682922
000030 f9 2e 7f bb ab 98 5b bb dd 4f 25 bd 8b 4c f4 bb
       -0.003893791 -0.0033507745 -0.040359367 -0.0074554137
000040 7c ab 0d bc 19 d9 93 bb a1 d5 7a 39 6f 50 03 3c
       -0.008646842 -0.004511964 0.00023921441 0.008014782
000050 e2 12 da bc af 42 1d bd f1 68 18 bd b1 07 70 3c
       -0.026620332 -0.038393673 -0.037209455 0.014650271
000060 85 6f 00 bc 0f ab 60 3c 08 89 eb bb 7f c0 78 3c
       -0.007839088 0.013712659 -0.0071879663 0.015182613
000070 a6 f8 04 3c 60 a1 90 3c 94 75 3d bd 84 55 81 3c
       0.008115923 0.017655075 -0.04625471 0.015787847
000080 8b a5 23 3c 13 9a 98 ba cb d4 8a 3c 52 d3 b7 3c
       0.009988199 -0.0011642597 0.01694717 0.022439633
000090 e2 70 23 3c d0 de 67 bc 39 d6 f8 bc 64 02 f5 3c
       0.009975644 -0.014152244 -0.030375587 0.029908367
0000a0 40 1e 94 bb 01 38 fd 3c 6d 75 eb 3c bf 5f 89 bc
       -0.0045202076 0.030910494 0.028742516 -0.016769288
0000b0 a2 f7 de bc 74 ba fd 3b 31 6e 23 bd 72 4e 41 3b
       -0.02721769 0.007743174 -0.03990001 0.002949622
0000c0 46 94 70 3c 8c 10 bd bb dc a5 b0 3c 5c c9 cb bc
       0.014683789 -0.005769795 0.021563463 -0.02487629
0000d0 dc a1 33 bd 91 11 d3 3c 8f 5c 24 3d 0a cb 94 3c
       -0.043855533 0.025765212 0.040127333 0.018163223
0000e0 a2 28 c4 3a 71 54 45 3c b1 08 6f 3c 1d 50 4b bd
       0.0014965723 0.012044058 0.014589475 -0.04963695
0000f0 9a 40 87 3c 48 4b 94 bc 33 cf 1d 3c f3 4e 8c 3c
       0.016510297 -0.018102303 0.00963192 0.01712749
000100 89 1d 11 bd 05 9c 88 bc bb 19 fd bc 89 4a 0b 3d
       -0.035428558 -0.016675958 -0.030896058 0.03400663
000110 42 9c 56 3c d7 9f 04 bd a9 58 d7 3b c8 0a 32 3c
       0.013098778 -0.032378998 0.0065718484 0.010866828
000120 fb 21 81 bc 83 53 37 3c c2 f1 dd bc 2e 58 d3 3b
       -0.015763273 0.011189344 -0.027092818 0.006449721
000130 33 a1 f1 3c 87 9d 52 3c 59 75 97 3c 21 01 4a 3c
       0.029495811 0.01285494 0.018488573 0.012329371
000140 91 1b 8a bd a5 02 81 3d 01 31 dd 3c b5 90 89 3c
       -0.06743539 0.062993325 0.027000906 0.016792635
000150 fb a1 2d bb 42 4c c5 bc 69 55 3e bb 4c af 77 3c
       -0.0026494253 -0.024084214 -0.0029042608 0.015117478
000160 bd a7 ed bc 54 bf a4 bb 08 23 08 3b bf b2 19 3c
       -0.029010648 -0.005027691 0.0020772833 0.009380995
000170 1d eb c7 3c 55 e1 82 bb 3c 8a 8c bc b2 be d9 3b
       0.024404103 -0.003994147 -0.017155759 0.006645047
000180 d7 76 3f bc 44 01 18 bd c6 79 f5 bc 2f fc 26 bd
       -0.0116860485 -0.037110582 -0.029965293 -0.040767845
000190 28 30 1d 3c 68 51 93 bb 8b 22 38 bc ec 35 1b 3c
       0.009594001 -0.0044957884 -0.011238704 0.009473305
0001a0 34 cf 91 bc 87 5b c6 bc f1 dd 2b 3d 96 9f fc 3b
       -0.017798997 -0.024213566 0.041959707 0.007709454
0001b0 6e 0a 93 bc 92 bf f8 ba 72 04 90 3c e4 f6 c4 3c
       -0.01794931 -0.0018977991 0.017580245 0.024043508
0001c0 04 86 c6 bc 60 17 b2 3c e5 6d 88 bc 25 27 da 3c
       -0.024233826 0.021739662 -0.016653964 0.026629994
0001d0 65 84 39 3d fc c4 2f 3c d7 39 60 bc 53 95 f7 39
       0.045292277 0.010728117 -0.013685665 0.00047222766
0001e0 1d 13 15 3c cd 06 7a 3c 1a 38 2f 3d 65 b2 55 bb
       0.009098795 0.0152604105 0.042778112 -0.0032607552
0001f0 d7 bf 42 bc 43 f2 71 bc 44 2e c5 bc 01 74 ac 3c
       -0.0118865585 -0.014767232 -0.024069913 0.021051409
000200 8a 9e 82 bc cf 22 bd 3c 4f d7 d5 bc 59 4e ec 3c
       -0.015944738 0.023087887 -0.026103644 0.028845953
000210 29 f1 a0 bb f5 c0 ca 3c 28 69 fc 3a 1a dd 00 3c
       -0.004911561 0.024750212 0.0019257413 0.007865215
000220 42 03 33 bc 42 90 49 bd 48 b9 ec 3b 5b 21 fe 3b
       -0.01092607 -0.04920984 0.0072242357 0.007755441
000230 44 e7 74 b9 e0 d6 39 3c b5 9e ef 3b 14 07 a5 3b
       -0.00023355806 0.011342734 0.0073126205 0.005036244
000240 e4 d1 b1 38 de 0a 2c 3c 19 22 b9 3c f1 49 ac bb
       8.479113e-05 0.010500638 0.022599267 -0.005257838
000250 1a 0e 2b 3c f6 1f 3c bb a2 57 ed 3c e1 c7 39 3c
       0.010440374 -0.0028705574 0.02897245 0.011339159
000260 97 0c c4 3c 8f 8f 5c bc dc 11 5c 3c c9 62 b2 3b
       0.023931785 -0.013461961 0.013431992 0.005443905
000270 17 21 ef 3c 27 5f 6d 3c d4 d0 5a 3d 64 a0 79 bc
       0.029190583 0.014488018 0.05342181 -0.015235994
000280 f4 98 c7 bc d2 a0 a6 bb 94 3f 19 3a b5 fc a0 b9
       -0.024364926 -0.0050850892 0.00058459607 -0.0003070586
000290 46 32 ad bc 92 df 96 3c 78 c4 31 3c f3 d7 9b bc
       -0.021142136 0.018417154 0.010850064 -0.019023871
0002a0 71 00 b6 bc f8 cd 49 bc 9c c1 f8 bc 22 4f d5 3c
       -0.022217007 -0.012317173 -0.030365758 0.02603871
0002b0 44 b9 19 3d 55 8e 19 3b 2c 35 0a bc c8 b6 96 3c
       0.0375302 0.0023430784 -0.008435529 0.018397704
0002c0 71 36 8e 3c f9 33 1f 3c 5a e7 af ba 15 8b 53 3b
       0.017359944 0.009716981 -0.0013420389 0.0032278944
0002d0 ba 74 94 3c 99 29 64 bc a9 37 25 3c 88 53 9a bb
       0.018122066 -0.013925933 0.010084071 -0.0047096647
0002e0 1c 78 a2 bc 40 04 44 bb bc 86 8a bc d9 9b d3 bb
       -0.019832663 -0.002990976 -0.01690995 -0.0064577875
0002f0 0e 81 23 bc 3f f4 45 3c 81 07 07 3c 8a 36 fc bc
       -0.0099794995 0.012082159 0.008241535 -0.030787725
000300 cf cf 02 bc 3d f6 26 bd 4d 6b 6b 3b 99 ef 8e 3c
       -0.007984116 -0.040762175 0.003592211 0.017448233
000310 f4 f0 ae 3c e9 f4 f4 3c 53 58 1a bd 28 6a 23 bc
       0.02135513 0.029901939 -0.03768189 -0.00997404
000320 36 fe 11 3c 03 cb 1f bc 0d d3 87 3b bc 9f da 3b
       0.008910706 -0.009752992 0.0041450323 0.006671874
000330 8f 16 81 bb fc 34 53 bd 8d ed 20 3d c9 8f 9d bb
       -0.003939457 -0.0515642 0.039289046 -0.0048084003
000340 df dc cc bb 32 e8 86 bc fb 0f b6 3a ea eb a1 3c
       -0.006251916 -0.016468141 0.0013890261 0.019765813
000350 b5 06 d3 3c aa cf c3 bc f7 29 91 3a 98 b2 d5 3c
       0.025760034 -0.023902733 0.0011075129 0.026086137
000360 82 12 84 3c 11 c7 64 3b 60 76 21 3c 37 0a fe ba
       0.016122106 0.0034908692 0.009854883 -0.0019381706
000370 ec d6 d2 bb 89 43 10 bc ee 84 cf 3c e4 54 de bc
       -0.006434312 -0.008805164 0.02533194 -0.027140088
000380 19 e2 d0 3b dd 98 79 3a 96 11 ed 3b 69 fc d7 3c
       0.006374609 0.00095213746 0.0072347624 0.026365476
000390 f2 f3 15 bc a3 b9 9f 3c e8 bd 8a bc 85 d9 ff ba
       -0.009152399 0.019497698 -0.016936257 -0.0019519782
0003a0 c0 33 27 bd bc e5 b7 3c 69 c4 2f bc d0 a2 71 bc
       -0.040820837 0.022448413 -0.01072798 -0.01474829
0003b0 a6 cd 72 bb 05 85 d5 3b 34 90 ff bc 14 e1 43 bc
       -0.0037048846 0.0065161013 -0.031196691 -0.011955518
0003c0 b1 81 94 3c 00 d9 28 bb 87 5e 70 bc c4 a0 ea 3c
       0.018128248 -0.0025764108 -0.014670975 0.028641112
0003d0 88 95 58 bc 9a 3a 20 3a 2e 85 07 3b 72 32 c0 bb
       -0.013219245 0.0006112248 0.0020678747 -0.0058653885
0003e0 2f da a7 3b 50 4a 18 bc 97 be 0d bc 4b 11 38 3c
       0.005122445 -0.009295061 -0.008651397 0.011234592
0003f0 f2 a0 e9 3c fb b4 96 3b fc 26 44 3b d4 ea 81 3c
       0.028519128 0.0045992113 0.0029930463 0.015859045

action_model._continuous_distribution.mu.bias f4 [4]
000000 b0 70 43 bc 11 bb 8a 3b d9 20 31 3b 3c da e7 ba
       -0.011928722 0.004233726 0.0027027635 -0.001768894
