results/attackshooter/Shooter/Shooter-999302.onnx (onnx, 201499 bytes, 9 tensors)

network_body._body_endoder.seq_layers.0.weight f4 [128, 120]
00000000: 9ef0 99bd ea82 5ebd eda0 1dbe 5d2c 1fbd
00000010: 90e1 053e 9d18 abbc 2ae3 493d 4149 263c
00000020: 4f45 73bb a494 a33d 10d3 9b3d d437 283a
00000030: b0e1 e03d f095 07bb fe39 1cba 5def db3c
00000040: 1e0d 8b3c d888 163d 130d d3bc 6f02 42bc
00000050: 2fb4 91bc cf33 883d 9790 6a3d e8e9 773d
00000060: 73f7 77bd 5bfa b43d 9eda c93d 9443 083e
00000070: 5921 dbbd 3442 43bd 32f7 753d bdc7 e93d
00000080: 5e31 853c 9a60 493c 9124 33bc 6d6a dbbd
00000090: 269d 0a3e 416b f8bd 9fdd 73bd e3e1 9ebd
000000a0: d4ef 90bd 0d09 8fbd f592 b73d b3d0 3dbe
000000b0: b4c6 c33d 4f9a 72bd 6e7a 2c3e 60dc 4b3c
000000c0: 9600 fd3d 50e4 e73d 25aa df3d f2c7 95bd
000000d0: d8d8 aa3b 93a7 1abd 9442 64be 25b9 d03b
000000e0: 28fa 46be 5b24 a13d 43a8 ccbc ce32 ecbd
000000f0: 552a 5b3d a24f 30bd b7ff 86bc 5954 f5bd
00000100: 5ce9 93bc e7e7 923d 0685 83bd 5104 3fbd
00000110: abd0 45bc 4e4b 213e afc6 043c 4de9 84bd
00000120: f4a2 0e3e 8ed6 163e fbf8 91bd 84fb 0b3d
00000130: 5552 93bd 53f4 633d a0e2 a83d 0ba6 d03d
00000140: 9214 a13d c7a5 13bd 3a27 113e a4b7 763d
00000150: 73ba 5b3d db48 d13c 08e0 153e 5a0f b0bd
00000160: 4299 35bd ceaf 393c 7c33 99bc db5b b73a
00000170: 79c9 713e 8dbd f5bb d9f1 223d 5413 6c3e
00000180: 6ce3 5fba a5f8 b5bc d4b4 40bd 435f a3bd
00000190: 3f31 dabd 4179 eebd 6749 0ebd b67c e33d
000001a0: 8a24 313e 1c4d 6e3c aca2 053e 64b2 04be
000001b0: 40be 873d 8c38 b03d 24a2 61bd 9b51 903d
000001c0: 4fcd b93d 5a83 07bd f6a4 e8bc 4afe 6b3d
000001d0: 9348 30be 011a 0c3d c962 e73d 41a3 02be
000001e0: f9f3 68bc 2967 82bd 3620 413d ec62 0c3d
000001f0: 7103 ffbc 20f6 4abe 8072 87bd 214c 8abc
00000200: f769 c93c 6400 aebd 9160 7bbd 1347 b9bd
00000210: ce16 22be cb3f 3dbd ef1b 5bbd c11a 26ba
00000220: 99c7 d23c 4adb 2b3d 6299 13bd a7be 393b
00000230: 097f ebbd a6c4 56be b1d9 0bbe 42bf 6e3d
00000240: 7930 64bc f9d0 203d 4e60 a03d 80dd 923d
00000250: 58ea b23c 07fc a43d dddb 91bc a390 95bd
00000260: b4fc 433e fe7a bebd be9d a7bd 9e03 39bd
00000270: 9a4c a2bd 7e01 843d dcde 10be 7ac4 e7bc
00000280: 92d8 5e3b 7eec 053e 0579 4d3e dcce 30bd
00000290: 02a2 953d 663c ac3d 02a4 103c a7ba 20bd
000002a0: 4325 96bd 8d0c 843d 81de d43d 0b28 37bd
000002b0: d05b 843b 87ff 1e3c aeb6 533d 8e05 c73c
000002c0: 5cf9 aabd f889 0ebc 93e6 ab3b fa6a debd
000002d0: aa21 383c 39e3 583b 3c09 7fbc 6d43 b93d
000002e0: b483 3d3b 1922 5cbd b392 a2bd a518 ef3d
000002f0: 42d9 1d3d 82c1 0f3c 4e3c 00be 8634 133d
00000300: 02a9 03be 68db d63a 9917 d2bd 2d78 07be
00000310: bdaa fcbd ffe1 c4bd 5bff 113d a180 d13d
00000320: 6022 91bd d282 c8bc 76b6 393d 9b38 2ebe
00000330: 5d65 b3bd 66fc 803c 7680 083e e1a8 26bd
00000340: 0620 be3d 3a3f 9f3c 7c50 eb3c 5d4c 44be
00000350: 45fd 363e 4e1c 15bc 4fb2 e93d ea21 92bd
00000360: 4370 21be 4594 b43c 36ff 753d be7c abbd
00000370: dfb9 00be a069 a83d b8ea 2b3e 532b 0bbe
00000380: 1431 0e3e ff3a afbd a3b1 d4bc 3e46 3b3c
00000390: 3e64 c6bd b93f 9bbe eefa e0bd e7e4 8dbd
000003a0: 2e8d 1b3d 8b7c e43d 96e0 1f3d dca1 9d3d
000003b0: 9c29 8fbd 1dc9 c3bd 8904 bbb9 1de9 45bd
000003c0: d769 063e e888 fd3b 901c 30bd f354 8dbc
000003d0: 3536 80bd 063c a5bd 6985 a33d 272e dcbc
000003e0: 0beb d4bd 3125 c43c b771 88bd 746e 01bc
000003f0: 4f64 ab3c 8972 cdbd ba1b ab3b cd8f 47bd
-0.07516597 -0.054324068 -0.1539342 -0.038860667 0.13074327 -0.02088576 0.049288906 0.010149301
-0.0037120169 0.07987335 0.07608616 0.00064170104 0.109805465 -0.0020688735 -0.0005959569 0.026847536
0.016974028 0.036751598 -0.02576307 -0.0118414005 -0.017786114 0.06650507 0.057266798 0.060525805
-0.06053872 0.08836814 0.09856151 0.13307029 -0.1069972 -0.047670558 0.060050197 0.1141505
0.016258892 0.012291098 -0.010934011 -0.107136585 0.1353651 -0.12129832 -0.059537526 -0.07757928
-0.070769936 -0.06984148 0.08963577 -0.18536644 0.09559384 -0.05922919 0.16843578 0.012442678
0.123536274 0.11322844 0.10921124 -0.07313527 0.005213838 -0.037757467 -0.22291023 0.006369727
-0.19431365 0.078682624 -0.024982577 -0.11533128 0.053507168 -0.043044694 -0.016479356 -0.11978979
-0.01805561 0.07173138 -0.064218566 -0.046634976 -0.012073676 0.15751383 0.0081040105 -0.06489811
0.13929349 0.14730284 -0.071275674 0.03417541 -0.07193438 0.055652928 0.0824635 0.1018792
0.078652516 -0.03604677 0.1417512 0.060233727 0.05364461 0.025547436 0.14636242 -0.08596678
-0.04433561 0.011333419 -0.018701307 0.0013989167 0.23612012 -0.007499403 0.039781425 0.23054248
-0.00085406634 -0.02221329 -0.04704745 -0.07977154 -0.10653924 -0.11644221 -0.03473797 0.11107771
0.17299095 0.0145447515 0.13050336 -0.12958676 0.06628084 0.086045355 -0.05508627 0.07046815
0.09072363 -0.03308425 -0.028398972 0.057615556 -0.17215185 0.034204487 0.11298139 -0.12757589
-0.014218324 -0.063673325 0.04714986 0.034274027 -0.03112957 -0.19820452 -0.06613636 -0.016882004
0.02458666 -0.08496168 -0.06137139 -0.090467595 -0.15829012 -0.046203416 -0.053493436 -0.0006336384
0.025729941 0.041957177 -0.03603495 0.0028342397 -0.114988394 -0.20973453 -0.13657261 0.058287866
-0.013927572 0.03926179 0.07830869 0.07171154 0.02184026 0.08055883 -0.017805034 -0.07302978
0.19139367 -0.09300803 -0.08184384 -0.045169465 -0.07924767 0.06445597 -0.14147514 -0.02829193
0.0034003598 0.13078496 0.20065697 -0.043166026 0.07306291 0.084099576 0.008828165 -0.039240506
-0.07331326 0.06447706 0.10394002 -0.044715922 0.004039265 0.009704477 0.05168789 0.02429464
-0.08348343 -0.0086998865 0.0052459924 -0.10860248 0.011238495 0.003309442 -0.0155661665 0.090460636
0.0028917613 -0.053743456 -0.07938137 0.116746224 0.03853727 0.008774163 -0.12523004 0.035938762
-0.1285744 0.0016392292 -0.10258407 -0.13229437 -0.12337253 -0.09613418 0.035643917 0.10229612
-0.07086635 -0.024476442 0.045340024 -0.17013781 -0.08759568 0.015745353 0.13330254 -0.0406884
0.09283452 0.019439328 0.028724901 -0.19169755 0.17870052 -0.009100987 0.11410963 -0.07135375
-0.1576548 0.022043357 0.06005784 -0.08373402 -0.12570904 0.08223271 0.16788757 -0.13590746
0.1388591 -0.085561745 -0.02596361 0.011430321 -0.096870884 -0.30322054 -0.10985361 -0.06928425
0.037976436 0.11156567 0.03903254 0.07696888 -0.06990358 -0.09559844 -0.00035670798 -0.048318017
0.13126312 0.0077372678 -0.04299599 -0.017252421 -0.06260339 -0.08068089 0.0798443 -0.026877476
-0.103963934 0.023943515 -0.066623144 -0.007899869 0.020921854 -0.100316115 0.005221811 -0.048721123

network_body._body_endoder.seq_layers.0.bias f4 [128]
00000000: fe28 7c3a 7736 23bc d1b5 f93a 0c17 9a3c
00000010: 51f0 723c e91c 40bc fed1 673c f460 93bc
00000020: 1d70 7a3b d6f2 bc3c e517 4fbb 0885 1d3c
00000030: 5a00 39bc af52 913a fb83 8fbb 5070 0a3b
00000040: 246d 193c 1907 55bc c8c1 363c 7450 523c
00000050: b621 50b9 0ce3 6d3b 2ca6 3f3c a2fa 673c
00000060: 2880 0d3c 9d84 1c3b d423 983c 8c5f c93b
00000070: c884 cd3b 4512 79ba e34d 823b 7ccb ff3b
00000080: f57c 2c3c 553d 893b afba 693c ca06 283c
00000090: 2ffe ad3c be58 813c ad8c 533b 6474 0dbc
000000a0: 3c80 7dbb 26e5 75bb 48ff 3d3c 2e7f 72bc
000000b0: e97d 703c a848 b43b ee6c 853c de8a 123c
000000c0: dd34 2f3b b796 a8bc 0cba 673b d211 653c
000000d0: 4aa4 8f3b e331 9b3c f828 8f3b a20b aa3b
000000e0: 9ab8 483c 840c 05bc d25b 053c 5a73 aa3b
000000f0: 3ed9 413a 81ad 33ba 2681 8ebb c80a de3b
00000100: cf2b 443b 41c4 f73b 3335 2dbb 7419 e23b
00000110: 46f2 203c 3185 0c3b 614e 81ba 26b5 ad3a
00000120: 43a3 863b e7e7 963c ee36 023c 11e5 963c
00000130: 4f80 433b 5490 383c 6ce3 b03a 3753 0a3b
00000140: d397 a73b aadf f13a 0bb3 97bc 4bc0 0e3c
00000150: 7e08 863b 9881 5bbb 45a8 82bb d253 553c
00000160: 6802 b23a 19d4 09bb ed32 123c 7f0d 243c
00000170: a42a a33b 5618 443a 8686 0e3c 536a ad3b
00000180: d8c6 d73b fb0b 483d 39fc c5bb c64a 5cbc
00000190: 4eb5 39bc 57a0 ff39 6f01 813b 8117 283c
000001a0: 6488 e23a 10cf b03b 2bf8 7aba f57f 233c
000001b0: fb02 2a3c 2947 ecbb 3936 913c 0211 c93c
000001c0: b778 d93a 591d 6f3c 2e12 503b 78c1 783a
000001d0: dabf 3d3c 0f11 543c 96f9 443c df73 fabb
000001e0: 0cf3 673b 4fc5 8bbb 2225 e83b 2ed5 483c
000001f0: 91df 823c 4260 793b 01aa ecba de41 113c
0.00096191454 -0.009961716 0.0019051378 0.018809818 0.014827804 -0.011725643 0.014149187 -0.017990567
0.0038213797 0.023065012 -0.0031599936 0.009614237 -0.011291588 0.0011087264 -0.004379747 0.0021124072
0.0093644 -0.0130021805 0.0111545995 0.012836564 -0.00019848984 0.003629866 0.011697333 0.014158877
0.008636512 0.0023882755 0.018571772 0.0061454233 0.0062719323 -0.00095013186 0.00397657 0.0078062396
0.010527839 0.0041882196 0.0142657 0.010255525 0.021239368 0.015789386 0.0032279894 -0.008633707
-0.003868117 -0.0037520616 0.011596508 -0.01480083 0.014678457 0.0055018254 0.016287293 0.008944241
0.002673439 -0.020579679 0.0035358695 0.0139812995 0.0043835985 0.018944686 0.0043688975 0.005189375
0.012251044 -0.00812066 0.008139567 0.0052017393 0.00073947373 -0.0006854162 -0.004348892 0.0067761876
0.0029933339 0.007561237 -0.0026429414 0.006900007 0.0098233875 0.0021441693 -0.0009865278 0.0013252839
0.004108818 0.018421127 0.007947667 0.018419774 0.0029831117 0.011264879 0.0013495511 0.0021106729
0.0051145344 0.0018453498 -0.018517992 0.008712838 0.004090368 -0.0033493992 -0.0039873444 0.013020473
0.0013581039 -0.002103096 0.008923274 0.010012983 0.0049794484 0.0007480433 0.008699065 0.005292216
0.0065849833 0.04883955 -0.00604203 -0.013445562 -0.01133473 0.00048756853 0.0039369385 0.01025951
0.0017283079 0.0053957775 -0.0009573723 0.009979238 0.010376687 -0.0072106314 0.01772605 0.024544243
0.0016591762 0.014594399 0.0031749117 0.00094892783 0.0115813855 0.01294352 0.012022397 -0.0076432074
0.003539267 -0.0042654644 0.0070845047 0.012257857 0.015975745 0.003805176 -0.0018056036 0.008865802

network_body._body_endoder.seq_layers.2.weight f4 [128, 128]
00000000: 5f9a 443e 1fb3 8e3d bd39 153e 7b72 c53c
00000010: 549b 42bd a146 c33d 3584 44bd a24f b33d
00000020: 28a9 003c c2c3 dabd 1593 e5bd 2c19 8abd
00000030: 1974 0dbe 631f 84bd ab03 9d3d a5fb 173e
00000040: 5d06 ae3d 54de 3bbe 2184 943d c114 a1bd
00000050: 927b 40be 59c9 efbd f10d c9bd 5869 d1bd
00000060: a75b 17be 702c 67bd e384 103d 4f3d 723b
00000070: 17f8 abbd 511f e0bd 348e b3bb 32cf d53d
00000080: 51d3 dabd f8d5 4e3e 3957 e23d f362 65bc
00000090: eea5 4abe 34c4 30bd 1f04 863e 8c65 6f3c
000000a0: d296 74bd 055f dabd 47c6 74bc 5da9 6c3d
000000b0: 5cac 9d3d 377c 4dbe 55bc 5cbd 154f f73d
000000c0: 1431 81bd 8a52 68bd 39fb 8ebc b94f 623d
000000d0: 35b8 0a3b de42 4ebd 5e9f 1a3d 5ad0 b13d
000000e0: a726 a4bd 32af 02bc 101d 283d 3ae1 8bbd
000000f0: c84d 3a3c efe0 83bc b794 ffbd 213e 973d
00000100: 33d5 053e 6f62 74be b910 123d c6f4 3f3d
00000110: 4dd3 b5bd 2e75 743c 599d 3ebd bca3 373e
00000120: 2bb1 813e 3c33 af3d 489e b23c 6ca5 403d
00000130: 4e67 77bd 03a5 cebd f9dc 083c a0b5 4a3d
00000140: 4449 ddbd 6946 c33d 9f01 2bbd 0684 a63d
00000150: 67dc 2d3e 06f2 e03d cb8e 50bd 6fb5 513e
00000160: 7655 233e 8813 dfbd d96b 68bd a1fb 173e
00000170: 707d 7fbc 1135 0b3e 1474 04be 7f63 4f3b
00000180: e544 97be 309c bdbd f18d 86bd 0f03 603d
00000190: 204b 37bd 69ff c8bd 804a 023e 16a4 403d
000001a0: 1818 0fbc 6369 dbbd 7684 5dbc 580c ccbd
000001b0: bbc7 b6bd d0e2 ec3c 2eea 1abd effd e8bd
000001c0: f0ac 56be 600f a7bc 310f 84bc c10a 493c
000001d0: c6b7 163b a07e 3b3d d897 473e 8721 0fbd
000001e0: 1bc1 fa3d d645 19be 10df e73b 2990 ab3d
000001f0: 994f c8bd d889 a2bc a83a 05ba f31b 913b
00000200: 0778 963d 5e9c ec3c fbdc 883d 99b3 78bc
00000210: 2f3a 89bd 4306 6e3d c1fe 47b9 d7bb a63d
00000220: 7bc8 85bd df05 603b bb79 80bd c507 61bd
00000230: acb7 80bc c564 433e a88d bbbd 1194 a83d
00000240: f461 06be 1fc4 a6bb 2e7a 223d caf9 903d
00000250: 1e7d 0e3e 3af7 f03d 8325 e5bd 3033 ecbd
00000260: 3169 033d fc1e 003e 1c85 973d b82d 3fbb
00000270: 58f8 bf3d a52d ea3c 5fed 82bc 3b27 01bd
00000280: 6d3c e1bd 9d6f 223d 4c43 05be 8d60 983d
00000290: 442e 1d3b 9d08 83be c50f b13d f82f f9bd
000002a0: d10d 4a3c 79bd 4bbd ff2b e8bc 9925 d23d
000002b0: 7338 dbbd 5c04 133d e589 b73c 8a65 893d
000002c0: 5c92 93bd b343 7f3c 5f1b 763c 709c 7e3d
000002d0: 33f5 96bc 987b 96bb 2506 5b3b cd62 02be
000002e0: 66ba c73d 3008 17bc a188 a13c 5095 a13b
000002f0: fa70 883c aa7a b7bd b045 51bd 4e1b 52bd
00000300: 070f 8a3d 652b 18bd 8189 e03d 7a6e c93d
00000310: 447a 3d3d 4748 95bc f0dc ccbb 9329 1abe
00000320: 1332 dcbc 93db 6fbc 0077 033d 813f d93d
00000330: f7e3 2c3d f32b fdbc 3466 063e ed77 c03c
00000340: b84e 2e3d d489 0c3e 3fc7 1a3d 4c66 cabd
00000350: 4d40 84bd 8fa8 84bd 7720 3bbc eb83 5a3d
00000360: b035 8fbe 1353 80bc bc03 223d 70de 0fbd
00000370: 2b7b f6bc ca7e 07be 90f2 3bbd 0e6f cb3d
00000380: 7902 443e ad88 a63d aa0c 3cbd 5c92 2d3e
00000390: 5dae c73c a863 38bd 8715 4fbd a350 b33d
000003a0: 8677 04bd aa64 c9bd afa3 713c 809c 043e
000003b0: ff3c a53d 9e03 c0bc c179 cf3b 5cba ee3d
000003c0: cb0c bc3d 4e36 babc 20e1 82bd 30de 253e
000003d0: cc38 1dbd 5988 913d 741a 11be 22f7 0dbe
000003e0: 4ec3 783c b468 0f3e fded 0a3e 414d 293e
000003f0: 1531 cbbc dd4e 163c 76ea 1cbe 3e46 be3d
0.19199513 0.069677584 0.14572807 0.02410244 -0.047511414 0.09534956 -0.047977645 0.08755423
0.00785283 -0.10681869 -0.11209694 -0.067430824 -0.13813819 -0.06451299 0.07666715 0.14842089
0.084973074 -0.1834653 0.07251764 -0.078652866 -0.18797138 -0.11708326 -0.09817112 -0.10225171
-0.14781056 -0.056438863 0.03528298 0.0036962812 -0.08396929 -0.10943473 -0.0054795984 0.1043991
-0.10684837 0.2019881 0.11051793 -0.014000642 -0.1978986 -0.043155864 0.2617502 0.014611613
-0.059714146 -0.10662655 -0.014939851 0.057778705 0.076988906 -0.20066915 -0.053890545 0.120756306
-0.06308189 -0.05671934 -0.017453777 0.05525181 0.0021166925 -0.05035674 0.03774964 0.08682318
-0.08015185 -0.00797634 0.04104334 -0.06830068 0.011371084 -0.016098468 -0.12479537 0.07384897
0.1306961 -0.23865674 0.03566048 0.046864294 -0.08878193 0.014920516 -0.046536777 0.17933553
0.2533048 0.08554694 0.02180399 0.04703276 -0.060401253 -0.10090067 0.008353465 0.049489617
-0.1080499 0.09534914 -0.041749593 0.0813065 0.16978608 0.10983662 -0.050917428 0.20479368
0.1595057 -0.10892397 -0.056743477 0.14842083 -0.0155938715 0.13594462 -0.12934905 0.0031644998
-0.2954475 -0.09258306 -0.06570042 0.054690417 -0.04474938 -0.098143406 0.12723732 0.047031485
-0.008733772 -0.1071346 -0.013520351 -0.09963292 -0.08924814 0.028916746 -0.037820987 -0.11376559
-0.20964408 -0.020393074 -0.016120525 0.01227063 0.002299772 0.045775056 0.19491518 -0.034944084
0.12243863 -0.14968047 0.0070761517 0.08377106 -0.09780807 -0.01984112 -0.0005082288 0.0044283806
0.07347112 0.028883155 0.06682774 -0.015179538 -0.06700551 0.05811144 -0.00019073022 0.08141296
-0.06532379 0.0034183187 -0.06273218 -0.05493905 -0.015712582 0.1908141 -0.09157878 0.082313664
-0.13123304 -0.0050892974 0.0396673 0.070788935 0.13914916 0.11765905 -0.111887954 -0.11533201
0.03208274 0.1251182 0.073984355 -0.0029171538 0.0937354 0.028586218 -0.015982328 -0.031531554
-0.109978534 0.039657224 -0.13013953 0.074402906 0.0023983875 -0.2559251 0.08645586 -0.121673524
0.012332396 -0.049741242 -0.028341291 0.102610774 -0.10704126 0.03589283 0.02240462 0.0670882
-0.0720565 0.015580106 0.015021174 0.06216091 -0.018427467 -0.0045923702 0.003342041 -0.12733002
0.097523496 -0.009218261 0.01971847 0.0049311295 0.016655434 -0.08958943 -0.05109185 -0.05129557
0.067411475 -0.03715076 0.10963727 0.09835525 0.04625918 -0.018222941 -0.0062519237 -0.15054922
-0.026879346 -0.014639753 0.03209591 0.106078155 0.04220959 -0.030904746 0.13124925 0.023494685
0.04255554 0.13724452 0.037787672 -0.09882793 -0.06457577 -0.064774625 -0.011421314 0.053348463
-0.27970648 -0.015664613 0.039554343 -0.035124242 -0.030088028 -0.1323196 -0.045885623 0.099332914
0.19141568 0.081315376 -0.045910515 0.16950363 0.024375135 -0.045016915 -0.05055764 0.087556146
-0.03234055 -0.09833653 0.014748498 0.12950325 0.08068275 -0.023439225 0.006331653 0.11656639
0.091821276 -0.022730973 -0.063905954 0.16198039 -0.038384244 0.071060844 -0.14170247 -0.13863805
0.015183283 0.14004785 0.13567348 0.16533376 -0.024803678 0.009174076 -0.15323815 0.092907414

network_body._body_endoder.seq_layers.2.bias f4 [128]
00000000: 40f7 67b8 c76c e2bb 7008 d13b 006e e1bb
00000010: d8c0 0bbc d06f 2e3c 8e21 f73b 8041 663c
00000020: e1a3 9cbb 5f65 553c b181 e73b 695b 843c
00000030: 9595 69bb 4016 133c 97f7 883c 27fc 153b
00000040: b5e8 2f3c c300 ae3a 3a90 eb3b ecd6 0e3b
00000050: 541c 1d3c f5c9 b13a 2a88 093b 32af 9f3c
00000060: 0202 063b 6277 9b3b 615d 013b ba74 2f3c
00000070: 16a7 113c 4987 0f3c fe46 11bc eb60 fa3a
00000080: 9c08 ee3a 36c5 123c ab30 853c d7fc 8a3b
00000090: c9bf a93b 0c41 ed3b 885c 283c 875c 213c
000000a0: 68c2 833b 93ad 393c c922 063c 31a0 97bc
000000b0: 1033 6f3b 0eac 5f3b 8e6e b33b d5e4 843b
000000c0: 9b49 9ebb 9d94 df3b c994 963c 3052 f9bb
000000d0: f83b d8ba cfb9 283c fa56 91bb 7778 fd3a
000000e0: 97e6 183c 8fec 6e3b d9cc df3b 0b0f 0b3c
000000f0: 04ea a53b 8d82 d63b 13b5 0bbb ce64 333a
00000100: 6ef3 b43b dc93 f6ba e866 363c 3477 273c
00000110: f2bc 573b 656b b339 86db 4e3c 960e 54bc
00000120: 24c4 fd3b b016 2a3c 0976 ac3b 0b79 21bb
00000130: 729c 613c ee61 443b b3bd a33c 4a96 283c
00000140: b8a0 34bc e562 363c b410 a23b b850 fabb
00000150: 8d9e 083c a4e5 b43b df59 9fbb ee31 2b3c
00000160: 287f 053c 5fcd a33b d1bc b43b 7aa4 933b
00000170: 4634 a63b ab7f 303c a79c 64ba c6a3 853c
00000180: 4950 c83b 9535 ba3b 67c8 273c 43a7 683a
00000190: 6a22 803b 373d 173c 24e7 cf39 870b efbb
000001a0: 473e 973c 7b79 a43b f5a3 543c 4cff 46bc
000001b0: 5d94 893c 6800 43bb c0fd f7ba 295d cb3a
000001c0: 541a d93a e983 a83b d863 753b 8593 fe3b
000001d0: 6fac 56bb 0e2d b63b 193b 9b3b f430 d43b
000001e0: 021a ca3b 7d76 b13a b3c4 bf3b 8eec 9b3c
000001f0: e431 693b b71d 993b 4e23 8b3b 5cc3 493c
-5.530496e-05 -0.00690994 0.0063791797 -0.006879568 -0.008529864 0.010646775 0.007541842 0.014053702
-0.004780278 0.013024657 0.007065021 0.016156869 -0.0035642136 0.008977473 0.016719623 0.002288589
0.010736634 0.0013275373 0.007188824 0.0021795584 0.0095892735 0.0013564216 0.00209857 0.01949272
0.0020447974 0.004744456 0.0019739496 0.010708982 0.008889934 0.008760282 -0.0088670235 0.001910237
0.0018160525 0.008958152 0.016258558 0.0042415666 0.0051803333 0.00724042 0.010275967 0.00984872
0.0040209778 0.011332887 0.008187004 -0.018509002 0.0036498941 0.0034129652 0.0054758256 0.004055599
-0.004830552 0.006823136 0.018381493 -0.0076086745 -0.0016497364 0.0102982065 -0.0044354172 0.001933827
0.009332321 0.0036456918 0.0068298397 0.008487473 0.005063297 0.0065463246 -0.0021317645 0.0006843329
0.005522183 -0.0018812376 0.011132933 0.010221291 0.0032919017 0.00034221556 0.012625581 -0.012942931
0.007744329 0.010381386 0.0052630943 -0.0024638798 0.01377021 0.0029965597 0.019987917 0.010289738
-0.011024646 0.011131977 0.004945839 -0.007639017 0.008338583 0.0055205394 -0.0048630084 0.010448916
0.008147992 0.0049988474 0.0055156727 0.004505691 0.0050721494 0.010772626 -0.0008720853 0.016313445
0.0061130864 0.005682657 0.010240651 0.00088750216 0.0039103525 0.009230903 0.0003965433 -0.0072950753
0.018462313 0.0050193644 0.0129785435 -0.012145828 0.016794378 -0.002975488 -0.0018920228 0.0015515435
0.0016563633 0.005142678 0.0037443545 0.0077690505 -0.0032756587 0.00555957 0.0047372696 0.006475562
0.006167651 0.001353934 0.005852306 0.019033697 0.0035582716 0.0046727317 0.004246152 0.012314644

network_body._body_endoder.seq_layers.4.weight f4 [128, 128]
00000000: 8783 84bd b47d 39bc 6f4f 9cbd c6ab 02be
00000010: 7293 0fbd 372c 3a3d 0dec 7dbe 135f 78bd
00000020: 8252 373e abb4 16be 3915 7d3d 0f4e b33d
00000030: 406e 9abd c6f1 a53c 71b7 0ebd c927 83bc
00000040: 6d32 9a3d 64c5 b33c 9510 72be eeb7 163e
00000050: c02b 22be 4e62 f03d 4981 8b3d e506 bbbb
00000060: f179 153d 8463 93bc 9bc8 2ebe 9c98 153d
00000070: 452b 103e f144 433c 894b 4aba 0e91 ac3d
00000080: bb7a 773d 14a2 1e3d 975a 05be c1a6 78bb
00000090: f873 6c3d 1036 793d 0a88 d1bd 62d3 ef3d
000000a0: 8022 9cbc 8c70 f2bd 220b 843b 7517 30bc
000000b0: 21d1 de3c 5574 253d 3cf4 0bbe 463e 08be
000000c0: 3a00 f03d 8d6d 47bd 0de9 ac3d de64 1d3d
000000d0: 8698 58bd 0bd0 0d3d 4cf1 c1bd 3cb8 233e
000000e0: 3a78 30be edc0 103e 09bf 79be 96f4 da3d
000000f0: 9894 4abe a0ca 043c 3cda c53c 2f44 893d
00000100: 86ca b9bd e63d 12be 190c 21bd 1a8e b4bc
00000110: 28be 32bd eb64 5f3c 2a20 febd 8045 1cbe
00000120: f559 013d d157 193d d6be 243d e906 2dbe
00000130: cfeb 04be 374f 1dbd 22dd b0bd 4405 2e3d
00000140: b1ca 6ebd 6f04 6d3c 03c6 af3c e62c 1c3e
00000150: d178 16bd 1c91 9ebd 9383 e33c 4613 b3bd
00000160: 301c da3d 87c8 893d 47ea 28bd 012a 9cbc
00000170: 2a85 b5bd 8a53 0b3e 8f84 d63d abe7 a63c
00000180: a163 483e f30c 1b3e fccb bcbd a009 3e3d
00000190: 3e99 38bc 2590 513b f18c d7ba 54ad bbbd
000001a0: 4691 3eba 21c2 0c3e 4b16 9dbd d609 e6bc
000001b0: 7533 6fbd 946e 8f3c 6658 44be ae30 163e
000001c0: 9c29 2c3e 1d98 86bd 8e06 3a3e ffc8 803d
000001d0: 332c 7c3d 2f57 adbc 1f9b 703d bfc1 20be
000001e0: 889a 22bd d5f6 b8bd f20d 05bd a69b d6bc
000001f0: 5a3c 0f3e 2bf0 34bd 2186 fabd 3a05 afbd
00000200: b683 193c 3a97 a0bc 52dd 853c 9dd7 da3d
00000210: fb34 38bd 160f 7cbc cd9f 173e 6b6e c43d
00000220: bb24 afbb 6325 d8bd d7e9 e23d 811d cbbd
00000230: c15a 823d 96de 70bd fa59 893c ca6b 4dbe
00000240: d9dd ab3d bf78 e73d c3e8 e33c 502a 8f3d
00000250: 66a0 16bd 1d89 bcb9 1170 7ebd 044c 56ba
00000260: 509d b0bd a2aa 373d 03b4 a5bc 3bdf 263e
00000270: 7ac6 6c3d 2bc4 dabc d4a4 6cbd e62e 11be
00000280: 42af 35bd 13e4 27bd d258 23be 0f8c b13d
00000290: 9f1f 4f3d 2961 1f3d 7c50 3f3d 4a64 c73d
000002a0: e323 f7bd ba54 113e be1e a43d 524e c0bc
000002b0: f652 dd3d 8233 9dbd 7c43 14bd 44d5 6f3d
000002c0: beaa 283d cfca 013d b7ca f73d 38b0 a03c
000002d0: def8 ccbd eb69 c33d 81a5 ddbd 6679 6e3e
000002e0: 010a 0e3d 433f 82bd a9d8 813d 53a4 27bd
000002f0: e44c ee3c c9c1 a63e 3586 80bc 2f9f 08be
00000300: ad3e 20bd 8765 07be 7697 573d cd97 1f3b
00000310: 3a7b eebb 6d98 9cbb 9c12 d8bb c984 cabd
00000320: 0d42 0abe fdca 65bd e016 f4bd 18e8 ddbd
00000330: 32bf 6dbc 9f81 a83d 755e 45bc f3ea 013c
00000340: 3e87 a13d ca35 58bc faed a73d 2ed6 193d
00000350: d58c 113c 88f4 6a3d 0bc7 c3bd 936e 4cbc
00000360: 7995 c93d 9a58 b33c 10d5 b8bd 4657 22bd
00000370: cd6b 55bc d07f cf3d a270 9bbd a660 a73a
00000380: 75ee cb3d b1ab 3b3c 5443 5d3d ca95 f93d
00000390: ac62 cdbb 82b0 26bd 12fc a8bd 8447 19be
000003a0: dd6d 0e3e ec7c 483d e8a7 643e f161 debd
000003b0: 95dc 123e 395c bbbd d3d0 003c 7e21 19be
000003c0: 7aa7 acbd e183 053c 570a 823d c6b5 2c3c
000003d0: ceb6 4fbe 58e1 4bbd fb54 933d dabf 823b
000003e0: 7bda 753d 1200 b5bc 9a05 cdbc 34f5 a6bd
000003f0: a0a1 c73d b323 e5bc 5af4 523c 696d eebd
-0.06470399 -0.011321474 -0.07632338 -0.12760839 -0.035052724 0.045452323 -0.24797077 -0.060637545
0.17902568 -0.14717357 0.061787818 0.08755123 -0.0754056 0.020256888 -0.034842912 -0.016010182
0.07529149 0.02194471 -0.23639138 0.14718601 -0.15837002 0.117375 0.068117686 -0.005707609
0.036493246 -0.017991789 -0.17068712 0.036522493 0.14079006 0.011918292 -0.0007716944 0.084261045
0.06041978 0.03872879 -0.13022839 -0.003794119 0.057727784 0.060842574 -0.102310255 0.1171024
-0.01905942 -0.11837873 0.0040296474 -0.01074778 0.02719933 0.040394146 -0.13667387 -0.13305005
0.11718793 -0.04868846 0.084428884 0.038426273 -0.052879833 0.034622233 -0.09469852 0.15988249
-0.17233363 0.14136095 -0.2438928 0.10691182 -0.19783247 0.00810495 0.024151914 0.06702458
-0.090718314 -0.14281425 -0.039318178 -0.022040416 -0.04363838 0.013634901 -0.124084786 -0.15260887
0.03157993 0.037437264 0.040221058 -0.16897167 -0.12980579 -0.038405623 -0.08635928 0.04248549
-0.05829877 0.014466389 0.021456724 0.15251502 -0.036736313 -0.07742521 0.0277727 -0.087439105
0.106499076 0.06727701 -0.04123905 -0.019062998 -0.0886329 0.13606086 0.10474502 0.02037414
0.19569255 0.15141658 -0.092185944 0.046395898 -0.011267005 0.0031976786 -0.0016445202 -0.09163919
-0.0007269572 0.1374593 -0.07670268 -0.028080862 -0.058398683 0.017508782 -0.19174346 0.14667007
0.16812748 -0.06571982 0.18166563 0.06288337 0.06156559 -0.021159736 0.058741685 -0.15698908
-0.039698154 -0.090314545 -0.032484002 -0.026197266 0.13987866 -0.044174355 -0.12232614 -0.08545919
0.009369781 -0.01960336 0.016340885 0.10685656 -0.0449724 -0.015384456 0.14807053 0.09591373
-0.005344955 -0.10554006 0.11079758 -0.09917737 0.06364966 -0.058806024 0.016766537 -0.2006065
0.083919235 0.11302327 0.02782095 0.06990492 -0.03677406 -0.00035960312 -0.062118594 -0.00081747794
-0.08623755 0.044840463 -0.020227438 0.16296093 0.05780647 -0.026704868 -0.05777438 -0.14178047
-0.044356592 -0.040988993 -0.15951851 0.08669292 0.050567266 0.03891102 0.046707615 0.097359255
-0.12067392 0.14192477 0.08013676 -0.023474846 0.10806839 -0.0767584 -0.03619717 0.058552995
0.041178457 0.031687554 0.12099212 0.019615278 -0.10008405 0.095416866 -0.10822583 0.23288497
0.03467751 -0.063597225 0.06340153 -0.040928196 0.029089399 0.3256972 -0.015688995 -0.13341974
-0.039122272 -0.13222323 0.05263468 0.0024351955 -0.0072778733 -0.0047789128 -0.0065940153 -0.09888608
-0.13501759 -0.056101788 -0.119184256 -0.10835284 -0.014510917 0.08227848 -0.012046446 0.007929551
0.078871235 -0.013196418 0.08199687 0.037557773 0.008883675 0.05736211 -0.09559449 -0.012477535
0.09842963 0.021892834 -0.090250134 -0.03963401 -0.01302619 0.101318 -0.075898424 0.0012769892
0.099575914 0.011454509 0.054019287 0.12186773 -0.006267866 -0.040695675 -0.082512036 -0.14968687
0.13909097 0.04894726 0.22329676 -0.108585246 0.14341958 -0.091484495 0.007862288 -0.14954183
-0.08430381 0.008149118 0.063496284 0.010541385 -0.20284578 -0.04977545 0.07193943 0.0039901556
0.060022812 -0.02209476 -0.025027085 -0.081522375 0.097476244 -0.027971124 0.012875641 -0.11641962

network_body._body_endoder.seq_layers.4.bias f4 [128]
00000000: 9ecd 81bb fc2b 4b3c 1c64 b6bb a863 7fba
00000010: 6f95 063c 2b33 24bb f49d 213c 7e49 da3a
00000020: 4145 e73b 4d8f d4bb 744f 133b 54be 563b
00000030: 7ec5 4d3b 6381 1fbb 3a8e 203c 3882 87bb
00000040: 2aaf 4dbb ffdb 45bb 9d3f 993b 9985 aa3b
00000050: 0145 ba3b 9a4c ff3b 8778 573c e94c 9aba
00000060: 92b7 a03b 0ca7 ceba f875 443b 7809 c13a
00000070: eb6f 673b d426 4839 5509 ef3b 8487 543b
00000080: e3df cd3b b0b2 4e3b 96bf 9f36 2722 a23b
00000090: 8b15 233b 88c7 0e3b a5f8 cc3b 83e2 cdba
000000a0: 12c9 703b 5758 bc3a 8f06 5b3b db9c 313c
000000b0: 1449 723b 0940 813b 32c8 e93b 7c6d 9e3b
000000c0: af57 ab3b 03ac 123c b275 d63a 1404 373c
000000d0: dc03 243c 0e5d 173c c9e3 1d3b 6426 d53b
000000e0: 1286 523b e3e3 743b 2a0e 13bb 684b 363c
000000f0: 47b9 403b b411 973b e110 2f3b 558d a43b
00000100: 43c4 043c 1af0 e4b7 cf55 093c 2927 d53b
00000110: ca34 20bc ce71 893b 8fa8 0b3b 532f 203a
00000120: cc25 4a3c 8388 053b cbd5 a03b 050d 53bb
00000130: 9afe 843b 25fd 9fbb 3d06 50bb b2fa 16ba
00000140: be48 0e3c 946e 3d3a d8e2 d83b 1139 9b3b
00000150: 4f7b 2d3c abbd e53b 641c e0ba bc17 c53b
00000160: d2bb cc3b 9a6e aeba 6400 c8bb 7599 933b
00000170: 22c7 88bb 14fe 333b 0386 ff39 de63 4c3b
00000180: 976a 2d39 2f99 1c3b 94e4 003c 6535 073c
00000190: 2562 6f3b 6f55 5b3c 3e93 393c 556a 6b3b
000001a0: 6d43 103c 1214 c13b 7fe5 5e3a 8755 343b
000001b0: 6963 b3ba e0e6 4dbb cb20 ffba 7f12 6fba
000001c0: dbde 1e3c 742d a33a b0da a13b ec67 b63b
000001d0: b6cb 07bb ef50 a43a 6b41 043b f66e 413b
000001e0: d00f 023c f7bb 203c f782 3dbb 9db8 243a
000001f0: 7fe5 063c 4131 853c 9426 7e3b a7be c63b
-0.003961279 0.012400623 -0.005566133 -0.0009742328 0.008214339 -0.0025054913 0.009864319 0.0016653982
0.0070578163 -0.0064868093 0.0022477778 0.0032767253 0.0031398232 -0.0024338595 0.009799534 -0.0041353963
-0.0031384923 -0.0030190942 0.0046767727 0.0052039144 0.0056844954 0.007791114 0.013151295 -0.0011772189
0.004904696 -0.0015766337 0.0029977541 0.0014727553 0.003531451 0.00019087951 0.0072948136 0.0032429406
0.006282793 0.0031539612 4.760873e-06 0.004947919 0.0024884667 0.002178641 0.0062552267 -0.0015707765
0.003674094 0.0014369589 0.0033420657 0.01084062 0.0036969827 0.003944401 0.007134461 0.004834829
0.0052289586 0.008952144 0.001636198 0.011170406 0.010010686 0.009238495 0.002409207 0.0065048207
0.003212337 0.0037367276 -0.0022438862 0.011126377 0.002940731 0.0046102647 0.0026712941 0.005021731
0.008103433 -2.7291524e-05 0.008382275 0.0065049124 -0.009778211 0.004194475 0.0021310186 0.00061105675
0.012338113 0.0020375557 0.0049082986 -0.0032203805 0.004058671 -0.004882472 -0.0031742 -0.00057594024
0.008684335 0.0007226255 0.0066188388 0.0047370275 0.010588481 0.0070111356 -0.0017098305 0.0060147922
0.006247976 -0.0013308108 -0.006103562 0.0045043775 -0.004174129 0.0027464675 0.00048737237 0.0031187455
0.00016538273 0.0023895015 0.007866997 0.008252476 0.0036527005 0.013387068 0.011326609 0.0035921533
0.008805138 0.005892285 0.00085028255 0.0027516799 -0.0013686243 -0.003141813 -0.0019464729 -0.00091198826
0.009696688 0.0012449459 0.0049393997 0.0055665877 -0.0020720786 0.0012536327 0.0020180594 0.00295156
0.00793834 0.009810439 -0.0028917172 0.0006283613 0.008233427 0.016258838 0.0038780319 0.006065208

action_model._continuous_distribution.log_sigma f4 [1, 4]
00000000: 199b 1b3c c485 e03c f844 2b3c 4079 30bc
0.009497427 0.027407534 0.010453455 -0.010771096

action_model._continuous_distribution.mu.weight f4 [4, 128]
00000000: e35f 4ebb 205a 77bd 3c3d dc3c 67df aebc
00000010: b87a ce3d 33f5 83bc 4b9c a53c 0aca 8e3c
00000020: 4551 1cbd b846 a73c 1a5a b8bc 8562 01bd
00000030: 72be 8bbc d1e8 773c c65f 3bbd b055 d3bb
00000040: 2b86 29bc 9aad a6bc 9a4b 6ebb 1c44 713c
00000050: 3cb1 0dbd 6310 44bd f9e9 4ebd a9d6 ca3b
00000060: 851e 47bc 236f 443c 099d d9bc 42ec 323d
00000070: dbf8 29bc 5c05 c53c 8c3b 41bd 83f0 b03c
00000080: 49c2 863c 81a2 193b 21ae fd3c ebd3 e43c
00000090: 2dfb fa3b 3507 7abc ea7b 07bd a94d e13c
000000a0: 4689 1a3a c061 2e3d 60c8 033d 2346 25bd
000000b0: f617 edbc 2c0e 2f3c c27c 63bd 6522 6abc
000000c0: 085d a83c 705d 82bc 396a fa3c 6c2c 15bd
000000d0: 24fa 54bd c235 333d 5050 323d 78f8 023d
000000e0: 9ec0 893b 97eb d33b 08d0 d23c 1730 79bd
000000f0: e21d 813c 3bb5 87bc 56bb 0e3d a97a 123d
00000100: 2073 3dbd e075 8abc 7b63 1ebd bfc9 0d3d
00000110: 191c 2b3c 7bf4 00bd 1ace c53c 889f a63c
00000120: 5a89 c3bc 4a79 8d3c 76e7 10bd ec82 ce3a
00000130: 9ee6 1b3d 3c45 a43c dfb9 da3c c0e8 4bba
00000140: 2872 b3bd 87ef 9c3d 58a8 363d 5950 133c
00000150: 2e4e 7fbc d743 21bd 6a4f 73bb 9b32 273d
00000160: a830 27bd 718b cebb 4d43 923b 1e2d b53c
00000170: b0ad e33c 789d 34bc af57 9fbc 556a 913c
00000180: 9cd5 fabb 9738 18bd 2666 19bd 2296 43bd
00000190: 4a9c d03c 0c56 a8ba 5331 a1bc 6c81 c53c
000001a0: 2410 d3bc dc10 f4bc b423 423d 8d5c a73c
000001b0: dbe8 69bc 4ba9 e6bb 395d 0f3c 92b2 0d3d
000001c0: 3084 03bd 4eb6 0d3d 2bdf 01bd 68a1 4c3d
000001d0: 0ac9 503d 7764 4ebb 2e76 c4bc 9c8c 583c
000001e0: 213c 0d3b 7bdb 103d 762e 4a3d 4879 10bc
000001f0: 3710 aabc 6d78 b1bc 309c 0cbd a75b ad3c
00000200: f40a 2abc bfb2 d33c 4800 9abc 1cbd 9a3c
00000210: b7b8 afba 7a40 b73c ad18 113c 2fda 353c
00000220: 1e1e cfbc ea3b 44bd 8855 84bb 6670 3a3c
00000230: d7cf 37bb 2ed9 083c ec76 673c 0953 463b
00000240: 5fb3 213c c70b 90ba b141 e93c aef8 c7bb
00000250: 2172 5cbb 2217 2fbc 69e4 ec3c 5492 0c3c
00000260: 0cfe d53c 6794 91bc 2b0b 8c3c e433 473c
00000270: cf5f 1e3d 59f5 993c bf99 513d c391 58bc
00000280: c2ef b8bc ca6e 093c 4fe5 3e3b 9a99 ea3b
00000290: 1c5a 86bc a79c d33b daa2 0e3c 4078 5abc
000002a0: d043 7ebc e484 2bbc b249 06bd a2fa 123d
000002b0: 5ff4 f73c c4ce 8dbb d6fe 45bc b3bc f23c
000002c0: c641 5a3c 552c af3c 6090 4a37 9c35 67bc
000002d0: 93ca 813c 84db 6fbc 6d00 933c d289 863b
000002e0: f951 3ebc 7d20 023c 36bc 96bc 6f0d 29bb
000002f0: 30dd d8bb 72fe 633c 8350 f13b a75d f9bc
00000300: 2472 9cbc a2b9 2abd 837c dd3a 599c 743c
00000310: 76a2 893c 0256 ea3c 578e 16bd 891a 2dbb
00000320: d0d9 c43c 68da 92bb bea9 4abc 88d9 023c
00000330: 7ee5 313a 9326 39bd 36d0 123d 7f77 ce3b
00000340: d981 44bc 192a 80bc 7657 9d3b dbe3 fb3c
00000350: 1b30 293d 45a6 adbc a703 3abb 26f1 cc3c
00000360: 632a 383c 2be0 54bc 536a 023c e33d 8ebc
00000370: 9aa9 723a 22c0 ee3b 1fc3 963c 369d 0abd
00000380: 3ab0 343b 5de3 acbb aad0 483c 82fd b43c
00000390: 9e59 a4bc d295 ba3c ef98 a8bc 28c1 febb
000003a0: 5254 4abd 2c39 cc3b 8588 a2bb d493 9fbc
000003b0: 2eb2 c5bb 2348 493c 4cb7 4abd 5ab3 dbbb
000003c0: fd65 aa3c d59e d83a dcab fabc 342a bd3c
000003d0: 6a03 2abc 7b38 513c dc00 a03b 55da 48bb
000003e0: b405 393c fd21 24bc feb3 aebb 4fcf c43c
000003f0: a989 293d dccf 28bc 0c15 6a3b 5b47 e43c
-0.0031490258 -0.060388684 0.026884668 -0.02134676 0.100820005 -0.016108131 0.020216128 0.017430324
-0.038163442 0.020419464 -0.022503901 -0.031588096 -0.017058585 0.015131191 -0.045745634 -0.0064494237
-0.01034693 -0.020346452 -0.003636098 0.014725711 -0.034592852 -0.04786719 -0.050516102 0.0061901403
-0.0121532725 0.011989388 -0.026564138 0.043682344 -0.010374273 0.024050407 -0.04717593 0.02159906
0.016450064 0.0023442807 0.03096682 0.027933082 0.007659337 -0.015260507 -0.033077158 0.027502852
0.0005895089 0.04257369 0.032173514 -0.04035009 -0.02894209 0.010684531 -0.0555389 -0.014290427
0.020552173 -0.015913695 0.030568229 -0.036419317 -0.051996365 0.04375244 0.043533623 0.03197524
0.00420387 0.0064672935 0.025733963 -0.060836878 0.01576132 -0.01656591 0.034846626 0.03576151
-0.04625237 -0.01690191 -0.03866909 0.03461623 0.010443711 -0.031483155 0.024146128 0.020339742
-0.023869205 0.01726975 -0.03537699 0.001575557 0.03806173 0.020052545 0.026699958 -0.0007778518
-0.08762008 0.07662874 0.04459414 0.008991324 -0.015582604 -0.039371338 -0.0037126192 0.040819746
-0.040817887 -0.006303244 0.0044635893 0.02211624 0.027792782 -0.011023872 -0.01945099 0.017750898
-0.0076548588 -0.037163343 -0.037450932 -0.0477506 0.02546515 -0.0012843027 -0.01967684 0.024109565
-0.025764532 -0.029793195 0.04739733 0.020429874 -0.0142767085 -0.0070392243 0.008750253 0.034594126
-0.032108486 0.034597687 -0.03170697 0.049958616 0.050972976 -0.0031492987 -0.023982134 0.013217118
0.0021550732 0.035365563 0.049360715 -0.008817978 -0.020759685 -0.021663869 -0.03432864 0.021161867
-0.010378588 0.025842069 -0.018798962 0.018889003 -0.001340649 0.022369612 0.008855981 0.011099382
-0.025282916 -0.0479087 -0.0040385164 0.011379337 -0.0028047466 0.008352561 0.014127474 0.0030261895
0.009869426 -0.0010989838 0.028473707 -0.006102643 -0.0033637362 -0.010686668 0.028917508 0.008579809
0.026122116 -0.017770959 0.017095169 0.012158368 0.03866559 0.018793749 0.051172014 -0.013218346
-0.022575263 0.008388231 0.0029128378 0.007159424 -0.01640039 0.0064578834 0.008705819 -0.013334334
-0.015519097 -0.010468695 -0.032785125 0.035883553 0.030267892 -0.004327627 -0.012084683 0.029630994
0.013321346 0.021383444 1.2073753e-05 -0.014111903 0.015843665 -0.014639739 0.017944539 0.004105785
-0.0116162235 0.007942316 -0.018400293 -0.002579536 -0.0066181645 0.013915645 0.007364334 -0.030440165
-0.019097395 -0.04168094 0.0016898069 0.014929854 0.0168011 0.028605465 -0.03675684 -0.0026413521
0.024029642 -0.0044816025 -0.012369571 0.007986434 0.0006786211 -0.045202803 0.035843097 0.006300866
-0.011993849 -0.015645074 0.004801686 0.030748298 0.041305643 -0.021197448 -0.0028383525 0.025017332
0.0112405745 -0.012992899 0.00795992 -0.017363494 0.000925684 0.0072860876 0.018403588 -0.033841334
0.002757086 -0.0052761273 0.012256781 0.022093538 -0.020062264 0.022776518 -0.020580737 -0.007774491
-0.04939682 0.0062324014 -0.004960122 -0.01947967 -0.0060332036 0.012285265 -0.04949121 -0.00670473
0.020800585 0.0016526828 -0.030599527 0.023091413 -0.010376791 0.012769814 0.004882915 -0.0030647714
0.011292864 -0.010017869 -0.0053315153 0.024024634 0.04139105 -0.010303464 0.0035718111 0.027866056

action_model._continuous_distribution.mu.bias f4 [4]
00000000: 5770 dbbb 77a3 893b 1a97 86bb 4971 ed3a
-0.0066967416 0.0042003947 -0.004107368 0.0018115427
